run/0.99-2.5-128-0.00005/PatchTST-best.pth (torch, 135899 bytes, 71 tensors)

class_weights f4 [5]
1.0 1.0 1.0 1.0 1.0
00000000: 0000 803f 0000 803f 0000 803f 0000 803f
00000010: 0000 803f

model_trend.revin_layer.affine_weight f4 [3]
0.6860347 1.4056904 0.91311526
00000000: f89f 2f3f aaed b33f ecc1 693f

model_trend.revin_layer.affine_bias f4 [3]
-0.029138051 0.027629655 0.04016119
00000000: ecb2 eebc 9657 e23c 0f80 243d

model_trend.backbone.W_pos f4 [3, 32]
0.0040064775 0.022698637 -0.0005891788 -0.017031685 -0.016417937 -0.028251044 0.008865578 0.008486491
-0.009501735 -0.010612631 -0.015514852 0.024996111 -0.005540257 -0.030951161 0.018749826 0.013057992
0.0069580367 -0.0054088314 -0.013749527 -0.0021162452 0.0043427115 0.013992269 -0.0051018074 0.0063086194
0.0012056024 0.004533176 -0.0030699093 -0.0075736973 -0.0035255163 0.04360048 -0.025612054 -0.00045502489
0.013397982 -0.025123047 -0.03694917 0.029216925 0.011492255 -0.0022148243 0.020793024 0.010826638
-0.0035233332 0.013687612 0.0069557307 -0.002875295 0.0022462828 -0.004234438 -0.015409838 0.01480158
0.012654768 -0.0026495194 0.008843267 0.011680424 0.0137947835 0.007878052 -0.025023913 -0.0024420372
0.004907733 0.0032185565 -0.011334387 0.030038476 0.036008906 -0.019037854 0.03271356 -0.010748414
-0.016397094 0.0046504964 0.0035616092 0.0013473796 -0.012430407 0.013852175 -0.006623672 -0.0004783307
0.008088765 -0.007950684 0.011823093 -0.0021529037 0.0014594266 0.01117897 -0.0034233762 0.0065784133
-0.0025593915 -0.0041351425 0.000377062 -0.010534858 -0.0013931005 0.005354762 0.01669491 -0.01964332
0.007466761 -0.013183888 0.006250935 -0.022186477 -0.06524099 -0.024242448 0.012336177 0.0061550806
00000000: c548 833b 7ef2 b93c 1f73 1aba 0886 8bbc
00000010: e97e 86bc bc6e e7bc ee40 113c ec0a 0b3c
00000020: 2aad 1bbc 9ae0 2dbc 0132 7ebc a5c4 cc3c
00000030: 0b8b b5bb 4a8d fdbc 3c99 993c 30f1 553c
00000040: 3e00 e43b 913c b1bb b245 61bc b4b0 0abb
00000050: 4e4d 8e3b d43f 653c 102d a7bb 89b8 ce3b
00000060: 4e05 9e3a 098b 943b 8830 49bb c72c f8bb
00000070: 590c 67bb 6b96 323d 5fd0 d1bc 6890 eeb9
00000080: 3683 5b3c d9ce cdbc 0358 17bd 5558 ef3c
00000090: 034a 3c3c 9626 11bb 2256 aa3c 3662 313c
000000a0: b9e7 66bb 0142 603c e6ec e33b 726f 3cbb
000000b0: 5f36 133b 0ac1 8abb 8c79 7cbc 5482 723c
000000c0: f255 4f3c 8fa3 2dbb 5ae3 103c 405f 3f3c
000000d0: 8403 623c f212 013c f3fe ccbc 960a 20bb
000000e0: 0cd1 a03b 6bee 523b ddb3 39bc 4013 f63c
000000f0: 137e 133d 46f5 9bbc a7fe 053d 1e1a 30bc
00000100: 3353 86bc 3163 983b e369 693b 8f9a b03a
00000110: e8a8 4bbc 3cf4 623c 630b d9bb 76c8 fab9
00000120: bd86 043c 9643 02bc a5b5 413c bb17 0dbb
00000130: 3b4a bf3a 0028 373c b95a 60bb bb8f d73b
00000140: 77bb 27bb 1780 87bb 68b0 c539 669a 2cbc
00000150: b298 b6ba 0077 af3b c4c3 883c 07eb a0bc
00000160: bbab f43b 3c01 58bc a5d4 cc3b 6ac0 b5bc
00000170: 119d 85bd 1998 c6bc ad1d 4a3c 8fb0 c93b

model_trend.backbone.W_P.weight f4 [32, 25]
0.008729012 0.0064980313 0.0061882003 -0.000930044 0.057608843 0.020746263 -0.002492593 -0.0006092838
0.06368589 0.049967498 0.046687305 0.03882458 -0.00325771 0.016121188 -0.007408661 -0.058135048
-0.0064010583 0.019856934 0.062054746 0.039782938 -5.899748e-05 0.0025176154 -0.00067276275 -0.0089527285
-0.028236562 0.065970935 0.077741496 0.04319215 0.015180709 -0.013379709 0.012087505 0.042050567
0.04014997 0.032307472 0.015791409 -0.0035511334 -0.0039141783 -0.014268426 -0.015559697 -0.00012747204
0.026582342 -0.012068245 -0.019574879 -0.03772467 -0.019446407 -0.019692717 -0.0053930795 0.0018979282
-0.0013598981 0.012890468 0.022898179 -0.07348161 -0.08969539 -0.052373186 -0.002918541 0.03867894
0.033054665 0.050964784 0.03660635 0.0199432 0.040584367 0.009387072 -0.028654784 -0.0075465003
-0.00321696 -0.027036259 -0.0072139245 -0.016396765 -0.016609937 -0.028974429 -0.04422193 -0.019519925
0.0127235325 -0.0011634353 0.009501323 -0.022449592 0.019968782 0.037489507 0.018887566 -0.023945337
-0.031301335 -0.0020770265 0.010439256 0.009237209 -0.025301998 -0.086138286 -0.07868569 -0.020446837
-0.007490356 -0.033348385 -0.016119638 -0.010273115 0.014272142 0.052378424 0.040142633 0.032776143
-0.007370138 -0.0057503646 -0.0049707107 0.00050499087 0.02983477 -0.004474477 -0.04280102 -0.032639932
-0.0002891991 0.047947757 0.047315862 0.013747705 -0.041230533 -0.051105257 -0.029963316 -0.029864525
-0.056947436 -0.063814044 -0.045002066 -0.004658926 0.015521573 0.055561673 0.04255675 0.026613655
0.02908389 -0.0046508946 -0.011587421 -0.03743939 -0.0016247928 -0.10753262 -0.06808057 -0.01043034
0.02045699 0.04175274 0.0044207326 0.0129199745 0.0035604767 -0.0042508165 -0.027000023 -0.033709124
-0.045621056 -0.036416296 -0.015747087 -0.0045406106 0.01780488 0.04601641 0.026861392 0.03260328
-0.006302966 -0.030299006 -0.047793392 -0.008738216 0.009152609 0.027212745 -0.014203416 0.0069082384
0.0042990935 -0.00751481 -0.017062921 -0.018229669 -0.028110571 -0.05460162 -0.071655504 -0.029840345
-0.02033679 0.038813945 0.07053681 0.045511007 0.06313781 0.04563892 0.009494095 -0.00038518617
0.022186395 0.02457275 -0.008291934 -0.022333384 -0.019736499 -0.01323635 -0.01687883 0.010302924
0.0016816038 0.011416113 0.02413503 -0.015183417 -0.03463551 0.034679897 0.03275846 0.044878207
-0.02712321 0.023235021 0.008173363 0.0070923395 0.011979611 -0.023657577 -0.053514503 0.004882324
0.1101128 0.05338518 -0.028647922 -0.043059133 -0.0045014424 0.015906055 -0.019459298 -0.039448883
0.0065668025 0.0054514245 -0.0034402364 -0.003727773 0.0076854313 0.043644805 0.033401296 0.057107095
0.018810341 0.014546395 2.7714275e-05 0.0105317645 -0.0013645403 -0.020202123 0.043680128 0.06915618
0.048079457 0.01437136 -0.023919873 -0.008345894 0.0065069366 -0.0063532246 -0.017028118 -0.011161698
-0.020196665 -0.11462053 -0.072641656 -0.020419093 -0.0063767084 0.033028338 0.028524458 -0.002864147
0.014237377 -0.0061963275 -0.0513435 -0.02208335 -0.01693626 0.007583631 0.04393731 0.06272779
0.015519594 0.008053518 0.005250481 0.030978594 0.0298 -0.041320417 -0.054511186 -0.028655812
-0.009074026 0.016730612 -0.066159025 -0.067266025 -0.027413333 -0.034985848 -0.04341966 -0.017880052
00000000: 2104 0f3c 70ed d43b 63c6 ca3b 32ce 73ba
00000010: 40f7 6b3d 11f4 a93c c55a 23bb 58b8 1fba
00000020: bf6d 823d b8aa 4c3d 303b 3f3d 8606 1f3d
00000030: 4e7f 55bb 9510 843c 5ac4 f2bb 041f 6ebd
00000040: f8bf d1bb 02ab a23c 1e2d 7e3d 6ff3 223d
00000050: 1074 77b8 94fe 243b 585c 30ba 77ae 12bc
00000060: 5d50 e7bc c51b 873d ef36 9f3d 40ea 303d
00000070: 82b8 783c 9136 5bbc ac0a 463c 373d 2c3d
00000080: 4c74 243d d754 043d fc5c 813c 22ba 68bb
00000090: 8242 80bb 1ec6 69bc 19ee 7ebc 04aa 05b9
000000a0: 36c3 d93c e3b9 45bc 7f5b a0bc 2f85 1abd
000000b0: 124e 9fbc 9f52 a1bc 6eb8 b0bb e7c3 f83a
000000c0: 9c3e b2ba 8b32 533c f694 bb3c 877d 96bd
000000d0: 37b2 b7bd 4485 56bd fe44 3fbb cf6d 1e3d
000000e0: 5464 073d 73c0 503d 8af0 153d ec5f a33c
000000f0: cb3b 263d 3ccc 193c 70bd eabc a248 f7bb
00000100: a2d3 52bb 257b ddbc c962 ecbb 8252 86bc
00000110: 9011 88bc c85b edbc 0e22 35bd 40e8 9fbc
00000120: 5d76 503c 697e 98ba 70ab 1b3c 35e8 b7bc
00000130: 9295 a33c 998e 193d 19ba 9a3c 0329 c4bc
00000140: d435 00bd b91e 08bb 6a09 2b3c aa57 173c
00000150: 2346 cfbc 4569 b0bd f725 a1bd 2080 a7bc
00000160: a971 f5bb 5198 08bd 550d 84bc 9150 28bc
00000170: b4d5 693c c28a 563d 9a6c 243d 4740 063d
00000180: 3381 f1bb 8e6d bcbb 58e1 a2bb 5d61 043a
00000190: 0c68 f43c a29e 92bb 1f50 2fbd 73b1 05bd
000001a0: a59f 97b9 de64 443d 47ce 413d 0e3e 613c
000001b0: 59e1 28bd bf53 51bd a175 f5bc 73a6 f4bc
000001c0: b741 69bd f0b0 82bd 1654 38bd e7a9 98bb
000001d0: 324e 7e3c a394 633d fd4f 2e3d e104 da3c
000001e0: 5741 ee3c 8866 98bb 2bd9 3dbc 0c5a 19bd
000001f0: 00f7 d4ba 103a dcbd d36d 8bbd 04e4 2abc
00000200: 6b95 a73c ec04 2b3d cbdb 903b 4dae 533c
00000210: e356 693b 6f4a 8bbb 272f ddbc 9412 0abd
00000220: 25dd 3abd 4129 15bd 0900 81bc 67c9 94bb
00000230: 8adb 913c b47b 3c3d 6c0c dc3c 048b 053d
00000240: 1c89 cebb 9f35 f8bc 01c3 43bd bc2a 0fbc
00000250: d3f4 153c 43ed de3c 72b5 68bc 815e e23b
00000260: 69df 8c3b cc3e f6bb 8ac7 8bbc 6356 95bc
00000270: 2448 e6bc f3a5 5fbd 1fc0 92bd bd73 f4bc
00000280: 5799 a6bc 5ffb 1e3d 9a75 903d c069 3a3d
00000290: 654e 813d e0ef 3a3d 1f8d 1b3c d0f2 c9b9
000002a0: 3ec0 b53c cb4c c93c e4da 07bc 80f4 b6bc
000002b0: 70ae a1bc 47dd 58bc 7945 8abc 98cd 283c
000002c0: 4369 dc3a a60a 3b3c d4b6 c53c dec3 78bc
000002d0: f7dd 0dbd 820c 0e3d bc2d 063d 36d2 373d
000002e0: 7e31 debc 5f57 be3c 92e9 053c db66 e83b
000002f0: 2146 443c 89cd c1bc 0632 5bbd e7fb 9f3b
00000300: d282 e13d 6baa 5a3d 0caf eabc c65e 30bd
00000310: d680 93bb 6a4d 823c 1b69 9fbc 2795 21bd
00000320: 552e d73b dda1 b23b 9775 61bb a74d 74bb
00000330: 12d6 fb3b e5c4 323d cccf 083d 21e9 693d
00000340: 2518 9a3c 0154 6e3c f47b e837 6c8d 2c3c
00000350: 60da b2ba ec7e a5bc efe9 323d c1a1 8d3d
00000360: f7ee 443d da75 6b3c 9cf3 c3bc 37bd 08bc
00000370: 2438 d53b b62e d0bb 8d7e 8bbc 8edf 36bc
00000380: 7a73 a5bc 2bbe eabd 26c5 94bd f145 a7bc
00000390: b5f3 d0bb b948 073d 20ac e93c 6ab4 3bbb
000003a0: e343 693c 900a cbbb 904d 52bd 24e8 b4bc
000003b0: e9bd 8abc 1c80 f83b 9cf7 333d 6d77 803d
000003c0: e545 7e3c e7f2 033c 3a0c ac3b d2c6 fd3c
000003d0: 211f f43c 993f 29bd 1f47 5fbd 98bf eabc
000003e0: 39ab 14bc a30e 893c 627e 87bd c5c2 89bd
000003f0: ed91 e0bc 524d 0fbd d0d8 31bd 3079 92bc

model_trend.backbone.W_P.bias f4 [32]
-0.00808926 0.006532552 -0.019143978 -0.013171219 -0.004631499 -0.011682449 0.0104505345 -0.0029365267
-0.003927649 -0.021785768 0.001293731 0.0019734805 -0.0056866514 -0.0010632665 -0.031754795 0.015627801
-0.0072715343 0.00038101262 0.0037441638 -0.012867668 0.00828354 0.0029660272 -0.021877555 -0.025153417
-0.014971418 0.00676174 -0.011499363 -0.013010635 -0.016005998 0.013250074 -0.006096314 -0.030677631
00000000: d188 04bc 050f d63b d5d3 9cbc 19cc 57bc
00000010: d4c3 97bb be67 3fbc b838 2b3c be72 40bb
00000020: 82b3 80bb 1178 b2bc 6992 a93a 8255 013b
00000030: 1757 babb 4e5d 8bba 5111 02bd e005 803c
00000040: 0d46 eebb a6c2 c739 a560 753b e9d2 52bc
00000050: afb7 073c ae61 423b 8f38 b3bc 8a0e cebc
00000060: ae4a 75bc 9691 dd3b d367 3cbc 8f2a 55bc
00000070: 031f 83bc d716 593c 97c3 c7bb a84f fbbc

model_trend.backbone.encoder.layers.0.self_attn.W_Q.weight f4 [32, 32]
0.19627656 -0.110658094 -0.0064897463 -0.27305096 -0.07914478 -0.018390339 0.060719326 0.02785941
-0.066934146 0.27688566 0.14751063 -0.1435937 -0.083107546 0.1433154 0.12570986 -0.1491174
-0.093115404 0.15686612 0.04746111 -0.16706157 -0.06566857 -0.27607742 -0.26654986 0.13533066
-0.07502265 -0.16972642 0.08182646 -0.028555809 0.24599062 -0.14855297 -0.25523815 -0.05081129
-0.16679023 0.055845976 0.021501042 0.23676257 0.10573846 0.079527244 -0.08938111 -0.0099553345
0.02933518 -0.2069469 -0.08562796 0.1453961 0.07573458 -0.05025063 -0.06604206 0.14110541
0.09932325 -0.21716398 -0.053606153 0.1668773 0.08075794 0.21432528 0.18151268 -0.13349816
0.02671967 0.12803616 -0.051256936 0.06811991 -0.19629826 0.113148406 0.18864562 -0.006977257
0.16665438 -0.040759023 -0.006532672 -0.23815712 -0.07464426 -0.08264533 0.06420253 0.017113594
-0.03253104 0.18868244 0.082045026 -0.14963908 -0.06706009 0.06474054 0.05431602 -0.1366609
-0.09402059 0.19476688 0.05034257 -0.173768 -0.09421247 -0.19399771 -0.1815029 0.1362807
-0.05111625 -0.15393043 0.051359747 -0.065886855 0.17671289 -0.09046405 -0.17516294 0.001533132
-0.1657954 -0.004637174 0.006638451 0.23901439 0.076739185 0.10418146 -0.06009179 -0.020485032
0.007124723 -0.1470233 -0.043475587 0.13179553 0.082397364 -0.014939873 -0.028391782 0.15534927
0.11720618 -0.22423513 -0.052352294 0.17697807 0.11141916 0.16238558 0.121233866 -0.124943785
0.057713684 0.13816443 -0.03359626 0.07478717 -0.14871684 0.06223719 0.14423716 -0.021718765
-0.18695079 0.10887377 0.017379863 0.27701104 0.09950228 0.044236034 -0.06905057 -0.019253982
0.07338526 -0.2685134 -0.13528568 0.13610028 0.07073423 -0.123649634 -0.108351395 0.1485404
0.08579385 -0.1737352 -0.056247372 0.16193141 0.06277155 0.2671637 0.25918746 -0.13914256
0.057970643 0.14348355 -0.07455055 0.043975513 -0.22900766 0.15064393 0.24490096 0.032966163
-0.18272942 0.11522648 0.011112236 0.28737944 0.10669113 0.029610844 -0.06772711 -0.014988004
0.062472474 -0.27521804 -0.14498064 0.13918921 0.069016 -0.13545682 -0.1234335 0.13553558
0.082656845 -0.14710042 -0.054614317 0.16011 0.054656178 0.26742786 0.267686 -0.12734075
0.061455563 0.14632021 -0.07801762 0.033726662 -0.239937 0.14378186 0.24915323 0.0318642
0.17480412 -0.07287675 -0.027748292 -0.264558 -0.10293144 -0.06368307 0.10486457 0.011517902
-0.05345973 0.23220561 0.10510509 -0.14595874 -0.082351744 0.08920935 0.09238382 -0.15989116
-0.102588534 0.1867739 0.040692735 -0.16915408 -0.08328386 -0.24257028 -0.21484661 0.13231204
-0.046832986 -0.12258937 0.06086866 -0.05673758 0.19608034 -0.13030742 -0.21442904 -0.018704481
0.1920788 0.027743187 -0.031878497 -0.21568306 -0.10890546 -0.15109527 0.0759324 0.04463066
0.01208083 0.10236236 0.022268917 -0.1353986 -0.10159612 0.018554535 0.019665062 -0.19897321
-0.12881225 0.23898353 0.025364619 -0.18143879 -0.15235081 -0.13097581 -0.07820732 0.1453175
-0.09724268 -0.12334483 -0.0011015548 -0.07003743 0.13851146 -0.03336309 -0.13564676 0.06938906
00000000: b9fc 483e b6a0 e2bd f0a7 d4bb 56cd 8bbe
00000010: a916 a2bd 56a7 96bc d4b4 783d 6b39 e43c
00000020: c514 89bd f5c3 8d3e 070d 173e 3a0a 13be
00000030: 4a34 aabd 46c1 123e 16ba 003e 3bb2 18be
00000040: 4ab3 bebd 83a1 203e 9566 423d 3012 2bbe
00000050: 3e7d 86bd 055a 8dbe 3979 88be 1f94 0a3e
00000060: 7aa5 99bd c3cc 2dbe a294 a73d dfed e9bc
00000070: f7e4 7b3e 451e 18be 93ae 82be 801f 50bd
00000080: 0fcb 2abe c0be 643d f422 b03c e371 723e
00000090: 688d d83d 2edf a23d 720d b7bd b31b 23bc
000000a0: 5550 f03c e3e9 53be b65d afbd b7e2 143e
000000b0: bb1a 9b3d 9bd3 4dbd 0f41 87bd f07d 103e
000000c0: fd69 cb3d 3c60 5ebe 2092 5bbd e2e1 2a3e
000000d0: 6b64 a53d 1678 5b3e 76de 393e beb3 08be
000000e0: 36e3 da3c e91b 033e cbf2 51bd 7482 8b3d
000000f0: 6902 49be 5aba e73d 512c 413e 79a1 e4bb
00000100: 72a7 2a3e eff2 26bd 0610 d6bb 76df 73be
00000110: 17df 98bd f441 a9bd 9e7c 833d cf31 8c3c
00000120: 453f 05bd f835 413e 3907 a83d fd3a 19be
00000130: cd56 89bd b096 843d 7a7a 5e3d d6f0 0bbe
00000140: de8d c0bd f870 473e 0334 4e3d 3df0 31be
00000150: 78f2 c0bd 56a7 46be e5db 39be 2b8d 0b3e
00000160: 465f 51bd f09f 1dbe 995e 523d b0ef 86bd
00000170: 39f4 343e 3745 b9bd ea5d 33be 60f3 c83a
00000180: 45c6 29be 6ff3 97bb 5d87 d93b 30c0 743e
00000190: 6f29 9d3d 175d d53d cf22 76bd 3ad0 a7bc
000001a0: 8276 e93b 478d 16be 7513 32bd 68f5 063e
000001b0: f3bf a83d 5ec6 74bc e295 e8bc e113 1f3e
000001c0: cb09 f03d e59d 65be 5c6f 56bd bd39 353e
000001d0: bb2f e43d 6848 263e 7649 f83d 87e2 ffbd
000001e0: 2f65 6c3d fa7a 0d3e 3b9c 09bd 042a 993d
000001f0: 3a49 18be 6cec 7e3d e8b2 133e 8deb b1bc
00000200: 0770 3fbe 36f9 de3d 3760 8e3c 64d4 8d3e
00000210: dac7 cb3d d830 353d 636a 8dbd 87ba 9dbc
00000220: 034b 963d 977a 89be 5488 0abe df5d 0b3e
00000230: 1cdd 903d 053c fdbd 56e7 ddbd fa1a 183e
00000240: b0b4 af3d a4e7 31be a563 66bd 59d1 253e
00000250: 5f8e 803d aec9 883e 38b4 843e 637b 0ebe
00000260: a072 6d3d 5aed 123e f5ad 98bd ab1f 343d
00000270: fc80 6abe 6742 1a3e 51c7 7a3e 8707 073d
00000280: 6c1d 3bbe dcfb eb3d 1910 363c 6623 933e
00000290: e180 da3d 7192 f23c 83b4 8abd 3f90 75bc
000002a0: 23e3 7f3d 61e9 8cbe ce75 14be 9e87 0e3e
000002b0: 4358 8d3d 31b5 0abe b4ca fcbd d7c9 0a3e
000002c0: fe47 a93d 7ea1 16be 43b3 5fbd e0f3 233e
000002d0: 28df 5f3d 4eec 883e 240e 893e 9d65 02be
000002e0: d4b8 7b3d f7d4 153e b4c7 9fbd f824 0a3d
000002f0: 0cb2 75be 8d3b 133e 0622 7f3e 0984 023d
00000300: daff 323e 6840 95bd 6350 e3bc 2574 87be
00000310: b8cd d2bd 456c 82bd 3cc3 d63d 95b5 3c3c
00000320: 97f8 5abd 4fc7 6d3e 5641 d73d 3576 15be
00000330: 08a8 a8bd 64b3 b63d ba33 bd3d 82ba 23be
00000340: f019 d2bd a841 3f3e 6dad 263d ba36 2dbe
00000350: ba90 aabd 5864 78be c000 5cbe cf7c 073e
00000360: f2d3 3fbd 2310 fbbd 6b51 793d aa65 68bd
00000370: 49c9 483e 4f6f 05be 4993 5bbe 243a 99bc
00000380: 4eb0 443e ae45 e33c 0793 02bd 05dc 5cbe
00000390: d309 dfbd b8b8 1abe 7282 9b3d a4ce 363d
000003a0: acee 453c 5ba3 d13d 4e6d b63c eea5 0abe
000003b0: a011 d0bd aeff 973c a018 a13c a2bf 4bbe
000003c0: 5ce7 03be 19b8 743e 76c9 cf3c 17cb 39be
000003d0: da01 1cbe 861e 06be 292b a0bd 1cce 143e
000003e0: 2c27 c7bd 379c fcbd 0c62 90ba c96f 8fbd
000003f0: f3d5 0d3e bca7 08bd fce6 0abe da1b 8e3d

model_trend.backbone.encoder.layers.0.self_attn.W_Q.bias f4 [32]
0.11991825 -0.07130607 0.10374792 -0.082053594 -0.100982875 -0.09777051 0.08984532 0.06136432
0.10423835 -0.10306383 -0.07543512 -0.085052736 -0.09123279 0.08642025 -0.07993443 0.10173603
-0.016123489 -0.053280637 -0.05799182 0.032257892 -0.002230697 0.036558196 -0.00553556 -0.04005201
0.023890402 -0.03709046 -0.023465576 0.013330644 0.042200338 -0.027415562 0.022758974 0.013233987
00000000: b397 f53d eb08 92bd ca79 d43d b70b a8bd
00000010: 1cd0 cebd e83b c8bd d300 b83d 2759 7b3d
00000020: eb7a d53d 2113 d3bd ba7d 9abd 2130 aebd
00000030: 42d8 babd 1afd b03d aab4 a3bd fb5a d03d
00000040: 6815 84bc cc3c 5abd d588 6dbd da20 043d
00000050: e330 12bb 0cbe 153d a563 b5bb 940d 24bd
00000060: ceb5 c33c 2bec 17bd e13a c0bc c668 5a3c
00000070: 43da 2c3d 9a96 e0bc 0771 ba3c 5dd3 583c

model_trend.backbone.encoder.layers.0.self_attn.W_K.weight f4 [32, 32]
-0.14119421 0.1445739 -0.082394674 -0.016557284 -0.13511223 0.104351625 0.057695165 -0.27918077
-0.15393168 -0.0937339 0.0070599993 0.23327245 0.21398135 -0.1483457 0.0042932136 0.09066301
0.1421749 0.047068115 0.19197541 0.12795873 0.15408082 0.03968466 0.012815794 -0.19343512
0.1643935 0.15980093 0.14130402 -0.013219388 0.01621986 -0.15925913 -0.10446283 -0.1675314
0.10432157 -0.08790026 0.07556895 -0.0022263937 0.08432214 -0.14668635 -0.031808116 0.2426252
0.13707528 0.026295438 -0.023416322 -0.19338304 -0.1687808 0.09095795 -0.018656533 -0.029139545
-0.08512872 -0.01991193 -0.1923588 -0.105406 -0.109014094 0.022603784 0.037202388 0.13047397
-0.17174242 -0.17411537 -0.1183213 -0.019883059 -0.05154283 0.17460905 0.1256105 0.163358
-0.084429815 0.0906669 -0.12174349 0.013222081 -0.07633291 0.1202113 0.0051703327 -0.209534
-0.12401569 -0.04938239 0.020818684 0.1903349 0.14416039 -0.0863011 -0.008439974 -0.0037404012
0.08068297 0.017239759 0.17661479 0.09840818 0.08156888 -0.018537536 -0.008382345 -0.14145753
0.17034446 0.18205798 0.09944843 0.018977026 0.028786499 -0.14677359 -0.089998975 -0.1592632
0.070513375 -0.06670105 0.14269969 -0.010528028 0.051365443 -0.14132589 0.000135677 0.16393262
0.09651094 0.019202735 -0.056750998 -0.14882186 -0.11411343 0.009352132 0.012939345 0.04428777
-0.047539 -0.021247065 -0.1879088 -0.08652336 -0.05251361 0.041512407 0.051360093 0.09465226
-0.18160903 -0.19863519 -0.073033065 -0.029402751 -0.016311549 0.16357961 0.089935586 0.15666628
0.13598719 -0.12936275 0.069797724 0.010591331 0.12162214 -0.12927411 -0.05811375 0.26649308
0.1531889 0.0759173 -0.005622244 -0.22683252 -0.20499742 0.13087945 -0.005722995 -0.09944073
-0.12537663 -0.0345676 -0.1985746 -0.11198258 -0.14214829 -0.020193802 0.0014422536 0.16790248
-0.159454 -0.15361133 -0.13834047 0.014665587 -0.024810934 0.16857028 0.112405136 0.16220066
0.13925269 -0.13466263 0.061045337 0.029617889 0.13071236 -0.12820596 -0.05514154 0.2784821
0.1540258 0.08247204 0.0036786587 -0.23681916 -0.21296422 0.13901576 -0.016980367 -0.10831346
-0.13894968 -0.03660794 -0.20865351 -0.11925161 -0.14457622 -0.021806788 -0.004783601 0.17709048
-0.15958849 -0.16579808 -0.15056206 0.023714125 -0.024274053 0.16623068 0.12346329 0.15763001
-0.112206556 0.10767696 -0.06621912 0.00077826146 -0.08388033 0.14192125 0.019102471 -0.23732024
-0.14781708 -0.03841126 0.019442374 0.19882937 0.17876257 -0.10286922 0.013815639 0.05711899
0.10605754 0.026598752 0.2110151 0.09842344 0.10957416 -0.014857897 -0.013240359 -0.14508408
0.14930028 0.14275734 0.13050888 0.0051672286 0.03708733 -0.15217783 -0.10873576 -0.16166043
-0.07565821 0.016415054 -0.14370732 0.076672345 -0.020669514 0.19455203 -0.017172433 -0.1289265
-0.09945772 0.009737636 0.09271796 0.14129244 0.10270562 0.108018935 0.0036718934 -0.05695977
0.049093172 0.030733407 0.18870331 0.10542991 0.040328972 -0.07089281 -0.105722666 -0.08329777
0.19808567 0.2298221 0.0366369 0.1029496 0.032531973 -0.19143425 -0.116634116 -0.17250125
00000000: 3795 10be 2e0b 143e 8abe a8bd 24a3 87bc
00000010: dc5a 0abe 4eb6 d53d c451 6c3d c8f0 8ebe
00000020: 44a0 1dbe 8ff7 bfbd 9157 e73b f9de 6e3e
00000030: ed1d 5b3e efe7 17be 16ae 8c3b 87ad b93d
00000040: 4c96 113e 7fca 403d 3495 443e 9d07 033e
00000050: 5dc7 1d3e 628c 223d 56f9 513c db13 46be
00000060: c556 283e dba2 233e 00b2 103e 2296 58bc
00000070: 83df 843c d314 23be 9cf0 d5bd 5a8d 2bbe
00000080: 8ca6 d53d 0d05 b4bd e5c3 9a3d b0e8 11bb
00000090: 16b1 ac3d f234 16be 3a49 02bd be72 783e
000000a0: 765d 0c3e 8869 d73c 96d3 bfbc 3406 46be
000000b0: e0d4 2cbe 2948 ba3d 96d5 98bc 0eb6 eebc
000000c0: f757 aebd 581e a3bc b5f9 44be 1adf d7bd
000000d0: c842 dfbd 922b b93c 8861 183d f89a 053e
000000e0: 3fdd 2fbe 4d4b 32be 7052 f2bd cce1 a2bc
000000f0: 931e 53bd b7cc 323e 0aa0 003e 5247 273e
00000100: 8ae9 acbd 91af b93d a754 f9bd 6da1 583c
00000110: 6e54 9cbd 5831 f63d e56b a93b 1590 56be
00000120: f0fb fdbd 3045 4abd f28b aa3c 27e7 423e
00000130: c89e 133e a2be b0bd d147 0abc 8521 75bb
00000140: 1d3d a53d 653a 8d3c 82da 343e 3a8a c93d
00000150: 960d a73d 08dc 97bc 1a56 09bc 3eda 10be
00000160: c76e 2e3e 686d 3a3e 9eab cb3d b575 9b3c
00000170: aad1 eb3c d14b 16be 6251 b8bd e415 23be
00000180: 5169 903d 8f9a 88bd de1f 123e c07d 2cbc
00000190: 9264 523d bcb7 10be 8444 0e39 f4dd 273e
000001a0: 87a7 c53d 0e4f 9d3c bc73 68bd c264 18be
000001b0: 4db4 e9bd af39 193c 8cff 533c 1867 353d
000001c0: 41b8 42bd 530e aebc 2a6b 40be 2933 b1bd
000001d0: 8318 57bd ea08 2a3d f65e 523d 0bd9 c13d
000001e0: b8f7 39be 0667 4bbe 5c92 95bd 0ade f0bc
000001f0: cc9f 85bc 6a81 273e 2630 b83d 206d 203e
00000200: 3a40 0b3e ab77 04be 1cf2 8e3d 4387 2d3c
00000210: 0715 f93d 6f60 04be af08 6ebd c871 883e
00000220: 8ddd 1c3e 887a 9b3d cd3a b8bb c946 68be
00000230: d8ea 51be 4305 063e f687 bbbb 95a7 cbbd
00000240: bb62 00be c196 0dbd 2457 4bbe 1f57 e5bd
00000250: 528f 11be 796d a5bc 000a bd3a a1ee 2b3e
00000260: e947 23be 4a4c 1dbe 20a9 0dbe ee47 703c
00000270: 4d40 cbbc b09d 2c3e aa34 e63d ee17 263e
00000280: 4298 0e3e 00e5 09be ad0a 7a3d 37a1 f23c
00000290: 76d9 053e 6c48 03be 18dc 61bd 3595 8e3e
000002a0: f0b8 1d3e 1ae7 a83d a715 713b b980 72be
000002b0: 4b13 5abe 265a 0e3e 691a 8bbc 73d3 ddbd
000002c0: d348 0ebe 35f2 15bd 44a9 55be 303a f4bd
000002d0: ca0b 14be 26a4 b2bc c1bf 9cbb 3557 353e
000002e0: 2a6b 23be f9c6 29be f12c 1abe 2044 c23c
000002f0: 61da c6bc 6038 2a3e 52da fc3d c369 213e
00000300: 8dcc e5bd bd85 dc3d e49d 87bd 3e04 4c3a
00000310: 73c9 abbd ce53 113e c97c 9c3c 1404 73be
00000320: 5c5d 17be 2055 1dbd 9d45 9f3c ed99 4b3e
00000330: 890d 373e 19ad d2bd fd5a 623c 9af5 693d
00000340: b234 d93d a0e5 d93c 5814 583e 3a92 c93d
00000350: 6b68 e03d 896e 73bc 17ee 58bc ec90 14be
00000360: 2ce2 183e fb2e 123e 1fa4 053e db51 a93b
00000370: e2e8 173d 81d4 1bbe dbb0 debd 508a 25be
00000380: b1f2 9abd dd78 863c 0328 13be 6406 9d3d
00000390: 1d53 a9bc a638 473e 34ad 8cbc 4f05 04be
000003a0: 7db0 cbbd 9b8a 1f3c eae2 bd3d f7ae 103e
000003b0: 5357 d23d 0839 dd3d 26a4 703b a64e 69bd
000003c0: ec15 493d a0c4 fb3c 713b 413e a3eb d73d
000003d0: fe2f 253d 4030 91bd 2085 d8bd 0598 aabd
000003e0: f8d6 4a3e 7c56 6b3e 9310 163d 3dd7 d23d
000003f0: 3f40 053d 5707 44be dedd eebd 2ba4 30be

model_trend.backbone.encoder.layers.0.self_attn.W_K.bias f4 [32]
-0.06227762 0.13452584 -0.06998042 0.0673598 0.09245366 0.14590451 0.05002222 -0.046831746
-0.008046651 -0.048032995 0.03474389 0.030214723 0.020381758 -0.017452475 0.04775171 0.01773692
0.05060885 -0.03816565 0.0016144743 -0.01645922 0.019489883 -0.0662846 0.010121354 0.12896642
-0.09054673 0.0445679 0.08672871 0.0055284817 -0.09813044 -0.030424776 -0.10026379 0.013813735
00000000: d116 7fbd 24c1 093e e551 8fbd eff3 893d
00000010: 5858 bd3d fe67 153e 19e4 4c3d a5d2 3fbd
00000020: 1ad6 03bc 3fbe 44bd 9c4f 0e3d de84 f73c
00000030: a5f7 a63c 7ef8 8ebc 4c97 433d 044d 913c
00000040: 3a4b 4f3d 9653 1cbd c59c d33a 7cd5 86bc
00000050: 3fa9 9f3c 38c0 87bd 09d4 253c c60f 043e
00000060: 9070 b9bd d58c 363d d29e b13d 4428 b53b
00000070: 9df8 c8bd 613d f9bc 1a57 cdbd 0153 623c

model_trend.backbone.encoder.layers.0.self_attn.W_V.weight f4 [32, 32]
0.01747012 -0.017274762 0.052494682 0.07508015 0.0012243874 0.075847246 0.015620651 0.06545719
0.042582646 0.026518257 0.00834692 -0.04081276 -0.044150192 0.15283489 0.025246585 -0.016253132
0.014274677 -0.04912247 -0.0172233 -0.0074834013 0.005807889 0.027229229 0.06899718 0.03333382
0.1538565 0.112709075 0.04098786 -0.009162471 0.037316956 0.079865396 0.04673176 0.0044830786
-0.021411298 0.082477294 -0.13237391 -0.003002586 -0.040167037 -0.1694328 0.0082784705 -0.15965463
-0.058960754 -0.040257853 -0.08842925 0.036419358 0.027135573 -0.08556834 -0.037926532 -0.015014125
0.067346096 -0.026710194 -0.030333938 0.022002665 0.03921383 0.0252652 -0.08167669 0.012970262
0.009347805 0.09197303 -0.04426746 0.003358432 -0.022870744 0.051958136 -0.0047455346 -0.09867082
-0.0076186336 -0.09447087 -0.023168517 -0.010039862 0.01819119 0.0039756345 -0.046599153 0.082353674
0.008101834 -0.022371477 0.0056224116 -0.04004837 -0.0174646 -0.024345268 -0.025676655 -0.033492275
-0.024357403 0.006760237 0.004020697 0.015987538 -0.031118749 -0.03570311 -0.003262811 -0.032394372
-0.05129929 -0.12539046 -0.067600705 0.04544428 -0.035781503 -0.06734148 -0.04476481 0.011940773
-0.04046077 -0.10686961 0.045812137 -0.01443363 0.045311213 0.06927703 -0.052995495 0.07726117
0.01873417 -0.01695356 0.011213819 -0.07880107 -0.011108271 0.011396869 -0.028837642 -0.0063690636
-0.06370858 -0.04265668 -0.0015411236 0.0033518348 -0.044410832 -0.03606289 0.015765077 -0.061965734
-0.046852276 -0.102410644 -0.072935805 0.059228517 -0.037827786 -0.074758135 -0.04385281 0.034745626
0.034322135 -0.083502024 -0.029556531 0.019133782 0.030705892 -0.04728977 -0.12570243 0.09781033
0.012418505 -0.07441758 -0.011241248 -0.075062566 -0.015773611 0.0025735835 0.008319308 -0.05425712
-0.073615864 0.051541828 -0.09283488 -0.031262904 -0.04411677 -0.029402476 -0.05958948 -0.044843517
-0.16506957 -0.15613051 -0.10979614 0.017250413 -0.0149243325 -0.009946545 -0.01724535 0.048046436
0.05118326 -0.13120769 -0.06731592 0.032478508 0.036194652 -0.024277976 -0.14285553 0.09832049
0.017632652 -0.018865405 -0.022795774 -0.08359319 0.014558835 0.056228153 -0.043824106 -0.022568366
-0.046481356 -0.039192196 -0.018433737 0.006898815 -0.034320284 -0.042174898 -0.0500963 -0.016107246
0.030354371 -0.12003753 -0.13973968 0.07377822 -0.012140938 -0.036951914 -0.04795723 -0.03492806
-0.0887866 0.0044434587 -0.036342252 -0.089749895 0.015292074 -0.027423987 0.043164533 -0.12135128
-0.032817695 -0.0024101934 -0.007865154 0.004430197 -0.001917755 -0.09040972 -0.07222444 0.016281882
-0.021822687 -0.040163245 0.018110914 -0.01409933 -0.014565815 -0.0318149 -0.068815455 -0.009818812
-0.017690318 0.016464854 -0.010236735 0.02576403 -0.05509834 -0.025466777 -0.035889935 -0.009593799
-0.026607497 0.031421088 -0.10773392 -0.034122694 -0.012794104 -0.12804139 -0.016813375 -0.12428718
-0.06723952 -0.023905253 -0.063938364 0.026997909 0.032237325 -0.15400118 -0.043267455 -0.004055567
0.013118792 -0.014587894 0.0007625388 0.015769918 0.029523008 -0.008111285 -0.10257366 0.005876469
-0.08275044 -0.04059302 -0.0754253 0.024567973 -0.05263136 -0.031066597 -0.036807816 -0.059636418
00000000: 7f1d 8f3c cd83 8dbc aa04 573d 9fc3 993d
00000010: a07b a03a cd55 9b3d c2ed 7f3c 6b0e 863d
00000020: 246b 2e3d d13c d93c 85c1 083c 482b 27bd
00000030: d5d6 34bd c080 1c3e edd1 ce3c 4a25 85bc
00000040: 56e0 693c a534 49bd e117 8dbc 5237 f5bb
00000050: 1b50 be3b d50f df3c 654e 8d3d 0b89 083d
00000060: 8f8c 1d3e 04d4 e63d e3e2 273d 301e 16bc
00000070: aad9 183d 7890 a33d cd69 3f3d cae6 923b
00000080: bf66 afbc dbe9 a83d 078d 07be 09c7 44bb
00000090: 3186 24bd cb7f 2dbe 6ca2 073c 817c 23be
000000a0: d580 71bd 6be5 24bd 651a b5bd 772c 153d
000000b0: 6c4b de3c 743e afbd da58 1bbd cefd 75bc
000000c0: c0ec 893d 56cf dabc e17e f8bc ef3e b43c
000000d0: ae9e 203d f7f8 ce3c 1c46 a7bd 3981 543c
000000e0: 8927 193c 5b5c bc3d cc51 35bd 2419 5c3b
000000f0: 6d5b bbbc 0ed2 543d 6e80 9bbb ed13 cabd
00000100: bba5 f9bb f279 c1bd e7cb bdbc 3c7e 24bc
00000110: b105 953c 0a46 823b c1de 3ebd 0ba9 a83d
00000120: 8ebd 043c 6344 b7bc 353c b83b c209 24bd
00000130: ec11 8fbc ba6f c7bc d957 d2bc 322f 09bd
00000140: 2d89 c7bc fa84 dd3b 0dc0 833b 4cf8 823c
00000150: bfec febc 6d3d 12bd e3d4 55bb f6af 04bd
00000160: 341f 52bd 5b66 00be 3d72 8abd c823 3a3d
00000170: a08f 12bd 54ea 89bd 4e5b 37bd 3ba3 433c
00000180: 31ba 25bd 74de dabd 82a5 3b3d 087b 6cbc
00000190: 4098 393d 1ee1 8d3d ce11 59bd 1b3b 9e3d
000001a0: 6778 993c 31e2 8abc 2aba 373c 7562 a1bd
000001b0: 77ff 35bc efb9 3a3c eb3c ecbc 94b3 d0bb
000001c0: a579 82bd c5b8 2ebd 87ff c9ba 75aa 5b3b
000001d0: 22e8 35bd aeb6 13bd c325 813c c8cf 7dbd
000001e0: 2ce8 3fbd acbc d1bd 5e5f 95bd 9a99 723d
000001f0: 4ff1 1abd cb1a 99bd 019f 33bd 6e51 0e3d
00000200: 5e95 0c3d 1c03 abbd 8a20 f2bc 73be 9c3c
00000210: ec8a fb3c ebb2 41bd 23b8 00be c850 c83d
00000220: fc76 4b3c 3f68 98bd 362d 38bc 67ba 99bd
00000230: a937 81bc 91a9 283b b54d 083c b73c 5ebd
00000240: eac3 96bd 861d 533d 3720 bebd 880d 00bd
00000250: c9b3 34bd 76dd f0bc 1914 74bd d6ad 37bd
00000260: ff07 29be ade0 1fbe ccdc e0bd bd50 8d3c
00000270: 3085 74bc d5f6 22bc 1f46 8dbc 57cc 443d
00000280: 8aa5 513d 4f5b 06be eedc 89bd 2f08 053d
00000290: d840 143d 9be2 c6bc b848 12be 415c c93d
000002a0: 5a72 903c 9f8b 9abc 34be babc e832 abbd
000002b0: 2e88 6e3c 7e4f 663d e880 33bd 4be1 b8bc
000002c0: 3c63 3ebd ff87 20bd 5902 97bc 740f e23b
000002d0: 6d93 0cbd 96bf 2cbd c731 4dbd 58f3 83bc
000002e0: bba9 f83c 3dd6 f5bd eb17 0fbe 0919 973d
000002f0: c9ea 46bc e45a 17bd cd6e 44bd ba10 0fbd
00000300: c0d5 b5bd 6f9a 913b 9ddb 14bd cbce b7bd
00000310: 9b8b 7a3c 45a8 e0bc 4bcd 303d 0587 f8bd
00000320: d96b 06bd 56f4 1dbb d9dc 00bc 302b 913b
00000330: 2e5d fbba bb28 b9bd 68ea 93bd 9561 853c
00000340: 7ec5 b2bc 3782 24bd 575d 943c e000 67bc
00000350: 75a5 6ebc 5750 02bd 1eef 8cbd 15df 20bc
00000360: 49eb 90bc 4de1 863c fbb7 27bc 160f d33c
00000370: ccae 61bd b49f d0bc 5301 13bd 4f2f 1dbc
00000380: f7f7 d9bc 66b3 003d 9aa3 dcbd 3dc4 0bbd
00000390: 5d9e 51bc 481d 03be 34bc 89bc 478a febd
000003a0: e0b4 89bd f3d4 c3bc 1ef2 82bd b82a dd3c
000003b0: 490b 043d 7cb2 1dbe 3739 31bd 90e4 84bb
000003c0: 34f0 563c 1002 6fbc 1de5 473a ea2f 813c
000003d0: 3cda f13c 32e5 04bc 2412 d2bd 658f c03b
000003e0: 1079 a9bd de44 26bd 9478 9abd c642 c93c
000003f0: fb93 57bd 607f febc cbc3 16bd 5145 74bd

model_trend.backbone.encoder.layers.0.self_attn.W_V.bias f4 [32]
-0.0019507671 -0.0048713856 -0.006672213 -0.013697081 0.006571054 -0.015024613 -0.014436525 -0.0014052679
0.0063432083 0.004937526 0.0025476292 0.0028960784 -0.008160878 0.004719767 0.0012212978 0.011452647
0.02131232 0.025264936 -0.019636516 -0.01872909 0.015124752 0.020809488 0.018388534 0.014110292
-8.753065e-06 -0.025691103 -0.0035943212 0.0011430429 0.0015849594 0.019532008 0.013989989 0.011133132
00000000: e2b0 ffba 25a0 9fbb 94a2 dabb b969 60bc
00000010: ff51 d73b cb29 76bc 2d87 6cbc f730 b8ba
00000020: b0da cf3b f8ca a13b 20f6 263b 22cc 3d3b
00000030: 34b5 05bc 46a8 9a3b f413 a03a e2a3 3b3c
00000040: 2d97 ae3c 69f8 ce3c c2dc a0bc c06d 99bc
00000050: cfcd 773c a978 aa3c 8da3 963c db2e 673c
00000060: 21da 12b7 2676 d2bc b48e 6bbb 28d2 953a
00000070: 6abe cf3a 9701 a03c 4436 653c bd67 363c

model_trend.backbone.encoder.layers.0.self_attn.to_out.0.weight f4 [32, 32]
-0.0065237926 -0.05846358 0.05135116 0.05658086 0.033152223 0.0365237 0.008829548 -0.020509433
0.035776265 -0.020623555 -0.0021273952 0.12774561 0.043375783 0.047661196 0.07676236 -0.076726794
-0.12255868 -0.0048789745 0.07228252 0.10432806 -0.09964244 -0.10507173 -0.026812183 -0.061946977
0.037573468 0.11930454 0.036784403 -0.05211233 -0.050862778 -0.13805124 -0.0756635 -0.05623714
-0.00812826 0.005291953 0.034393884 0.034959372 0.09852132 0.072812945 -0.002104162 0.016150594
0.028715385 -0.051441465 0.0136334635 0.07561939 -0.0018900103 0.041899186 -0.094422236 0.005167431
-0.059726633 0.06864822 0.028319854 0.06757347 -0.07093342 -0.09272119 -0.07441541 -0.073533684
0.0282314 0.070098504 0.045414705 -0.064274445 -0.050968427 -0.06044798 0.00307603 0.0055742045
-0.00076698733 -0.060695108 -0.010275058 0.0027566394 -0.0114932135 -0.041100428 -0.0057427883 -0.042266835
0.023773672 0.010084033 0.0045800353 0.043996498 0.024597446 0.027460022 0.07266552 0.021511152
0.028216058 -0.07943666 -0.020505108 -0.0249589 0.03901099 -0.019672759 -0.07018167 0.06621054
-0.119970836 0.065869324 -0.02767185 0.10556477 0.10710515 0.021277368 0.024635272 0.0351469
-0.08881361 0.06678439 -0.002725403 -0.020234546 0.027570901 0.03016037 0.02995359 0.09540961
-0.03385933 0.0065811737 -0.020220077 -0.06475176 0.055395428 -0.0062639266 0.017549733 -0.037828032
0.002977364 0.090851985 -0.028625384 0.05672047 -0.0869577 -0.0060077184 -0.04310788 -0.02305494
-0.009831889 0.0140427025 0.0138736805 -0.07043455 -0.048984714 -0.0090482095 0.0044167093 -0.019361218
-0.057076212 0.009001725 0.021196684 0.011809894 0.036098827 0.003360202 0.036310453 0.04763888
0.004025869 0.021123083 0.007276728 0.047210626 0.060296834 0.026889486 0.00014298936 -0.02878829
-0.021798125 0.053486135 0.015261297 0.01619575 -0.02821343 -0.088642545 -0.002004448 -0.06092468
0.014029301 0.05076546 -0.02030869 -0.0577171 -0.051851355 0.023242945 0.02428017 0.024729107
-0.026906738 0.018827958 -0.018362971 -0.0022678794 -0.024205973 -0.031036764 0.023478504 0.039032683
-0.0025824087 0.043361466 0.016267791 0.0082349805 0.059426036 -0.010958012 0.018343993 -0.022252796
0.008118144 -0.061673883 -0.005606151 -0.0054928185 -0.0010739143 -0.012430804 -0.038244683 -0.020998415
-0.015993783 0.037567142 -0.013357978 0.0005162609 -0.0005902703 0.036186103 0.021950657 0.015401111
0.08826236 -0.048127882 -0.0006587085 0.030260475 -0.055845726 -0.0016833239 0.01985701 -0.06613739
-0.02434741 0.01130117 -0.049006984 0.041271593 -0.04278896 -0.027081273 -0.016625773 -0.045004353
-0.023825228 -0.08164806 0.039255835 -0.029647952 0.057481773 -0.06732147 0.021694267 0.0035935512
0.052460786 0.018514078 -0.008495083 0.034173902 0.020969832 -0.026449678 -0.016723353 0.02646893
-0.019745022 -0.03521834 0.021227341 0.019113075 -0.018602528 0.0073809377 0.03660987 -0.0025703718
-0.009790485 0.003214608 -0.021762885 -0.0017580376 0.0495592 0.016263641 0.045221288 -0.03570218
-0.040137134 -0.03426878 0.04235568 -0.0015840582 0.014837374 -0.013803179 -0.02340904 0.0042101434
0.0185636 0.020045713 -0.0540192 0.012947445 0.018135032 0.003295997 -0.06338807 -0.039130364
00000000: 8ac5 d5bb 8277 6fbd 9855 523d 55c1 673d
00000010: a0ca 073d e099 153d cfa9 103c 6603 a8bc
00000020: 228a 123d bbf2 a8bc c56b 0bbb bfcf 023e
00000030: ceaa 313d 6338 433d 9635 9d3d f022 9dbd
00000040: 0c00 fbbd cedf 9fbb dc08 943d f3a9 d53d
00000050: 5611 ccbd d92f d7bd 39a5 dbbc 1dbc 7dbd
00000060: a3e6 193d f055 f43d 3eab 163d bd73 55bd
00000070: 7d55 50bd 4e5d 0dbe 77f5 9abd ea58 66bd
00000080: 652c 05bc 1f68 ad3b 9ae0 0c3d 8f31 0f3d
00000090: 8cc5 c93d f41e 953d fbe5 09bb 404e 843c
000000a0: 873c eb3c 49b4 52bd e45e 5f3c 57de 9a3d
000000b0: 39ba f7ba 7b9e 2b3d 7260 c1bd 8e53 a93b
000000c0: eaa3 74bd 7097 8c3d 0aff e73c f663 8a3d
000000d0: 8a45 91bd 9be4 bdbd 1b67 98bd d498 96bd
000000e0: 8945 e73c ce8f 8f3d c504 3a3d 52a2 83bd
000000f0: 45c4 50bd 4d98 77bd 3897 493b d1a7 b63b
00000100: a60f 49ba 6f9b 78bd b858 28bc bca8 343b
00000110: 084e 3cbc ec58 28bd 002e bcbb fd1f 2dbd
00000120: 01c1 c23c 8037 253c 1f14 963b ac35 343d
00000130: 9580 c93c d7f3 e03c a9d1 943d 2838 b03c
00000140: 5d25 e73c b0af a2bd 54fa a7bc 9b76 ccbc
00000150: fdc9 1f3d c428 a1bc 68bb 8fbd 6499 873d
00000160: 45b3 f5bd 7fe6 863d 13b0 e2bc 5832 d83d
00000170: f259 db3d e04d ae3c e9cf c93c 32f6 0f3d
00000180: e9e3 b5bd 41c6 883d ad9c 32bb ebc2 a5bc
00000190: 5fdc e13c e112 f73c 3b61 f53c 1d66 c33d
000001a0: 15b0 0abd e3a6 d73b 93a4 a5bc 929c 84bd
000001b0: 51e6 623d a041 cdbb 75c4 8f3c 91f1 1abd
000001c0: e11f 433b 9b10 ba3d c87f eabc b953 683d
000001d0: e116 b2bd 65dc c4bb e391 30bd b7dd bcbc
000001e0: ee15 21bc 5d13 663c 6f4e 633c fd3f 90bd
000001f0: 32a4 48bd f13e 14bc 0bba 903b 6b9b 9ebc
00000200: bfc8 69bd f97b 133c aba4 ad3c 497e 413c
00000210: 5ddc 133d d636 5c3b 45ba 143d fc20 433d
00000220: 70eb 833b 510a ad3c 9e71 ee3b ee5f 413d
00000230: d0f9 763d 5747 dc3c 6aef 1539 6cd5 ebbc
00000240: fb91 b2bc 4714 5b3d 850a 7a3c f3ac 843c
00000250: da1f e7bc 398a b5bd 0f5d 03bb 288c 79bd
00000260: 27db 653c 71ef 4f3d 695e a6bc c468 6cbd
00000270: 1662 54bd fd67 be3c 35e7 c63c b294 ca3c
00000280: 856b dcbc 173d 9a3c f16d 96bc b4a0 14bb
00000290: 9b4b c6bc d040 febc fe55 c03c bce0 1f3d
000002a0: a13d 29bb cb9b 313d 0844 853c 03ec 063c
000002b0: b768 733d 3c89 33bc 2446 963c 7f4b b6bc
000002c0: f701 053c c19d 7cbd ceb3 b7bb 1afd b3bb
000002d0: 96c2 8cba 92aa 4bbc 75a6 1cbd de04 acbc
000002e0: 6505 83bc 01e0 193d 6cdb 5abc af55 073a
000002f0: 5fbc 1aba e137 143d ddd1 b33c f154 7c3c
00000300: e5c2 b43d be21 45bd 2ead 2cba d1e4 f73c
00000310: 7dbe 64bd faa2 dcba 2bab a23c 0a73 87bd
00000320: 3874 c7bc 8b28 393c 8cbb 48bd 670c 293d
00000330: 7a43 2fbd 8cd9 ddbc c632 88bc 7c56 38bd
00000340: 202d c3bc 1937 a7bd baca 203d 43e0 f2bc
00000350: 0272 6b3d d7df 89bd 2db8 b13c c981 6b3b
00000360: 1fe1 563d d6aa 973c f62e 0bbc eff9 0b3d
00000370: edc8 ab3c ffac d8bc 6aff 88bc 5fd5 d83c
00000380: 50c0 a1bc 1b41 10bd f6e4 ad3c 0693 9c3c
00000390: 5464 98bc cbdb f13b 3bf4 153d af73 28bb
000003a0: 4568 20bc 2cac 523b 1448 b2bc f46d e6ba
000003b0: 96fe 4a3d 543b 853c f539 393d 733c 12bd
000003c0: d666 24bd 6c5d 0cbd 267d 2d3d 2ca0 cfba
000003d0: 7518 733c bb26 62bc 51c4 bfbc 3ef5 893b
000003e0: b112 983c e836 a43c 3d43 5dbd 8521 543c
000003f0: eb8f 943c a701 583b 9bd1 81bd 2947 20bd

model_trend.backbone.encoder.layers.0.self_attn.to_out.0.bias f4 [32]
-0.00948812 0.0013787713 -0.0013475289 -0.008753569 0.021774063 -0.009025103 0.0038468258 -0.005559633
0.010353924 -0.0014975626 0.0057617626 0.0035308464 0.0002308962 -0.0019761208 -0.0066655367 -0.005957111
-0.0012628689 -0.007051191 0.0039318833 0.00693669 -0.015523284 -0.029779581 0.0047873007 -0.012273955
0.0034469534 -0.0055576856 0.0015088458 -0.0053261523 0.017757438 -0.0035577668 -0.0059963404 -0.023565952
00000000: 0f74 1bbc e3b7 b43a 919f b0ba 216b 0fbc
00000010: 855f b23c 07de 13bc 071b 7c3b 952d b6bb
00000020: 81a3 293c dd49 c4ba 2bcd bc3b c665 673b
00000030: ba1c 7239 ce81 01bb 936a dabb de33 c3bb
00000040: d986 a5ba ad0d e7bb 07d7 803b 2c4d e33b
00000050: 5f55 7ebc 4ff4 f3bc cade 9c3b b318 49bc
00000060: 48e6 613b 3f1d b6bb 77c4 c53a 0187 aebb
00000070: 0c78 913c 6c29 69bb f37c c4bb 620d c1bc

model_trend.backbone.encoder.layers.0.norm_attn.1.weight f4 [32]
1.0807464 0.98432755 1.1444279 1.1378299 1.0735722 1.100422 1.1401786 1.0545617
1.034224 1.1178246 1.0624827 1.0123333 1.0797253 1.1194342 1.0129126 1.1174316
1.096617 1.1450329 1.0578871 1.0715259 1.1147054 1.0819209 1.0878669 1.1459405
1.1298004 1.1260762 1.1199086 0.99079245 1.0281199 0.9925845 1.0603803 1.0851699
00000000: e655 8a3f e4fc 7b3f 9d7c 923f 69a4 913f
00000010: d06a 893f a1da 8c3f 5ff1 913f e1fb 863f
00000020: 7461 843f e014 8f3f 6fff 873f 2394 813f
00000030: 7034 8a3f 9f49 8f3f 1fa7 813f 0008 8f3f
00000040: f25d 8c3f 7090 923f d868 873f c327 893f
00000050: abae 8e3f 627c 8a3f 393f 8b3f 2eae 923f
00000060: 4d9d 903f 4423 903f 2a59 8f3f 93a4 7d3f
00000070: 6f99 833f 051a 7e3f 8bba 873f d9e6 8a3f

model_trend.backbone.encoder.layers.0.norm_attn.1.bias f4 [32]
0.10730459 0.121553235 -0.023720182 0.13426295 0.08659374 0.15318672 0.22406249 0.12615277
0.38676584 0.01008488 0.036473263 0.14042912 0.14636172 0.16559722 0.13255915 0.14294386
0.20867594 0.09771317 0.08372321 0.18069163 0.06969587 0.20910774 0.18641861 0.042979173
0.14451934 0.20719808 0.007858621 0.17952581 -0.10129783 0.31174654 0.16400106 0.2616688
00000000: 82c2 db3d e7f0 f83d d450 c2bc 3a7c 093e
00000010: 0f58 b13d fbdc 1c3e a370 653e 312e 013e
00000020: 2c06 c63e 0d3b 253c fd64 153d a7cc 0f3e
00000030: d9df 153e 5192 293e 96bd 073e e05f 123e
00000040: 25af 553e d81d c83d 1377 ab3d 3a07 393e
00000050: b5bc 8e3d 5720 563e 85e4 3e3e ee0a 303d
00000060: e1fc 133e bc2b 543e 72c1 003c 9dd5 373e
00000070: 3d75 cfbd 3e9d 9f3e e5ef 273e 74f9 853e

model_trend.backbone.encoder.layers.0.norm_attn.1.running_mean f4 [32]
-0.022102939 -0.0016326548 -0.033991314 -0.016461782 0.0121244695 -0.02620094 0.018562736 -0.00069586356
0.0022207245 -0.021396264 0.006257652 0.017712677 -0.009304407 -0.010153212 -0.046120867 0.026265068
-0.004216328 -0.01157891 -0.00092859496 -0.013617272 -0.0031581805 -0.023976844 -0.029236423 -0.048774887
-0.009058181 -0.00033066593 -0.007494856 -0.014777413 -0.011153363 0.0016195525 -0.007574592 -0.061763216
00000000: 3911 b5bc cefe d5ba 7a3a 0bbd dcda 86bc
00000010: b6a5 463c 5ba3 d6bc e110 983c 9d6a 36ba
00000020: 9389 113b 3847 afbc fd0c cd3b 2d1a 913c
00000030: 8371 18bc a859 26bc 3ce9 3cbd d729 d73c
00000040: 1f29 8abb 78b5 3dbc f46c 73ba fa1a 5fbc
00000050: 7af9 4ebb 166b c4bc 3981 efbc 2dc8 47bd
00000060: c468 14bc 3b5d adb9 6997 f5bb f61c 72bc
00000070: 98bc 36bc 2a47 d43a 4834 f8bb 6dfb 7cbd

model_trend.backbone.encoder.layers.0.norm_attn.1.running_var f4 [32]
0.13985668 0.117850386 0.024810318 0.052209385 0.043179177 0.055190686 0.03377001 0.021757035
0.11078592 0.055712916 0.09980682 0.029802758 0.05424216 0.093269825 0.108513944 0.033429813
0.056390684 0.02205516 0.050007395 0.038690034 0.014488671 0.0866221 0.08848005 0.024471682
0.025354747 0.01439357 0.03023453 0.12250173 0.09841884 0.062696114 0.05854329 0.05362204
00000000: 9736 0f3e 8b5b f13d 023f cb3c 82d9 553d
00000010: a6dc 303d a10f 623d 6c52 0a3d cf3b b23c
00000020: bae3 e23d 3a33 643d 8567 cc3d ea24 f43c
00000030: 072d 5e3d 4004 bf3d 8f3c de3d b3ed 083d
00000040: ebf9 663d 06ad b43c 8ed4 4c3d 7179 1e3d
00000050: e461 6d3c ed66 b13d 0735 b53d d678 c83c
00000060: c2b4 cf3c 02d3 6b3c 68ae f73c 30e2 fa3d
00000070: d18f c93d d266 803d 17cb 6f3d c9a2 5b3d

model_trend.backbone.encoder.layers.0.ff.0.weight f4 [64, 32]
-0.04228502 0.10413035 0.15654719 -0.04218618 0.0104336785 -0.040857863 -0.045326654 0.01969542
0.037151612 0.0354526 -0.022814075 -0.0047316253 -0.013850667 0.00984215 0.009128722 0.05650633
-0.014160139 -0.02628139 0.002674968 0.063974425 0.1060254 0.04578146 0.08340696 0.082310595
-0.10361096 -0.039702717 -0.013765999 -0.02341629 -0.01801941 0.0951345 0.010229588 0.06904676
0.08677015 0.075443864 0.0020736163 0.0703432 0.0118172625 0.123913854 -0.050100908 -0.01516399
0.06923973 0.014744824 0.006762828 0.09420081 -0.01597603 -0.004139174 -0.023050211 -0.047998603
0.05348168 0.107594475 0.04735045 -0.04836577 -0.026490299 0.021420302 -0.012881523 -0.02953096
0.099961385 0.030529153 0.016405154 0.0075350576 0.08283321 0.114779204 0.10072989 0.07783944
-0.06591599 -0.071412474 0.07072974 -0.11926384 -0.095644884 -0.07309725 -0.13312186 -0.11311913
-0.09240915 -0.020180898 0.007416074 -0.046029046 0.0029354885 -0.06266568 -0.03781842 0.010013477
-0.041128237 0.0028513079 -0.02250683 -0.09216436 -0.063552916 -0.08225323 -0.03802485 -0.022328543
-0.035083625 0.034202173 0.07514107 -0.04686295 0.008506463 -0.06843194 -0.07160439 -0.065910496
-0.07982606 -0.16945873 -0.11030025 0.0027617866 0.042083535 -0.12742056 0.26536736 -0.07401972
-0.05671926 -0.034844726 -0.010509991 -0.011960494 -0.10363757 0.018280245 0.0048974208 -0.21697827
-0.0023025298 -0.04752906 -0.27332956 0.11841567 -0.08407333 -0.014115599 -0.018889165 -0.15921913
-0.06673314 0.21236542 -0.086865395 -0.042203788 0.008246375 -0.045205887 -0.035963323 0.058491465
-0.06265691 -0.16294558 0.18843739 -0.16374113 -0.07515766 -0.06223808 0.14028059 0.018572511
-0.0066842334 -0.0049141017 0.07924295 -0.04851417 -0.13883854 -0.031755924 0.05967297 -0.09402137
-0.09544435 0.09223281 -0.072053306 -0.07848305 -0.11339723 -0.12629306 -0.04655508 0.009373197
-0.17984343 0.0071230154 0.05390591 -0.06598763 0.0739939 -0.008149979 -0.05661273 0.07804227
-0.029177483 0.085526645 -0.17926224 -0.044063907 -0.03330793 0.002851749 -0.18706138 -0.1678296
-0.10012355 0.012804088 -0.11188428 0.039669633 0.030975342 0.04612549 -0.10586331 0.030673647
0.031315636 0.09500691 -0.0365608 -0.065003805 -0.03899446 -0.032522045 -0.05616748 0.008888177
0.107897334 -0.09530942 -0.012057264 0.073696814 0.049299233 -0.006200552 0.0010894684 -0.16208243
-0.20473692 -0.11923361 0.04003486 -0.12053907 4.200261e-05 -0.095738344 -0.036457714 0.0076650223
0.021946762 -0.14502032 -0.030224185 -0.029955056 0.014635674 -0.046185654 0.04662016 0.018982807
0.0104223965 0.010597737 -0.0323542 -0.04498029 -0.043646395 -0.050990105 -0.026891245 -0.12193626
-0.06753659 -0.03618197 0.11515916 -0.072748095 -0.055945594 -0.016360492 -0.094967626 -0.018999623
-0.03335493 -0.1018141 -0.06951164 0.06599089 0.002359466 -0.05952983 -0.018321425 0.11790563
0.039453685 -0.017205516 -0.069812894 -0.07258801 -0.032534756 0.019140346 -0.054343857 -0.13095291
-0.119673535 -0.14345808 -0.12225755 -0.08654077 -0.01418547 -0.11852312 -0.05177959 -0.08631791
-0.01747899 -0.14354402 -0.112623155 -0.0036019734 -0.033651125 -0.08968155 0.023084825 0.0055446476
00000000: 0f33 2dbd 4b42 d53d e84d 203e 6acb 2cbd
00000010: 05f2 2a3c 935a 27bd 71a8 39bd 4a58 a13c
00000020: 4a2c 183d bf36 113d 95e4 babc c00b 9bbb
00000030: e8ed 62bc f840 213c a390 153c 2e73 673d
00000040: edff 67bc 124c d7bc 844e 2f3b 0605 833d
00000050: d823 d93d 5785 3b3d 45d1 aa3d 7592 a83d
00000060: fc31 d4bd 519f 22bd c98a 61bc 85d3 bfbc
00000070: 719d 93bc e0d5 c23d 009a 273c 6368 8d3d
00000080: 8cb4 b13d 5082 9a3d 82e5 073b 1810 903d
00000090: 319d 413c 8cc6 fd3d 9c36 4dbd 6272 78bc
000000a0: 8fcd 8d3d 4694 713c b79a dd3b 5bec c03d
000000b0: 2ae0 82bc e8a1 87bb ccd3 bcbc 2f9a 44bd
000000c0: 9b0f 5b3d 7e5a dc3d 8cf2 413d 301b 46bd
000000d0: 2f02 d9bc a179 af3c 060d 53bc e9ea f1bc
000000e0: 8eb8 cc3d 4618 fa3c 1a64 863c a5e8 f63b
000000f0: 75a4 a93d 5c11 eb3d 794b ce3d 496a 9f3d
00000100: f6fe 86bd b440 92bd c1da 903d 9a40 f4bd
00000110: 77e1 c3bd 03b4 95bd 1951 08be 01ab e7bd
00000120: 0241 bdbd 6952 a5bc 8a02 f33b f488 3cbd
00000130: 5361 403b dd56 80bd 7de7 1abd 910f 243c
00000140: 1576 28bd 02dd 3a3b 3e60 b8bc abc0 bcbd
00000150: 0828 82bd 6274 a8bd f2bf 1bbd 59ea b6bc
00000160: d9b3 0fbd 9417 0c3d 90e3 993d 5df3 3fbd
00000170: b15e 0b3c 0c26 8cbd 53a5 92bd 15fc 86bd
00000180: d87b a3bd 9786 2dbe 19e5 e1bd 17ff 343b
00000190: c95f 2c3d 897a 02be 3bde 873e a797 97bd
000001a0: 7452 68bd 58b9 0ebd 1932 2cbc f3f5 43bc
000001b0: ef3f d4bd 74c0 953c 8b7a a03b 8d2f 5ebe
000001c0: 0ae6 16bb d5ad 42bd daf1 8bbe ea83 f23d
000001d0: a32e acbd 1d45 67bc 73bd 9abc 570a 23be
000001e0: 62ab 88bd 5276 593e 7ce6 b1bd e1dd 2cbd
000001f0: ce1b 073c cf29 39bd 474e 13bd bf94 6f3d
00000200: 4452 80bd 35db 26be bbf5 403e c1ab 27be
00000210: 42ec 99bd 5bed 7ebd b7a5 0f3e 6125 983c
00000220: 6a07 dbbb 7906 a1bb 214a a23d cbb6 46bd
00000230: b12b 0ebe 8012 02bd a56b 743d 478e c0bd
00000240: 5478 c3bd 8ee4 bc3d af90 93bd b9bb a0bd
00000250: cf3c e8bd f852 01be 8ab0 3ebd 0a92 193c
00000260: e028 38be 2f68 e93b 72cc 5c3d 8624 87bd
00000270: 1d8a 973d 7d87 05bc c0e2 67bd a0d4 9f3d
00000280: 9e05 efbc 9828 af3d 8590 37be 5b7c 34bd
00000290: e56d 08bd 69e4 3a3b 058d 3fbe 86db 2bbe
000002a0: 930d cdbd 3dc8 513c 9623 e5bd a07c 223d
000002b0: 00c0 fd3c 15ee 3c3d ddce d8bd 4d47 fb3c
000002c0: d344 003d fc92 c23d c7c0 15bd b720 85bd
000002d0: a8b8 1fbd d635 05bd df0f 66bd b79f 113c
000002e0: 47f9 dc3d 9631 c3bd d58b 45bc 5bee 963d
000002f0: feed 493d 002e cbbb 7ecc 8e3a f0f8 25be
00000300: 8ea6 51be c030 f4bd 98fb 233d 30dd f6bd
00000310: f62b 3038 7712 c4bd af54 15bd de2a fb3b
00000320: b2c9 b33c 3580 14be b698 f7bc 4e64 f5bc
00000330: 77ca 6f3c 2b2d 3dbd c8f4 3e3d d581 9b3c
00000340: b3c2 2a3c 21a2 2d3c d685 04bd 413d 38bd
00000350: 90c6 32bd 00db 50bd 074b dcbc b8b9 f9bd
00000360: a050 8abd 8c33 14bd 91d8 eb3d f4fc 94bd
00000370: 3527 65bd 7006 86bc 637e c2bd 19a5 9bbc
00000380: 2e9f 08bd e983 d0bd 1e5c 8ebd 3b26 873d
00000390: 45a1 1a3b 8dd5 73bd d016 96bc 8278 f13d
000003a0: 309a 213d 95f2 8cbc 10fa 8ebd 06a9 94bd
000003b0: 2a43 05bd 37cc 9c3c aa97 5ebd 8518 06be
000003c0: 6617 f5bd ade6 12be 2b62 fabd 4a3c b1bd
000003d0: 2c6a 68bc 40bc f2bd d616 54bd 72c7 b0bd
000003e0: 1930 8fbc 34fd 12be f8a6 e6bd 160f 6cbb
000003f0: c3d5 09bd f6aa b7bd 631c bd3c e0af b53b

model_trend.backbone.encoder.layers.0.ff.0.bias f4 [64]
-0.0717413 0.038330253 -0.21296874 -0.07013931 -0.15861104 -0.047180697 0.009946065 -0.23091307
-0.08485526 -0.04309241 -0.12993175 -0.02901686 -0.15232931 -0.17920399 -0.14393406 -0.030689772
-0.047835164 -0.16563405 -0.035729837 -0.13169266 -0.028950287 -0.017782625 0.029384052 -0.13521357
-0.10198589 -0.04918709 -0.05989293 -0.104402915 -0.012740933 -0.13590206 -0.029505922 -0.15940496
-0.044669066 -0.124343514 -0.0767009 -0.017767435 -0.13461731 -0.21393766 -0.18965618 -0.14969122
-0.11661579 -0.10082209 -0.16716088 0.029557552 -0.18309005 -0.011317233 -0.136215 -0.056325108
-0.09171719 -0.049622852 -0.07548917 -0.11074366 -0.019973347 -0.057748575 -0.09693268 -0.18443915
-0.17491212 -0.23000102 -0.16598167 -0.0670619 -0.092861 -0.096073546 -0.11731687 -0.23416243
00000000: 1aed 92bd 2f00 1d3d 7a14 5abe 33a5 8fbd
00000010: ef6a 22be 8c40 41bd d2f4 223c 7a74 6cbe
00000020: 98c8 adbd ab81 30bd d40c 05be c4b4 edbc
00000030: 37fc 1bbe 4081 37be 7363 13be 1e69 fbbc
00000040: ceee 43bd f99b 29be 7359 12bd 71da 06be
00000050: 2729 edbc deac 91bc d3b6 f03c 6d75 0abe
00000060: fadd d0bd 6778 49bd 4a52 75bd 32d1 d5bd
00000070: 59bf 50bc e929 0bbe 67b6 f1bc 0e3b 23be
00000080: e9f6 36bd d0a7 febd 5d15 9dbd 038d 91bc
00000090: 1fd9 09be 7912 5bbe 3b35 42be a848 19be
000000a0: 42d4 eebd d07b cebd 392c 2bbe ae22 f23c
000000b0: f57b 3bbe ea6b 39bc f27b 0bbe 28b5 66bd
000000c0: 39d6 bbbd 5541 4bbd 119a 9abd 92cd e2bd
000000d0: 259f a3bc c589 6cbd a484 c6bd 9edd 3cbe
000000e0: 2a1c 33be 6385 6bbe 19f7 29be c057 89bd
000000f0: e82d bebd 35c2 c4bd d443 f0bd 47c8 6fbe
