CMI-Net/checkpoint/ConvTrans/setting1/2025_03_31_23h_47m_12s/ConvTrans-best.pth (torch, 67498 bytes, 28 tensors)

embed_layer.0.weight f4 [64, 1, 1, 8]
-0.018286917 -0.02018926 -0.13135721 0.049984023 -0.17363717 -0.043534067 0.11735396 0.27241108
-0.013483747 -0.11947254 -0.058560804 -0.04039977 0.043336827 0.00934608 0.08407504 0.19406204
0.020398613 0.070562646 0.08484561 0.037969016 0.0414026 -0.108142845 -0.1165271 -0.12625438
-0.07030056 -0.05892838 -0.057792515 -0.05564013 -0.0889595 0.019792218 0.03253137 0.06170827
0.030285519 0.0003255224 0.008211868 -0.020913148 0.04859004 0.032022156 0.048211824 0.021555241
0.037806984 0.024480853 0.034515932 -0.006321279 0.005135869 0.01627662 0.0075139636 0.009607613
-0.13471228 -0.026534662 -0.13340488 0.19070771 -0.09724139 0.0035018257 -0.07265477 0.0741354
-0.0044942605 -0.031871606 0.19325861 0.2569857 -0.206046 -0.29052657 0.017637495 0.084929004
0.035309333 0.103379056 0.039458983 -0.07203216 -0.10172157 0.09498096 0.11956572 -0.026645686
-0.02774352 0.0012236428 -0.010563147 -0.02653323 -0.07445686 -0.014400218 -0.01801285 -0.019638862
-0.1969441 -0.12436613 0.1334466 0.0015633802 0.22186506 -0.14885302 -0.120879896 0.23007068
-0.19525729 -0.09010327 -0.1278948 0.20873484 0.104703546 -0.0954061 -0.092236914 0.043394975
-0.116569445 0.0538079 -0.17766483 -0.20088848 -0.024603412 0.16260596 0.22199552 0.05560003
-0.13785319 0.10532079 0.05057947 0.072814755 -0.07599062 -0.016333206 0.059640173 0.044676673
0.18534987 -0.13420904 0.18207845 -0.10609166 0.011331491 -0.10314179 -0.057880744 0.19864225
0.24790835 0.09758243 -0.22361434 -0.09094181 0.20091936 -0.07690605 -0.21296284 0.08063039
-0.033418007 -0.029049106 -0.008741346 -0.027747769 -0.033169024 -0.011518178 -0.008530004 -0.030489916
0.100856595 0.2639843 -0.22058529 -0.2701759 -0.14161694 0.29536456 0.2769211 -0.2677515
0.08201346 0.069684826 0.24489045 -0.04491544 0.09511853 -0.12676226 -0.26860577 0.00020420451
-0.10171453 -0.009698833 -0.031244533 -0.18873209 0.14414749 0.15737744 0.16769917 0.03869593
-0.07577259 -0.023489287 -0.015260919 -0.017102493 -0.062297188 0.02111537 -0.036842607 0.013353788
-0.26503095 0.06166279 -0.012051253 0.18300968 0.02630364 -0.22614302 0.2516454 -0.25204992
0.032594666 -0.054369055 0.022334654 0.031667393 0.055354077 0.006437847 0.046486344 0.043789733
-0.0050491868 0.013761371 0.03630627 0.011360988 0.033431593 0.033626962 0.023463456 0.032074235
-0.046297155 -0.040670294 0.029261408 -0.0540129 -0.044582088 0.057792455 -0.052890833 -0.06387715
-0.31280923 0.14735581 0.060784824 0.19272183 -0.031385276 -0.09360089 0.2495884 -0.21202864
-0.1748437 0.21445537 0.2861522 -0.1427621 -0.27554932 0.01883835 0.0006237269 0.08226023
0.13458417 0.026801214 -0.15900162 -0.0412531 0.119400196 0.020107023 -0.20772003 -0.0445146
-0.03723401 -0.094410084 0.09722628 0.08894009 0.14661233 0.14646685 -0.015879113 -0.19732916
0.006926641 0.004467716 0.010128821 0.019162763 0.013831403 0.027109493 0.003866434 0.016888404
-0.21338677 0.118659675 0.04521624 0.0644853 -0.080346234 0.04541812 0.035454035 -0.21922202
-0.111372076 0.13246281 -0.18895474 -0.08323921 0.16715477 0.15541853 -0.1768726 0.11221268
00000000: 72ce 95bc f263 a5bc 8182 06be 0cbc 4c3d
00000010: f1cd 31be c750 32bd 4657 f03d 7779 8b3e
00000020: efea 5cbc 05ae f4bd 74dd 6fbd 3b7a 25bd
00000030: f581 313d 4d20 193c 892f ac3d 33b8 463e
00000040: fe1a a73c 2683 903d 89c3 ad3d 6685 1b3d
00000050: c695 293d ff79 ddbd c3a5 eebd d448 01be
00000060: bdf9 8fbd e35e 71bd d8b7 6cbd e8e6 63bd
00000070: 6630 b6bd 4a23 a23c 9d3f 053d d0c1 7c3d
00000080: 5619 f83c e0aa aa39 128b 063c 0d52 abbc
00000090: 5a06 473d aa29 033d c379 453d 9e94 b03c
000000a0: 7fdb 1a3d 128c c83c 9460 0d3d bb22 cfbb
000000b0: cb4a a83b 8c56 853c b237 f63b 4069 1d3c
000000c0: 04f2 09be 385f d9bc 4a9b 08be e248 433e
000000d0: 7e26 c7bd e37e 653b 06cc 94bd 4dd4 973d
000000e0: 9744 93bb cd8b 02bd 96e5 453e a193 833e
000000f0: b9fd 52be e6bf 94be 827c 903c 42ef ad3d
00000100: 85a0 103d 66b8 d33d be9f 213d 9985 93bd
00000110: 6653 d0bd 6185 c23d dfde f43d 0e48 dabc
00000120: 6146 e3bc a462 a03a 0d11 2dbc 375c d9bc
00000130: d77c 98bd e4ee 6bbc af8f 93bc aee1 a0bc
00000140: b7ab 49be abb3 febd 3aa6 083e 56ea cc3a
00000150: 9830 633e ed6c 18be e18f f7bd a697 6b3e
00000160: 87f1 47be 1088 b8bd dbf6 02be 96be 553e
00000170: d06e d63d 4664 c3bd b5e6 bcbd eebe 313d
00000180: f6bb eebd ac65 5c3d c5ed 35be b6b5 4dbe
00000190: 188d c9bc 2d82 263e cb52 633e dbbc 633d
000001a0: 6329 0dbe 6db2 d73d 6b2c 4f3d e71f 953d
000001b0: f8a0 9bbd 37cd 85bc 4149 743d e3fe 363d
000001c0: 5bcc 3d3e 186e 09be c672 3a3e 9646 d9bd
000001d0: b8a7 393c 013c d3bd 5c14 6dbd e068 4b3e
000001e0: b0db 7d3e 4cd9 c73d 28fb 64be b33f babd
000001f0: cebd 4d3e eb80 9dbd ee12 5abe 8c21 a53d
00000200: 52e1 08bd 64f8 edbc dd37 0fbc 4a4f e3bc
00000210: 3edc 07bd bdb6 3cbc 6ec1 0bbc fdc5 f9bc
00000220: e78d ce3d f328 873e 1ce1 61be 7f54 8abe
00000230: 0804 11be 063a 973e 9ac8 8d3e b916 89be
00000240: acf6 a73d ebb6 8e3d 90c4 7a3e 41f9 37bd
00000250: 81cd c23d f7cd 01be b286 89be bb1f 5639
00000260: b54f d0bd dbe7 1ebc 89f4 ffbc fc42 41be
00000270: 669b 133e 8d27 213e 55b9 2b3e a07f 1e3d
00000280: a92e 9bbd 9b6c c0bc ef08 7abc 871a 8cbc
00000290: 562b 7fbd 24fa ac3c 46e8 16bd d9c9 5a3c
000002a0: 23b2 87be 1f92 7c3d 9e72 45bc e466 3b3e
000002b0: bb7a d73c 0992 67be aad7 803e b00c 81be
000002c0: fc81 053d 16b2 5ebd 2af7 b63c abb5 013d
000002d0: f5ba 623d 93f4 d23b 7768 3e3d dd5c 333d
000002e0: a673 a5bb 6077 613c e2b5 143d 7023 3a3c
000002f0: 91ef 083d 6dbc 093d 6f36 c03c 4660 033d
00000300: 16a2 3dbd e595 26bd 9fb5 ef3c a13c 5dbd
00000310: b59b 36bd c8b7 6c3d 0fa4 58bd 06d2 82bd
00000320: 8828 a0be 71e4 163e 82f9 783d df58 453e
00000330: d98d 00bd d3b1 bfbd 1a94 7f3e 091e 59be
00000340: 3a0a 33be 309a 5b3e 8b82 923e 3a30 12be
00000350: cd14 8dbe e252 9a3c 9b81 233a 0d78 a83d
00000360: 6fd0 093e 388e db3c 52d1 22be 03f9 28bd
00000370: 1788 f43d 7cb7 a43c 8fb4 54be f154 36bd
00000380: b082 18bd 135a c1bd 921e c73d 3926 b63d
00000390: 8b21 163e 68fb 153e ea14 82bc a810 4abe
000003a0: e0f8 e23b eb65 923b 5bf3 253c 3afb 9c3c
000003b0: 1c9d 623c ba14 de3c 0064 7d3b 8d59 8a3c
000003c0: 1082 5abe d803 f33d aa34 393d de10 843d
000003d0: 918c a4bd 5a08 3a3d 4038 113d bd7b 60be
000003e0: 0b17 e4bd 55a4 073e 5a7d 41be 5279 aabd
000003f0: 9f2a 2b3e 0926 1f3e 171e 35be c3cf e53d

embed_layer.0.bias f4 [64]
-0.10840461 -0.12332729 0.2611793 0.2859676 -0.17035355 0.18835562 -0.30562744 0.088421255
-0.048589647 -0.19970535 -0.12814996 0.013870803 -0.04736493 -0.3337834 0.0371065 -0.2664777
-0.19251467 0.2669711 -0.019508887 -0.3527855 0.32981774 0.20380676 0.266666 -0.14137368
0.22225854 -0.045503136 0.31730846 0.182128 0.18248773 0.0010345253 -0.12142798 -0.21560478
-0.1320938 -0.101132706 0.052202314 -0.2129468 -0.2318281 -0.24988984 -0.18417685 -0.33550218
-0.18336785 -0.12927146 -0.20677836 -0.2792221 -0.11453645 0.07525663 -0.09834844 0.24405712
-0.26610523 -0.24426597 -0.024509933 0.03570459 0.27794385 -0.22983903 0.22653882 -0.19858964
-0.11741895 -0.10665263 -0.06601259 0.16446862 0.14400321 0.24519931 -0.31267837 -0.23652643
00000000: 3c03 debd 0593 fcbd 4bb9 853e 586a 923e
00000010: 2971 2ebe 4ce0 403e 337b 9cbe 3416 b53d
00000020: f005 47bd 8f7f 4cbe be39 03be 5d42 633c
00000030: bb01 42bd a8e5 aabe fcfc 173d c46f 88be
00000040: 9122 45be 70b0 883e 1ad1 9fbc 4da0 b4be
00000050: dfdd a83e b8b2 503e 7288 883e 43c4 10be
00000060: be97 633e 7f61 3abd 4176 a23e c37f 3a3e
00000070: 10de 3a3e e998 873a 3caf f8bd 80c7 5cbe
00000080: 9943 07be aa1e cfbd 18d2 553d ba0e 5abe
00000090: 5864 6dbe 1fe3 7fbe db98 3cbe f1c6 abbe
000000a0: c8c4 3bbe bd5f 04be b5bd 53be 33f6 8ebe
000000b0: 1692 eabd 2620 9a3d e86a c9bd 1cea 793e
000000c0: f23e 88be dc20 7abe 0ec9 c8bc fa3e 123d
000000d0: a84e 8e3e ec5a 6bbe cbf9 673e 155b 4bbe
000000e0: 5979 f0bd b26c dabd 9c31 87bd 766a 283e
000000f0: 9475 133e 8715 7b3e 6117 a0be fc33 72be

embed_layer.1.weight f4 [64]
0.72167385 0.7609311 0.77221084 0.76384157 0.80222356 0.7843288 0.73156595 0.72895485
0.7454107 0.8438627 0.7913578 0.73972636 0.7811344 0.7351881 0.7577137 0.79008454
0.8066832 0.7168939 0.7401845 0.7366309 0.8639603 0.8265313 0.79448444 0.8119209
0.8003784 0.81834996 0.76785034 0.7865499 0.6921849 0.7354166 0.77833396 0.7161916
0.7234123 0.7215384 0.7383974 0.80110663 0.8029299 0.79852813 0.70653206 0.8031806
0.761236 0.7682538 0.80193233 0.7609408 0.8136394 0.74276876 0.7200267 0.85067993
0.77039313 0.7648443 0.78618467 0.72085226 0.72010124 0.8362411 0.68863314 0.7317361
0.8013516 0.7158326 0.72609645 0.7407584 0.7842029 0.86462665 0.7910169 0.7846387
00000000: 9ebf 383f 61cc 423f 9caf 453f 1f8b 433f
00000010: 865e 4d3f c6c9 483f e847 3b3f c99c 3a3f
00000020: 3cd3 3e3f 6307 583f 6d96 4a3f b55e 3d3f
00000030: 6df8 473f 4a35 3c3f 86f9 413f fb42 4a3f
00000040: ca82 4e3f 5c86 373f bb7c 3d3f d893 3c3f
00000050: 812c 5d3f 8e97 533f 5563 4b3f 0cda 4f3f
00000060: 99e5 4c3f 627f 513f d791 443f 565b 493f
00000070: 0833 313f 4344 3c3f e540 473f 5558 373f
00000080: 8c31 393f beb6 383f 9d07 3d3f 5315 4d3f
00000090: d08c 4d3f 576c 4c3f 49df 343f 3e9d 4d3f
000000a0: 5de0 423f 48ac 443f 704b 4d3f 04cd 423f
000000b0: ac4a 503f 1826 3e3f ab53 383f 29c6 593f
000000c0: 7c38 453f d6cc 433f 6643 493f c689 383f
000000d0: 8e58 383f e613 563f 434a 303f 0f53 3b3f
000000e0: 6125 4d3f ce40 373f 75e1 393f 58a2 3d3f
000000f0: 85c1 483f 2c58 5d3f 1580 4a3f 15de 483f

embed_layer.1.bias f4 [64]
-0.0054672994 -0.046835043 0.034265228 0.029801715 -4.3821132e-05 0.012626744 0.022961559 -0.02673147
0.03633453 0.014559538 0.046500955 0.04130086 0.0023642655 0.055296138 -0.021049866 -0.0048122117
0.007882485 -0.010654686 0.075505175 0.02680282 -0.017170489 -0.008244806 0.009090881 0.0056583304
0.0029569734 0.028593533 -0.087952554 0.026287992 0.010858008 0.020483043 0.012869858 0.00039602135
0.0306684 -0.009551843 -0.035238948 -0.008497894 -0.02354542 0.01717047 -0.012667936 -0.011070382
-0.028428402 0.012931659 0.050921153 -0.05357032 0.015207666 0.025277479 -0.038632873 0.06698719
-0.01209168 -0.010296685 -0.0076605435 0.038167115 -0.0050950684 0.011297071 0.0061359582 0.0151227005
0.04046056 0.0025760157 -0.04805442 -0.0046434184 -0.0031334606 0.012697951 0.01806697 -0.008385855
00000000: 0827 b3bb 1ad6 3fbd b259 0c3d ba22 f43c
00000010: 95cc 37b8 67e0 4e3c e119 bc3c f5fb dabc
00000020: 84d3 143d 218b 6e3c c977 3e3d 172b 293d
00000030: cbf1 1a3b 347e 623d c570 acbc c2af 9dbb
00000040: 8a25 013c fe90 2ebc 75a2 9a3d 9691 db3c
00000050: 20a9 8cbc 3915 07bc ebf1 143c 8469 b93b
00000060: c8c9 413b fc3c ea3c 7820 b4bd ea59 d73c
00000070: c9e5 313c 0ecc a73c 19dc 523c 16a1 cf39
00000080: 4c3c fb3c 557f 1cbc b756 10bd c03a 0bbc
00000090: 53e2 c0bc 16a9 8c3c 2d8d 4fbc 8c60 35bc
000000a0: aee2 e8bc 4fdf 533c b392 503d 8d6c 5bbd
000000b0: 9329 793c b712 cf3c 813d 1ebd 9430 893d
000000c0: 2f1c 46bc 6db3 28bc 4c05 fbbb 1f55 1c3d
000000d0: 88f4 a6bb 5a17 393c 2610 c93b 34c5 773c
000000e0: f9b9 253d 5fd2 283b b6d4 44bd d127 98bb
000000f0: bf5a 4dbb 110b 503c 2f01 943c d364 09bc

embed_layer.1.running_mean f4 [64]
-0.11150235 -0.13108157 0.26840198 0.30563203 -0.18468411 0.17722088 -0.28876406 0.08601114
-0.064731486 -0.18295568 -0.12821291 0.03401004 -0.043601718 -0.3427334 0.022673607 -0.26775238
-0.17653386 0.26514375 -0.024717998 -0.36720482 0.3470118 0.22244425 0.25072798 -0.15706027
0.24093042 -0.04719402 0.31688875 0.19522892 0.169419 -0.007912902 -0.105096474 -0.21590668
-0.13219896 -0.11237454 0.051749673 -0.23450671 -0.2289251 -0.2641847 -0.18903014 -0.34605187
-0.17700402 -0.1504725 -0.20679635 -0.29715285 -0.10130629 0.057932492 -0.111412406 0.2441887
-0.2692883 -0.25313866 -0.039785694 0.028158404 0.26424095 -0.22114053 0.23806892 -0.21105811
-0.113441855 -0.09188415 -0.053692684 0.15516217 0.15650395 0.257664 -0.29501602 -0.25440103
00000000: 585b e4bd 3f3a 06be fc6b 893e cd7b 9c3e
00000010: d51d 3dbe 6479 353e e2d8 93be 9c26 b03d
00000020: f191 84bd bc58 3bbe 3f4a 03be 1d4e 0b3d
00000030: b797 32bd c17a afbe 00be b93c d716 89be
00000040: 4bc5 34be ecc0 873e 667d cabc 4502 bcbe
00000050: 88ab b13e 6dc8 633e 6b5f 803e 68d4 20be
00000060: 77b6 763e 844e 41bd 3e3f a23e 17ea 473e
00000070: 2d7c 2d3e 1ea5 01bc d23c d7bd a416 5dbe
00000080: 2a5f 07be 9f24 e6bd 77f7 533d 8722 70be
00000090: 576b 6abe 3843 87be 1e91 41be b62d b1be
000000a0: 8b40 35be 7715 1abe 6cc2 53be 6b24 98be
000000b0: ac79 cfbd 9f4a 6d3d 302c e4bd 9a0c 7a3e
000000c0: 28e0 89be 649b 81be 53f6 22bd 74ac e63c
000000d0: 974a 873e aa72 62be 57c8 733e 9e1f 58be
000000e0: 3454 e8bd c22d bcbd dcec 5bbd d5e2 1e3e
000000f0: 9242 203e 89ec 833e 570c 97be da40 82be

embed_layer.1.running_var f4 [64]
0.022133878 0.017811352 0.016013697 0.039499123 0.020257944 0.011877544 0.036762014 0.034543794
0.031766128 0.026865004 0.026752982 0.05772346 0.028867392 0.013397819 0.034761347 0.030587517
0.023930268 0.061622184 0.028268415 0.039678622 0.028622527 0.06238183 0.025105499 0.023410201
0.034182157 0.030093074 0.035304055 0.030925563 0.0301841 0.007543365 0.03955101 0.019400919
0.020864548 0.03676558 0.02120214 0.052763537 0.028773854 0.028876076 0.018934144 0.017365381
0.02796913 0.061001062 0.009355366 0.051576726 0.01774313 0.05802649 0.033200905 0.043480627
0.032544084 0.009307191 0.040384345 0.023904014 0.023491103 0.008008392 0.02906319 0.020695481
0.0018612318 0.035768148 0.027006872 0.010252106 0.029998073 0.016052958 0.03297882 0.045619585
00000000: 1b52 b53c 1de9 913c 282f 833c d5c9 213d
00000010: fdf3 a53c 089a 423c c493 163d cb7d 0d3d
00000020: 331d 023d ff13 dc3c 1229 db3c 6f6f 6c3d
00000030: 4f7b ec3c 8782 5b3c ea61 0e3d ac92 fa3c
00000040: 6909 c43c 8b67 7c3d 2a93 e73c 0d86 223d
00000050: ca79 ea3c 1784 7f3d 0caa cd3c c0c6 bf3c
00000060: 9702 0c3d c085 f63c fc9a 103d 9b57 fd3c
00000070: a544 f73c 552e f73b 3d00 223d adee 9e3c
00000080: 21ec aa3c 8197 163d 1cb0 ad3c 941e 583d
00000090: 25b7 eb3c 858d ec3c c71b 9b3c d841 8e3c
000000a0: 841f e53c 40dc 793d 4047 193c 1e42 533d
000000b0: 0a5a 913c 2fad 6d3d acfd 073d be18 323d
000000c0: f24c 053d 307d 183c 0e6a 253d 5ad2 c33c
000000d0: 6a70 c03c a135 033c ed15 ee3c 9289 a93c
000000e0: 93f4 f33a 9f81 123d 843d dd3c 73f8 273c
000000f0: 85be f53c 7e81 833c cd14 073d 9adb 3a3d

embed_layer2.0.weight f4 [16, 64, 3, 1]
0.03976326 -0.0026409526 0.002094411 0.023569431 -0.01825585 0.018211855 0.0023611614 0.025764529
0.021229966 -0.004525417 -0.004504322 -0.028613264 0.021516275 0.04616152 0.010959659 -0.02195213
0.038632207 -0.02442082 -0.03754243 0.004400961 -0.001979988 0.02116169 0.0006524872 0.021318026
-0.03597904 0.050764013 -0.0007059518 0.023474008 0.007908951 -0.035349913 -0.0004254111 0.01998682
0.022529634 0.025551476 0.021429943 -0.015927307 0.008983632 0.017242024 -0.003411967 -0.03290614
0.0013249547 0.039072588 -0.015881753 0.026377866 0.0023004308 0.038425338 0.009748895 0.014117157
-0.054829177 0.013034646 0.008634113 0.0014148231 0.02033968 0.0042239153 0.020363992 -0.023717288
0.0030941102 -0.011040325 0.008897644 0.024761016 -0.029399509 0.020693908 -0.029859105 -0.008908028
-0.028139582 0.020241028 -0.031014176 0.004421217 0.03092405 -0.033387434 -0.019442677 0.037493184
0.011549477 0.05502115 0.00567814 0.009959564 0.030169075 0.0016376262 0.034591578 0.033647146
-0.0061587864 -0.037309747 -0.04782225 0.020569853 0.023261432 0.021126442 0.027541552 -0.049530435
0.051828757 -0.026025089 0.0057664965 -0.028677933 -0.04254678 0.042336397 0.0041288207 0.007039701
0.044958804 -0.00889084 -0.016431026 -0.04644153 0.022608388 -0.018648474 -0.008698611 0.018961994
-0.017703291 -0.031090433 -0.016393334 0.051750164 0.0136462385 0.010788039 0.02557088 0.016829465
0.028645655 0.004503426 0.011664906 -0.042133275 0.024512919 0.03164261 -0.023595504 -0.01455791
0.03334093 0.016855353 -0.011049038 -0.017657073 0.032420542 0.018095095 0.021867601 0.0051463973
0.004882568 -0.02726228 -0.030782165 -0.0127474405 -0.0127475 0.02212264 0.019501867 0.01257599
0.016670713 0.012247106 -0.012063498 -0.030796895 -0.03127098 0.009584546 -0.021961102 -0.0018611338
-0.008668856 0.007841913 -0.0068767904 -0.017685391 -0.0021228977 0.010680077 -0.0074957195 -0.01628498
-0.018218784 0.0016155803 0.016643774 0.014775545 0.0307208 0.0077024703 0.013639301 -0.039027758
0.023020359 -0.040802296 -0.0033241552 0.0051718773 0.009503497 -0.00066960836 -0.04499639 9.968635e-05
-0.057675242 0.03361411 -0.005933583 0.03790644 0.029790998 -0.0006597986 -0.004372039 -0.039551288
0.019211276 0.023215503 0.0168914 0.0051902495 0.006766102 0.037361164 0.009096579 -0.04091471
-0.03779478 0.027693806 -0.005114142 -0.020773169 -0.03219103 -0.012643226 0.007347816 0.032969065
0.0022725686 0.027359985 0.014606044 -0.036828212 0.01150101 0.037552476 0.013750318 0.028581921
-0.028117988 -0.043500617 -0.02711451 -0.0021905154 0.0025805724 0.013759013 -0.013228406 -0.014685659
0.049725287 -0.01678003 0.024261259 -0.026883477 0.006241448 -0.025539864 -0.0075615593 0.020264132
-0.008619794 0.005087295 -0.009437121 -0.0048017506 0.007010074 -0.04919544 0.019917473 -0.021216525
0.023342688 0.011277631 0.05058987 0.0022222619 0.026285779 0.047999844 0.03755518 0.015185273
0.002408473 0.010755188 0.039209567 0.04686663 -0.0043156273 -0.009479221 -0.007468962 0.003323758
0.039668333 0.005634252 -0.0021140464 -0.02578134 -0.00975588 0.04426546 -0.014592302 0.011792425
0.022471413 -0.009417381 0.0126093365 0.0457273 0.0314692 0.010682904 -2.57074e-06 -0.012138941
00000000: cdde 223d d513 2dbb 6342 093b ae14 c13c
00000010: 4b8d 95bc 0731 953c b7bd 1a3b 2210 d33c
00000020: 77ea ad3c f349 94bb fe98 93bb 5d66 eabc
00000030: e642 b03c dd13 3d3d 2490 333c f4d4 b3bc
00000040: ce3c 1e3d 2c0e c8bc 17c6 19bd f035 903b
00000050: b0c2 01bb 485b ad3c ad0b 2b3a 24a3 ae3c
00000060: c25e 13bd eded 4f3d a00f 39ba 904c c03c
00000070: 8b94 013c 12cb 10bd b609 dfb9 66bb a33c
00000080: 1190 b83c 5451 d13c d98d af3c fc79 82bc
00000090: 1530 133c 253f 8d3c 4f9b 5fbb 97c8 06bd
000000a0: 1aaa ad3a 940a 203d 731a 82bc 6516 d83c
000000b0: d3c2 163b e363 1d3d d4b9 1f3c a64b 673c
000000c0: 8f94 60bd 458f 553c 1876 0d3c 9671 b93a
000000d0: 679f a63c c568 8a3b 63d2 a63c c24a c2bc
000000e0: 8ec6 4a3b 7be2 34bc 6cc7 113c 9dd7 ca3c
000000f0: 3dd7 f0bc 4586 a93c 159b f4bc faf2 11bc
00000100: fb84 e6bc 83d0 a53c 7111 febc dbdf 903b
00000110: 6f54 fd3c 43c1 08bd 4046 9fbc 7492 193d
00000120: 053a 3d3c db5d 613d b10f ba3b 702d 233c
00000130: 2325 f73c 9ea5 d63a e6af 0d3d 97d1 093d
00000140: a5cf c9bb 1bd2 18bd 43e1 43bd 1c82 a83c
00000150: c28e be3c 5c11 ad3c d29e e13c 6de0 4abd
00000160: 644a 543d 9132 d5bc e1f4 bc3b fced eabc
00000170: 8845 2ebd ee68 2d3d 0f4b 873b 4bad e63b
00000180: b926 383d e3aa 11bc 5c9a 86bc 7939 3ebd
00000190: 3a35 b93c afc4 98bc 9e84 0ebc 2f56 9b3c
000001a0: 7e06 91bc 5db1 febc 504b 86bc fbf7 533d
000001b0: 7994 5f3c 51c0 303c 067a d13c f2dd 893c
000001c0: 4baa ea3c 7a91 933b 291e 3f3c f193 2cbd
000001d0: 51cf c83c ae9b 013d 5c4b c1bc 4d84 6ebc
000001e0: 8090 083d 3d14 8a3c 0607 35bc 91a5 90bc
000001f0: 67cb 043d 2a3c 943c af23 b33c 1ca3 a83b
00000200: f3fd 9f3b 2555 dfbc e12a fcbc a4da 50bc
00000210: e4da 50bc 8a3a b53c 61c2 9f3c 860b 4e3c
00000220: 0591 883c 16a8 483c faa5 45bc c549 fcbc
00000230: 0016 00bd 8008 1d3c c5e7 b3bc 4af1 f3ba
00000240: d107 0ebc 5e7b 003c b356 e1bb f4e0 90bc
00000250: 5020 0bbb 7dfb 2e3c a79e f5bb 1468 85bc
00000260: 8f3f 95bc e1c1 d33a 8658 883c 2115 723c
00000270: 30aa fb3c 0165 fc3b 6077 5f3c 92db 1fbd
00000280: 3195 bc3c 4f20 27bd 12da 59bb da78 a93b
00000290: 8eb4 1b3c a888 2fba 224e 38bd b40e d138
000002a0: e03c 6cbd f3ae 093d 806e c2bb c943 1b3d
000002b0: 400c f43c 56f6 2cba 5243 8fbb 8800 22bd
000002c0: f760 9d3c 702e be3c d55f 8a3c f812 aa3b
000002d0: 2db6 dd3b 0508 193d d109 153c 2f96 27bd
000002e0: b3ce 1abd 1fde e23c 8894 a7bb 7e2c aabc
000002f0: beda 03bd 8925 4fbc f3c5 f03b 920a 073d
00000300: 60ef 143b 0c22 e03c 304e 6f3c 2ed9 16bd
00000310: bb6e 3c3c a0d0 193d 0449 613c a224 ea3c
00000320: b257 e6bc b42d 32bd 401f debc c08e 0fbb
00000330: d21e 293b 7c6d 613c f5bb 58bc 1e9c 70bc
00000340: beac 4b3d 4676 89bc 8cbf c63c bd3a dcbc
00000350: 1085 cc3b fa38 d1bc f5c6 f7bb f700 a63c
00000360: 093a 0dbc 53b3 a63b 289e 1abc 0158 9dbb
00000370: c3b4 e53b 2881 49bd f829 a33c 47ce adbc
00000380: 2a39 bf3c d0c5 383c 5337 4f3d 5ea3 113b
00000390: 4655 d73c 7c9b 443d 76d3 193d a7cb 783c
000003a0: 79d7 1d3b 8736 303c 369a 203d 39f7 3f3d
000003b0: 1b6a 8dbb bc4e 1bbc 32be f4bb 68d3 593b
000003c0: 437b 223d 889f b83b d08b 0abb 6433 d3bc
000003d0: 20d7 1fbc b34f 353d 8d14 6fbc 0435 413c
000003e0: f815 b83c 5c4b 1abc 6497 4e3c 8d4c 3b3d
000003f0: d9e5 003d 5907 2f3c fa84 2cb6 69e2 46bc

embed_layer2.0.bias f4 [16]
-0.06165383 -0.030143438 -0.023577707 -0.065271966 -0.0018494048 0.054507226 0.048074253 0.06774193
0.018068204 0.012167826 -0.047572758 0.0106831435 0.041783806 0.06461002 0.02947078 -0.057948697
00000000: ba88 7cbd 5fef f6bc 0926 c1bc 4fad 85bd
00000010: ba67 f2ba f842 5f3d 82e9 443d 48bc 8a3d
00000020: c503 943c 905b 473c a7db 42bd 5a08 2f3c
00000030: 7f25 2b3d 4252 843d b56c f13c 9d5b 6dbd

embed_layer2.1.weight f4 [16]
0.74880886 0.7562653 0.9312971 0.87532264 0.82442623 0.7603457 0.7920587 0.8689155
0.82010454 0.8992956 0.8644706 0.8316245 0.7880618 0.9756261 0.8077779 0.72199297
00000000: f0b1 3f3f 9a9a 413f 7d69 6e3f 2515 603f
00000010: 990d 533f 04a6 423f 5cc4 4a3f 3f71 5e3f
00000020: 5ff2 513f 3d38 663f f24d 5d3f 58e5 543f
00000030: 6bbe 493f a2c2 793f 88ca 4e3f 88d4 383f

embed_layer2.1.bias f4 [16]
-0.027754089 -0.062096365 0.008074428 0.041180093 -0.055994466 -0.054472268 -0.018172951 0.009671989
0.019035688 -0.00040220463 -0.07850821 -0.010487593 0.040033624 0.046504304 -0.043916557 -0.06548501
00000000: 8b5c e3bc c258 7ebd 9b4a 043c 75ac 283d
00000010: 745a 65bd 501e 5fbd 71df 94bc 4377 1e3c
00000020: bbf0 9b3c fede d2b9 eac8 a0bd 27d4 2bbc
00000030: 4cfa 233d 4c7b 3e3d d9e1 33bd 011d 86bd

embed_layer2.1.running_mean f4 [16]
0.03687188 0.10362227 0.09462409 -0.044417866 0.24177328 0.04668821 0.17675167 0.099793285
0.16141184 0.019203197 0.16400668 -0.032580484 0.044227887 0.026360312 0.08519711 -0.13863418
00000000: f806 173d ea37 d43d 46ca c13d 82ef 35bd
00000010: 6a93 773e 233c 3f3d 64fe 343e 6c60 cc3d
00000020: 2549 253e 0650 9d3c 5ef1 273e 1d73 05bd
00000030: 4d28 353d 95f1 d73c d37b ae3d 1ef6 0dbe

embed_layer2.1.running_var f4 [16]
0.033758797 0.021333259 0.046068758 0.01945282 0.0075198864 0.031308483 0.024382235 0.040299628
0.03042177 0.024243942 0.038546667 0.030406123 0.016694948 0.028558405 0.04070307 0.00841712
00000000: aa46 0a3d 16c3 ae3c 98b2 3c3d 855b 9f3c
00000010: 6169 f63b 533d 003d 41bd c73c 3911 253d
00000020: 1337 f93c 3b9b c63c 1ce3 1d3d 4316 f93c
00000030: d8c3 883c 51f3 e93c 43b8 263d f6e7 093c

Fix_Position.pe f4 [1, 50, 16]
0.0 1.0 0.0 1.0 0.0 1.0 0.0 1.0
0.0 1.0 0.0 1.0 0.0 1.0 0.0 1.0
0.31456655 0.94923544 0.10102027 0.9948844 0.031994537 0.99948806 0.010119115 0.9999488
0.0031999946 0.9999949 0.0010119284 0.9999995 0.00031999996 0.99999994 0.0001011929 1.0
0.59719545 0.8020958 0.20100698 0.9795898 0.06395631 0.9979527 0.020237193 0.9997952
0.006399956 0.9999795 0.0020238557 0.999998 0.00063999987 0.9999998 0.0002023858 1.0
0.8191916 0.57352 0.2989371 0.9542728 0.095852606 0.99539554 0.030353202 0.99953926
0.009599852 0.9999539 0.0030357807 0.9999954 0.00095999974 0.9999995 0.0003035787 0.99999994
0.95801586 0.28671524 0.39380878 0.9191924 0.12765075 0.9918192 0.040466096 0.9991809
0.01279965 0.9999181 0.004047703 0.99999183 0.0012799995 0.99999917 0.0004047716 0.99999994
0.9995736 -0.029199427 0.48465124 0.87470746 0.1593182 0.98722726 0.05057485 0.9987203
0.015999317 0.999872 0.0050596213 0.9999872 0.0015999993 0.99999875 0.0005059645 0.9999999
0.93964547 -0.34214962 0.5705351 0.8212732 0.19082251 0.98162454 0.06067843 0.9981574
0.01919882 0.9998157 0.0060715335 0.9999816 0.0019199987 0.99999815 0.00060715736 0.9999998
0.78431594 -0.6203616 0.6505817 0.75943625 0.22213143 0.9750167 0.07077579 0.99749225
0.022398125 0.9997491 0.0070834407 0.9999749 0.002239998 0.9999975 0.0007083502 0.99999976
0.5493555 -0.83558875 0.723972 0.6898293 0.25321293 0.96741056 0.080865905 0.99672496
0.025597204 0.99967235 0.00809534 0.9999672 0.002559997 0.9999967 0.00080954307 0.9999997
0.25861946 -0.9659793 0.7899552 0.6131646 0.28403515 0.95881385 0.09094774 0.9958557
0.028796017 0.99958533 0.009107231 0.9999585 0.0028799959 0.9999959 0.000910736 0.9999996
-0.058373954 -0.9982948 0.8478561 0.53022635 0.31456652 0.94923544 0.101020254 0.9948844
0.031994537 0.99948806 0.010119113 0.9999488 0.0031999946 0.9999949 0.0010119289 0.9999995
-0.36944094 -0.92925423 0.89708245 0.4418632 0.34477583 0.93868506 0.11108244 0.9938112
0.03519273 0.9993805 0.011130984 0.9999381 0.0035199923 0.9999938 0.0011131216 0.9999994
-0.6429987 -0.7658673 0.93713045 0.34897935 0.37463212 0.92717355 0.121133246 0.99263626
0.038390562 0.9992628 0.012142844 0.99992627 0.0038399901 0.9999926 0.0012143145 0.9999993
-0.8512733 -0.5247225 0.9675904 0.25252485 0.40410483 0.91471267 0.13117164 0.99135965
0.041587997 0.99913484 0.013154691 0.99991345 0.0041599874 0.99999136 0.0013155073 0.99999917
-0.973119 -0.23030293 0.9881507 0.15348683 0.43316373 0.9013153 0.14119661 0.9899816
0.044785015 0.9989966 0.014166526 0.9998996 0.0044799848 0.99999 0.0014167001 0.999999
-0.9961646 0.0874987 0.99860096 0.052878458 0.46177915 0.88699496 0.15120712 0.9885021
0.047981568 0.9988482 0.015178345 0.9998848 0.0047999807 0.9999885 0.0015178929 0.99999887
00000000: 0000 0000 0000 803f 0000 0000 0000 803f
00000010: 0000 0000 0000 803f 0000 0000 0000 803f
00000020: 0000 0000 0000 803f 0000 0000 0000 803f
00000030: 0000 0000 0000 803f 0000 0000 0000 803f
00000040: de0e a13e 1801 733f b7e3 ce3d beb0 7e3f
00000050: b40c 033d 73de 7f3f a5ca 253c a5fc 7f3f
00000060: 00b7 513b aaff 7f3f afa2 843a f8ff 7f3f
00000070: abc5 a739 ffff 7f3f 8637 d438 0000 803f
00000080: cde1 183f 2656 4d3f c6d4 4d3e 66c6 7a3f
00000090: 87fb 823d d479 7f3f 78c8 a53c 94f2 7f3f
000000a0: b9b6 d13b a8fe 7f3f aaa2 043b deff 7f3f
000000b0: aac5 273a fdff 7f3f 8637 5439 0000 803f
000000c0: 8ab6 513f 35d2 123f 490e 993e 394b 743f
000000d0: 5f4e c43d 3ed2 7e3f 47a7 f83c cee1 7f3f
000000e0: b348 1d3c fbfc 7f3f f3f3 463b b3ff 7f3f
000000f0: 7ea8 7b3a f8ff 7f3f a529 9f39 ffff 7f3f
00000100: 8740 753f 57cc 923e 4ea1 c93e 3150 6b3f
00000110: e1b6 023e dde7 7d3f c7bf 253d 52ca 7f3f
00000120: a0b5 513c a2fa 7f3f 98a2 843b 77ff 7f3f
00000130: a8c5 a73a f2ff 7f3f 8637 d439 ffff 7f3f
00000140: 0ee4 7f3f a333 efbc 3524 f83e d4ec 5f3f
00000150: 4f24 233e edba 7c3f 9327 4f3d 22ac 7f3f
00000160: 0011 833c 9df7 7f3f 2ecb a53b 29ff 7f3f
00000170: 11b7 d13a ebff 7f3f b4a2 043a feff 7f3f
00000180: 9b8c 703f 3c2e afbe 970e 123f f63e 523f
00000190: fa66 433e bf4b 7b3f f289 783d 3e87 7f3f
000001a0: d846 9d3c ecf3 7f3f b7f3 c63b cbfe 7f3f
000001b0: 77a8 fb3a e1ff 7f3f a429 1f3a fdff 7f3f
000001c0: eec8 483f 05d0 1ebf 868c 263f 6a6a 423f
000001d0: 6c76 633e b29a 793f e6f2 903d a75b 7f3f
000001e0: 467c b73c 8fef 7f3f 351c e83b 5bfe 7f3f
000001f0: eecc 123b d6ff 7f3f 94b0 393a fcff 7f3f
00000200: 90a2 0c3f 25e9 55bf 3b56 393f a798 303f
00000210: 20a5 813e 38a8 773f 069d a53d 5e29 7f3f
00000220: 3ab1 d13c 87ea 7f3f 51a2 043c dafd 7f3f
00000230: 9fc5 273b c9ff 7f3f 8437 543a fbff 7f3f
00000240: c569 843e 6b4a 77bf 813a 4a3f 5bf8 1c3f
00000250: 0e6d 913e d374 753f cf42 ba3d 66f0 7e3f
00000260: a0e5 eb3c d3e4 7f3f 7f36 153c 48fd 7f3f
00000270: 50be 3c3b bbff 7f3f 75be 6e3a f9ff 7f3f
00000280: 8719 6fbd 3f90 7fbf 190d 593f eabc 073f
00000290: dd0e a13e 1801 733f b5e3 ce3d beb0 7e3f
000002a0: b40c 033d 73de 7f3f a3ca 253c a5fc 7f3f
000002b0: 00b7 513b aaff 7f3f b3a2 843a f8ff 7f3f
000002c0: 5d27 bdbe 9be3 6dbf 32a7 653f e53b e23e
000002d0: 7586 b03e aa4d 703f 317f e33d 696a 7e3f
000002e0: 4126 103d 67d7 7f3f bb5e 363c f1fb 7f3f
000002f0: acaf 663b 98ff 7f3f 2ae6 913a f6ff 7f3f
00000300: 909b 24bf e10f 44bf c8e7 6f3f 6cad b23e
00000310: c8cf bf3e 3f5b 6d3f b514 f83d 691d 7e3f
00000320: 6c3f 1d3d b0cf 7f3f c7f2 463c 2bfb 7f3f
00000330: 58a8 7b3b 84ff 7f3f a229 9f3a f4ff 7f3f
00000340: 0ced 59bf 3754 06bf 01b4 773f f04a 813e
00000350: d4e6 ce3e 9c2a 6a3f dc51 063e bfc9 7d3f
00000360: 2d58 2a3d 4dc7 7f3f c686 573c 54fa 7f3f
00000370: 8150 883b 6fff 7f3f 1a6d ac3a f2ff 7f3f
00000380: 541e 79bf 88d4 6bbe 72f7 7c3f a72b 1d3e
00000390: a3c7 dd3e 99bc 663f d895 103e 6f6f 7d3f
000003a0: 7e70 373d 3ebe 7f3f b71a 683c 6cf9 7f3f
000003b0: d6cc 923b 58ff 7f3f 91b0 b93a efff 7f3f
000003c0: a504 7fbf 8532 b33d 50a4 7f3f 1597 583d
000003d0: 516e ec3e 1a12 633f 0ad6 1a3e 790e 7d3f
000003e0: 5288 443d 84b4 7f3f 98ae 783c 73f8 7f3f
000003f0: 2849 9d3b 3fff 7f3f 09f4 c63a edff 7f3f

attention_layer.key.weight f4 [16, 16]
-2.913354e-10 4.2256023e-08 1.7358968e-11 -1.08294575e-10 -6.77023e-08 -9.789256e-09 -1.056094e-07 1.6867464e-10
-4.2056112e-07 -2.2142425e-10 -2.4474764e-10 -7.780444e-06 -8.576424e-11 -1.007547e-05 -5.724499e-11 6.358836e-11
7.798889e-08 -1.6644037e-06 -6.056243e-08 6.368823e-11 -1.6597575e-10 1.9442848e-06 1.3052844e-06 3.6681129e-06
1.0123477e-07 -7.5009815e-08 3.454858e-06 -3.1382089e-10 8.100431e-08 1.0558387e-06 9.3914855e-11 8.31376e-09
-7.551771e-08 -1.3269464e-06 -2.2600573e-10 1.384034e-06 9.448821e-10 -1.299803e-09 -7.28117e-07 5.2919056e-09
1.0557719e-05 4.5481023e-09 1.822097e-07 3.91348e-09 2.3517954e-05 3.8723726e-07 1.8786606e-09 2.3198814e-10
-6.681228e-10 1.291253e-09 7.860528e-10 -8.768605e-08 9.2526414e-10 -3.1015563e-06 1.0001509e-09 -1.0475816e-09
-8.8506164e-10 -1.6286326e-11 2.5041798e-09 1.154664e-06 -3.2976843e-10 -5.394195e-09 -2.1415094e-09 4.869225e-09
-3.2977774e-09 1.4510134e-11 6.713087e-11 6.1655063e-09 -1.7355084e-11 -1.5010421e-08 -1.62695e-07 -2.1707511e-09
-5.4989573e-09 -5.780843e-07 2.031762e-06 2.9416576e-09 -3.4495029e-06 1.3597962e-09 3.122622e-06 1.5233796e-10
-2.934439e-06 -1.7211875e-10 4.7243534e-09 -2.0600144e-09 -1.1963654e-10 4.8826206e-07 -3.401852e-11 -1.0975316e-10
1.6804515e-08 -2.3394462e-09 -1.9475572e-06 7.2159537e-06 -2.7034824e-08 -6.9810194e-06 -3.4411716e-08 1.8180772e-07
4.7733022e-11 -5.9077124e-08 -1.3174787e-06 -6.149313e-06 -5.113158e-10 3.2470143e-06 8.402559e-10 -3.093316e-10
1.1201025e-06 -1.6521359e-08 -1.3106052e-07 2.8148614e-08 -3.01886e-11 -6.480826e-09 -1.4534496e-06 -5.2828364e-06
-6.9652906e-09 -1.11661875e-05 -3.1986826e-11 -6.842636e-10 -9.269005e-12 -2.951695e-10 1.325208e-10 1.6048772e-07
2.9200645e-11 1.8729149e-07 -4.7554023e-09 1.3028265e-06 -4.3228536e-09 -3.5298854e-08 -7.789879e-09 4.3896935e-06
-1.3983668e-10 9.793661e-09 8.338727e-09 1.05773e-09 7.790771e-09 -3.82247e-07 -3.940886e-06 1.3613442e-08
1.9951815e-07 -4.7762583e-10 2.6952517e-07 4.8767246e-10 -5.089731e-10 4.2955595e-08 7.0354076e-07 -1.7474835e-06
1.4160403e-08 1.4609192e-09 1.4024647e-07 9.367073e-08 -6.0522474e-08 1.3270397e-06 -1.0783456e-09 -6.0003974e-10
2.8346058e-06 3.8370573e-10 2.6610123e-06 3.305986e-09 -4.8664152e-08 1.7154646e-08 -3.7878135e-07 2.711473e-10
-1.2594288e-08 1.513032e-09 -2.8254632e-09 -2.722401e-08 -8.380658e-07 -1.1779133e-05 5.3225943e-07 3.4436013e-11
-1.078881e-11 -4.5815907e-10 -5.403355e-07 3.500814e-11 6.8782033e-09 -1.2037981e-09 7.7942424e-08 -2.3547557e-09
1.60896e-07 1.2172386e-08 3.4183318e-09 -3.0574967e-08 5.537589e-07 -2.3996918e-07 8.790279e-09 -1.7604573e-09
8.168181e-08 -1.3165894e-09 -6.7083806e-07 -2.6422137e-07 -1.6379262e-10 4.171256e-07 -1.2635476e-06 4.5684388e-08
-3.4977843e-10 -3.587006e-09 1.0165986e-09 1.987888e-09 2.0933835e-07 -1.7243829e-09 -2.1877119e-07 -1.29242865e-08
-4.1805537e-09 4.2677648e-08 1.4184109e-05 -1.1793688e-08 3.207166e-10 -7.3696915e-06 2.493039e-09 6.1475722e-09
-1.3281122e-09 -4.234952e-09 -2.738067e-09 1.3373709e-07 1.1703391e-05 -6.226388e-07 1.9162936e-09 -6.4701966e-10
-4.1765588e-07 7.696322e-07 1.0464186e-05 6.316251e-10 7.434953e-10 1.01579405e-10 -3.003631e-10 -2.555463e-07
7.771434e-08 1.4183106e-10 -4.9808026e-08 -3.202028e-07 -1.1222146e-08 6.824149e-06 -1.138981e-09 9.203541e-10
1.6147812e-10 1.2812045e-08 6.591664e-10 -7.374546e-10 -3.2678948e-10 -8.607301e-09 2.072074e-12 -3.0231186e-07
4.8529623e-06 1.17678034e-07 1.2120391e-06 -1.3073188e-06 -1.6182501e-10 -1.2982714e-09 1.14345595e-10 3.8578148e-07
2.9580045e-07 3.742e-07 1.9807787e-05 -1.100871e-09 1.812337e-11 -3.9825623e-09 8.416374e-09 3.4183292e-10
00000000: d029 a0af fd7c 3533 ecb0 982d 6d24 eeae
00000010: bc63 91b3 9a2d 28b2 62cb e2b3 b175 392f
00000020: 7bc9 e1b4 6375 73af 2b8d 86af c188 02b7
00000030: fa98 bcae d009 29b7 21c4 7bae 10d5 8b2e
00000040: d87a a733 7a64 dfb5 8c0e 82b3 490d 8c2e
00000050: 057e 36af 8f7a 0236 3b31 af35 b329 7636
00000060: 6766 d933 1515 a1b3 02da 6736 5d86 acaf
00000070: 97f4 ad33 57b6 8d35 5d85 ce2e 4ed4 0e32
00000080: 4d2c a2b3 8819 b2b5 f57e 78af 0cc3 b935
00000090: 15dd 8130 c1a4 b2b0 d273 43b5 18d4 b531
000000a0: 0f21 3137 8845 9c31 6ca5 4334 5677 8631
000000b0: 6c48 c537 7ce5 cf34 bf19 0131 db12 7f2f
000000c0: f6a6 37b0 ed77 b130 8c11 5830 ea4d bcb3
000000d0: ad55 7e30 5524 50b6 ae75 8930 80fa 8fb0
000000e0: ad48 73b0 8c41 8fad ff15 2c31 f4f9 9a35
000000f0: c84a b5af d757 b9b1 d529 13b1 284e a731
00000100: 1d9f 62b1 d643 7f2d 529f 932e 5ed8 d331
00000110: 2da8 98ad 44f0 80b2 43b1 2eb4 422c 15b1
00000120: 57f1 bcb1 a72d 1bb5 6859 0836 3026 4a31
00000130: 027e 67b6 93e3 ba30 3d8e 5136 537f 272f
00000140: 47ed 44b6 1f3f 3daf da53 a231 2890 0db1
00000150: b18a 03af 1d11 0335 739d 15ae 8959 f1ae
00000160: 8559 9032 f9c3 20b1 c7b2 02b6 9220 f236
00000170: 353a e8b2 803e eab6 15cc 13b3 ed36 4334
00000180: 9bee 512e fcbb 7db3 39d4 b0b5 3256 ceb6
00000190: a78c 0cb0 48e7 5936 c1f7 6630 8d0e aaaf
000001a0: 6e56 9635 daea 8db2 a4b9 0cb4 75cb f132
000001b0: 58c5 04ae f3ad deb1 2614 c3b5 3843 b1b6
000001c0: 5853 efb1 6956 3bb7 f7ad 0cae c516 3cb0
000001d0: e30f 23ad 6a45 a2af 4ab5 112f 8752 2c34
000001e0: 016d 002e 4b1a 4934 f664 a3b1 c7dc ae35
000001f0: 3988 94b1 809b 17b3 40d4 05b2 2e4b 9336
00000200: 87c0 19af fa40 2832 1c42 0f32 915f 9130
00000210: 2cd8 0532 a137 cdb4 f43b 84b6 8de0 6932
00000220: 223b 5634 ee49 03b0 42b3 9034 e60c 0630
00000230: cce7 0bb0 2d7e 3833 f4da 3c35 138b eab5
00000240: 1c46 7332 86c9 c830 a896 1634 0728 c933
00000250: 95f8 81b3 bd1c b235 ea34 94b0 0bf0 24b0
00000260: 283a 3e36 c8f1 d22f d893 3236 852f 6331
00000270: cd02 51b3 775b 9332 505b cbb4 9710 952f
00000280: 445e 58b2 15f3 cf30 132a 42b1 3bda e9b2
00000290: 71f7 60b5 fe9e 45b7 97e0 0e35 8173 172e
000002a0: 7bcc 3dad 28e0 fbaf 930b 11b5 a9f7 192e
000002b0: 5155 ec31 e172 a5b0 4d61 a733 4dd1 21b1
000002c0: c1c2 2c34 b81e 5132 eee7 6a31 8851 03b3
000002d0: 06a6 1435 1dd5 80b4 0e04 1732 96f4 f1b0
000002e0: 0d69 af33 5ff3 b4b0 a413 34b5 4fda 8db4
000002f0: 8617 34af 4ef1 df34 2a97 a9b5 8436 4433
00000300: f04a c0af 477f 76b1 62b8 8b30 4c9b 0831
00000310: 7dc6 6034 54ff ecb0 5ee7 6ab4 9d09 5eb2
00000320: 8aa4 8fb1 924c 3733 49f8 6d37 309d 4ab2
00000330: d950 b02f 2b49 f7b6 0252 2b31 9e3a d331
00000340: cb88 b6b0 0883 91b1 9628 3cb1 5f99 0f34
00000350: ae59 4437 6a23 27b5 cbaf 0331 f6d9 31b0
00000360: 303a e0b4 b998 4e35 568f 2f37 aa9e 2d30
00000370: d55e 4c30 1f60 df2e 5920 a5af 0432 89b4
00000380: e9e3 a633 e5f1 1b2f 81ec 55b3 56e8 abb4
00000390: 85cb 40b2 fefa e436 558a 9cb0 2afc 7c30
000003a0: 0d8c 312f f81b 5c32 b630 3530 c1b5 4ab0
000003b0: 88a7 b3af 4fdf 13b2 2bcf 112c 6d4d a2b4
000003c0: a1d6 a236 2fb6 fc33 59ad a235 2277 afb5
000003d0: b1ed 31af dd6e b2b0 d972 fb2e 671d cf34
000003e0: 81ce 9e34 a8e5 c834 e628 a637 744d 97b0
000003f0: 346a 9f2d fdd6 88b1 9b97 1032 b5ec bb2f

attention_layer.value.weight f4 [16, 16]
0.06073069 -0.11592099 0.22150002 0.09915086 0.03904317 -0.0306321 0.05563666 -0.18338194
-0.059848446 -0.17780125 0.10048694 -0.050790533 0.19463073 0.028811308 -0.24068718 0.13132848
-0.018821362 -0.05568639 0.03517651 0.038050137 0.059696928 -0.0076044626 -0.018525016 0.018410457
-0.05881794 -0.110185 0.058088973 0.07457802 -0.032164104 -0.010189758 0.10998398 0.06208517
0.12958504 -0.037445262 0.047781754 0.15215921 0.1953516 -0.21437617 -0.019667352 0.05965767
-0.01694013 -0.113385424 -0.007025823 -0.13332888 0.14361937 -0.1133205 -0.13623156 0.15030637
-0.026828442 -0.058616348 0.163546 0.085770845 -0.062849306 0.060272895 -0.001001755 -0.039504796
0.037604645 -0.03188063 0.12249507 -0.051076606 0.0960041 0.06709971 -0.046022654 -0.048824888
-0.024990434 -0.018322429 -0.1144993 -0.03211465 0.0030479878 0.08629637 -0.032006435 -0.069323115
-0.16206385 -0.13911535 0.04226928 0.059010286 -0.027726423 0.11991787 0.07239139 0.075078286
0.106640235 0.056740053 -0.18179817 0.088045165 0.20796898 -0.08698625 -0.04064964 0.18664634
-0.10432557 -0.08935107 -0.03097509 0.15848441 0.16640991 -0.24640618 -0.028106632 -0.013920567
0.044227768 -0.07133592 -0.076346785 0.015852118 -0.20818134 0.088875875 -0.022664435 -0.1311404
-0.22604826 0.10895122 -0.11468364 0.05699477 -0.057027556 0.08682352 -0.033483524 -0.06333548
-0.06450505 0.14441057 -0.086980015 -0.092631996 0.0069848676 0.081783585 0.14849316 0.12780543
0.1982439 0.002720898 0.049617354 -0.11560962 0.025511414 -0.09539776 -0.017702514 -0.08948647
0.025228882 0.09690364 0.1417213 -0.0011133724 -0.15419698 0.10766481 0.14811125 0.16522723
-0.14680201 -0.23799218 0.10425851 -0.08635392 0.04584947 -0.0813152 0.056340106 0.10273653
0.09200359 -0.010356209 -0.023331102 0.074191496 0.11494865 -0.17343791 -0.10779773 -0.14772415
-0.055027816 0.1524156 -0.11488664 0.11692439 0.04258323 -0.08296973 0.04021488 -0.027543364
0.0060555106 -0.028351573 0.0745546 0.02796473 0.030419596 0.04412677 -0.04685015 -0.14233597
-0.048437484 0.032069262 0.035041142 -0.078116894 -0.10409494 0.081657805 0.009771568 -0.08351157
0.09130088 -0.054902438 -0.05458325 -0.16883528 0.17473775 -0.0053636474 0.018008541 -0.065426216
0.101203226 -0.1984918 -0.08893449 0.14135902 0.0019474719 -0.07059457 0.15954259 0.0962934
-0.12099541 -0.05979456 0.027368361 0.13946208 -0.050254833 0.16957487 -0.022454957 0.047226496
0.043911543 -0.18704958 -0.14200678 0.18683603 -0.044443715 -0.14221054 -0.073559076 0.084159866
-0.1423107 0.17101781 -0.20924938 -0.1647362 -0.16260776 -0.08378953 0.04907941 -0.1786852
-0.13075021 0.03162834 0.24604352 0.17025325 0.09869399 0.03290609 0.1138077 0.051366474
-0.09775528 0.11611586 0.050741896 0.09076277 -0.012170012 0.10183485 -0.09535695 0.17094624
0.073098496 -0.14264488 -0.15692665 -0.12888026 -0.058220875 -0.087399594 0.10573536 0.18732238
0.012520477 0.16326287 0.08946448 0.031848103 0.035897154 0.009323778 -0.16304228 -0.14591977
-0.09034196 0.1127154 0.11478054 0.055800945 0.04389241 0.027796904 0.01061642 -0.105308674
00000000: bec0 783d fc67 edbd e7d0 623e 9b0f cb3d
00000010: bbeb 1f3d 2bf0 fabc 44e3 633d 7ac8 3bbe
00000020: a523 75bd 8811 36be 19cc cd3d bc09 50bd
00000030: 474d 473e b105 ec3c b376 76be f97a 063e
00000040: 422f 9abc 6917 64bd 3f15 103d 76da 1b3d
00000050: c484 743d db2e f9bb c6c1 97bc 87d1 963c
00000060: 15eb 70bd aca8 e1bd b4ee 6d3d 5cbc 983d
00000070: 82be 03bd f1f2 26bc 483f e13d 054d 7e3d
00000080: f1b1 043e 3460 19bd cdb6 433d a0cf 1b3e
00000090: 400a 483e 6d85 5bbe 6d1d a1bc 9a5b 743d
000000a0: 07c6 8abc 9e36 e8bd e038 e6bb 5e87 08be
000000b0: f510 133e 9414 e8bd 4980 0bbe eae9 193e
000000c0: 52c7 dbbc b217 70bd 9a78 273e a0a8 af3d
000000d0: 23b7 80bd b6e0 763d 524d 83ba c8cf 21bd
000000e0: 5407 1a3d 4395 02bd b2de fa3d b435 51bd
000000f0: cc9d c43d 936b 893d 4082 3cbd 9bfc 47bd
00000100: bdb8 ccbc eb18 96bc 9c7e eabd a78a 03bd
00000110: c0c0 473b 27bc b03d 2e19 03bd 47f9 8dbd
00000120: 11f4 25be 4174 0ebe 8d22 2d3d c5b4 713d
00000130: 8622 e3bc 8097 f53d f041 943d a5c2 993d
00000140: 3266 da3d 4268 683d 4d29 3abe 0651 b43d
00000150: d2f5 543e d925 b2bd 3d80 26bd 3820 3f3e
00000160: a5a8 d5bd b2fd b6bd 79bf fdbc bd49 223e
00000170: 5c67 2a3e e751 7cbe e13f e6bc 1713 64bc
00000180: 2d28 353d 9118 92bd b45b 9cbd 4ddc 813c
00000190: 7d2d 55be 8e04 b63d c4aa b9bc ab49 06be
000001a0: 3279 67be d121 df3d 42df eabd 5973 693d
000001b0: ba95 69bd 88d0 b13d 0526 09bd 08b6 81bd
000001c0: 391b 84bd 5de0 133e 9422 b2bd d8b5 bdbd
000001d0: 51e1 e43b 277e a73d 970e 183e 6ddf 023e
000001e0: 7300 4b3e 1851 323b 913b 4b3d bdc4 ecbd
000001f0: 50fd d03c e75f c3bd dd04 91bc af44 b7bd
00000200: cdac ce3c 6a75 c63d 631f 113e 94ee 91ba
00000210: d0e5 1dbe 5e7f dc3d 7aaa 173e 5431 293e
00000220: 4453 16be 39b4 73be 7c85 d53d 53da b0bd
00000230: a7cc 3b3d 9588 a6bd e2c4 663d 8867 d23d
00000240: 616c bc3d 17ad 29bc de20 bfbc b6f1 973d
00000250: 336a eb3d b599 31be 0ec5 dcbd 0045 17be
00000260: d964 61bd d612 1c3e b049 ebbd 0e76 ef3d
00000270: c16b 2e3d 09ec a9bd 5cb8 243d 9fa2 e1bc
00000280: 4e6d c63b 8f41 e8bc 15b0 983d 4a16 e53c
00000290: 8432 f93c 46be 343d f1e5 3fbd 85c0 11be
000002a0: 6266 46bd 0f5b 033d 4d87 0f3d c0fb 9fbd
000002b0: ba2f d5bd 353c a73d ed18 203c 1d08 abbd
000002c0: f5fb ba3d 61e1 60bd b092 5fbd 28e3 2cbe
000002d0: 74ee 323e 89c1 afbb a686 933c 2efe 85bd
000002e0: a343 cf3d 6f41 4bbe 4923 b6bd 6bc0 103e
000002f0: 5042 ff3a e393 90bd 225f 233e 7935 c53d
00000300: 71cc f7bd 24eb 74bd 9d33 e03c 26cf 0e3e
00000310: 03d8 4dbd 09a5 2d3e 75f3 b7bc 9270 413d
00000320: 97dc 333d ed89 3fbe 3a6a 11be f251 3f3e
00000330: 9d0a 36bd a49f 11be 24a6 96bd 025c ac3d
00000340: e5b9 11be 4b1f 2f3e 7845 56be 9bb0 28be
00000350: a682 26be d899 abbd 7e07 493d 41f9 36be
00000360: 62e3 05be b88c 013d d5f2 7b3e de56 2e3e
00000370: 1320 ca3d 89c8 063d 0314 e93d a765 523d
00000380: ec33 c8bd 27ce ed3d bcd6 4f3d d5e1 b93d
00000390: bb64 47bc ca8e d03d 814a c3bd 880c 2f3e
000003a0: aab4 953d 8011 12be 61b1 20be 30f9 03be
000003b0: 0379 6ebd 8ffe b2bd c88b d83d 70d1 3f3e
000003c0: b022 4d3c 622e 273e 2739 b73d 2873 023d
000003d0: e508 133d c2c2 183c 8ef4 26be fe6b 15be
000003e0: 3505 b9bd 55d7 e63d 0f12 eb3d 888f 643d
000003f0: 87c8 333d 55b6 e33c 7ef0 2d3c 13ac d7bd

attention_layer.query.weight f4 [16, 16]
4.2452967e-07 -4.8492248e-06 6.5354165e-08 -2.0284346e-10 -8.025394e-07 -3.0131763e-05 -1.4273502e-10 -1.0187201e-07
-4.3679706e-06 -2.6144884e-09 9.579698e-06 1.1490265e-09 5.3214777e-10 4.7827373e-09 1.1290017e-08 1.6004374e-09
-1.689557e-05 -8.077298e-08 1.5216197e-05 1.8749346e-05 3.9990328e-10 4.906109e-10 -1.0434244e-06 1.7191565e-10
4.580075e-08 -7.3021558e-09 -5.0706194e-06 1.7045362e-09 -7.433134e-11 -1.361134e-06 -6.301463e-09 -6.5892777e-06
-1.4783551e-09 -1.1295292e-06 6.090216e-09 -7.2138015e-08 9.973854e-07 -1.0990258e-09 -3.0506573e-07 -9.836846e-10
-3.7152904e-07 -3.1610417e-09 8.6890617e-07 4.729001e-08 1.4868579e-10 8.532854e-09 2.8108911e-07 1.6710083e-09
-5.508722e-10 -1.1747105e-05 4.0711248e-09 3.5908881e-10 -1.0290817e-09 -6.655959e-07 -5.036292e-07 6.3444405e-10
-2.9752797e-10 -1.2524076e-06 1.5483035e-07 -1.1664124e-10 7.754954e-11 2.1592442e-10 5.062288e-09 3.3348693e-10
4.435045e-09 6.5990863e-12 2.5331415e-08 1.9467492e-09 -1.9391447e-07 2.117556e-06 -2.7821304e-07 -1.2286842e-09
3.5419625e-08 2.4726925e-09 1.9951879e-10 2.9869646e-08 3.2418404e-09 4.9626924e-11 7.679869e-06 9.698287e-10
-1.0554362e-09 -1.180389e-08 1.0961798e-07 -1.2236177e-06 3.9759476e-09 2.3813502e-06 1.0878353e-08 1.2953392e-08
1.492788e-09 3.445365e-07 -3.9273984e-09 -1.0086919e-08 -7.4721854e-11 -2.6591226e-10 1.6744117e-10 1.4111399e-07
9.356366e-06 6.688089e-10 -2.145663e-08 -4.8853865e-10 -1.102225e-08 -8.058313e-11 8.03228e-06 2.1784866e-05
-5.6134786e-07 3.4086452e-07 7.5622286e-10 3.842439e-09 7.328682e-07 -2.5910303e-08 -9.1621115e-07 -1.3483459e-09
4.541441e-06 -5.6926636e-10 5.7703736e-10 2.1670519e-09 -3.4528436e-09 2.6995492e-10 9.329643e-07 9.256509e-06
7.615809e-08 -7.913476e-11 -2.6436796e-06 5.89197e-11 -3.4234188e-07 2.1422382e-08 -5.275974e-10 -1.4499873e-06
1.2310518e-08 1.4810518e-09 3.5261208e-10 -2.2166334e-06 7.971392e-07 8.461783e-07 4.1044036e-06 -1.1460461e-07
1.6916907e-09 -5.911432e-07 -1.8649122e-09 2.3295174e-06 -3.4471583e-08 1.8944286e-09 1.7808569e-06 -2.5011866e-07
-1.2624832e-09 2.1267575e-10 7.99666e-08 8.061137e-07 -5.3102976e-08 2.1286814e-07 -3.6698218e-09 1.731459e-08
-5.905516e-06 -2.6149128e-11 -5.3905055e-06 3.268672e-08 -1.1647999e-05 -1.4575612e-05 8.7001986e-08 2.0838655e-09
1.3663591e-10 -3.5625092e-08 7.157884e-11 -1.3417882e-07 3.0347447e-08 -9.103543e-06 -3.196491e-09 -1.0926042e-07
-9.967735e-09 6.276842e-07 9.729664e-09 -3.9658367e-08 1.8659915e-05 -3.4873713e-07 2.3234683e-09 -8.474838e-09
5.450407e-07 4.0129808e-07 -5.888923e-11 -1.0178339e-07 8.365067e-09 5.960271e-11 3.1395544e-07 9.743209e-06
2.4536697e-09 -7.892498e-10 -3.159798e-10 -3.1895127e-08 5.201427e-10 1.3388955e-06 1.0708857e-09 4.6627378e-09
-2.0147912e-08 -2.8834456e-06 -4.0353733e-08 -1.0381656e-06 3.2885208e-10 -1.1468702e-08 -1.1448619e-05 -6.6220675e-11
-3.1966014e-09 2.5755128e-07 -1.6336099e-06 1.5729018e-10 3.8002508e-08 -7.1261073e-09 6.862753e-07 3.8866432e-08
7.309893e-07 7.918552e-09 -1.142403e-09 -1.1552219e-07 -5.99935e-06 -4.3111544e-07 -3.3264804e-08 6.28809e-10
7.90272e-09 -1.9553474e-10 5.098479e-07 -1.6394412e-06 -3.2611542e-08 -4.745564e-06 2.3439954e-07 -8.78431e-09
-7.739006e-08 -1.1645694e-10 -9.0962754e-07 -3.1603756e-07 1.6356606e-05 3.196029e-06 3.3675743e-08 -1.6518922e-09
-4.207569e-06 -1.5157817e-10 -3.1586897e-08 4.666771e-11 -5.2448286e-07 4.3156843e-09 1.1981584e-07 1.7129414e-08
6.7844155e-07 3.1841285e-09 -6.1053586e-11 -3.328196e-08 7.030663e-07 7.654807e-09 -1.1571883e-07 5.0198723e-06
1.8702227e-07 -1.6502277e-07 3.388305e-09 1.5068655e-07 -1.7651716e-10 8.0422126e-07 -5.126038e-06 -2.216571e-09
00000000: eaea e334 86b6 a2b6 d558 8c33 5c07 5faf
00000010: 166e 57b5 78c3 fcb7 56f0 1caf bbc4 dab3
00000020: 9590 92b6 91aa 33b1 7db8 2037 c7eb 9d30
00000030: 9246 1230 6755 a431 05f6 4132 63f6 db30
00000040: f6ba 8db7 6a75 adb3 1249 7f37 ea47 9d37
00000050: 62d9 db2f acdb 0630 ca0b 8cb5 f405 3d2f
00000060: 75b6 4433 71e6 fab1 4a24 aab6 0945 ea30
00000070: d374 a3ae 35b0 b6b5 4184 d8b1 7719 ddb6
00000080: ff2e cbb0 549a 97b5 1b42 d131 4bea 9ab3
00000090: e7dd 8535 880c 97b0 eac7 a3b4 5332 87b0
000000a0: 9076 c7b4 a239 59b1 c73e 6935 ea1b 4b33
000000b0: 547b 232f e497 1232 98e8 9634 61a9 e530
000000c0: 2f6c 17b0 6f15 45b7 fee1 8b31 4269 c52f
000000d0: 986f 8db0 67ab 32b5 2331 07b5 0865 2e30
000000e0: 5791 a3af 6618 a8b5 713f 2634 973f 00af
000000f0: 8388 aa2e 5269 6d2f 5bf0 ad31 1d56 b72f
00000100: 1263 9831 492f e82c 5f98 d932 93c7 0531
00000110: ce36 50b4 561b 0e36 4f5d 95b4 7bde a8b0
00000120: 4a20 1833 11ec 2931 8c5f 5b2f 064a 0033
00000130: 0fc7 5e31 f342 5a2e c9d8 0037 d04a 8530
00000140: dc0e 91b0 0fca 4ab2 1f67 eb33 2f3b a4b5
00000150: ce9c 8831 49cf 1f36 81e3 3a32 9f89 5e32
00000160: cf2a cd30 bcf8 b834 c3f1 86b1 bd4a 2db2
00000170: aa50 a4ae d32f 92af 801a 382f 1e85 1734
00000180: 49f9 1c37 3ed7 3730 a14f b8b2 da49 06b0
00000190: 5e5c 3db2 4534 b1ae 61c2 0637 a5be b637
000001a0: 88af 16b5 1000 b734 74de 4f30 7306 8431
000001b0: 52ba 4435 5c91 deb2 8df1 75b5 b450 b9b0
000001c0: ae62 9836 8f7a 1cb0 659d 1e30 2eeb 1431
000001d0: 1147 6db1 c768 942f d270 7a35 674c 1b37
000001e0: 5a8c a333 e904 aeae 126a 31b6 d890 812e
000001f0: 1ccb b7b4 5104 b832 5e06 11b0 2f9d c2b5
00000200: 3b7e 5332 e18d cb30 bdd9 c12f 79c1 14b6
00000210: fdfa 5535 ee24 6335 8fb8 8936 8d1c f6b3
00000220: 1381 e830 0daf 1eb5 e227 00b1 ce54 1c36
00000230: e80d 14b3 242f 0231 c705 ef35 0c48 86b4
00000240: ae83 adb0 e7d6 692f 1aba ab33 b663 5835
00000250: 5713 64b3 c090 6434 3030 7cb1 30bb 9432
00000260: ff27 c6b6 9a02 e6ad 17e0 b4b6 6e63 0c33
00000270: c66b 43b7 c789 74b7 d9d5 ba33 c033 0f31
00000280: 973b 162f 3402 19b3 4e67 9d2e cb12 10b4
00000290: 5f57 0233 6bbb 18b7 44a9 5bb1 8da2 eab3
000002a0: 903e 2bb2 217e 2835 8427 2732 d654 2ab3
000002b0: dd87 9c37 113a bbb4 e3aa 1f31 bb98 11b2
000002c0: e94e 1235 fd71 d734 b07f 81ae 0394 dab3
000002d0: f4b5 0f32 5811 832e b58d a834 c476 2337
000002e0: 6a9d 2831 84f2 58b0 34b6 adaf 10fd 08b3
000002f0: caf9 0e30 19b4 b335 712e 9330 e035 a031
00000300: ba11 adb2 3881 41b6 6651 2db3 1957 8bb5
00000310: d1c9 b42f e307 45b2 7213 40b7 ed9e 91ae
00000320: 35ab 5bb1 9445 8a34 6942 dbb5 40f1 2c2f
00000330: 3338 2333 e7d9 f4b1 7b38 3835 18ee 2633
00000340: 3439 4435 290a 0832 bb02 9db0 ff14 f8b3
00000350: 064e c9b6 0e74 e7b4 0adf 0eb3 80d8 2c30
00000360: 88c4 0732 23fe 56af 7bdc 0835 c50a dcb5
00000370: c510 0cb3 163c 9fb6 41af 7b34 cee9 16b2
00000380: a331 a6b3 b70b 00af 212d 74b5 dfab a9b4
00000390: 8b35 8937 5c7b 5636 dfa2 1033 ca08 e3b0
000003a0: be2e 8db6 76a9 26af 29aa 07b3 2c3f 4d2e
000003b0: 30ca 0cb5 2949 9431 baa6 0034 fb23 9332
000003c0: 261e 3635 c8cf 5a31 1d42 86ae e7f1 0eb3
000003d0: 59ba 3c35 3282 0332 1981 f8b3 6070 a836
000003e0: 4ad0 4834 1d31 31b4 b1d7 6831 67cc 2134
000003f0: 2a15 42af aae1 5735 5500 acb6 5452 18b1

attention_layer.to_out.weight f4 [16]
0.83648485 0.7324403 0.8765732 0.70154357 0.73115885 0.67502546 0.84659153 0.6918527
0.7395066 0.6604805 0.6909612 0.71393204 0.6760784 0.86575484 0.711949 0.75550723
00000000: df23 563f 3581 3b3f 1a67 603f 5c98 333f
00000010: 3a2d 3b3f 78ce 2c3f 39ba 583f 421d 313f
00000020: 4e50 3d3f 4015 293f d5e2 303f 40c4 363f
00000030: 7913 2d3f 1ca2 5d3f 4a42 363f ec68 413f

attention_layer.to_out.bias f4 [16]
0.016261691 -0.022735609 0.00089667755 0.04265074 -0.043858927 -0.020784829 0.03340991 0.040076807
-0.03333524 -0.00088203175 -0.046905987 -0.0036696717 0.012503942 0.03729535 -0.004991715 -0.031739388
00000000: 3d37 853c 0740 babc 030f 6b3a 8bb2 2e3d
00000010: 6ba5 33bd f244 aabc d4d8 083d 9427 243d
00000020: 888a 08bd 2638 67ba 7e20 40bd e07e 70bb
00000030: 55dd 4c3c 02c3 183d 8a91 a3bb 2901 02bd

LayerNorm.weight f4 [16]
0.8386921 0.7184043 0.84333056 0.66998667 0.715818 0.6694042 0.83729887 0.6702559
0.7615964 0.71098065 0.65641445 0.7051442 0.7207162 0.9002801 0.7064455 0.7694452
00000000: 87b4 563f 58e9 373f 83e4 573f 3f84 2b3f
00000010: d93f 373f 135e 2b3f 3859 563f e495 2b3f
00000020: fbf7 423f d402 363f c70a 283f 5584 343f
00000030: db80 383f c278 663f 9dd9 343f 5cfa 443f

LayerNorm.bias f4 [16]
-0.0056553404 0.015393777 -0.020565027 0.093029514 -0.0006194093 -0.045867328 0.04008036 0.03729697
-0.021842673 -0.03721251 -0.046748497 -0.0105895465 -0.0016180861 0.03782032 -0.0048444592 -0.057325825
00000000: 6f50 b9bb 2e36 7c3c fd77 a8bc 4286 be3d
00000010: db5f 22ba 61df 3bbd 4e2b 243d b5c4 183d
00000020: 68ef b2bc 256c 18bd 5a7b 3fbd c77f 2dbc
00000030: f615 d4ba 7be9 1a3d 45be 9ebb 7cce 6abd

LayerNorm2.weight f4 [16]
1.1482078 1.1168915 1.2217193 1.1422166 1.0706308 1.153287 1.2136468 0.92884016
1.171982 0.79635036 1.0634292 1.1335192 1.0313334 1.1887172 1.158653 1.130261
00000000: 79f8 923f 4df6 8e3f 4c61 9c3f 2734 923f
00000010: 6e0a 893f e99e 933f c758 9b3f 78c8 6d3f
00000020: 8203 963f 9edd 4b3f 731e 883f 2817 913f
00000030: bc02 843f e327 983f be4e 943f 64ac 903f
