CMI-Net/checkpoint/ConvTrans/setting0/2025_03_29_19h_44m_19s/ConvTrans-best.pth (torch, 66379 bytes, 28 tensors)

embed_layer.0.weight f4 [64, 1, 1, 8]
0.28769925 0.036638297 0.023259433 -0.035478674 -0.27685902 -0.25443524 -0.013606108 0.24026056
-0.016728478 -0.07817591 -0.12370172 0.07036924 0.13435636 0.1330885 0.09856995 0.0432593
-0.078624904 -0.19385937 0.011369231 0.13760965 -0.14354831 -0.0043518837 -0.073340096 0.12981805
0.10439868 0.023213377 0.090452164 -0.011013376 -0.15804985 0.113282055 0.09104723 -0.035828978
0.043032255 0.054205466 0.03455505 0.03195159 0.036775533 0.06621209 -0.051961496 0.040108882
0.106207445 -0.18764985 -0.1345513 0.024908645 -0.020244325 0.10601683 0.030371917 0.2218943
0.2671427 -0.27806878 0.2051135 0.013350764 -0.06703282 -0.028972002 0.1231571 -0.094315894
0.12119565 -0.21770027 0.20243399 -0.044927545 0.009997799 0.15834805 -0.18630278 0.08107953
-0.2076797 0.13153933 0.0013595079 -0.113825634 0.2171854 -0.27794462 0.13869908 0.048107762
0.07876318 0.075326994 -0.1398499 0.22693627 -0.030236144 -0.18570505 -0.14242718 -0.1512351
0.2183018 -0.24206169 0.24553247 -0.09041521 -0.040837865 -0.24347128 0.10255191 0.048026204
-0.2570022 -0.10975376 0.2655084 0.07607117 -0.23854595 0.2849999 0.1728531 0.025454493
0.23849268 -0.15232755 -0.19396411 -0.22425787 0.1273051 0.06390827 0.1440604 -0.14743188
-0.06550905 -0.027109941 -0.074608415 -0.036837436 -0.07628326 0.041683074 -0.031218762 -0.056636345
-0.21443586 0.07774693 0.1438055 0.040678628 0.16302073 0.059468217 -0.11579791 -0.15464927
0.024107147 0.12239466 -0.10610768 -0.09351216 -0.20826969 0.08980736 0.27517334 -0.043445576
-0.25794047 -0.11075772 0.22371726 -0.26509446 -0.07341915 0.31373757 0.031551827 0.12924695
0.060440015 0.02655363 0.027788533 0.014653778 0.019603314 0.0434983 0.00481337 0.017877117
-0.04458252 0.02797202 0.16558239 -0.07172181 0.24930914 -0.0794662 -0.26382047 -0.17285061
0.07137272 0.0429675 0.10441311 0.040229604 -0.13186659 0.026800439 0.07126944 -0.018714799
0.18980435 0.0499339 -0.111268826 -0.27008826 -0.18270731 0.05012144 -0.2416207 0.21660712
0.00061026623 -0.058663547 -0.084532954 0.11651543 -0.06650789 -0.028823873 -0.113106176 -0.06063765
0.07016614 0.026611356 0.025042346 -0.035458684 0.0891763 0.021876 0.026156448 0.05630939
0.18484427 -0.0696656 0.20231144 0.035773415 0.18554103 -0.23259379 -0.011998871 -0.14902283
0.0386374 0.057754956 -0.019640442 -0.016995423 -0.03645073 -0.053096153 0.003564293 -0.08381566
-0.09133742 0.06487611 0.11936909 -0.167593 -0.07162471 0.22411005 0.2234203 -0.2822968
-0.07319623 -0.010027415 0.07420897 0.03786925 0.06538326 0.048527647 0.05225415 0.0029501775
0.07245308 -0.14464064 -0.13785772 -0.13642074 0.036212154 0.22043845 -0.022711406 -0.08321056
0.04398729 0.016306683 0.0426912 0.013727445 0.024426913 0.030542204 0.024640892 0.020602435
0.0066473447 0.17534676 -0.03341615 0.17966232 0.18952169 -0.091533385 -0.15621859 0.02848127
0.024648698 -0.18102121 0.15726316 -0.19741876 0.06465238 -0.16361687 -0.12737018 0.124126725
-0.06920029 -0.01605373 -0.035942428 -0.006725182 -0.031831477 0.01692756 0.0047110287 0.007035397
00000000: 514d 933e 0a12 163d 918a be3c 1652 11bd
00000010: 77c0 8dbe 5645 82be 27ec 5ebc dd06 763e
00000020: 290a 89bc b11a a0bd 5457 fdbd c01d 903d
00000030: b794 093e 5a48 083e 0bdf c93d aa30 313d
00000040: 1806 a1bd 1283 46be 0346 3a3c 8be9 0c3e
00000050: 54fe 12be 3f9a 8ebb 5533 96bd 06ef 043e
00000060: face d53d fb29 be3c fc3e b93d 7271 34bc
00000070: d2d7 21be 6c00 e83d f876 ba3d 68c1 12bd
00000080: 9742 303d 8d06 5e3d 9989 0d3d acdf 023d
00000090: f1a1 163d 349a 873d 94d5 54bd 3649 243d
000000a0: 4a83 d93d 4827 40be d1c7 09be 370d cc3c
000000b0: 6dd7 a5bc 5a1f d93d 87ce f83c 4238 633e
000000c0: eec6 883e 085f 8ebe 4609 523e 2abd 5a3c
000000d0: 8148 89bd b156 edbc ca39 fc3d b128 c1bd
000000e0: 6d35 f83d d2ec 5ebe db4a 4f3e f205 38bd
000000f0: cfcd 233c fe25 223e 28c6 3ebe 060d a63d
00000100: fda9 54be 3fb2 063e 8431 b23a 6a1d e9bd
00000110: d965 5e3e c24e 8ebe 2207 0e3e a50c 453d
00000120: 974e a13d 0a45 9a3d d034 0fbe fb61 683e
00000130: cab1 f7bc 7729 3ebe 6ed8 11be 60dd 1abe
00000140: 828a 5f3e 05df 77be dd6c 7b3e 9c2b b9bd
00000150: 9b45 27bd 8950 79be bc06 d23d 20b7 443d
00000160: cb95 83be 94c6 e0bd b8f0 873e 34cb 9b3d
00000170: 6445 74be 82eb 913e 6700 313e f185 d03c
00000180: 6d37 743e c1fb 1bbe 879e 46be dba3 65be
00000190: 455c 023e 57e2 823d 9284 133e 62f8 16be
000001a0: 9c29 86bd ab15 debc 4ccc 98bd dae2 16bd
000001b0: 663a 9cbd dfbb 2a3d 7dbe ffbc 83fb 67bd
000001c0: 1395 5bbe c839 9f3d c041 133e a29e 263d
000001d0: e8ee 263e f294 733d 7427 edbd 615c 1ebe
000001e0: 5a7c c53c 0daa fa3d fc4e d9bd 4e83 bfbd
000001f0: a644 55be ecec b73d 85e3 8c3e fdf3 31bd
00000200: c610 84be f2d4 e2bd 2316 653e 76ba 87be
00000210: c85c 96bd 36a2 a03e 7d3c 013d 5059 043e
00000220: f38f 773d 0087 d93c c7a4 e33c 6616 703c
00000230: 2197 a03c 462b 323d 79b9 9d3b 0873 923c
00000240: 299c 36bd 9425 e53c 6e8e 293e e2e2 92bd
00000250: e54a 7f3e 2dbf a2bd 7a13 87be c0ff 30be
00000260: dc2b 923d b0fe 2f3d 8ad6 d53d ccc7 243d
00000270: 0908 07be 988c db3c b6f5 913d c74f 99bc
00000280: 125c 423e 7d87 4c3d e9e0 e3bd 0249 8abe
00000290: a017 3bbe 244c 4d3d 6b6b 77be 42ce 5d3e
000002a0: 46fa 1f3a 3049 70bd 9d1f adbd a49f ee3d
000002b0: 4a35 88bd 0b20 ecbc 36a4 e7bd 2f5f 78bd
000002c0: 44b3 8f3d 0f00 da3c 9b25 cd3c 203d 11bd
000002d0: 10a2 b63d 4c35 b33c 0c46 d63c ada4 663d
000002e0: d147 3d3e d7ac 8ebd bb2a 4f3e 2587 123d
000002f0: 78fe 3d3e 112d 6ebe ea96 44bc 7199 18be
00000300: 4042 1e3d 7690 6c3d fee4 a0bc fc39 8bbc
00000310: 5c4d 15bd 5a7b 59bd ea96 693b 8ba7 abbd
00000320: 1d0f bbbd c4dd 843d c877 f43d 809d 2bbe
00000330: faaf 92bd 1b7d 653e 4bc8 643e 3589 90be
00000340: e8e7 95bd 074a 24bc dffa 973d c91c 1b3d
00000350: a9e7 853d edc4 463d 7308 563d c457 413b
00000360: 4862 943d ad1c 14be 932a 0dbe e1b1 0bbe
00000370: 3253 143d 9eba 613e 450d babc 4c6a aabd
00000380: 042c 343d 9895 853c f8dc 2e3d 14e9 603c
00000390: f31a c83c a533 fa3c b2db c93c 70c6 a83c
000003a0: f8d1 d93b 1a8e 333e 5fdf 08bd 66f9 373e
000003b0: f911 423e db75 bbbd c4f7 1fbe 8d51 e93c
000003c0: 11ec c93c a05d 39be 9809 213e 2528 4abe
000003d0: 7868 843d 2e8b 27be 546d 02be 2736 fe3d
000003e0: e2b8 8dbd 1d83 83bc 5e38 13bd ea5e dcbb
000003f0: b961 02bd abab 8a3c f95e 9a3b 3089 e63b

embed_layer.0.bias f4 [64]
-0.011183796 -0.3139208 0.07637564 -0.047358762 -0.16781814 0.23318915 0.08597457 0.31412697
0.2221157 -0.08038059 0.21131031 0.0041987346 -0.06668658 0.029246934 -0.3209283 -0.21249731
0.13301949 0.23679158 -0.28581756 0.05813628 -0.0034027412 0.022176167 -0.31435168 -0.27439168
-0.026159424 0.32766882 0.33745095 0.007568901 0.24322772 -0.31612253 0.24994637 0.001858964
0.19028294 -0.23008223 0.15038398 0.10693467 0.16192758 -0.11981325 -0.34010804 0.14228815
-0.33888143 -0.18081254 -0.03652069 -0.31729734 -0.23352 0.22555579 -0.19433245 -0.33123776
0.0072689657 0.23151116 -0.28271446 0.14641976 -0.32470497 0.32594717 -0.31321904 0.2590455
-0.17349586 -0.010933475 0.15574251 -0.35055226 0.16408926 0.020117272 0.17199542 0.31230524
00000000: 3e3c 37bc 3aba a0be d56a 9c3d 43fb 41bd
00000010: 85d8 2bbe 23c9 6e3e 6f13 b03d 40d5 a03e
00000020: 4c72 633e 949e a4bd bb61 583e 8a95 893b
00000030: f992 88bd 4497 ef3c b750 a4be e598 59be
00000040: 4336 083e 7e79 723e ae56 92be 4f20 6e3d
00000050: 8600 5fbb cbaa b53c b4f2 a0be 117d 8cbe
00000060: 4a4c d6bc 35c4 a73e 5fc6 ac3e 8b04 f83b
00000070: b010 793e d0da a1be f1f1 7f3e 7ba8 f33a
00000080: 88d9 423e ad9a 6bbe 42fe 193e 9000 db3d
00000090: 58d0 253e a660 f5bd a422 aebe fcb3 113e
000000a0: de81 adbe ec26 39be b896 15bd cc74 a2be
000000b0: de1f 6fbe 19f8 663e 16ff 46be ff97 a9be
000000c0: 8130 ee3b 4311 6d3e f3bf 90be 10ef 153e
000000d0: bb3f a6be 8ce2 a63e 3f5e a0be 9da1 843e
000000e0: e6a8 31be 5122 33bc f77a 1f3e 967b b3be
000000f0: 0407 283e facc a43c 911f 303e 79e6 9f3e

embed_layer.1.weight f4 [64]
0.7750435 0.7783099 0.7438696 0.8074039 0.8667084 0.7886369 0.77272534 0.8277333
0.78894526 0.78681266 0.79791206 0.80068195 0.8079026 0.866856 0.9253857 0.76236874
0.8462527 0.8221263 0.8359756 0.78876525 0.7933478 0.8057924 0.906746 0.7578252
0.84279853 0.74338865 0.84657425 0.7813037 0.8557614 0.79900134 0.8407181 0.8073468
0.8441436 0.7612445 0.7610902 0.84192026 0.74960935 0.8189597 0.82551223 0.7370063
0.8466648 0.79499876 0.8352069 0.783671 0.7932299 0.8687789 0.81217575 0.8223641
0.845314 0.81258005 0.79915786 0.8347372 0.76994056 0.8538486 0.76797444 0.7729507
0.724735 0.89873356 0.76125246 0.83219796 0.7642274 0.8088826 0.75956684 0.7741201
00000000: 4069 463f 513f 473f 3d6e 3e3f 06b2 4e3f
00000010: 9ae0 5d3f 1ce4 493f 54d1 453f 54e6 533f
00000020: 51f8 493f 8e6c 493f f743 4c3f 7ef9 4c3f
00000030: b4d2 4e3f 46ea 5d3f 14e6 6c3f 992a 433f
00000040: 04a4 583f df76 523f 7f02 563f 85ec 493f
00000050: d718 4b3f 6948 4e3f 8120 683f d500 423f
00000060: a5c1 573f b84e 3e3f 17b9 583f 8503 483f
00000070: 2e13 5b3f 5a8b 4c3f 4d39 573f 48ae 4e3f
00000080: cc19 583f ebe0 423f cfd6 423f 1688 573f
00000090: 66e6 3f3f 58a7 513f c554 533f 72ac 3c3f
000000a0: 06bf 583f 0a85 4b3f 1fd0 553f aa9e 483f
000000b0: 1d11 4b3f 4b68 5e3f c0ea 4f3f 7486 523f
000000c0: 8066 583f 3f05 503f 9c95 4c3f 56b1 553f
000000d0: d31a 453f d295 5a3f f999 443f 19e0 453f
000000e0: 3c88 393f 6713 663f 71e1 423f ed0a 553f
000000f0: 68a4 433f ee12 4f3f f972 423f bc2c 463f

embed_layer.1.bias f4 [64]
-0.008633233 0.00064364815 0.010917272 0.0030087954 0.010557098 -0.0059857448 0.018511206 0.032810826
-0.014514797 0.017551722 0.0034009635 -0.026254015 -0.06773725 0.035868205 0.03478294 0.039203007
-0.09615043 0.007671648 0.0028240068 -0.025496028 -0.008719869 0.048532832 -0.009506083 0.015962211
0.012463729 -0.025282873 0.00059453567 -0.0054223617 -0.000663478 0.008186373 0.016202483 0.07045269
0.0022756353 -0.017997587 -0.063878156 0.0060924133 -0.011067552 -0.029008841 -0.024851225 -0.004377849
-0.024127102 0.06339145 -0.019921953 0.018230205 0.038041316 0.020536127 -0.013640031 -0.045931183
0.04682332 0.0059109414 0.034142435 7.514991e-05 0.015682874 0.01028475 0.017886395 0.04214226
0.026540408 -0.11333618 -0.08817915 -0.0164774 -0.050222125 -0.038766153 -0.041311186 0.03475121
00000000: 6772 0dbc 7fba 283a 5cde 323c 362f 453b
00000010: aef7 2c3c 1124 c4bb d0a4 973c a564 063d
00000020: 79cf 6dbc a1c8 8f3c b3e2 5e3b a912 d7bc
00000030: d4b9 8abd 8aea 123d 8e78 0e3d 5593 203d
00000040: 84ea c4bd 7362 fb3b f912 393b 0cdd d0bc
00000050: c8dd 0ebc 5dca 463d 67bf 1bbc 2fc3 823c
00000060: ab34 4c3c 071e cfbc 9dda 1b3a 11ae b1bb
00000070: 41ed 2dba 2320 063c 12bb 843c 8049 903d
00000080: d322 153b ad6f 93bc 8dd2 82bd dea2 c73b
00000090: ad54 35bc f3a3 edbc cc94 cbbc 0f74 8fbb
000000a0: 33a6 c5bc 60d3 813d 5d33 a3bc 8357 953c
000000b0: 36d1 1b3d 613b a83c 707a 5fbc 5622 3cbd
000000c0: cfc9 3f3d 92b0 c13b f0d8 0b3d cd99 9d38
000000d0: 5f79 803c 5e81 283c 7d86 923c 5d9d 2c3d
000000e0: 456b d93c cd1c e8bd 4597 b4bd 9dfb 86bc
000000f0: b7b5 4dbd 42c9 1ebd eb35 29bd 4957 0e3d

embed_layer.1.running_mean f4 [64]
-0.009993185 -0.33525854 0.09387128 -0.064830996 -0.18877682 0.222291 0.07462775 0.30393153
0.22723544 -0.059563026 0.21204306 -0.014061842 -0.053928398 0.05601633 -0.32281944 -0.21626513
0.13434742 0.21917698 -0.27179995 0.041325457 0.023261698 0.045864593 -0.33705604 -0.28731233
-0.017222568 0.32573548 0.32079017 0.023890097 0.22548376 -0.34168342 0.2749311 0.012779237
0.17244937 -0.22580695 0.1499567 0.08905212 0.1615086 -0.13970369 -0.3394528 0.13168135
-0.31556025 -0.15364936 -0.026017206 -0.3271426 -0.2547986 0.23617561 -0.20982577 -0.34957525
0.005129283 0.2139155 -0.26181015 0.121339954 -0.3374424 0.31828633 -0.32744542 0.28194192
-0.16280225 -0.011961309 0.1561432 -0.3317465 0.1747532 0.020264003 0.17131911 0.32826787
00000000: 75ba 23bc 02a7 abbe 963f c03d 1dc6 84bd
00000010: b64e 41be 40a0 633e 6fd6 983d ea9c 9b3e
00000020: 68b0 683e 5cf8 73bd d121 593e a463 66bc
00000030: 06e4 5cbd 6171 653d 9748 a5be 9b74 5dbe
00000040: 5f92 093e ee6f 603e 5d29 8bbe e244 293d
00000050: 518f be3c 83dc 3b3d 9c92 acbe 9a1a 93be
00000060: 5816 8dbc cdc6 a63e 9c3e a43e 2ab5 c33c
00000070: 37e5 663e 21f1 aebe c5c3 8c3e 0160 513c
00000080: 9196 303e f039 67be 408e 193e f560 b63d
00000090: 8362 253e 7c0e 0fbe c2cc adbe 7ad7 063e
000000a0: 1d91 a1be 4256 1dbe 0922 d5bc 3c7f a7be
000000b0: f674 82be 05d8 713e 91dc 56be 87fb b2be
000000c0: 8b13 a83b aa0c 5b3e fb0b 86be 1581 f83d
000000d0: 40c5 acbe 6df6 a23e eda6 a7be b15a 903e
000000e0: a2b5 26be 5ef9 43bc 01e4 1f3e adda a9be
000000f0: 81f2 323e b200 a63c 476e 2f3e ba12 a83e

embed_layer.1.running_var f4 [64]
0.039172977 0.060017005 0.044902794 0.04000301 0.047545683 0.030645687 0.033254918 0.02509661
0.022312608 0.069802955 0.023307856 0.07629821 0.043777887 0.07713143 0.01843577 0.022388548
0.041451376 0.03330645 0.049471203 0.034846343 0.10242778 0.064647146 0.05628392 0.03977707
0.010856118 0.027793176 0.03177352 0.042945296 0.033683807 0.08319072 0.07892577 0.013379024
0.03748132 0.02758547 0.021143932 0.0441734 0.023593495 0.045612533 0.019462831 0.026737647
0.06176545 0.09149788 0.018703904 0.011841486 0.070838846 0.013424259 0.027007917 0.040517863
0.039620165 0.0430512 0.058719885 0.0775389 0.017961793 0.018499477 0.028964493 0.07314048
0.033406403 0.04480913 0.025255628 0.051577967 0.042865947 0.033484425 0.022881418 0.028320719
00000000: d873 203d 64d4 753d feeb 373d 32da 233d
00000010: 43bf 423d aa0c fb3c 4f36 083d 6897 cd3c
00000020: eec8 b63c daf4 8e3d 1ef0 be3c 3c42 9c3d
00000030: 7150 333d 15f7 9d3d 9d06 973c 3068 b73c
00000040: ebc8 293d 586c 083d 51a2 4a3d 0abb 0e3d
00000050: a8c5 d13d b965 843d f889 663d 48ed 223d
00000060: dcdd 313c 84ae e33c f324 023d 68e7 2f3d
00000070: 08f8 093d e55f aa3d d6a3 a13d b233 5b3c
00000080: 0386 193d ecfa e13c 0a36 ad3c 2bef 343d
00000090: 2547 c13c 35d4 3a3d 8470 9f3c e908 db3c
000000a0: c5fd 7c3d 3e63 bb3d ee38 993c cb02 423c
000000b0: f513 913d 6cf1 5b3c b53f dd3c 0ff6 253d
000000c0: c148 223d 7556 303d 4384 703d b7cc 9e3d
000000d0: 9c24 933c 378c 973c f246 ed3c adca 953d
000000e0: 27d5 083d c789 373d e4e4 ce3c 6b43 533d
000000f0: 3494 2f3d f726 093d d071 bb3c da00 e83c

embed_layer2.0.weight f4 [16, 64, 3, 1]
-0.038615435 0.05102769 0.0118308375 0.037951075 0.0029213252 0.024927506 0.00797651 -0.03955761
-0.0064610704 -0.008840003 0.00088392495 0.034434337 0.044951927 0.023593424 0.0033574526 0.026176415
0.034159843 0.005550921 0.010020163 -0.0176418 -0.006080976 -0.018011548 -0.007827655 0.014883643
0.0010133758 -0.01425734 8.086496e-05 0.013782862 -0.022736682 0.015722947 0.0028972887 -0.01314342
-0.0068038926 0.012350035 0.008198628 -0.0066063707 -0.032049015 -0.026193127 -0.009157252 0.026009316
0.013162582 0.014212626 -0.015710942 0.048090626 0.022407956 -0.00055433944 -0.0019658245 0.009970652
-0.009825041 -0.0012679087 0.0037881446 0.035906795 0.024929192 0.03359302 0.022420615 0.0060422756
0.003236879 0.023232099 0.0148691945 0.040551495 0.024219906 0.008776454 0.02867042 0.045536913
-0.009701282 0.016681978 -0.0039190473 0.025740396 0.0008502883 -0.0033672669 0.029156169 -0.0021292213
0.06876241 0.0070888363 0.023683855 0.012524346 -0.01693458 -0.0093631 -0.011931078 0.023887927
-0.042998843 -0.004120366 0.0016335004 0.004151388 0.0033255343 -0.012219498 -0.012810116 0.04099337
0.022575503 0.039194364 0.0139434775 -0.01737548 0.022097446 0.045101788 -0.04075516 -0.002905959
-0.01397175 0.021096209 -0.011815896 0.0031584448 0.021757469 -0.019775916 -0.037691288 -8.401814e-05
0.00015733222 -0.006676872 0.029935384 -0.016023135 -0.0051493943 -0.0032534173 0.014411787 -0.0025358528
-0.006266411 0.009736354 -0.014993454 -0.017005399 0.017550953 -0.024697177 0.029978342 0.024676198
0.013384448 0.014852328 0.03174346 0.005515476 -0.03348389 -0.003711499 -0.024609275 -0.009257255
0.0076799244 0.027087357 -0.002988236 0.020429837 0.015105065 0.02214122 -0.00071339903 0.0029174308
0.0025084459 -0.013479027 -0.005187019 -0.0055286237 0.007565408 0.023109538 0.015833251 0.014311835
-0.016790986 0.05101793 0.01264932 0.02092139 0.008248683 -0.0075274156 -0.0014575985 -0.041879665
0.0038273137 0.031351473 -0.01691218 -0.017244486 0.00023907294 -0.021125909 -0.024829855 0.002621906
0.0033447074 -0.0015495879 0.03068899 0.002201393 -0.032685168 0.0018294493 -0.009874515 0.019754827
-0.013102813 -0.0032871016 0.04336612 0.025611125 0.07002768 0.042849876 0.009155947 0.02042287
-0.015382428 -0.0013265606 0.03406829 0.04706078 0.0002860708 -0.015166365 0.006000149 -0.018772967
-0.018820234 -0.014506948 -0.0058334013 -0.011994464 0.0064751804 0.01726591 0.0181271 0.02117851
0.01316827 0.026624393 -0.0036849268 -0.014827113 -0.005978264 -0.0027664173 -0.023520669 -0.05350129
0.0022701984 0.023206221 0.016790368 -0.0010855335 -0.017238194 0.03533636 0.010799896 -0.0021966705
0.013160351 0.05146296 0.015058258 0.011312089 0.010625649 -0.0038659028 -0.0043754606 0.030890184
0.03903936 -0.017269226 0.015163356 0.048394352 0.0026139594 -0.033808354 0.041274384 -0.007703589
0.029419728 0.0320602 -0.0013068132 -0.001274643 -0.023590047 -0.021112138 0.007208414 -0.023449207
0.0054729325 0.02740802 0.04262476 0.047599223 -0.01000613 0.025382074 0.023526706 0.034187783
0.03712741 -0.008960894 -0.008413003 -0.014961626 0.018617623 -0.0030690196 0.054962415 -0.015577046
0.008753775 -0.002754858 0.0042839036 -0.032799628 0.050010193 -0.00031715733 -0.038133323 0.033617876
00000000: 382b 1ebd 6902 513d 21d6 413c 9672 1b3d
00000010: b473 3f3b c534 cc3c e8af 023c 2907 22bd
00000020: 63b7 d3bb a9d5 10bc 33b7 673a 050b 0d3d
00000030: 831f 383d ff46 c13c b508 5c3b ec6f d63c
00000040: 31eb 0b3d 80e4 b53b 9c2b 243c 8985 90bc
00000050: ed42 c7bb f48c 93bc 913f 00bc 86da 733c
00000060: 40d3 843a 9e97 69bc 0b96 a938 83d1 613c
00000070: 4742 babc 69cd 803c 70e0 3d3b 8057 57bc
00000080: 30f3 debb cd57 4a3c 8a53 063c 417a d8bb
00000090: d445 03bd f892 d6bc 4c08 16bc 7d11 d53c
000000a0: dfa7 573c 13dc 683c 3cb4 80bc adfa 443d
000000b0: e490 b73c 1751 11ba 10d5 00bb f25b 233c
000000c0: 35f9 20bc f52f a6ba 8542 783b 0113 133d
000000d0: 4e38 cc3c d698 093d 70ab b73c 48fe c53b
000000e0: d121 543b 3e51 be3c ec9d 733c 5319 263d
000000f0: d368 c63c 1ecb 0f3c 3bde ea3c ea84 3a3d
00000100: 20f2 1ebc a5a8 883c 5a6b 80bb 86dd d23c
00000110: e2e5 5e3a 5dad 5cbb ebd8 ee3c 688a 0bbb
00000120: 4ed3 8c3d 7849 e83b a504 c23c ea32 4d3c
00000130: 63ba 8abc b067 19bc 917a 43bc 9db0 c33c
00000140: 8e1f 30bd 2304 87bb 2e1b d63a 5e08 883b
00000150: 35f1 593b 4a34 48bc 85e1 51bc aae8 273d
00000160: 43f0 b83c 458a 203d 2f73 643c 0657 8ebc
00000170: b405 b53c a7bc 383d e2ee 26bd e771 3ebb
00000180: c4e9 64bc f5d1 ac3c 7697 41bc e9fd 4e3b
00000190: b83c b23c 1a01 a2bc 2e62 1abd e532 b0b8
000001a0: 8cf9 2439 a9c9 dabb 0d3b f53c f342 83bc
000001b0: 40bc a8bb 4937 55bb 6a1f 6c3c 8d30 26bb
000001c0: 7756 cdbb 3b85 1f3c 1ba7 75bc e84e 8bbc
000001d0: 04c7 8f3c bc51 cabc 2495 f53c bd25 ca3c
000001e0: 724a 5b3c 2e57 733c 6e05 023d 2bbb b43b
000001f0: 6726 09bd 9f3c 73bb 6499 c9bc beab 17bc
00000200: e0a7 fb3b 4ee6 dd3c 48d6 43bb 795c a73c
00000210: 3c7b 773c 8161 b53c 6603 3bba 5e32 3f3b
00000220: bd64 243b 23d7 5cbc def7 a9bb 7529 b5bb
00000230: 3ee7 f73b 3750 bd3c bcb4 813c 307c 6a3c
00000240: 408d 89bc 2df8 503d 183f 4f3c 5663 ab3c
00000250: 7c25 073c 8aa8 f6bb e40c bfba 038a 2bbd
00000260: abd3 7a3b 676a 003d 6a8b 8abc 4f44 8dbc
00000270: a7af 7a39 3e10 adbc fb67 cbbc 49d4 2b3b
00000280: e132 5b3b 8b1b cbba 7a67 fb3c 3f45 103b
00000290: e2e0 05bd 22ca ef3a b8c8 21bc e0d4 a13c
000002a0: 2ead 56bc 6a6c 57bb aca0 313d 6cce d13c
000002b0: ac6a 8f3d 5a83 2f3d d302 163c dd4d a73c
000002c0: 9406 7cbc fddf adba 318b 0b3d cec2 403d
000002d0: c6fb 9539 587c 78bc e69c c43b c4c9 99bc
000002e0: e42c 9abc 8dae 6dbc 1e26 bfbb 6e84 44bc
000002f0: c02d d43b 3d71 8d3c 497f 943c 8e7e ad3c
00000300: babf 573c 661b da3c d07e 71bb 6bed 72bc
00000310: 50e5 c3bb c84c 35bb 6bae c0bc 2b24 5bbd
00000320: 9cc7 143b f91a be3c f48b 893c 7648 8eba
00000330: 1d37 8dbc dcbc 103d 0cf2 303c 04f6 0fbb
00000340: 839e 573c d3ca 523d e9b6 763c 5756 393c
00000350: 3417 2e3c 165b 7dbb 0660 8fbb 690d fd3c
00000360: bce7 1f3d 3178 8dbc ba6f 783c 2839 463d
00000370: f64e 2b3b a17a 0abd 540f 293d 636e fcbb
00000380: a401 f13c 8e51 033d 6049 abba ec11 a7ba
00000390: ea3f c1bc 5df3 acbc 8f34 ec3b 8d18 c0bc
000003a0: 4956 b33b c986 e03c 4d97 2e3d 67f7 423d
000003b0: c0f0 23bc 11ee cf3c 14bb c03c 7d08 0c3d
000003c0: e912 183d b7d0 12bc b1d6 09bc 9c21 75bc
000003d0: fc83 983c 9b21 49bb 4520 613d de36 7fbc
000003e0: fe6b 0f3c d98a 34bb fd5f 8c3b e758 06bd
000003f0: 7dd7 4c3d 2348 a6b9 b031 1cbd e6b2 093d

embed_layer2.0.bias f4 [16]
0.05187223 -0.06173275 0.045463566 -0.008004318 -0.062331285 0.047731586 0.06880571 0.039291605
-0.061456624 0.059234627 -0.06445402 0.020684173 -0.06897756 0.0041653086 0.017499922 0.020743828
00000000: fa77 543d 7bdb 7cbd 0138 3a3d 8b24 03bc
00000010: 174f 7fbd 3282 433d 02ea 8c3d 3cf0 203d
00000020: f1b9 7bbd 02a0 723d 7800 84bd db71 a93c
00000030: 1b44 8dbd 247d 883b ff5b 8f3c f6ee a93c

embed_layer2.1.weight f4 [16]
0.80097955 0.83266234 0.8171181 0.92773455 0.765848 0.9774855 0.84046197 0.78543264
0.8351312 0.74134684 0.9920274 0.88003683 0.77715796 0.82332176 0.8540435 0.8407666
00000000: ff0c 4d3f 5c29 553f a72e 513f 0380 6d3f
00000010: 9d0e 443f 7d3c 7a3f 8428 573f 1d12 493f
00000020: 29cb 553f e8c8 3d3f 82f5 7d3f 184a 613f
00000030: d3f3 463f 37c5 523f 98a2 5a3f 7b3c 573f

embed_layer2.1.bias f4 [16]
0.049666397 -0.016142653 -0.05866597 -0.0095563 -0.01706153 0.0066255946 0.011444925 -0.037021242
-0.034058776 -0.013618102 0.012658924 -0.048882708 -0.03820201 -0.04233187 -0.028390324 -0.025526969
00000000: fe6e 4b3d 993d 84bc ba4b 70bd 0792 1cbc
00000010: 9fc4 8bbc 841b d93b 7f83 3b3c 96a3 17bd
00000020: 3781 0bbd 761e 5fbc 6067 4f3c 3c39 48bd
00000030: b679 1cbd 2f64 2dbd d392 e8bc ef1d d1bc

embed_layer2.1.running_mean f4 [16]
0.2660101 0.16657145 0.34674856 0.011865044 -0.12633745 0.049208377 0.044176042 -0.032473423
0.038518686 -0.05612301 -0.09082046 0.3629077 -0.16157839 -0.10130905 0.20785959 0.34535906
00000000: 7a32 883e b591 2a3e 0789 b13e 9a65 423c
00000010: 9b5e 01be b98e 493d f0f1 343d da02 05bd
00000020: c5c5 1d3d 3ee1 65bd 1400 babd 0acf b93e
00000030: ce74 25be 1f7b cfbd 25d9 543e e7d2 b03e

embed_layer2.1.running_var f4 [16]
0.032931738 0.09056361 0.07914156 0.079213165 0.04944796 0.06713927 0.068567805 0.025105106
0.0133424625 0.028044894 0.046779353 0.04467038 0.03861407 0.018422466 0.069103405 0.011814904
00000000: 6ee3 063d 6a79 b93d f814 a23d 833a a23d
00000010: f289 4a3d 5080 893d 476d 8c3d 39a9 cd3c
00000020: 589a 5a3c 68be e53c b59b 3f3d 4af8 363d
00000030: c929 1e3d b6ea 963c 1686 8d3d 4d93 413c

Fix_Position.pe f4 [1, 50, 16]
0.0 1.0 0.0 1.0 0.0 1.0 0.0 1.0
0.0 1.0 0.0 1.0 0.0 1.0 0.0 1.0
0.31456655 0.94923544 0.10102027 0.9948844 0.031994537 0.99948806 0.010119115 0.9999488
0.0031999946 0.9999949 0.0010119284 0.9999995 0.00031999996 0.99999994 0.0001011929 1.0
0.59719545 0.8020958 0.20100698 0.9795898 0.06395631 0.9979527 0.020237193 0.9997952
0.006399956 0.9999795 0.0020238557 0.999998 0.00063999987 0.9999998 0.0002023858 1.0
0.8191916 0.57352 0.2989371 0.9542728 0.095852606 0.99539554 0.030353202 0.99953926
0.009599852 0.9999539 0.0030357807 0.9999954 0.00095999974 0.9999995 0.0003035787 0.99999994
0.95801586 0.28671524 0.39380878 0.9191924 0.12765075 0.9918192 0.040466096 0.9991809
0.01279965 0.9999181 0.004047703 0.99999183 0.0012799995 0.99999917 0.0004047716 0.99999994
0.9995736 -0.029199427 0.48465124 0.87470746 0.1593182 0.98722726 0.05057485 0.9987203
0.015999317 0.999872 0.0050596213 0.9999872 0.0015999993 0.99999875 0.0005059645 0.9999999
0.93964547 -0.34214962 0.5705351 0.8212732 0.19082251 0.98162454 0.06067843 0.9981574
0.01919882 0.9998157 0.0060715335 0.9999816 0.0019199987 0.99999815 0.00060715736 0.9999998
0.78431594 -0.6203616 0.6505817 0.75943625 0.22213143 0.9750167 0.07077579 0.99749225
0.022398125 0.9997491 0.0070834407 0.9999749 0.002239998 0.9999975 0.0007083502 0.99999976
0.5493555 -0.83558875 0.723972 0.6898293 0.25321293 0.96741056 0.080865905 0.99672496
0.025597204 0.99967235 0.00809534 0.9999672 0.002559997 0.9999967 0.00080954307 0.9999997
0.25861946 -0.9659793 0.7899552 0.6131646 0.28403515 0.95881385 0.09094774 0.9958557
0.028796017 0.99958533 0.009107231 0.9999585 0.0028799959 0.9999959 0.000910736 0.9999996
-0.058373954 -0.9982948 0.8478561 0.53022635 0.31456652 0.94923544 0.101020254 0.9948844
0.031994537 0.99948806 0.010119113 0.9999488 0.0031999946 0.9999949 0.0010119289 0.9999995
-0.36944094 -0.92925423 0.89708245 0.4418632 0.34477583 0.93868506 0.11108244 0.9938112
0.03519273 0.9993805 0.011130984 0.9999381 0.0035199923 0.9999938 0.0011131216 0.9999994
-0.6429987 -0.7658673 0.93713045 0.34897935 0.37463212 0.92717355 0.121133246 0.99263626
0.038390562 0.9992628 0.012142844 0.99992627 0.0038399901 0.9999926 0.0012143145 0.9999993
-0.8512733 -0.5247225 0.9675904 0.25252485 0.40410483 0.91471267 0.13117164 0.99135965
0.041587997 0.99913484 0.013154691 0.99991345 0.0041599874 0.99999136 0.0013155073 0.99999917
-0.973119 -0.23030293 0.9881507 0.15348683 0.43316373 0.9013153 0.14119661 0.9899816
0.044785015 0.9989966 0.014166526 0.9998996 0.0044799848 0.99999 0.0014167001 0.999999
-0.9961646 0.0874987 0.99860096 0.052878458 0.46177915 0.88699496 0.15120712 0.9885021
0.047981568 0.9988482 0.015178345 0.9998848 0.0047999807 0.9999885 0.0015178929 0.99999887
00000000: 0000 0000 0000 803f 0000 0000 0000 803f
00000010: 0000 0000 0000 803f 0000 0000 0000 803f
00000020: 0000 0000 0000 803f 0000 0000 0000 803f
00000030: 0000 0000 0000 803f 0000 0000 0000 803f
00000040: de0e a13e 1801 733f b7e3 ce3d beb0 7e3f
00000050: b40c 033d 73de 7f3f a5ca 253c a5fc 7f3f
00000060: 00b7 513b aaff 7f3f afa2 843a f8ff 7f3f
00000070: abc5 a739 ffff 7f3f 8637 d438 0000 803f
00000080: cde1 183f 2656 4d3f c6d4 4d3e 66c6 7a3f
00000090: 87fb 823d d479 7f3f 78c8 a53c 94f2 7f3f
000000a0: b9b6 d13b a8fe 7f3f aaa2 043b deff 7f3f
000000b0: aac5 273a fdff 7f3f 8637 5439 0000 803f
000000c0: 8ab6 513f 35d2 123f 490e 993e 394b 743f
000000d0: 5f4e c43d 3ed2 7e3f 47a7 f83c cee1 7f3f
000000e0: b348 1d3c fbfc 7f3f f3f3 463b b3ff 7f3f
000000f0: 7ea8 7b3a f8ff 7f3f a529 9f39 ffff 7f3f
00000100: 8740 753f 57cc 923e 4ea1 c93e 3150 6b3f
00000110: e1b6 023e dde7 7d3f c7bf 253d 52ca 7f3f
00000120: a0b5 513c a2fa 7f3f 98a2 843b 77ff 7f3f
00000130: a8c5 a73a f2ff 7f3f 8637 d439 ffff 7f3f
00000140: 0ee4 7f3f a333 efbc 3524 f83e d4ec 5f3f
00000150: 4f24 233e edba 7c3f 9327 4f3d 22ac 7f3f
00000160: 0011 833c 9df7 7f3f 2ecb a53b 29ff 7f3f
00000170: 11b7 d13a ebff 7f3f b4a2 043a feff 7f3f
00000180: 9b8c 703f 3c2e afbe 970e 123f f63e 523f
00000190: fa66 433e bf4b 7b3f f289 783d 3e87 7f3f
000001a0: d846 9d3c ecf3 7f3f b7f3 c63b cbfe 7f3f
000001b0: 77a8 fb3a e1ff 7f3f a429 1f3a fdff 7f3f
000001c0: eec8 483f 05d0 1ebf 868c 263f 6a6a 423f
000001d0: 6c76 633e b29a 793f e6f2 903d a75b 7f3f
000001e0: 467c b73c 8fef 7f3f 351c e83b 5bfe 7f3f
000001f0: eecc 123b d6ff 7f3f 94b0 393a fcff 7f3f
00000200: 90a2 0c3f 25e9 55bf 3b56 393f a798 303f
00000210: 20a5 813e 38a8 773f 069d a53d 5e29 7f3f
00000220: 3ab1 d13c 87ea 7f3f 51a2 043c dafd 7f3f
00000230: 9fc5 273b c9ff 7f3f 8437 543a fbff 7f3f
00000240: c569 843e 6b4a 77bf 813a 4a3f 5bf8 1c3f
00000250: 0e6d 913e d374 753f cf42 ba3d 66f0 7e3f
00000260: a0e5 eb3c d3e4 7f3f 7f36 153c 48fd 7f3f
00000270: 50be 3c3b bbff 7f3f 75be 6e3a f9ff 7f3f
00000280: 8719 6fbd 3f90 7fbf 190d 593f eabc 073f
00000290: dd0e a13e 1801 733f b5e3 ce3d beb0 7e3f
000002a0: b40c 033d 73de 7f3f a3ca 253c a5fc 7f3f
000002b0: 00b7 513b aaff 7f3f b3a2 843a f8ff 7f3f
000002c0: 5d27 bdbe 9be3 6dbf 32a7 653f e53b e23e
000002d0: 7586 b03e aa4d 703f 317f e33d 696a 7e3f
000002e0: 4126 103d 67d7 7f3f bb5e 363c f1fb 7f3f
000002f0: acaf 663b 98ff 7f3f 2ae6 913a f6ff 7f3f
00000300: 909b 24bf e10f 44bf c8e7 6f3f 6cad b23e
00000310: c8cf bf3e 3f5b 6d3f b514 f83d 691d 7e3f
00000320: 6c3f 1d3d b0cf 7f3f c7f2 463c 2bfb 7f3f
00000330: 58a8 7b3b 84ff 7f3f a229 9f3a f4ff 7f3f
00000340: 0ced 59bf 3754 06bf 01b4 773f f04a 813e
00000350: d4e6 ce3e 9c2a 6a3f dc51 063e bfc9 7d3f
00000360: 2d58 2a3d 4dc7 7f3f c686 573c 54fa 7f3f
00000370: 8150 883b 6fff 7f3f 1a6d ac3a f2ff 7f3f
00000380: 541e 79bf 88d4 6bbe 72f7 7c3f a72b 1d3e
00000390: a3c7 dd3e 99bc 663f d895 103e 6f6f 7d3f
000003a0: 7e70 373d 3ebe 7f3f b71a 683c 6cf9 7f3f
000003b0: d6cc 923b 58ff 7f3f 91b0 b93a efff 7f3f
000003c0: a504 7fbf 8532 b33d 50a4 7f3f 1597 583d
000003d0: 516e ec3e 1a12 633f 0ad6 1a3e 790e 7d3f
000003e0: 5288 443d 84b4 7f3f 98ae 783c 73f8 7f3f
000003f0: 2849 9d3b 3fff 7f3f 09f4 c63a edff 7f3f

attention_layer.key.weight f4 [16, 16]
6.0941725e-06 -2.4898338e-08 2.5943282e-06 -1.8743873e-09 1.0653255e-09 -2.380659e-09 1.0369953e-09 3.4869547e-06
-1.9373427e-09 -3.495312e-06 -5.249767e-08 1.1399982e-08 -1.4251426e-08 -6.443019e-08 3.6262122e-06 -4.2524264e-09
-1.6174126e-10 -3.5591568e-06 3.4370305e-07 1.7668171e-07 9.2989416e-07 4.2355487e-06 1.6535642e-10 -2.2540807e-07
7.9003675e-09 -4.824133e-09 -2.9430454e-09 2.9831003e-08 -4.9417457e-09 9.043141e-09 3.7510395e-09 -5.675302e-09
1.0262006e-09 -3.3184449e-09 -1.1348944e-06 5.978747e-08 1.0338517e-08 -1.7429988e-08 1.6325212e-06 7.046805e-08
2.2221289e-10 2.5375032e-06 -5.8370414e-10 -2.4415334e-10 -1.975655e-08 1.491116e-09 3.400528e-07 -2.360528e-08
-4.683424e-06 -1.471283e-06 -3.195528e-08 2.739461e-07 2.0426198e-06 -4.5729797e-07 -1.7213816e-07 -2.8196664e-06
2.4001313e-06 1.43372185e-08 1.288608e-10 -3.0773542e-06 8.943252e-10 -8.7553007e-11 3.8508388e-09 4.324342e-06
1.2245913e-09 8.893562e-06 1.0897556e-09 -1.629024e-08 -7.449313e-08 -2.37017e-10 -5.7295047e-06 -7.1599473e-09
5.294519e-10 2.1482529e-06 1.3547363e-09 1.1512565e-11 4.1941686e-10 1.737745e-06 1.0052851e-08 1.2415024e-06
-1.9436918e-07 2.9156902e-07 -3.2960916e-06 -3.4322156e-08 4.4697663e-06 2.7149016e-09 7.024413e-09 5.6653803e-08
-5.255715e-11 4.8919238e-09 5.002525e-10 -1.1891082e-08 -5.876029e-09 1.0460212e-08 1.1128501e-06 -1.8174678e-07
-6.3084684e-09 5.345089e-10 -1.0114791e-05 5.5053356e-10 2.164552e-07 3.990901e-06 -9.797176e-08 8.1204245e-11
-1.4563014e-08 -1.6362502e-10 -2.9683173e-10 -8.263077e-06 -1.2483075e-09 9.685002e-07 -9.497493e-08 1.1864912e-09
-2.7193257e-09 3.4029776e-10 1.2306815e-07 8.3606955e-07 1.7477436e-07 -1.240338e-07 5.5780088e-06 9.9612954e-08
1.4595895e-07 1.8888406e-10 -2.5821806e-10 -2.0764292e-08 3.7001053e-07 8.318442e-09 -3.6230037e-09 -5.408288e-10
-2.3838246e-11 -5.298977e-09 2.8255893e-06 1.8750406e-07 1.17679e-05 1.8641256e-08 -2.1737825e-09 -2.1935264e-06
2.6188526e-10 1.1712372e-11 -1.2022719e-08 -1.4893819e-06 -2.2656693e-06 -1.1339537e-06 -4.848645e-08 3.365823e-08
2.0817301e-09 8.100063e-11 2.2349531e-09 -7.22136e-07 1.4425284e-06 1.1947822e-09 2.7070868e-11 -2.3130892e-10
-3.2430087e-06 -1.2242456e-09 -6.7029515e-09 -4.9817056e-10 -6.5161316e-07 -4.045121e-06 1.620751e-09 -1.8753752e-07
-2.4788326e-08 1.5555149e-06 2.1505699e-10 2.4873176e-08 -2.9638882e-08 -1.1460003e-09 2.804782e-10 1.5914858e-09
-7.746754e-07 9.251992e-06 6.0645813e-09 1.6972614e-09 5.0257683e-11 2.6469542e-09 9.879883e-12 -1.2485406e-10
-2.4878373e-06 -2.6370037e-06 -1.2100907e-08 -1.699776e-10 6.617067e-07 -5.282348e-06 -2.1848787e-10 3.057196e-10
-9.974573e-07 -1.9789891e-07 1.6476788e-06 -7.437392e-07 3.5107677e-11 -3.9453438e-10 -1.1911522e-05 3.1241873e-07
1.4519935e-11 9.54721e-08 -3.8372324e-08 -9.587471e-06 3.589055e-07 7.83883e-06 3.9254797e-07 1.0042857e-05
4.608714e-06 -4.4726983e-07 -5.735122e-07 -3.892233e-06 1.727647e-07 -1.5803059e-09 -7.785107e-10 1.2969989e-06
-1.9968336e-08 -1.6997904e-10 1.1271837e-05 1.18238844e-07 -1.2305e-07 1.1241423e-06 2.8056018e-06 -2.2619217e-07
4.3440616e-09 -6.627926e-09 -6.201695e-08 1.1442738e-09 1.8364413e-10 2.2669128e-06 6.2272555e-11 -4.596147e-07
-3.0486612e-07 -1.3617068e-06 4.6561016e-07 5.674527e-11 1.0510679e-07 5.2317223e-10 3.9238152e-08 -1.9798752e-05
-6.983831e-07 7.939793e-09 5.3138116e-09 -2.5796008e-09 6.6478646e-07 3.0628117e-10 4.0124765e-10 8.988121e-10
-3.5673153e-09 -1.32701095e-08 6.763415e-06 7.855356e-08 7.6713497e-10 2.4282423e-09 -1.9374609e-10 6.7888386e-06
-2.9880947e-09 -2.5090792e-09 1.1174845e-10 -4.4515145e-06 -7.465793e-07 -1.3605591e-08 4.4911667e-07 -2.3631768e-09
00000000: 8b7c cc36 06e0 d5b2 381a 2e36 92ce 00b1
00000010: cf6a 9230 ff98 23b1 0786 8e30 6d01 6a36
00000020: 1822 05b1 0191 6ab6 cc79 61b3 a7d9 4332
00000030: 6fd6 74b2 df5c 8ab3 da59 7336 bd1c 92b1
00000040: 1ed6 31af d9d9 6eb6 3086 b834 e6b5 3d34
00000050: d79d 7935 161f 8e36 b2cf 352f b307 72b4
00000060: 2fba 0732 86c1 a5b1 9a3e 4ab1 891f 0033
00000070: 0ecc a9b1 285c 1b32 7ee2 8031 7c00 c3b1
00000080: 390a 8d30 b30a 64b1 ad52 98b5 8264 8033
00000090: 479d 3132 f3b8 95b2 001d db35 3854 9733
000000a0: 5e53 742f f949 2a36 8772 20b0 8739 86af
000000b0: 1db5 a9b2 fbef cc30 8090 b634 8fc4 cab2
000000c0: 4e26 9db6 e678 c5b5 343f 09b3 de12 9334
000000d0: f113 0936 8e82 f5b4 fad4 38b4 8039 3db6
000000e0: f111 2136 c14f 7632 17af 0d2f 8b84 4eb6
000000f0: 8bd4 7530 f687 c0ae 5650 8431 d119 9136
00000100: 7a4e a830 8f35 1537 5ec6 9530 9eee 8bb2
00000110: 08f9 9fb3 2d4d 82af 1240 c0b6 9003 f6b1
00000120: de88 1130 b42a 1036 8c31 ba30 fc87 4a2d
00000130: ad93 e62f 773c e935 e8b4 2c32 b3a1 a635
00000140: cbb3 50b4 f188 9c34 6c32 5db6 9c69 13b3
00000150: 00fb 9536 0e91 3a31 645b f131 8453 7333
00000160: 1726 67ae d115 a831 2482 0930 8849 4cb2
00000170: 19e6 c9b1 80b4 3332 3d5d 9535 2d26 43b4
00000180: e0c1 d8b1 b8ec 1230 b2b2 29b7 5b54 1730
00000190: c16a 6834 94e9 8536 8b64 d2b3 ed91 b22e
000001a0: d030 7ab2 59e8 33af 5a2f a3af a5a1 0ab7
000001b0: ea90 abb0 6afd 8135 05f5 cbb3 f311 a330
000001c0: e2de 3ab1 a714 bb2f b724 0434 436e 6035
000001d0: 9ca9 3b34 272e 05b4 bb2a bb36 cdea d533
000001e0: e4b8 1c34 23ae 4f2f f6f4 8daf 295d b2b2
000001f0: dca5 c634 e5e8 0e32 8ef8 78b1 72a9 14b0
00000200: f5ae d1ad 4b12 b6b1 419f 3d36 b954 4934
00000210: bf6e 4537 8e20 a032 9661 15b1 7f34 13b6
00000220: 13f9 8f2f d60b 4e2d 7a8c 4eb2 c6e6 c7b5
00000230: e70b 18b6 5a32 98b5 6a3f 50b3 9e8f 1033
00000240: 2f0e 0f31 4d1f b22e b695 1931 cfd8 41b5
00000250: e69c c135 a935 a430 2d1e ee2d ac53 7eaf
00000260: 77a2 59b6 5042 a8b0 c94f e6b1 a3ef 08b0
00000270: 84ea 2eb5 53bb 87b6 1bc1 de30 ec5d 49b4
00000280: 1bee d4b2 16c7 d035 2975 6c2f b1a8 d532
00000290: 9798 feb2 4d81 9db0 cc31 9a2f 6ebb da30
000002a0: 4af3 4fb5 0139 1b37 9f60 d031 1445 e930
000002b0: 1f09 5d2e b6e5 3531 0acf 2d2d 4b47 09af
000002c0: b8f4 26b6 61f7 30b6 5ae4 4fb2 71e4 3aaf
000002d0: 23a0 3135 063f b1b6 de3a 70af 3512 a82f
000002e0: 5fe0 85b5 0a7e 54b4 d025 dd35 5ea5 47b5
000002f0: bb67 1a2e c7e5 d8af 99d7 47b7 81ba a734
00000300: f96f 7f2d 5806 cd33 d1ce 24b3 e0d9 20b7
00000310: 99af c034 8583 0337 62bf d234 be7d 2837
00000320: 8da4 9a36 4c20 f0b4 75f3 19b5 079a 82b6
00000330: 3381 3934 1232 d9b0 d2fe 55b0 8b14 ae35
00000340: d686 abb2 d9e4 3aaf 2c1c 3d37 7eea fd33
00000350: ba1f 04b4 3ce1 9635 df47 3c36 3bdf 72b4
00000360: c542 9531 dbbb e3b1 2e2e 85b3 8e44 9d30
00000370: 3aeb 492f 4421 1836 55f0 882e f7c0 f6b4
00000380: 7bac a3b4 e4c3 b6b5 f9f8 f934 7f91 792e
00000390: 12b7 e133 f9ce 0f30 ce86 2833 7f15 a6b7
000003a0: 8578 3bb5 9467 0832 c894 b631 d144 31b1
000003b0: c773 3235 3e61 a82f 9696 dc2f 4710 7730
000003c0: e024 75b1 8ffa 63b2 4bf1 e236 47b1 a833
000003d0: 53de 5230 17de 2631 ad06 55af aecb e336
000003e0: 1e57 4db1 306c 2cb1 c9bc f52e 385e 95b6
000003f0: 8a68 48b5 06be 69b2 201e f134 7265 22b1

attention_layer.value.weight f4 [16, 16]
-0.14889835 -0.00814055 -0.095925815 0.005592499 -0.08609593 0.18078272 0.158127 0.12648486
-0.04225883 -0.03829739 -0.049987756 -0.07415139 0.064179525 -0.044846002 -0.12912557 -0.111035176
0.17720273 0.1697663 -0.11656512 0.22824875 -0.071464896 -0.2306463 -0.18270169 0.07167366
-0.012603905 -0.08393576 -0.26845378 -0.12071025 -0.10863055 0.23036109 -0.18171269 0.04899061
0.15551782 -0.20475273 0.14439346 -0.17422707 0.09098455 -0.21711682 0.025256354 -0.10054241
-0.11036244 0.13607353 -0.16072355 -0.087019935 0.19446509 0.05302904 0.19758332 0.026890978
-0.1983748 0.069473825 0.1565619 -0.03374755 0.12765987 0.25215575 -0.030936167 0.15639381
-0.23122075 -0.0017714874 0.16618259 -0.22779271 -0.09207104 -0.10992223 0.09641758 -0.118595615
0.1011185 -0.08522437 0.028287984 0.014301308 0.09072144 -0.10395401 -0.12915185 0.1459189
0.09527589 0.014760556 -0.10038565 -0.15111266 0.01279866 0.14086543 -0.10826802 -0.15280806
0.077167936 -0.020528411 0.04425746 -0.037714697 0.031231748 -0.033140127 -0.18252033 -0.03465591
-0.19857693 0.08040283 -0.053507242 0.042974893 0.15107863 -0.114813164 0.14231822 -0.09089895
-0.10779053 0.158261 -0.09164163 -0.0020668234 0.25553232 -0.12612088 -0.13060962 -0.012686265
-0.10693951 0.101510935 -0.19763273 0.05356633 0.045264143 -0.11437292 0.14597318 0.049885668
-0.009752612 -0.043387383 0.026983865 -0.104888804 -0.13818586 0.11402814 0.16359451 -0.038661566
0.09805184 -0.13508292 -0.24388458 0.16064048 -0.14506882 0.062012162 0.13328627 -0.008700047
0.058809772 0.015021459 0.050506394 -0.06753172 -0.06283717 -0.06603989 0.059441667 -0.09334208
0.03208715 -0.10992932 -0.29909483 0.13718861 0.011095077 0.09670736 -0.07735851 0.11453984
0.09432296 0.10657188 -0.05121658 0.072003156 0.14969507 0.13584691 -0.11956611 0.21570957
-0.08765452 -0.17903097 0.12898101 -0.14653979 -0.11892294 0.05115036 -0.021215623 -0.0906229
0.035839997 -0.13053356 -0.033226654 -0.16486683 0.09238998 0.049088717 -0.13644624 -0.12448381
-0.071352266 -0.0686716 -0.004996271 -0.04865096 0.012892612 0.17489873 0.16448998 -0.07322133
0.087826796 -0.1063098 0.019190298 -0.03498391 0.08463474 0.10102168 0.06341051 0.0944423
0.016705282 -0.032670584 0.048322964 -0.04831002 0.10406862 -0.11513395 0.11466483 -0.070732035
0.10472258 0.2114065 0.010733536 0.08037751 0.016081132 0.18530716 -0.13192569 0.16612613
0.047740784 -0.016538762 -0.097708106 -0.034781635 -0.06919891 -0.20089935 0.10455459 -0.20311776
0.0050692866 0.16213298 -0.09667284 0.1517547 -0.19455461 0.114142545 -0.2126134 0.07323647
0.18713982 0.08883864 0.17061156 -0.20472935 0.12304214 -0.10860411 -0.07110137 0.13912599
-0.04565048 0.02700603 0.06897272 0.031691838 -0.117464386 -0.085054465 0.0766618 -0.01495331
-0.23319052 0.15161093 -0.13328262 -0.044076588 -0.12130877 0.08042098 0.12567344 -0.063302174
-0.15799561 -0.108455636 0.027455129 0.06837239 -0.169599 -0.029417649 0.008833342 -0.04289654
-0.013254716 -0.025800904 0.08334164 0.14645284 -0.14709511 0.13847318 0.074948594 -0.19452885
00000000: cf78 18be f15f 05bc c174 c4bd 4841 b73b
00000010: 1053 b0bd 1b1f 393e 0bec 213e 3f85 013e
00000020: 9817 2dbd b9dd 1cbd f6bf 4cbd afdc 97bd
00000030: 8e70 833d 71b0 37bd 7e39 04be 6966 e3bd
00000040: a274 353e 38d7 2d3e b2b9 eebd 0aba 693e
00000050: 305c 92bd 8b2e 6cbe 2716 3bbe a4c9 923d
00000060: 9c80 4ebc 83e6 abbd c672 89be f036 f7bd
00000070: b279 debd c7e3 6b3e e412 3abe 61aa 483d
00000080: 1040 1f3e b3aa 51be e1db 133e 9568 32be
00000090: 1c56 ba3d df53 5ebe 6ae6 ce3c 2ee9 cdbd
000000a0: b405 e2bd dc56 0b3e b794 24be 8237 b2bd
000000b0: db21 473e fb34 593d 4853 4a3e 784a dc3c
000000c0: c322 4bbe 4b48 8e3d c351 203e df3a 0abd
000000d0: 45b9 023e 8f1a 813e d86d fdbc b325 203e
000000e0: 22c5 6cbe 4131 e8ba c52b 2a3e 7e42 69be
000000f0: be8f bcbd e81e e1bd 9576 c53d 42e2 f2bd
00000100: 3717 cf3d 1d8a aebd 34bc e73c 0950 6a3c
00000110: 2acc b93d d7e5 d4bd 6240 04be c46b 153e
00000120: 0120 c33d 42d6 713c fe96 cdbd 47bd 1abe
00000130: 79b1 513c 073f 103e a0bb ddbd b779 1cbe
00000140: 390a 9e3d 332b a8bc 4f47 353d ba7a 1abd
00000150: b9d9 ff3c f1bd 07bd 9ce6 3abe 5bf3 0dbd
00000160: c057 4bbe 3daa a43d 692a 5bbd 7106 303d
00000170: 5bb4 1a3e 2a23 ebbd debb 113e 3b29 babd
00000180: 48c1 dcbd 2c0f 223e 9bae bbbd 8b73 07bb
00000190: 22d5 823e d525 01be 87be 05be 0dda 4fbc
000001a0: 1a03 dbbd f7e4 cf3d 3c60 4abe 5e68 5b3d
000001b0: e566 393d 593c eabd fe79 153e ea54 4c3d
000001c0: 6bc9 1fbc f8b6 31bd 440d dd3c f1cf d6bd
000001d0: 9880 0dbe 9687 e93d 5285 273e 975b 1ebd
000001e0: 67cf c83d 2d53 0abe e1bc 79be f07e 243e
000001f0: ec8c 14be 7700 7e3d 327c 083e a48a 0ebc
00000200: 84e2 703d 911c 763c cbdf 4e3d 124e 8abd
00000210: c6b0 80bd ec3f 87bd 1b79 733d 222a bfbd
00000220: d16d 033d a022 e1bd f522 99be 2c7b 0c3e
00000230: 20c8 353c 820e c63d 236e 9ebd dd93 ea3d
00000240: 652c c13d 5c42 da3d 7ac8 51bd 6476 933d
00000250: aa49 193e 741b 0b3e 14df f4bd f8e2 5c3e
00000260: 3784 b3bd e553 37be 9913 043e 870e 16be
00000270: df8d f3bd 0a83 513d 63cc adbc 8098 b9bd
00000280: f6cc 123d 97aa 05be ac18 08bd dad2 28be
00000290: f536 bd3d 4011 493d 90b8 0bbe 5ef1 febd
000002a0: 2321 92bd b2a3 8cbd c2b7 a3bb 3b46 47bd
000002b0: 893b 533c a718 333e 1070 283e 11f5 95bd
000002c0: 89de b33d f4b8 d9bd f934 9d3c 4a4b 0fbd
000002d0: fb54 ad3d 74e4 ce3d 5fdd 813d f76a c13d
000002e0: 84d9 883c 97d1 05bd 4dee 453d bae0 45bd
000002f0: ee21 d53d 59cb ebbd 65d5 ea3d f5db 90bd
00000300: cb78 d63d f27a 583e b7db 2f3c f79c a43d
00000310: 94bc 833c 29c1 3d3e 8717 07be f81c 2a3e
00000320: d78b 433d 4c7c 87bc 301b c8bd 3077 0ebd
00000330: 28b8 8dbd 8fb8 4dbe b820 d63d 1afe 4fbe
00000340: 421c a63b 3006 263e 69fc c5bd 9665 1b3e
00000350: 5339 47be 91c3 e93d 54b7 59be 01fd 953d
00000360: 95a1 3f3e 08f1 b53d ccb4 2e3e 92a4 51be
00000370: 84fd fb3d d56b debd 989d 91bd 0b77 0e3e
00000380: fffb 3abd c03b dd3c 9241 8d3d 4dcf 013d
00000390: 2b91 f0bd 0931 aebd dd00 9d3d bafe 74bc
000003a0: 7fc9 6ebe e53f 1b3e 3d7b 08be a789 34bd
000003b0: bb70 f8bd c1b3 a43d 8ab0 003e 92a4 81bd
000003c0: 9ac9 21be fd1d debd 94e9 e03c d306 8c3d
000003d0: 5cab 2dbe 48fd f0bc b9b9 103c 48b4 2fbd
000003e0: 4f2a 59bc 6b5c d3bc 06af aa3d bcf7 153e
000003f0: 1aa0 16be eacb 0d3e a67e 993d 9232 47be

attention_layer.query.weight f4 [16, 16]
7.1833074e-07 3.7364575e-10 -6.448698e-09 -1.4767046e-07 -1.298052e-09 -1.1645135e-10 -4.760234e-11 1.8162974e-07
-1.0521962e-09 -7.653518e-06 1.2754419e-09 -6.574562e-10 1.5312317e-07 -8.5613516e-10 2.0742385e-05 -1.6620135e-06
-2.3754953e-06 6.038156e-08 5.534466e-09 -6.934315e-10 7.9589256e-08 5.7162847e-08 1.4529708e-10 1.2465777e-08
-2.5652622e-10 -2.3897165e-08 -5.5453336e-10 -2.329086e-08 -8.9995933e-10 -7.3892625e-09 -2.7585993e-09 -1.6354633e-08
4.6690958e-09 4.2157606e-07 3.91697e-11 1.0021164e-10 1.6206725e-10 -3.307123e-05 1.147716e-08 7.357281e-07
5.922809e-11 -1.4684473e-09 -8.832099e-07 -4.0044174e-06 2.3715572e-09 1.5730417e-07 -6.593819e-07 1.2759534e-10
7.5906315e-10 -1.3432401e-06 1.1719717e-05 1.6204083e-07 8.387946e-09 1.9896451e-09 1.9415358e-08 1.0042129e-09
1.0859183e-05 3.2065057e-07 -1.1753765e-09 -5.0261484e-09 -3.264994e-09 3.4624873e-07 -1.0786973e-08 1.00980564e-10
3.13885e-07 6.039482e-08 -1.3966747e-06 -5.5284577e-10 2.386401e-09 1.7117143e-09 3.188399e-08 -5.96357e-07
2.081097e-05 5.0278413e-09 4.829986e-09 -2.5641203e-10 -2.9844472e-05 -7.6747364e-10 -1.4040109e-09 -1.6319699e-09
-7.875975e-06 -1.8842601e-10 3.14518e-09 2.132864e-09 -3.0554045e-07 7.787329e-09 3.116828e-08 1.8138854e-09
5.8059874e-10 4.794163e-09 -3.754147e-10 -4.150159e-07 -2.0195729e-07 1.2070708e-10 7.645123e-09 -6.422181e-09
1.5820318e-08 -3.7236594e-10 -3.9936396e-09 -3.0818882e-11 -1.30087965e-05 1.9864719e-09 4.1108247e-08 -3.6225778e-08
-1.1548002e-06 -5.055519e-06 2.3248622e-10 1.69548e-08 -1.6140538e-07 5.8714627e-06 1.7454377e-06 1.83789e-06
5.5419686e-10 4.3617823e-07 -9.986165e-08 -1.7276218e-06 -1.0889079e-08 -3.9593348e-10 -1.3215376e-06 -9.9438715e-09
5.6722655e-07 -6.955989e-09 6.493591e-06 1.3132899e-07 1.11787656e-10 -5.119637e-09 6.5278456e-11 -2.5368694e-05
4.893383e-06 4.014184e-08 5.2296083e-09 1.30103e-10 -2.011132e-07 1.6696305e-07 5.644762e-07 -1.2629489e-09
1.7853004e-08 -1.131365e-09 7.7730914e-07 3.3295593e-12 2.5322722e-10 -1.2246963e-07 -7.775369e-08 -1.683496e-06
8.6128416e-10 2.5555436e-10 1.7164496e-09 1.8715588e-11 1.6400649e-10 5.233471e-10 4.838013e-09 4.6490603e-10
-1.7638628e-08 -1.5494761e-10 1.0312007e-10 -3.719712e-06 -5.6052474e-10 -5.287122e-07 -1.4326328e-08 -1.1022109e-09
-2.3502591e-05 -6.443281e-10 1.1045339e-08 -1.802662e-05 -7.1640244e-07 -1.5291822e-11 7.4108875e-10 7.5574995e-09
-3.953831e-09 3.58977e-06 2.6689693e-07 -1.9966573e-09 -1.2512484e-11 7.2482777e-07 1.6050224e-07 -4.6754116e-09
4.211331e-09 -5.1251936e-07 -3.8652473e-08 1.4213297e-05 3.336919e-06 -1.0809375e-09 3.570933e-07 -1.550077e-07
6.1160877e-06 -6.2310215e-07 -3.4028815e-08 -5.0321864e-07 6.071687e-10 -1.5716882e-08 -3.4471082e-11 7.232283e-06
-2.7904386e-08 1.6981529e-08 -3.5765102e-06 -1.1358594e-11 4.026964e-09 -3.5162565e-10 -9.65617e-10 -6.296902e-08
2.1972689e-07 -2.0161066e-09 4.617552e-07 3.473279e-07 -1.1457108e-05 5.11168e-09 -6.945126e-08 7.78986e-09
7.014905e-10 -7.189374e-09 -9.941041e-09 -1.8244524e-08 9.228446e-06 6.828956e-10 -8.187278e-10 -9.451235e-10
-8.38014e-10 4.6737586e-10 6.9820083e-09 -7.059791e-06 -2.323137e-10 7.636764e-08 1.0560447e-06 -8.873914e-08
-4.4452396e-08 6.328169e-06 -2.2347931e-05 -2.6952936e-08 -1.6949149e-10 -1.1264243e-07 -5.6538e-10 -1.839941e-05
-6.406732e-07 -4.0333532e-08 8.725435e-11 8.069265e-10 6.561754e-10 -2.0493959e-05 -1.8883025e-08 5.7083177e-08
3.5865418e-07 -9.964953e-10 -1.3163984e-09 2.3967357e-06 -1.4828588e-06 8.330941e-08 -8.201632e-06 -7.2005605e-08
-1.9987304e-07 -6.816896e-07 6.331721e-09 1.3419866e-08 -3.3381789e-06 -4.4380204e-08 7.843875e-06 -8.86239e-09
00000000: 50d3 4035 f769 cd2f 5993 ddb1 598f 1eb4
00000010: 2567 b2b0 240a 00af 785b 51ae 0106 4334
00000020: dd9c 90b0 9c67 00b7 9f4b af30 5eb8 34b0
00000030: 2d6a 2434 2855 6bb0 efff ad37 5912 dfb5
00000040: b36a 1fb6 1dab 8133 ae29 be31 e79b 3eb0
00000050: a8ea aa33 3783 7533 7ec1 1f2f 1129 5632
00000060: db06 8daf 6c46 cdb2 d16d 18b0 2511 c8b2
00000070: 0261 77b0 a4e4 fdb1 cb91 3db1 387c 8cb2
00000080: cd6d a031 f954 e234 2945 2c2e 235e dc2e
00000090: e031 322f f6b5 0ab8 152d 4532 da7e 4535
000000a0: 733e 822e 65d2 c9b0 b915 6db5 af5d 86b6
000000b0: e0f8 2231 71e7 2834 6100 31b5 e54a 0c2f
000000c0: 52a6 5030 6149 b4b5 cd9f 4437 72fd 2d34
000000d0: 941a 1032 35ba 0831 d3c6 a632 9a04 8a30
000000e0: d62f 3637 e125 ac34 e28a a1b0 78b2 acb1
000000f0: 625e 60b1 10e4 b934 9c51 39b2 010f de2e
00000100: 0784 a834 67b2 8133 6175 bbb5 10f7 17b0
00000110: 03fe 2331 9841 eb30 d1f0 0833 5715 20b5
00000120: 3893 ae37 5cc1 ac31 02f5 a531 c9f6 8caf
00000130: 845a fab7 28f6 52b0 3ef7 c0b0 d64b e0b0
00000140: 0e23 04b7 352d 4faf 9722 5831 be91 1231
00000150: 2909 a4b4 09c9 0532 e3dd 0533 6b4c f930
00000160: 0198 1f30 e7b9 a431 ec62 ceaf 5acf deb4
00000170: 99d9 58b4 06b8 042f 9b57 0332 1aaa dcb1
00000180: 3fe5 8732 d9b5 ccaf 6d38 89b1 fa8a 07ae
00000190: 5b40 5ab7 6282 0831 ff8e 3033 aa96 1bb3
000001a0: a2fe 9ab5 94a2 a9b6 0e9f 7f2f 00a4 9132
000001b0: c64e 2db4 7b03 c536 c844 ea35 6bad f635
000001c0: 2356 1830 e12b ea34 8673 d6b3 a2e0 e7b5
000001d0: ad12 3bb2 afaa d9af b05f b1b5 9cd5 2ab2
000001e0: 8343 1835 8701 efb1 86e3 d936 7003 0d34
000001f0: dbd2 f52e cee8 afb1 818c 8f2e dbce d4b7
00000200: d731 a436 6b68 2c33 1fb0 b331 bd0c 0f2f
00000210: 93f1 57b4 7446 3334 8286 1735 1094 adb0
00000220: 2c5b 9932 5e7e 9bb0 47a8 5035 024c 6a2c
00000230: 9036 8b2f 3280 03b4 8bf9 a6b3 7bf4 e1b5
00000240: 7cbf 6c30 147e 8c2f 34e8 eb30 c29f a42d
00000250: b953 342f 47db 0f30 9d3b a631 b595 ff2f
00000260: c183 97b2 e05d 2aaf 70c3 e22e 2aa0 79b6
00000270: 6c13 1ab0 d3ec 0db5 db1f 76b2 997c 97b0
00000280: 6e27 c5b7 8f1c 31b0 eac1 3d32 df37 97b7
00000290: cd4e 40b5 1f82 86ad 7cb5 4b30 3cd6 0132
000002a0: 44da 87b1 c7e7 7036 094a 8f34 9135 09b1
000002b0: 381f 5cad c991 4235 8556 2c34 5ba5 a0b1
000002c0: 42b3 9031 1094 09b5 d802 26b3 a575 6e37
000002d0: d5ef 5f36 1b90 94b0 88b6 bf34 3170 26b4
000002e0: cb38 cd36 4143 27b5 1427 12b3 ec14 07b5
000002f0: b3e5 2630 ca01 87b2 fd9a 17ae d7ac f236
00000300: 65b2 efb2 c7de 9132 fa03 70b6 8fd2 47ad
00000310: 8d5d 8a31 e94e c1af a1b6 84b0 9639 87b3
00000320: 11ee 6b34 b98b 0ab1 27e7 f734 6278 ba34
00000330: e737 40b7 d0a2 af31 3c25 95b3 2bd4 0532
00000340: 01d3 4030 6706 f7b1 29c9 2ab2 22b8 9cb2
00000350: e0d3 1a37 81b6 3b30 d90c 61b0 94e5 81b0
00000360: fe59 66b0 a778 0030 65e6 ef31 25e3 ecb6
00000370: 7e6e 7faf 8eff a333 6bbd 8d35 dc90 beb3
00000380: edeb 3eb3 8f56 d436 d177 bbb7 2286 e7b2
00000390: 9d5b 3aaf d5e5 f1b3 1569 1bb0 6f58 9ab7
000003a0: bafa 2bb5 303b 2db3 d5df bf2e 68ce 5d30
000003b0: 3d5e 3430 71ea abb7 3634 a2b2 9e2b 7533
000003c0: 0e8d c034 10f5 88b0 a7ec b4b0 9bd7 2036
000003d0: a406 c7b5 d5e7 b233 be99 09b7 80a1 9ab3
000003e0: af9c 56b4 5afd 36b5 688e d931 328d 6632
000003f0: 7a05 60b6 8d9c 3eb3 3099 0337 3441 18b2

attention_layer.to_out.weight f4 [16]
0.79780924 0.9461691 0.8061564 0.8063825 0.80551636 0.8331326 0.77598095 0.8059466
0.8544917 0.7331283 0.7400181 0.7039622 0.75023085 0.8534187 0.69051397 0.75156504
00000000: 3a3d 4c3f 2338 723f 4460 4e3f 156f 4e3f
00000010: 5236 4e3f 2e48 553f b0a6 463f 8452 4e3f
00000020: f8bf 5a3f 4cae 3b3f d471 3d3f de36 343f
00000030: 210f 403f a679 5a3f 86c5 303f 9166 403f

attention_layer.to_out.bias f4 [16]
-0.005691851 -0.0129535515 -0.0221135 0.0111403745 0.01905977 0.05980109 -0.0038814056 -0.031801693
-0.016452227 0.03939897 0.025419945 0.025595091 0.005821417 -0.0023177522 -0.026595758 -0.040407687
00000000: b582 babb 223b 54bc 5f27 b5bc 1e86 363c
00000010: 3c23 9c3c fdf1 743d 2e5f 7ebb 7e42 02bd
00000020: d2c6 86bc d060 213d 7d3d d03c ccac d13c
00000030: 96c1 be3b 6ee5 17bb 59df d9bc 8882 25bd

LayerNorm.weight f4 [16]
0.78759474 0.90074044 0.8002068 0.78874695 0.82205766 0.834942 0.7959234 0.7931911
0.83360225 0.74941176 0.7486541 0.80671406 0.81408787 0.8191733 0.733492 0.75031453
00000000: cf9f 493f ed96 663f 5ada 4c3f 52eb 493f
00000010: 5f72 523f c2be 553f a3c1 4b3f 920e 4b3f
00000020: f566 553f 73d9 3f3f cca7 3f3f d084 4e3f
00000030: 1068 503f 57b5 513f 22c6 3b3f 9d14 403f

LayerNorm.bias f4 [16]
0.011256815 -0.035356015 -0.024230754 0.041011754 0.00087348884 0.056774758 -0.0054824944 -0.048828743
-0.042335138 0.051793512 0.028110899 0.07097916 -0.03132535 0.0067228926 -0.014253951 -0.02807486
00000000: 816e 383c 78d1 10bd 937f c6bc f1fb 273d
00000010: d8fa 643a a68c 683d 7fa6 b3bb a600 48bd
00000020: 9c67 2dbd 6f25 543d d448 e63c 865d 913d
00000030: 034f 00bd b64b dc3b 6789 69bc 40fd e5bc

LayerNorm2.weight f4 [16]
1.1204371 1.225736 1.1858697 1.2121056 1.1626709 1.2355485 1.167609 1.0984269
1.1941516 1.2052768 1.1289909 1.2436742 1.242159 1.1390918 1.2110058 1.2128367
00000000: 7c6a 8f3f ebe4 9c3f 94ca 973f 4726 9b3f
00000010: 66d2 943f 7426 9e3f 3674 953f 4199 8c3f
00000020: f6d9 983f 8346 9a3f c682 903f b730 9f3f
00000030: 11ff 9e3f c3cd 913f 3d02 9b3f 3c3e 9b3f
