CMI-Net/checkpoint/ConvTrans/setting0/2025_03_31_22h_05m_07s/ConvTrans-best.pth (torch, 67498 bytes, 28 tensors)

embed_layer.0.weight f4 [64, 1, 1, 8]
00000000: 1d3c 18bd 792e a3bc f6cc 0fbe 1379 953d
00000010: 6724 57be 82e0 8fbd 4384 043e 3d83 a53e
00000020: 7832 a43d 9547 eebd 9254 d63c d90d 22bd
00000030: 7fd3 123e 988d 003d a029 053e 2539 aa3e
00000040: ef7a 0ebe 35c1 e1bb 0a58 9c3d c36b aebb
00000050: fa7f debc 9d00 9abe f596 95be 063e 9dbe
00000060: e283 aabe 6588 a1be 3883 84be 9fc9 9ebe
00000070: 6494 a3be d042 153e d2bb 533e 0de0 6b3e
00000080: c684 373e 0ef2 e13d d711 153e be30 3dbe
00000090: 004f 9c3e 8bc5 7fbc 2c6c 963e 80b5 e03d
000000a0: 0460 883e 5591 8a3e 2198 83bd 3f72 bebd
000000b0: 8d87 733d c0ba 99bb c245 7d3d 6534 373e
000000c0: 51cb 8abe 2456 3fbc cf80 8bbe d107 ae3e
000000d0: fd63 76be 48c8 903d d19a bfbd 4ac1 4c3e
000000e0: e23a 0f3c 5b54 f0bc 3c36 873e ddc0 a83e
000000f0: fdf4 7cbe 167b a9be fd24 213d dc22 f83d
00000100: 85e3 993d 5399 a13e f7d3 193e 300d 21be
00000110: e809 70be 4f7c 873e fbf3 a73e 9883 27be
00000120: 0e9a 5dbe 47e6 e73d 3e58 75be ac72 a0bd
00000130: 9512 adbe 8d46 b53d c73a e0bd 02d0 3dbe
00000140: 5c65 6fbe b4fd 08be 3754 223e 1b89 263c
00000150: c4c4 963e 4544 0bbe e27b e7bd 96f6 ab3e
00000160: fbde a7be c542 04be 990b 56be 5ec8 b13e
00000170: 49ac 493e 5211 e1bd d9bd 0fbe 82da ea3d
00000180: ca01 02be 3a25 d13d f263 41be 458c 68be
00000190: f54e 90bc a78f 4b3e 8676 953e 71e7 8c3d
000001a0: bc07 4fbe 36e8 433e 3320 143e 5a31 1e3e
000001b0: 5a9d e4bd b477 2dbd 421e 243e acc7 0c3e
000001c0: 2ce9 773e 3b70 4fbe fdc5 6b3e c909 04be
000001d0: 368c 19ba 33b4 1fbe 950a c2bd 6408 7d3e
000001e0: 8998 9f3e 9cd8 083e dae2 81be 7a8f f4bd
000001f0: 7044 833e 89d2 aabd 4e60 8dbe 48b8 c03d
00000200: 5f1d 9abe 1da9 59bc e596 5bbd 0e87 e8ba
00000210: 6fd1 9fbd a445 40bd 43de 4fbe a839 63be
00000220: daed f03d 27d2 a33e 1423 8dbe b550 a8be
00000230: cd56 3ebe 29bf ad3e 7c9b a23e 3374 adbe
00000240: 4b2c c43d 5218 6e3d ad43 a53e 206b c2bd
00000250: 1106 023e e0eb 27be 1270 a3be 9d07 503d
00000260: bb90 26be 851f 6abc 7e35 8fbd 1ff1 8dbe
00000270: f3e7 5b3e e228 813e 04c6 8d3e 9eef 5c3d
00000280: 7c1a a5be be38 8abe d26f 0dbd 4b3f e7bc
00000290: 1bf2 9dbe a3ed 573e 4ebc 80be 787d 4dbb
000002a0: 8665 aabe eabb cf3d 50c4 8b3b 8677 7c3e
000002b0: 9468 813d b3a1 8bbe 60a0 ab3e 2fae 99be
000002c0: f9fa 223e 64d6 71be 04f9 3a3e aa4d c73d
000002d0: 5766 ce3d b987 9abd 8fc9 9e3e f73b aa3e
000002e0: bc45 04bd f06a d3bd ea6b 463d b6a2 5d3e
000002f0: 7af9 a23e 4023 9e3e f178 293e a980 523d
00000300: 8036 80be dec4 84be 15f9 783e cef6 9cbe
00000310: 5165 d1bb bc91 963e d937 96be 7105 70be
00000320: d7a5 b7be 1b08 3c3e c5a3 8a3d d66e 523e
00000330: fcfd 61bd 99a7 f9bd 6408 943e 89de 73be
00000340: 94c6 60be c96f 7e3e 2589 aa3e 779b 32be
00000350: 4568 a9be fcfc c33c c1ed 873b f5a3 e13d
00000360: af5e 383e 21f3 f73c f2d4 72be d946 0abd
00000370: 566c 1d3e fb8a 463d 9a85 80be a58e f4bc
00000380: 49af 68bd 5abb 12be 856f 3a3e 79a6 143e
00000390: 9cf6 973e 8be6 913e 8ee4 03bc f1bc 8cbe
000003a0: 6ff8 da3d 8764 333e bbdf 4e3e 71ad 4f3e
000003b0: 04cb 383e 996b 9e3d 894f b33c 0e33 263e
000003c0: 5391 b4be f89b 2a3e ce41 ba3d 4860 b23d
000003d0: b99d d6bd e463 c03d 9c07 9c3d 404e b0be
000003e0: 9b01 33be 852b 2b3e f566 81be 0e16 09be
000003f0: 85f5 483e 48bb 303e b52a 8ebe 9e93 183e
-0.037166703 -0.01991962 -0.1404303 0.07298484 -0.2100998 -0.07025243 0.12941079 0.3232669
0.08017439 -0.11634747 0.026163373 -0.039563987 0.14338492 0.031385034 0.1300416 0.33246723
-0.13914083 -0.006889487 0.076339796 -0.005322905 -0.027160633 -0.30078593 -0.29216734 -0.30711383
-0.33303744 -0.31549373 -0.25881362 -0.310132 -0.3194915 0.14576268 0.20677117 0.23034687
0.17921743 0.110324964 0.14557587 -0.18475625 0.30529022 -0.015611063 0.29379404 0.109721184
0.26635754 0.27064005 -0.06425501 -0.092991345 0.059455443 -0.004691452 0.061834104 0.1789108
-0.27108243 -0.011678252 -0.2724671 0.33990338 -0.2406158 0.070694506 -0.09355701 0.19995609
0.008742066 -0.029337099 0.26408565 0.32959643 -0.2470283 -0.3310172 0.039341915 0.12116024
0.07514099 0.3156229 0.15022264 -0.15727687 -0.23441279 0.26462027 0.3280333 -0.16358793
-0.21640798 0.11323219 -0.23959443 -0.07834372 -0.3380324 0.08851347 -0.10948711 -0.1853638
-0.2337851 -0.1337803 0.15852438 0.010164524 0.29446995 -0.13600262 -0.11302926 0.33586568
-0.32787308 -0.12916096 -0.20902862 0.3472318 0.19694628 -0.10989632 -0.14037265 0.11467458
-0.12695995 0.102121785 -0.18885782 -0.22709759 -0.017615775 0.19879018 0.2919199 0.068800814
-0.20217794 0.1913155 0.14465408 0.15448514 -0.11162825 -0.042350486 0.16027167 0.13748044
0.24210042 -0.20257656 0.23024745 -0.12894358 -0.000585738 -0.15596084 -0.094746746 0.24710232
0.31171063 0.1336388 -0.25368387 -0.119414285 0.2563815 -0.08340938 -0.27612537 0.09410149
-0.30100533 -0.013284949 -0.0536107 -0.0017740445 -0.07803618 -0.046941414 -0.2029963 -0.22189963
0.117641166 0.3199627 -0.27565825 -0.32874075 -0.185878 0.33934906 0.3175925 -0.33877715
0.09578761 0.058128662 0.32278195 -0.09493089 0.12697627 -0.16398573 -0.3192144 0.05078851
-0.16266148 -0.014289741 -0.06992625 -0.27723023 0.214752 0.25226504 0.27690136 0.053939454
-0.32246768 -0.26996416 -0.03453047 -0.028228423 -0.30848774 0.21086745 -0.25143665 -0.0031355303
-0.3328058 0.10143264 0.0042653456 0.2465497 0.06318775 -0.27271804 0.33520794 -0.30015704
0.15916051 -0.2361694 0.18259054 0.0973161 0.100781135 -0.07545418 0.31013152 0.33248875
-0.032293066 -0.10323131 0.04844276 0.216441 0.3183096 0.3088627 0.16550042 0.05139223
-0.2504158 -0.25931448 0.24313767 -0.30657047 -0.0063902517 0.29408062 -0.29339483 -0.23439576
-0.35868713 0.18362467 0.06769518 0.20550093 -0.05517386 -0.1219017 0.28912652 -0.23815359
-0.21950752 0.2484733 0.33307758 -0.17442118 -0.33087364 0.023924343 0.0041482155 0.110176004
0.18004869 0.0302673 -0.23714045 -0.03375897 0.15373358 0.048472386 -0.2510193 -0.029853174
-0.05680779 -0.14329281 0.18206604 0.1451663 0.29680336 0.28496203 -0.008050097 -0.274879
0.10691916 0.17518817 0.20202534 0.20281006 0.18046194 0.077353664 0.021888511 0.16230413
-0.35267124 0.1666106 0.090945825 0.087097704 -0.10479302 0.093940526 0.07618639 -0.344347
-0.17481081 0.1671582 -0.25273862 -0.1338732 0.19624908 0.17258942 -0.27766958 0.14900061

embed_layer.0.bias f4 [64]
00000000: 30dd dcbd d3ad f9bd 59ae 853e 6883 923e
00000010: e511 2ebe 46eb 403e 1887 9cbe 3a4d b33d
00000020: 1236 47bd 43a6 4cbe 93ab 03be 8ed7 653c
00000030: 6f4b 40bd b890 abbe 6695 163d 446b 87be
00000040: daab 45be b03a 883e c3b2 9cbc 183e b4be
00000050: f372 a83e fc79 503e a76f 883e 1bb3 10be
00000060: c86f 633e 81c6 39bd b8a6 a03e 9bfc 393e
00000070: 4235 3b3e c45d a93a 78a8 f9bd 4009 5cbe
00000080: b760 06be 389b cfbd 26a1 523d a93f 5abe
00000090: fd37 6cbe 0c3d 7fbe 9076 3cbe 342b abbe
000000a0: 33a1 3cbe e44f 04be fd06 51be bf29 8fbe
000000b0: 3e17 ecbd c2df 9a3d 19de c9bd 327d 773e
000000c0: b3e3 86be 7927 7bbe 62e3 c9bc cb24 143d
000000d0: 9db8 8e3e 3b79 6cbe df76 683e 2007 4bbe
000000e0: 6cab eebd 5699 dabd 251e 88bd c877 283e
000000f0: e066 133e 2fc0 7a3e 4ed6 9fbe 7a65 72be
-0.10784376 -0.121913575 0.2610958 0.2861588 -0.16999014 0.1883975 -0.30571818 0.08754964
-0.04863555 -0.19985299 -0.12858419 0.014028443 -0.04694694 -0.3350885 0.03676357 -0.26449025
-0.19303837 0.26607275 -0.019128209 -0.35203624 0.329002 0.20359033 0.26647684 -0.14130823
0.2221061 -0.045355324 0.31377196 0.18162768 0.18282035 0.0012921621 -0.12190336 -0.21487904
-0.13122831 -0.101370275 0.051423214 -0.21313347 -0.23068233 -0.24925631 -0.18404603 -0.334314
-0.18420868 -0.12921101 -0.20412822 -0.27961537 -0.115278706 0.0756221 -0.09856815 0.24168852
-0.26345596 -0.24526776 -0.024644557 0.0361679 0.27875224 -0.23093121 0.22701596 -0.19826937
-0.1165379 -0.10673778 -0.066463746 0.16451943 0.14394712 0.24487375 -0.3121819 -0.23671523

embed_layer.1.weight f4 [64]
00000000: b2db 7f3f 07e4 803f a0cb 7c3f 8fee 7d3f
00000010: 4310 803f 5508 803f 8487 7f3f 1dd6 7c3f
00000020: 5419 7d3f 709e 7d3f 774a 7d3f 24eb 7c3f
00000030: d5a1 7c3f 94f1 7c3f 995e 7e3f 451d 7d3f
00000040: 35e1 803f feaa 7c3f c3a0 7d3f bab5 7e3f
00000050: 16c8 7d3f 273b 7d3f e01e 7e3f 0734 7e3f
00000060: afcf 7d3f b4b9 803f 841b 813f 47ac 7d3f
00000070: 1f86 7d3f 64bf 7d3f 9087 803f ee6a 7d3f
00000080: abc3 7d3f 5fae 7d3f 83f8 7c3f 9a6f 7d3f
00000090: b829 7e3f d417 813f 6bc7 7d3f fb16 7d3f
000000a0: cfb6 7c3f b8a3 7d3f 47d8 7f3f daad 7d3f
000000b0: e644 803f 5be5 7c3f 547b 7d3f ee7c 7d3f
000000c0: 4bcd 7c3f 9f42 7f3f 87f1 7c3f b423 7f3f
000000d0: eb71 803f 42c1 7d3f 1d18 7e3f f740 7f3f
000000e0: 69fb 7d3f 30e1 7c3f 2b76 7f3f 2e5d 7d3f
000000f0: 9091 7d3f f11c 813f 5308 7f3f 7578 803f
0.99944603 1.0069588 0.9874821 0.99192137 1.0004963 1.0002543 0.99816155 0.9876421
0.9886677 0.9906988 0.9894175 0.98796296 0.98684436 0.9880612 0.99363095 0.98872787
1.0068728 0.98698413 0.9907343 0.9949604 0.9913343 0.98918384 0.9926586 0.9929814
0.99145025 1.0056672 1.0086522 0.99091 0.9903278 0.99120164 1.004137 0.98991287
0.9912669 0.99094194 0.988167 0.98998415 0.9928241 1.0085397 0.9913241 0.9886319
0.98716444 0.9907794 0.9993939 0.990934 1.0021026 0.9878747 0.9901631 0.9901875
0.9875075 0.9971103 0.9880604 0.99663854 1.0034765 0.99123013 0.99255544 0.99708503
0.99211746 0.9878111 0.99789685 0.98970306 0.99050236 1.0086957 0.99622077 1.003676

embed_layer.1.bias f4 [64]
00000000: 8862 1bbc 3121 213c de4d 5bbc d8e3 eebb
00000010: fce3 c2ba e594 0ebb eaa1 3c3c ff36 8dbb
00000020: b66b 71bb 2e7a dfbb d3ab 32bc 453f 6e3b
00000030: 5e07 39bc b03f 203c 7287 213c 7f4f 34bc
00000040: d06c f83b 24a0 0d3b f414 553b 65b2 063c
00000050: 8a21 0fbc caa5 cdbb ac7a 7b3a 5ef6 db3b
00000060: 0e52 08bc 6ffa 4bbb 5b3d f0bb 09c2 41bb
00000070: 46c9 363b 872d 23bc 0e39 1f3c dd13 4bbb
00000080: 0dfe b23a 0dd8 023c f369 0c3c d43b 163c
00000090: c0cc f33a e8fb 493c 32c3 c7bb 2ccc 073c
000000a0: 940c 23bc b9a5 043c e017 923a 85ab eabb
000000b0: 6f48 183c d1fa 09bc d188 7dbb 55bb 0ebc
000000c0: 40b1 e3bb 641b 113c 7a3f 4d3b d647 013c
000000d0: cb76 313c 5621 f1bb 391e 083c 96e6 28bc
000000e0: c9c6 63bb a44a e6bb f182 d63b 28c5 453b
000000f0: e70a ffbb 74bc 1c3c cdd0 153c edf9 16bc
-0.009483941 0.009834574 -0.013385264 -0.0072903447 -0.001486897 -0.0021756229 0.011513213 -0.0043095346
-0.0036837882 -0.006819985 -0.010905224 0.003635363 -0.01129326 0.009780809 0.009858953 -0.0110052815
0.007581331 0.0021610344 0.003251371 0.0082212435 -0.008736024 -0.006275867 0.00095931697 0.006712719
-0.008320345 -0.0031124612 -0.007331533 -0.0029565117 0.0027890964 -0.009959585 0.009718193 -0.0030987181
0.0013656035 0.007986081 0.008570182 0.009169538 0.0018600449 0.012328126 -0.006096267 0.008288424
-0.009951729 0.008096152 0.0011146031 -0.00716156 0.009294613 -0.008421616 -0.0038686285 -0.008711656
-0.00694862 0.008856628 0.0031318353 0.007890662 0.010831545 -0.0073587103 0.008307987 -0.010308882
-0.0034755936 -0.007027941 0.006546371 0.0030177329 -0.007783282 0.009566415 0.00914402 -0.00921486

embed_layer.1.running_mean f4 [64]
00000000: 896a e2bd fd44 31be 6470 b23e 3878 bf3e
00000010: 257e 81be 1d4a 053e 161d 90be 3dc1 953d
00000020: 5536 cbbd ebdd e8bd d0ed 14be 8c7d 103d
00000030: f19d 5ebd c04e bfbe 5356 d73c fe73 89be
00000040: 9014 e7bd 8713 8b3e b121 d6bc faf2 bfbe
00000050: 3f42 d63e 43ff 5b3e 7cf4 423e 3a5d 6abe
00000060: 9747 963e 1cf1 37bd 4834 a13e 0358 463e
00000070: 7812 123e 1dee ccbd 18f2 c9bd 041c 4ebe
00000080: 9e04 00be 96ed ffbd 7c8e 823d 8f92 81be
00000090: 29c0 6cbe 2cec 91be cb94 4ebe b74d d2be
000000a0: 367a 1abe e1e5 36be 5db8 4dbe 52cf 98be
000000b0: 860a 21bd 12d9 863d 3d2c 00be f97b 7d3e
000000c0: c995 8bbe 8b84 a6be 5b80 37bd d8de 793c
000000d0: a239 753e 1812 fbbd fcc6 7e3e 1129 71be
000000e0: ddf5 0bbd 0b8c b7bd f578 54bd 4004 813d
000000f0: 8ac0 343e 8c64 9e3e 1696 6ebe ac2c 80be
-0.11055476 -0.17311473 0.34851372 0.37396407 -0.25291553 0.13016553 -0.2814719 0.07312248
-0.099224724 -0.113704525 -0.14543843 0.03527598 -0.054349843 -0.3736477 0.02628628 -0.26846308
-0.11283219 0.27163336 -0.026139112 -0.37490064 0.41847417 0.21484093 0.19038576 -0.22887126
0.29351494 -0.044907674 0.314852 0.19369511 0.14264858 -0.10006354 -0.09860629 -0.20127875
-0.12501761 -0.12496488 0.06374833 -0.25307128 -0.23120178 -0.28500497 -0.20173948 -0.41074917
-0.15085682 -0.1786113 -0.2008986 -0.29845673 -0.039316677 0.065843716 -0.12516876 0.24754323
-0.27262715 -0.32522997 -0.044800144 0.015250884 0.23947766 -0.122593105 0.24880594 -0.23550822
-0.03417002 -0.08962258 -0.051873166 0.06299639 0.17651573 0.30936086 -0.2329944 -0.25034082

embed_layer.1.running_var f4 [64]
00000000: 2766 023d 29da 843e b226 3a3f 7339 453f
00000010: 130d 243f 85cd a83e de74 c33d fe61 953d
00000020: 5ea7 923e 9e59 2e3f 066b 8f3d 0d33 c93d
00000030: fe9c 433d 5e6d 1e3e d23c 203d 0b2d 553d
00000040: 5aea 173f 4dc0 c63d 6a88 353d 0edc cb3d
00000050: ac9c 3f3f 0621 823d 72df 0e3f 90c6 363f
00000060: 23c3 023f 7fb6 2e3d 1130 5b3d 1286 203d
00000070: fb6f 3d3e 1879 6b3f f303 b53d 2d68 583d
00000080: 5f40 253d 69a4 d63d 0c3e 303d 6d7b 3a3e
00000090: db72 323d 8fa5 153e dd45 8a3d 1502 0f3f
000000a0: 570a 1a3e 8627 923e ad00 5b3c a466 b63d
000000b0: 2fcb 073f 8a8b 8f3d 9100 e03d 51e4 9b3d
000000c0: 842c 6e3d 426b 1a3f 331e 8d3d 4ffb 8c3d
000000d0: 6d97 383e 1270 873f 7c5b a43d d560 283e
000000e0: 5c95 1c3f 2369 9a3d ab90 303d a1e0 713f
000000f0: d652 0b3e 0ab6 c83e a37b 183f 66d4 4c3d
0.0318357 0.25947693 0.72715294 0.77040786 0.6408245 0.329693 0.09543775 0.07294081
0.28643316 0.68105495 0.07002835 0.0982419 0.04775714 0.15471408 0.039120503 0.05204491
0.5934197 0.09704647 0.044319548 0.099540815 0.7484844 0.06353955 0.558097 0.7139673
0.51079005 0.04265451 0.053512637 0.03919036 0.18499748 0.9198165 0.08838644 0.052833725
0.040344592 0.104805775 0.043027923 0.18211146 0.043566566 0.14613937 0.067516066 0.5586255
0.15043007 0.2854578 0.01336686 0.08906296 0.5304441 0.07009037 0.10937608 0.07611907
0.058147922 0.6031991 0.06890526 0.06883871 0.18026514 1.0581076 0.08025262 0.16443188
0.61165404 0.075395845 0.043106716 0.9448338 0.13605818 0.39201385 0.59563655 0.050007246

embed_layer2.0.weight f4 [16, 64, 3, 1]
00000000: e476 483d 68c7 f5bc e2de c0bc 09ec a33d
00000010: a22a d7bc d32b bd3c 3baa 9c3c 4ab5 053d
00000020: ab22 6b3d 3a45 123b 4bca 91bb 3438 13bd
00000030: 3cca 853d b2f8 7d3d 5aec 71bb 5559 a6bc
00000040: 2bae 693d dabc 68bd a9b8 60bd b1ff 02bc
00000050: 77c6 86bb f32e 463d 84d8 21bd c89d f33c
00000060: c9c5 45bd 3ce6 943d b6f5 7ebc f2af 6f3d
00000070: 3a83 733b 272b 80bd 333a 493d 0562 a5bb
00000080: 32f2 4c3d e568 7a3d cc02 91ba 5faa 18bd
00000090: 9632 22bd cc08 463d b8f4 d4bb 821e f6bc
000000a0: 13df 05bc 7f3e 1e3d 4104 d7bc fada 653d
000000b0: 672a 6fbc ded9 843d 40af 743d bb58 5f3d
000000c0: f802 8fbd a72a a53b 582a 8b3c 9755 27bd
000000d0: 4c9d a33c 4074 7338 7e8e 173d b393 33bd
000000e0: f5b2 6f3d 7675 f1bb d1e2 bc3c ec72 1f3d
000000f0: 187a d7bc c797 8c3c fcf1 41bd 8c84 08bd
00000100: a23a 8cbd 9765 083d ff82 f2bc 8cfc 81ba
00000110: af0e bd3c 35c6 cebc d02e 20bd 95d8 133d
00000120: a047 213d a16f 813d 6004 9b3c db26 0dbd
00000130: b872 003d ef46 993d 3390 533d 423b 833d
00000140: b77d e13b 3639 53bd f559 87bd ccc2 433d
00000150: 93db 9c3d 0d30 b23c 58cd 643d 4b58 64bd
00000160: d012 8b3d d6bb 5cbd 5ff6 e039 c0d5 37bd
00000170: 9a10 91bd 48ad 863d d1c6 ae3c 0a7a ea3c
00000180: 6def 9c3c 3a6f 22bd 0875 fdbc 1466 69bd
00000190: cd16 973c 03c9 74bd 2619 80bd 5b95 713d
000001a0: b59a d2bc aca4 9ebc a945 b7bc 8e70 873d
000001b0: 1bdf 94bc 0f34 bd3c 23dc 793d 5a99 0e3d
000001c0: 9622 573d 5489 f2bb d42e 4cbd 1e3e 72bd
000001d0: 1dc3 f43c 9435 a43d 9009 22bd 6496 2fbd
000001e0: 9ab9 c13c 3495 d03c 3fbe 1e3b 24d1 3ebc
000001f0: 208d 753d d087 b0b9 5b1e 093d 9877 233d
00000200: 73ad 233d 495c 3ebd 4397 04bd 3501 29bc
00000210: 4d3e 09bc 03de af3c 336e 0e3d d1eb 7abc
00000220: 247a 4c3d ccc2 0bbd e1b6 6fbc e125 7ebd
00000230: e8ea 88bd f965 23bd 149f 093d a4f3 153d
00000240: fed6 bfbb d647 2c3d 2ab9 553d 533d 0bbc
00000250: 1e92 f4bb 499b d9bb 54f8 ba3c 898b 24bd
00000260: 623a 06bd dec7 ee3c af4b 2c3c 433d 073c
00000270: be39 953d 329a 0f3c b849 b03c 311f 53bd
00000280: 783d a63c 8b8a 97bd 9aca 26bd ff86 c13c
00000290: 45d9 2c3d 6fdf f03b 991e 75bd 5526 89bc
000002a0: 1a05 9cbd 2ed7 0c3d b616 2abc d234 683d
000002b0: 40a1 2d3d a7d2 323d e2e7 0a3c 9cda 62bd
000002c0: 6015 4a3d 1364 983d 6d3a df3c 9c30 edbb
000002d0: 3a93 803a b1c2 843d a1b3 f73c 32d4 60bd
000002e0: 6383 5ebd 6e4e 6a3d 91ec 3b3c 4f6d f9bc
000002f0: 7724 40bd 1485 62bd 9db7 113c 7b80 473d
00000300: 7ccd 723d a064 4b3d d072 8bbc d558 71bd
00000310: 6b10 d0bc 3a43 523d 4d87 993c 177d 1f3d
00000320: 8028 32bd 9183 7bbd 558c 2bbd 7886 fa3c
00000330: 8ffb 2e3b 01af 003c 0586 91bc 5579 ebbc
00000340: cc5c 6f3d dcd4 ddbc 757d 623d a6b1 22bd
00000350: 9b80 103d 6b88 f6bc 2913 5dbc 1723 db3b
00000360: 70f0 fbbc f546 a8bc 2d94 a5bc 3fca 663b
00000370: 6518 0c3c eef4 23bd 2d04 413d 085a 55bc
00000380: bdc5 ac3c 342c 233d 255e 873d 1a55 17bc
00000390: 000e 6f3d ec26 4b3d 7c1f 583d c060 f23c
000003a0: e58d a1bc cab0 993a b00c e03c 8e9f c43c
000003b0: 3be2 51bc bfcd 16bb 6752 383d fd5d f7bc
000003c0: b532 8e3d ba46 d63b 8e4e 7d3d 4ab1 60bd
000003d0: 7f45 1dbb a9db 8c3d ba22 31bd 5472 b8bb
000003e0: 683b 253d f44b f5bc 3ed4 2bbd 1a52 873d
000003f0: 4436 803d 825b 843c 0580 853d a8af 04bd
0.048941508 -0.03000231 -0.023543779 0.080040045 -0.026265446 0.023092186 0.019124141 0.032643594
0.05740611 0.0022319094 -0.004449164 -0.03594227 0.06532714 0.062004752 -0.0036914558 -0.020306269
0.057050865 -0.056820728 -0.054863606 -0.007995532 -0.0041130143 0.048384618 -0.039513126 0.029738322
-0.048284326 0.07270476 -0.015561512 0.058517404 0.0037157075 -0.06258231 0.04912777 -0.005047085
0.050035663 0.06113519 -0.0011063456 -0.037271854 -0.039599024 0.048348233 -0.0064988993 -0.030043844
-0.008170861 0.03863382 -0.026247146 0.056117035 -0.014597512 0.06486867 0.059737444 0.05452798
-0.06982988 0.005040485 0.016987965 -0.04085311 0.019972466 5.804398e-05 0.037001126 -0.04384203
0.058520276 -0.0073687388 0.023057373 0.038927957 -0.026303336 0.017162217 -0.047349915 -0.03332953
-0.06847121 0.03330001 -0.02960348 -0.0009917184 0.02307829 -0.025240997 -0.039107144 0.03609522
0.039374948 0.0632012 0.018922985 -0.034460884 0.031359404 0.07484233 0.05165119 0.06407787
0.0068814415 -0.051568232 -0.06608955 0.047793195 0.07659068 0.021751428 0.055859894 -0.055748265
0.067906976 -0.05389007 0.0004290817 -0.044881582 -0.070832446 0.065760195 0.021335037 0.028622646
0.019157136 -0.039656855 -0.030939594 -0.056982115 0.01844349 -0.059762012 -0.06254797 0.058980327
-0.025708536 -0.019365631 -0.022372084 0.06613265 -0.018172791 0.023096113 0.061000954 0.034814216
0.052523218 -0.0074016247 -0.049849346 -0.05914127 0.029878194 0.08018032 -0.0395599 -0.042868033
0.023648072 0.02546177 0.0024222282 -0.011646543 0.05994904 -0.00033670524 0.033476215 0.039908975
0.039960336 -0.04647473 -0.032370817 -0.010315229 -0.00837667 0.021468168 0.034773063 -0.015315012
0.04992117 -0.03412132 -0.014631004 -0.062047843 -0.0668543 -0.03989217 0.033598974 0.036609307
-0.0058544865 0.042060696 0.05217854 -0.008498508 -0.0074637076 -0.006640826 0.02282349 -0.040172134
-0.032770522 0.029148038 0.010516091 0.008254352 0.07286404 0.00876479 0.021519527 -0.05154342
0.020292982 -0.07399472 -0.04072056 0.023623941 0.042199392 0.007350854 -0.059843633 -0.016741911
-0.076181605 0.0343849 -0.010381391 0.056691 0.042390108 0.043657925 0.008478137 -0.055384263
0.04933679 0.07440963 0.02724954 -0.0072384607 0.0009809502 0.06482447 0.03023702 -0.054889865
-0.05432452 0.057203703 0.011469976 -0.03044763 -0.046909776 -0.055302694 0.0088938745 0.048706513
0.059277996 0.04965651 -0.01702252 -0.058922607 -0.025398454 0.051333643 0.018741274 0.038937654
-0.043495655 -0.06140477 -0.041881878 0.030581698 0.0026700234 0.007854224 -0.0177641 -0.028744379
0.058438107 -0.027079038 0.055295426 -0.0397202 0.035278898 -0.030094346 -0.013493338 0.0066875326
-0.030754298 -0.020541647 -0.020212257 0.0035215763 0.008550738 -0.040028505 0.047123123 -0.013021953
0.021090383 0.039837077 0.066097535 -0.009236598 0.05836296 0.049597666 0.0527644 0.02958715
-0.01972098 0.0011725661 0.0273498 0.024001863 -0.012810285 -0.0023010818 0.04500046 -0.030196184
0.06943265 0.006539193 0.061842494 -0.054856576 -0.0023997722 0.06877834 -0.04324601 -0.0056288633
0.040339857 -0.029943444 -0.041950457 0.066074565 0.0626035 0.016156916 0.065185584 -0.03239408

embed_layer2.0.bias f4 [16]
00000000: fd9b 82bd 2721 e9bc 4d5a b2bc dd40 8abd
00000010: db47 183c 8227 663d 3fb9 463d 511c 923d
00000020: 88d6 933c f7c2 783c 3f42 59bd baeb 493c
00000030: 054c 2b3d 3b87 813d a399 fd3c 6ade 6bbd
-0.06377409 -0.028458191 -0.021771574 -0.06750653 0.009294475 0.05619002 0.04851651 0.07134307
0.018046632 0.015183202 -0.053041693 0.012324268 0.041820545 0.06324621 0.030957049 -0.057585157

embed_layer2.1.weight f4 [16]
00000000: d290 7e3f 0abb 803f 4508 813f 6c2b 813f
00000010: dd46 7d3f 2ceb 7c3f d65d 7d3f 905e 813f
00000020: e5e1 803f e234 7e3f bfe8 7d3f 9406 7f3f
00000030: 52d9 7d3f a452 7d3f d59b 7c3f 9891 7c3f
0.9943973 1.005708 1.0080649 1.0091376 0.98936254 0.98796344 0.9897131 1.0106983
1.0068938 0.9929944 0.9918327 0.9961941 0.9915973 0.98954225 0.9867528 0.9865966

embed_layer2.1.bias f4 [16]
00000000: 5d65 c1bb 401d d6ba 5cb3 1e3c 4758 2b3c
00000010: 7616 31bc 62a5 07bb 2119 23bc de91 453c
00000020: 1adf acba 01d3 85ba fbb7 0cbc d222 cb3b
00000030: df32 a73a 8978 013c 5303 67bb 1f47 b5bb
-0.005901976 -0.0016335621 0.009686317 0.010458059 -0.010808578 -0.002069794 -0.009954722 0.012058703
-0.0013189048 -0.0010209979 -0.008588786 0.0061992193 0.001275625 0.007902273 -0.0035249784 -0.00553216

embed_layer2.1.running_mean f4 [16]
00000000: 24bf ba3d a815 39bd 89b7 c93e a60e 103c
00000010: c448 783d 2c5a b83d e422 7237 df8b 3e3e
00000020: 4793 5b3d a7c4 ca3d 5f65 113e 981c b4bc
00000030: 7f69 d2bc daf3 66be 709f babd 062f d63d
0.091184884 -0.04518667 0.3939784 0.008792555 0.06061627 0.09001574 1.4432448e-05 0.18608044
0.05360725 0.0990079 0.14198826 -0.02198629 -0.02568507 -0.2255396 -0.091124415 0.10458188

embed_layer2.1.running_var f4 [16]
00000000: c351 f43d 60b2 8d3d 1111 e13d ba46 093e
00000010: 4dbe 993d ba07 a73d b4fc 573e ddad cc3d
00000020: f753 963d 5825 433e 172f 843d c72b 313e
00000030: 3451 b93d 643d 773e f8be a03d 9974 7b3e
0.11929657 0.06918788 0.10989583 0.13405886 0.07507 0.081557706 0.21092492 0.09994099
0.07340234 0.19057214 0.06454294 0.17301856 0.090486914 0.24144512 0.078489244 0.24556197

Fix_Position.pe f4 [1, 50, 16]
00000000: 0000 0000 0000 803f 0000 0000 0000 803f
00000010: 0000 0000 0000 803f 0000 0000 0000 803f
00000020: 0000 0000 0000 803f 0000 0000 0000 803f
00000030: 0000 0000 0000 803f 0000 0000 0000 803f
00000040: de0e a13e 1801 733f b7e3 ce3d beb0 7e3f
00000050: b40c 033d 73de 7f3f a5ca 253c a5fc 7f3f
00000060: 00b7 513b aaff 7f3f afa2 843a f8ff 7f3f
00000070: abc5 a739 ffff 7f3f 8637 d438 0000 803f
00000080: cde1 183f 2656 4d3f c6d4 4d3e 66c6 7a3f
00000090: 87fb 823d d479 7f3f 78c8 a53c 94f2 7f3f
000000a0: b9b6 d13b a8fe 7f3f aaa2 043b deff 7f3f
000000b0: aac5 273a fdff 7f3f 8637 5439 0000 803f
000000c0: 8ab6 513f 35d2 123f 490e 993e 394b 743f
000000d0: 5f4e c43d 3ed2 7e3f 47a7 f83c cee1 7f3f
000000e0: b348 1d3c fbfc 7f3f f3f3 463b b3ff 7f3f
000000f0: 7ea8 7b3a f8ff 7f3f a529 9f39 ffff 7f3f
00000100: 8740 753f 57cc 923e 4ea1 c93e 3150 6b3f
00000110: e1b6 023e dde7 7d3f c7bf 253d 52ca 7f3f
00000120: a0b5 513c a2fa 7f3f 98a2 843b 77ff 7f3f
00000130: a8c5 a73a f2ff 7f3f 8637 d439 ffff 7f3f
00000140: 0ee4 7f3f a333 efbc 3524 f83e d4ec 5f3f
00000150: 4f24 233e edba 7c3f 9327 4f3d 22ac 7f3f
00000160: 0011 833c 9df7 7f3f 2ecb a53b 29ff 7f3f
00000170: 11b7 d13a ebff 7f3f b4a2 043a feff 7f3f
00000180: 9b8c 703f 3c2e afbe 970e 123f f63e 523f
00000190: fa66 433e bf4b 7b3f f289 783d 3e87 7f3f
000001a0: d846 9d3c ecf3 7f3f b7f3 c63b cbfe 7f3f
000001b0: 77a8 fb3a e1ff 7f3f a429 1f3a fdff 7f3f
000001c0: eec8 483f 05d0 1ebf 868c 263f 6a6a 423f
000001d0: 6c76 633e b29a 793f e6f2 903d a75b 7f3f
000001e0: 467c b73c 8fef 7f3f 351c e83b 5bfe 7f3f
000001f0: eecc 123b d6ff 7f3f 94b0 393a fcff 7f3f
00000200: 90a2 0c3f 25e9 55bf 3b56 393f a798 303f
00000210: 20a5 813e 38a8 773f 069d a53d 5e29 7f3f
00000220: 3ab1 d13c 87ea 7f3f 51a2 043c dafd 7f3f
00000230: 9fc5 273b c9ff 7f3f 8437 543a fbff 7f3f
00000240: c569 843e 6b4a 77bf 813a 4a3f 5bf8 1c3f
00000250: 0e6d 913e d374 753f cf42 ba3d 66f0 7e3f
00000260: a0e5 eb3c d3e4 7f3f 7f36 153c 48fd 7f3f
00000270: 50be 3c3b bbff 7f3f 75be 6e3a f9ff 7f3f
00000280: 8719 6fbd 3f90 7fbf 190d 593f eabc 073f
00000290: dd0e a13e 1801 733f b5e3 ce3d beb0 7e3f
000002a0: b40c 033d 73de 7f3f a3ca 253c a5fc 7f3f
000002b0: 00b7 513b aaff 7f3f b3a2 843a f8ff 7f3f
000002c0: 5d27 bdbe 9be3 6dbf 32a7 653f e53b e23e
000002d0: 7586 b03e aa4d 703f 317f e33d 696a 7e3f
000002e0: 4126 103d 67d7 7f3f bb5e 363c f1fb 7f3f
000002f0: acaf 663b 98ff 7f3f 2ae6 913a f6ff 7f3f
00000300: 909b 24bf e10f 44bf c8e7 6f3f 6cad b23e
00000310: c8cf bf3e 3f5b 6d3f b514 f83d 691d 7e3f
00000320: 6c3f 1d3d b0cf 7f3f c7f2 463c 2bfb 7f3f
00000330: 58a8 7b3b 84ff 7f3f a229 9f3a f4ff 7f3f
00000340: 0ced 59bf 3754 06bf 01b4 773f f04a 813e
00000350: d4e6 ce3e 9c2a 6a3f dc51 063e bfc9 7d3f
00000360: 2d58 2a3d 4dc7 7f3f c686 573c 54fa 7f3f
00000370: 8150 883b 6fff 7f3f 1a6d ac3a f2ff 7f3f
00000380: 541e 79bf 88d4 6bbe 72f7 7c3f a72b 1d3e
00000390: a3c7 dd3e 99bc 663f d895 103e 6f6f 7d3f
000003a0: 7e70 373d 3ebe 7f3f b71a 683c 6cf9 7f3f
000003b0: d6cc 923b 58ff 7f3f 91b0 b93a efff 7f3f
000003c0: a504 7fbf 8532 b33d 50a4 7f3f 1597 583d
000003d0: 516e ec3e 1a12 633f 0ad6 1a3e 790e 7d3f
000003e0: 5288 443d 84b4 7f3f 98ae 783c 73f8 7f3f
000003f0: 2849 9d3b 3fff 7f3f 09f4 c63a edff 7f3f
0.0 1.0 0.0 1.0 0.0 1.0 0.0 1.0
0.0 1.0 0.0 1.0 0.0 1.0 0.0 1.0
0.31456655 0.94923544 0.10102027 0.9948844 0.031994537 0.99948806 0.010119115 0.9999488
0.0031999946 0.9999949 0.0010119284 0.9999995 0.00031999996 0.99999994 0.0001011929 1.0
0.59719545 0.8020958 0.20100698 0.9795898 0.06395631 0.9979527 0.020237193 0.9997952
0.006399956 0.9999795 0.0020238557 0.999998 0.00063999987 0.9999998 0.0002023858 1.0
0.8191916 0.57352 0.2989371 0.9542728 0.095852606 0.99539554 0.030353202 0.99953926
0.009599852 0.9999539 0.0030357807 0.9999954 0.00095999974 0.9999995 0.0003035787 0.99999994
0.95801586 0.28671524 0.39380878 0.9191924 0.12765075 0.9918192 0.040466096 0.9991809
0.01279965 0.9999181 0.004047703 0.99999183 0.0012799995 0.99999917 0.0004047716 0.99999994
0.9995736 -0.029199427 0.48465124 0.87470746 0.1593182 0.98722726 0.05057485 0.9987203
0.015999317 0.999872 0.0050596213 0.9999872 0.0015999993 0.99999875 0.0005059645 0.9999999
0.93964547 -0.34214962 0.5705351 0.8212732 0.19082251 0.98162454 0.06067843 0.9981574
0.01919882 0.9998157 0.0060715335 0.9999816 0.0019199987 0.99999815 0.00060715736 0.9999998
0.78431594 -0.6203616 0.6505817 0.75943625 0.22213143 0.9750167 0.07077579 0.99749225
0.022398125 0.9997491 0.0070834407 0.9999749 0.002239998 0.9999975 0.0007083502 0.99999976
0.5493555 -0.83558875 0.723972 0.6898293 0.25321293 0.96741056 0.080865905 0.99672496
0.025597204 0.99967235 0.00809534 0.9999672 0.002559997 0.9999967 0.00080954307 0.9999997
0.25861946 -0.9659793 0.7899552 0.6131646 0.28403515 0.95881385 0.09094774 0.9958557
0.028796017 0.99958533 0.009107231 0.9999585 0.0028799959 0.9999959 0.000910736 0.9999996
-0.058373954 -0.9982948 0.8478561 0.53022635 0.31456652 0.94923544 0.101020254 0.9948844
0.031994537 0.99948806 0.010119113 0.9999488 0.0031999946 0.9999949 0.0010119289 0.9999995
-0.36944094 -0.92925423 0.89708245 0.4418632 0.34477583 0.93868506 0.11108244 0.9938112
0.03519273 0.9993805 0.011130984 0.9999381 0.0035199923 0.9999938 0.0011131216 0.9999994
-0.6429987 -0.7658673 0.93713045 0.34897935 0.37463212 0.92717355 0.121133246 0.99263626
0.038390562 0.9992628 0.012142844 0.99992627 0.0038399901 0.9999926 0.0012143145 0.9999993
-0.8512733 -0.5247225 0.9675904 0.25252485 0.40410483 0.91471267 0.13117164 0.99135965
0.041587997 0.99913484 0.013154691 0.99991345 0.0041599874 0.99999136 0.0013155073 0.99999917
-0.973119 -0.23030293 0.9881507 0.15348683 0.43316373 0.9013153 0.14119661 0.9899816
0.044785015 0.9989966 0.014166526 0.9998996 0.0044799848 0.99999 0.0014167001 0.999999
-0.9961646 0.0874987 0.99860096 0.052878458 0.46177915 0.88699496 0.15120712 0.9885021
0.047981568 0.9988482 0.015178345 0.9998848 0.0047999807 0.9999885 0.0015178929 0.99999887

attention_layer.key.weight f4 [16, 16]
00000000: 7da6 463d 9418 dc3d 5913 32be 3609 563e
00000010: 4067 22bd d686 483e 9e2c 663e 9cae 74be
00000020: 469f f73b 982d 06be 19a2 6cbe 95fc dfbd
00000030: 13c3 56be 3f60 d8bb 29a2 9c3d 5f3b 27be
00000040: 1eec ccbc 1bde 25bd e66f 35be 544a 0a3e
00000050: 0cd7 653e 65eb 333d bffd 62be 3841 8b3c
00000060: 7c2c 5b3e e6b5 043e 1dee 08bd 63a5 00bd
00000070: 66ab c33d dbc1 5ebe 4a76 aebd 910c f1bd
00000080: 3431 2abe 0b2d 76bd c028 6d3e 8877 5dbe
00000090: e13a 723e 6424 693e 0b41 f3bd 9c15 603d
000000a0: e951 383e cac1 e9bd 670b 213c bdca 593a
000000b0: d945 37be c0ee 7fbd 809a a83d b8bc 173e
000000c0: e587 2bbe c71c 52be 354a e4ba f9e8 18bd
000000d0: 8015 2cbe f082 e73d dca0 0dbe 048e b3bd
000000e0: d899 2bbe c9c5 6a3e 93a2 093c 68b1 5e3e
000000f0: bc78 21be aafa dabd 21a4 89bd 4735 45be
00000100: 3d1e e13d 6fee 52be 875a 30be b417 153e
00000110: 974d 67be ad72 4b3e 0cb3 243d edcf f73d
00000120: cf37 443e 56c6 5c3e 3cfb b53d 317f 703e
00000130: 7060 373d 9381 a03c efff 30be 36ad a73c
00000140: 93ae f7bc b08f 6bbe 3fe4 9f3d aeb0 44bd
00000150: 701a 273e 9a49 5d3e e704 693e 42b2 bdbd
00000160: 1b09 3b3e cd50 49bc 7197 533e ebca 503e
00000170: 7861 9f3d 46f7 e0bb d8e4 e4bd aa14 10bc
00000180: 9f6c 83bc 4cbb 40be d13f 103e 08e0 003e
00000190: 6f49 21bd db8d 1f3c 2b2e 283d b7c7 8dbc
000001a0: 73c5 213e a851 42bd 4469 e1bd 441c 403e
000001b0: 24f8 0ebe dbe2 583e 88b7 60be 9a31 de3d
000001c0: a1f6 35bd 43f4 3dbe 1e98 41be 0cda 43be
000001d0: ecc5 2bbe 6865 373e c9ca fb38 aacf a7bd
000001e0: 68cf 6bbe e76f 46be e7a9 463e d4d4 49be
000001f0: 225c 6c3e cf67 5abe b874 913d 2cba 203e
00000200: c65a 0ebc e869 3f3d a215 3cbd 0d26 313e
00000210: 0877 833b 973c 4abe d934 4c3e 2f21 37bc
00000220: 06dd 123e 8634 ecbd 779c 563d 3818 b8bd
00000230: 47a5 e83d 4c90 113e 3598 0f3d d1ef f7bd
00000240: 433d 603c 036c debc c390 2e3e 0817 21be
00000250: 00e0 fb3d b0b0 5ebe 6d8f 423e 9492 10be
00000260: 2b7c 46be 68a5 d83d 2914 543e 2daf b5bc
00000270: 5440 28bd c53b ffbd 11a1 5cbc c996 2ebe
00000280: f170 1cbe bdd2 55bd d25d 5a3e 6a1c 703e
00000290: 8eef 363e c738 8a3d eb8b b53d 3f6e ffbd
000002a0: 5c17 8c3d 5d43 fb3d b340 a2bd 64e7 693e
000002b0: c05b 10bd d758 193e 9e86 34be e531 a93c
000002c0: 5015 2ebe ceba 5bbe 1395 f73d 1501 013e
000002d0: 086b 91bd 13fc 003e 03b0 1ebe d615 873c
000002e0: 0aff 22be 0c02 5d3c 11bb 8bbd b3b6 41be
000002f0: fa59 ddbd ccf7 62be 1e55 363e 6c89 233e
00000300: 32f4 093e abd5 3a3e e7d6 d33d 78eb 59be
00000310: f6f1 d5bd ef10 663e e7e5 4d3e 9fff 11bd
00000320: 9a7c 5dbe bb3b 51be 4363 bbbd 1120 303e
00000330: e1d8 f43c ac37 43be 7f77 6fbe 1f87 ff3d
00000340: fba4 4b3d 1b18 c5bd 1321 c73d 3880 7b3d
00000350: b793 4f3e df78 57bc adab bb3d fce7 093b
00000360: 11bc 8a3d e1c5 0d3d e03f 33be b9a6 123e
00000370: d8b0 bb3d b1a8 23be 44bf 66be 4092 80bc
00000380: 2c4a 473e f2b4 3cbd 0231 9fbd 11b3 84bc
00000390: 2d82 2fbe b059 42be 0446 1a3e 5312 18be
000003a0: 502d 813d 6a1f fe3c 0ded 04be 9d6b a63d
000003b0: c831 3bbe 0d98 5dbe 5e68 e13d bb74 a8bd
000003c0: df83 07be 0352 c43d 28e0 5c3e 9643 64be
000003d0: 0394 a0bc cb33 ccbc d7c5 003e 4f55 7abd
000003e0: 8be3 17be 59c5 11be 35bf 933c 4fdb 6bbe
000003f0: d363 033e 57dc acbd 56bf f53d 5451 fbbd
0.04849862 0.107468754 -0.17390193 0.20901951 -0.039649248 0.19582686 0.22477958 -0.23894733
0.0075568287 -0.1310333 -0.2310871 -0.10936848 -0.20972852 -0.0066032703 0.07648117 -0.16331242
-0.025014933 -0.04049502 -0.17718467 0.13504916 0.22445315 0.04392566 -0.22167109 0.016998872
0.21403688 0.12960014 -0.033430208 -0.031407725 0.09554176 -0.21753637 -0.085186556 -0.11769975
-0.16620332 -0.06010155 0.23160076 -0.21627629 0.23655273 0.22767788 -0.1187764 0.05470811
0.17999996 -0.114139155 0.009829379 0.00083081034 -0.17897739 -0.06248355 0.082325935 0.14818084
-0.16751058 -0.2051879 -0.0017417135 -0.037331555 -0.16805077 0.11304271 -0.13830894 -0.08767322
-0.16757905 0.22927012 0.008400577 0.21747363 -0.15768713 -0.106923416 -0.06720758 -0.19258605
0.109920956 -0.20598768 -0.17222033 0.14559823 -0.22588192 0.19867964 0.040209815 0.121002056
0.19161914 0.21560034 0.0888581 0.2348602 0.044769704 0.019593036 -0.17285131 0.020468336
-0.03023461 -0.23004031 0.07807206 -0.048020057 0.16318679 0.21610108 0.22755776 -0.092625156
0.18265192 -0.012287331 0.20663239 0.20389907 0.077822626 -0.006865415 -0.11176461 -0.008793989
-0.016043006 -0.18821448 0.14086844 0.12585461 -0.039376672 0.009738411 0.041059654 -0.017307146
0.15797977 -0.047441155 -0.11006406 0.18760782 -0.13961846 0.21180288 -0.21945012 0.108493045
-0.044424657 -0.1855021 -0.18905684 -0.19126147 -0.1677472 0.17909777 0.00012006384 -0.08193906
-0.23028338 -0.19378625 0.1940075 -0.19710094 0.23082021 -0.21328662 0.071023405 0.15696019
-0.008688634 0.04673186 -0.04591907 0.17299671 0.0040119924 -0.19749676 0.19942035 -0.011177345
0.14342126 -0.115334556 0.05239531 -0.08988994 0.11359649 0.14215201 0.035057265 -0.12106288
0.013686481 -0.027151113 0.1704741 -0.15731442 0.12298584 -0.21747088 0.19000025 -0.14118415
-0.19383304 0.10578424 0.20710815 -0.022178257 -0.041076973 -0.12462572 -0.013466136 -0.17049707
-0.15277459 -0.05220293 0.21324852 0.23448339 0.1786482 0.06749111 0.08864578 -0.124722
0.06840393 0.12268708 -0.07922497 0.22842175 -0.03524375 0.14975296 -0.17629477 0.020653674
-0.17000318 -0.21457979 0.120889805 0.12598069 -0.07100493 0.12596159 -0.1549683 0.016489904
-0.15917602 0.013489258 -0.068227895 -0.1891735 -0.10808177 -0.2216484 0.17805907 0.15970391
0.1347206 0.1824557 0.10343724 -0.2128123 -0.10446541 0.22467397 0.20107232 -0.03564417
-0.21629563 -0.20432942 -0.09149792 0.17199732 0.029888572 -0.19064206 -0.23385428 0.12476944
0.049717885 -0.096237384 0.09723105 0.061401576 0.20271192 -0.0131513765 0.09163604 0.0021042814
0.06774152 0.03461254 -0.17504835 0.14321412 0.0916459 -0.1598232 -0.225339 -0.015694737
0.19461888 -0.046071 -0.077730194 -0.016198667 -0.17139502 -0.18979526 0.15065771 -0.1485074
0.06307471 0.031020839 -0.12981053 0.08125994 -0.18280709 -0.21640034 0.110062346 -0.082253896
-0.13233899 0.09585955 0.21569884 -0.22291407 -0.019601827 -0.02492704 0.1257547 -0.061116513
-0.14832895 -0.14235438 0.01803551 -0.23032878 0.12831049 -0.08440464 0.11999385 -0.122713715

attention_layer.value.weight f4 [16, 16]
00000000: 6ff2 583d b682 40be f77b 423e 0836 f83d
00000010: 9644 493b e728 cdbc 2790 533d 1a67 6abe
00000020: 0901 c4bd 9506 74be 50b1 4c3e 7fa7 98bd
00000030: b9c6 3d3e 8ec3 e5bb 62b4 4bbe 098e c03d
00000040: e7c9 b13d b738 9abc 29d4 3f3e 1f02 063e
00000050: 5b76 043e fa8e c83c 469f 32bd 39b9 c53d
00000060: c8a4 71bd 7e3c 5fbd 508b 1f3e e62a 303e
00000070: b6a1 4fbd 60e2 823d 2c24 b3bb 19c9 2d3e
00000080: 10aa 193e c1d3 de3c d574 a3bb 6659 ed3d
00000090: 82a1 333e 6afb 6fbe e0b1 afbb 3a17 583d
000000a0: 8386 66bc 1470 0cbe 68ae da3d 0ce6 11be
000000b0: c06f ed3d 93f7 f8bd dd48 7e3b 23bd 003e
000000c0: ee67 57be dad8 60be 23c8 753e d49d a9bc
000000d0: 29dc 11be 021d 8a3d 8152 9cbd 8a5d bbbd
000000e0: 64d8 e3bd e9d0 86bd b501 0c3e de19 c3bd
000000f0: 8864 d73d 6854 7a3d df04 19be da8b fabd
00000100: 071b ec3d 3a24 923d b71c 09be ce46 dd3d
00000110: deb6 983d 1b67 493e 1797 533c e23b 233b
00000120: 37d6 18be 1e9d cbbd 4042 1d3e 5670 2c3e
00000130: e4db 36bd 33a1 563e 24a3 db3d 2449 593e
00000140: dbc0 763e e667 223e 8012 83be ce9a 1b3e
00000150: aa8a 683e 53f0 e5bd e956 49bd 3f5e 643e
00000160: 6d4a 52be e6e7 91bd 9fb0 903d 9d26 443e
00000170: 8f14 673e 5248 74be 8e82 66bd 90f0 3e3b
00000180: 2a18 ed3d 12c8 bfbd 2cc5 1fbe cacd 113e
00000190: 722f 75be c6ec 883d 90b2 3cbd 34d8 43be
000001a0: 725d 7dbe c3eb 653d ee87 51be a29b a03c
000001b0: 30e4 d2bd 28b8 b93c 1591 35bd f12b d2bd
000001c0: 0de7 42be fdc5 f03d 31a7 99bd d3da 4abe
000001d0: aabd f6bc 0925 673d ef56 5b3e da11 033e
000001e0: 4ff5 313e c5e8 9b3b 5ebf 61bd b511 3dbe
000001f0: 6929 d63d a68f 02be 3f7d 07be b97e 1ebe
00000200: f1e9 e73d 263d 2f3e b629 593e 2c93 f03c
00000210: ba13 65be ccd6 b93d f2b6 4a3e 331b 383e
00000220: ca50 4dbe c6af 80be e135 383e 7aa7 ecbd
00000230: c095 a63d fb7b a3bd eab3 cb3a ceda 023e
00000240: 4545 093e e64a 64bc 8627 aabd d897 a23d
00000250: 4a30 393e 16bc 51be 2499 6abe c1d0 27be
00000260: 801d 48bc beb1 6a3e f58b 53be 0291 1d3e
00000270: 2c41 233d 621d 11bd db7c 13be 76de 0cbc
00000280: c15a 98bc 710f 5bbe 0d24 0d3e e021 073d
00000290: 2b46 903d 4561 4a3d e00c 17be 0fa5 48be
000002a0: ce8f 1dbd 1fe2 533d 27dc 783d aebc ecbd
000002b0: a189 30be c985 de3d 6440 4abd 4ef8 d9bd
000002c0: e379 373e f028 3cbe ba67 0cbc 5ebb 39be
000002d0: 86f7 753e 4be0 0cbd a5e9 9d3c 5bde 7cbd
000002e0: 6a7e 2b3e 216a 4cbe 3feb 61be 517a 2c3e
000002f0: ac7d 813d 3915 87bd 7f11 233e 0681 1c3e
00000300: 620a 45be 2fe4 32bd d548 5b3d fb5d 9d3d
00000310: 62c5 bebd 6db9 4a3e 278c 133c 100a 2a3d
00000320: e81c bc3c 1546 6fbe f74d 22be b5cc 573e
00000330: 0a9f 15bd f393 34be cc58 47be b4dd 863d
00000340: 7eb1 52be 1c94 0d3e cab2 77be 077f fabd
00000350: 7e81 31be 41ec 25be e645 273d f0b4 78be
00000360: f397 40be fef7 5fbc ac87 7b3e 96d7 0e3e
00000370: f043 3f3e 70ce 0abd cc01 0a3e 0655 093d
00000380: a313 12be fb78 633e 6204 a13d 3afc 3ebd
00000390: e333 47bd a87f f43d d3cc 43be dfd2 5d3e
000003a0: 3bd7 8e3d dd3b e6bd 38ae 71be c1dc 0cbe
000003b0: 7b25 bcbd 8005 25bd e06b b3bb 3701 6f3e
000003c0: 876b afbc 4ff7 763e 154b 4c3e 26e5 943d
000003d0: a2e7 1f3e 2d2a 0d3e e7d6 02be aa22 bfbd
000003e0: 3ffc 05be 24ff 1a3e 2d09 f23d c219 113e
000003f0: 2224 e33d 9e82 583d cf1f 703e 2c0e a9bd
0.052965578 -0.18799862 0.18992601 0.12119681 0.0030711046 -0.025043918 0.051651146 -0.22890893
-0.0957051 -0.23830636 0.19989514 -0.07453822 0.18532838 -0.0070118373 -0.1989303 0.09402091
0.08681088 -0.018825872 0.18733276 0.13086747 0.12935774 0.024482239 -0.043608926 0.09654469
-0.05899504 -0.05450105 0.15580487 0.17203864 -0.05069133 0.06390834 -0.0054669585 0.16971244
0.1500628 0.027200582 -0.0049882927 0.11589317 0.17542079 -0.2343575 -0.0053617805 0.052756526
-0.014070156 -0.1371463 0.106777966 -0.14247912 0.1159358 -0.12156596 0.0038800754 0.1257215
-0.2103574 -0.21957722 0.24002127 -0.020705141 -0.1424414 0.06743814 -0.07632924 -0.091487005
-0.111252576 -0.06582815 0.13672526 -0.09526418 0.10517222 0.061115652 -0.14943264 -0.12233706
0.115285926 0.07135816 -0.1338986 0.108045205 0.07456754 0.19668238 0.012914441 0.002490752
-0.14925466 -0.09942077 0.15357304 0.16839728 -0.044643298 0.2095993 0.10724476 0.21219307
0.24097006 0.15859947 -0.25600052 0.15195772 0.22709146 -0.11227479 -0.04915515 0.22301577
-0.20536204 -0.07124309 0.07064938 0.19155355 0.22566436 -0.23855713 -0.05627685 0.0029135086
0.115768746 -0.09364332 -0.15602559 0.14238659 -0.2394388 0.06685786 -0.046068728 -0.19125444
-0.24742678 0.056133043 -0.2046201 0.019605462 -0.102974296 0.02267082 -0.044327814 -0.102622874
-0.19033451 0.11756513 -0.07502592 -0.19810037 -0.030119736 0.056431804 0.21419881 0.12799779
0.17378734 0.004757973 -0.055114143 -0.18463786 0.10457117 -0.1275011 -0.13231371 -0.15478028
0.11323918 0.1711317 0.21207318 0.029367052 -0.22370806 0.090741724 0.1979635 0.17979126
-0.2005035 -0.25134104 0.17989303 -0.11555381 0.08134031 -0.07982632 0.001554129 0.1277878
0.1340533 -0.013933873 -0.0830832 0.07939118 0.18084827 -0.20481905 -0.22909981 -0.16388227
-0.012214065 0.22919366 -0.20658858 0.15387347 0.039857075 -0.035428412 -0.14403097 -0.008597961
-0.018597962 -0.21392609 0.13783284 0.03299129 0.070446335 0.04940917 -0.14751005 -0.19594215
-0.03846722 0.051729318 0.06075683 -0.11559425 -0.17240001 0.10865361 -0.049377814 -0.106430635
0.1791759 -0.18374991 -0.008569652 -0.18137881 0.24020204 -0.03439359 0.01927645 -0.061735492
0.16747442 -0.1996236 -0.22062396 0.16843535 0.06322798 -0.06595845 0.15924643 0.15283594
-0.19242242 -0.043674644 0.053536255 0.07683941 -0.093149915 0.19797297 0.009005583 0.041513503
0.022963002 -0.23366578 -0.15850054 0.21074183 -0.036528625 -0.17634563 -0.19467467 0.06585255
-0.2057552 0.1382603 -0.24189296 -0.1223126 -0.17334554 -0.16203405 0.040838145 -0.24287772
-0.18807964 -0.013669966 0.24563473 0.13949427 0.1867826 -0.03388828 0.13477248 0.03352835
-0.14265303 0.22214119 0.07862164 -0.04662726 -0.048633467 0.11938411 -0.19121103 0.21662472
0.06974646 -0.11241887 -0.23601615 -0.13756086 -0.09186836 -0.04028845 -0.005475506 0.23340307
-0.021413578 0.24117778 0.19950517 0.07270269 0.15615705 0.1378562 -0.12777291 -0.093327835
-0.13084505 0.15136391 0.118181564 0.14169982 0.11090876 0.05285894 0.23449634 -0.08254656

attention_layer.query.weight f4 [16, 16]
00000000: bdb0 f1bd a244 2abc 5711 debc fd40 8dbd
00000010: 86db fc3d 9cef 003e a33a 653e 612a b93d
00000020: ae87 c4bd c32e 8c3d ebba f2bd 3db3 11be
00000030: 84da da3d 083e 543d 5ad2 4e3e 43d9 623e
00000040: bea2 7bbd 8d60 643c 253a 87bd ac89 4fbe
00000050: af88 72be 997f 0c3e 4c67 08be 7039 5e3e
00000060: 3438 34be f830 ce3d 1b04 413e 7721 eebd
00000070: 6083 de3c f59b 93bd 7b56 36be 4f2e 90bd
00000080: 6b2f aeb9 4b1d 1f3e 7607 21bd 52f7 5ebe
00000090: d5d8 4d3e e1e1 42be efd4 3bbe 0191 803d
000000a0: b4d5 b7bd 79b6 8ebd 0b9a 383e 3b43 923d
000000b0: 3eb1 ac3d ac82 f03c d173 493c 08c9 9e3c
000000c0: ed84 213e 0b48 583e f3f3 b1bd 9003 0d3c
000000d0: d3e5 58bd 8741 813d 1a40 673e 3766 40be
000000e0: bb80 72be 2b7f 473e 136f 11be 79ae c53d
000000f0: af52 323e d8be 83bd 69b5 2dbe 0622 623e
00000100: 0e78 20be fe00 c2bd 80e5 3abe c258 2e3d
00000110: 07c9 4fbe 5f35 47be c44d 70bd da80 2dbe
00000120: 64a1 20bd 9d6d 6a3c 7b52 86bd 4703 60be
00000130: ba67 71be b057 ad3d fcbb 233e f773 16be
00000140: 54d5 38bb d094 adbd 97a2 a3bd 7fd9 013e
00000150: c05f 73be 8856 2c3e 7406 4cbe c891 49bc
00000160: 47c0 dc3c 8de7 1e3e bb02 91bd 4a07 2a3e
00000170: c761 0fbc a013 703e 3393 14be 5a27 7dbd
00000180: 89eb 2b3e 56c7 9d3d f625 4a3e ea5d 6f3e
00000190: aa99 133e 893d 5ebe 467a d43d 9441 5a3d
000001a0: a6c1 723d 5cc9 d13d d6c4 703d 440e 11be
000001b0: 50ec 053d 4e0c fa3d b8ef 1abb de5c 62be
000001c0: 73ce 23be 8936 d5bd ed26 7e3d 4185 8c3d
000001d0: 2e08 d9bd ce57 e6bd 09f1 65be cbb0 12be
000001e0: 07fe 213e 9c69 ba3c d33f 6d3d c080 83bc
000001f0: a4c2 fe3d c61c 3fbe 63e8 533d 8ecb 02be
00000200: 41a0 75bd 9dc3 263e 1e89 293e 7e57 393e
00000210: db03 3f3e 3a95 4ebe d333 4d3d e63f 93bd
00000220: 0caa 003e 041c 07be 118d 68be 5226 5c3e
00000230: 23b4 a3bd 6cc9 b33c 3381 3f3e bd42 04be
00000240: 5643 0b3d d869 1ebe 3a1c 693e 01b6 853c
00000250: 1ab9 24be 731c 2e3d cae7 5fbd 5a29 943d
00000260: 823f a03d d26b 35bd af8b 183c 27ec 59be
00000270: 3dbb dd3d ead2 95bd e324 d63b 5cd5 4ebc
00000280: 2b8a 6e3e 94d0 043e ac89 d3bd 634d 3bbe
00000290: 4383 283e 1696 3e3e 0ba5 dc3a 2460 98bc
000002a0: c034 2abe 1fe2 573e f12a ef3d dd41 953d
000002b0: 0916 973d 4cd4 bb3d 8799 353e 44c8 8bbb
000002c0: b7c3 c1bd 1bc3 473e bb95 d73b c2e2 fc3d
000002d0: 7d50 6e3e ff85 2e3e 85aa dfbd 359e 83bd
000002e0: 19b3 72be 0eba 66be 2afc 51be 6404 f0bd
000002f0: 1271 6abe 602b 0bbe e0a7 5dbd 2dd3 71bc
00000300: a657 6b3e 3bd4 f83a c2bf 59bd 05a7 a23d
00000310: 4617 0b3e 7d34 193e fe14 afbd ce62 163e
00000320: 6270 2c3d 31ed 54be 40e3 273e b821 273e
00000330: 22ec 3d3e 9675 44be 0597 9a3c 0288 e4bc
00000340: 76d7 a63d a981 343e d025 f53d dc88 c33d
00000350: 2c80 bfbb 3de2 483e 2c02 2d3e fcd1 fe3d
00000360: 41a7 2a3e dcb5 1b3e 3477 59bd 7260 9cbd
00000370: 35af 563e a6a1 49be e3fe 8f3d 21ac 27be
00000380: 466a 84bd 91d0 213e bfdd 32be 883f 01be
00000390: a2b9 03bd f912 5c3d ef75 8dbd e897 11bd
000003a0: 4cb5 5b3e b0a6 3d3e a213 92bb e4f7 7b3c
000003b0: d698 da39 0258 2f3e 6be8 52be 8f02 6f3d
000003c0: d795 29be 887e d63d 23c0 973c e10e 01be
000003d0: 0fa6 b63c 1c83 26be 3159 3abe 177e df3c
000003e0: 94bd ebbb 5435 b8bc 2e94 cc3d 599d 1b3e
000003f0: e39e a0bd 6203 2fbd da3e 573c 44dc 9bbd
-0.11801288 -0.01039234 -0.027107878 -0.06897161 0.12346558 0.12591404 0.2238565 0.09041286
-0.09596191 0.068448566 -0.11852058 -0.1422853 0.1068621 0.05181697 0.2019743 0.22153191
-0.0614345 0.013939035 -0.06602887 -0.20267361 -0.23684953 0.1372055 -0.13320655 0.21701598
-0.17599565 0.10067934 0.18849222 -0.11627477 0.027162254 -0.07207481 -0.17806427 -0.07040083
-0.00033223195 0.15538518 -0.039313756 -0.21774033 0.20102246 -0.19031478 -0.18342946 0.06277657
-0.089763075 -0.06968398 0.18027513 0.071417294 0.08432244 0.029359184 0.012295679 0.019382969
0.15773363 0.21121232 -0.08689108 0.008606806 -0.052953552 0.063113265 0.22583047 -0.18788992
-0.2368192 0.19482104 -0.14202528 0.09652419 0.17414354 -0.06432885 -0.16963734 0.22083291
-0.15670797 -0.094728455 -0.1825161 0.042565115 -0.2029153 -0.19453953 -0.058667913 -0.16943684
-0.039216414 0.01430836 -0.06558701 -0.2187625 -0.23574725 0.08463991 0.15989679 -0.14692675
-0.0028203325 -0.08475649 -0.07989996 0.12680624 -0.23766994 0.16829884 -0.19924337 -0.012302823
0.026947154 0.15518017 -0.07080599 0.16604343 -0.008751339 0.23444986 -0.14509277 -0.061805107
0.16789068 0.07704036 0.19741043 0.23375669 0.14414087 -0.21703161 0.10374884 0.053285196
0.05926671 0.102434844 0.058781467 -0.14165598 0.03269607 0.12209378 -0.0023641419 -0.22105739
-0.15996723 -0.104107924 0.06204884 0.06861354 -0.10597263 -0.11247216 -0.22455229 -0.14325254
0.1581956 0.022755437 0.057922196 -0.016052604 0.124394685 -0.1866332 0.051735293 -0.12772962
-0.059967283 0.16285558 0.16556212 0.18099782 0.18653814 -0.20174113 0.05009825 -0.07189922
0.12564868 -0.13194281 -0.22710063 0.21498993 -0.07993343 0.021946631 0.1870163 -0.12916084
0.033999763 -0.15470064 0.22764674 0.016322138 -0.16086236 0.0425076 -0.05466441 0.0723445
0.07824613 -0.04429228 0.009310647 -0.21281491 0.108267285 -0.07315619 0.006535159 -0.012624111
0.23294894 0.12970191 -0.10328993 -0.1829124 0.16456322 0.1861194 0.0016833855 -0.01860053
-0.16621685 0.21082352 0.11678112 0.07287953 0.0737725 0.09171352 0.17734347 -0.004265817
-0.09461158 0.1950802 0.0065791286 0.12347938 0.23272891 0.17043303 -0.10921196 -0.0642666
-0.23701133 -0.22531912 -0.20506349 -0.117195874 -0.22894695 -0.13590765 -0.054115176 -0.014759821
0.22982654 0.0018984148 -0.05316139 0.07942013 0.13583097 0.14961429 -0.08548926 0.14686128
0.042099364 -0.20793606 0.16395283 0.16321456 0.18547109 -0.1918548 0.01887084 -0.027896885
0.08146565 0.17627586 0.11970103 0.09547588 -0.0058441367 0.19617553 0.1689536 0.12442395
0.16665365 0.15206093 -0.053092197 -0.07635583 0.20965274 -0.1969057 0.07031038 -0.16374256
-0.064655825 0.15802218 -0.17467402 -0.12621891 -0.032159455 0.05372903 -0.0690726 -0.03554526
0.21455878 0.18520617 -0.004457907 0.015378926 0.00041694072 0.17123416 -0.20596473 0.05835205
-0.16561066 0.10473353 0.018524235 -0.12603332 0.02229598 -0.16260952 -0.18198086 0.027281804
-0.0071942303 -0.022486366 0.099892005 0.15196742 -0.07842805 -0.042727835 0.013137544 -0.07610372

attention_layer.to_out.weight f4 [16]
00000000: 97ba 803f 7509 803f f26d 7d3f 3aae 7d3f
00000010: 3c48 7f3f 0dcd 7f3f 6c63 7f3f 02da 7c3f
00000020: 4d37 803f 1f31 7d3f 5bd4 7f3f 8dd1 7d3f
00000030: 079a 7d3f 1864 7f3f e3b9 7d3f 4c12 7d3f
1.0056943 1.0002886 0.9899589 0.99093974 0.99719596 0.9992226 0.9976108 0.98770154
1.0016876 0.9890308 0.99933404 0.99147874 0.9906315 0.99762106 0.99111766 0.98856044

attention_layer.to_out.bias f4 [16]
00000000: c6d6 90bb ad4c 373b 39a7 40bb c895 1b3c
00000010: bb64 8aba b52e e2bb bae0 ce3b 0b72 e83b
00000020: 0d51 1dbc 9a63 a93b ed32 12bc 5c2d d8bb
00000030: 40d1 043c c783 29ba be62 f03b 78a0 e6bb
-0.0044201342 0.0027969286 -0.0029396547 0.00949616 -0.0010558584 -0.0069025406 0.0063134106 0.007093673
-0.009601844 0.005169344 -0.008923274 -0.006597204 0.00810653 -0.0006466475 0.0073359897 -0.0070381723

LayerNorm.weight f4 [16]
00000000: 0253 813f d69b 7f3f c6b9 803f 8dd3 7d3f
00000010: b8e8 7e3f d00b 7f3f 5ab3 7f3f cfac 7c3f
00000020: 7153 803f 986d 7d3f 6427 7d3f 4230 7e3f
00000030: a07f 7d3f a257 7f3f 1419 7d3f 35e8 7d3f
1.0103457 0.9984716 1.0056694 0.99150926 0.9957385 0.996274 0.99883044 0.98701185
1.0025464 0.9899535 0.9888823 0.99292386 0.99022865 0.9974309 0.9886639 0.99182445

LayerNorm.bias f4 [16]
00000000: 3329 8cbb fcec 5e3b b919 7dbb ff76 183c
00000010: 04c7 a4ba dac7 efbb 1cd8 7a3b 08bd f33b
00000020: 9cd1 0fbc e8ea 8bbb 6203 11bc cd6b dbbb
00000030: 33ef db3b 55be 633a abb2 ca3b 5ae8 14bc
-0.0042773723 0.0034015765 -0.0038620068 0.009305715 -0.0012571518 -0.0073175253 0.0038275784 0.0074383058
-0.008778002 -0.0042699464 -0.008850904 -0.0066962005 0.0067118644 0.00086877245 0.0061858497 -0.0090886

LayerNorm2.weight f4 [16]
00000000: 53b0 813f a183 813f 94b4 813f 4101 7e3f
00000010: 913d 813f 997e 813f 279b 7f3f 74ae 813f
00000020: af40 803f a340 7d3f 29f4 7e3f 6e49 803f
00000030: 91ae 7f3f f551 813f 0e8e 803f 1d2f 803f
1.0131935 1.0118295 1.0133233 0.99220663 1.0096914 1.011676 0.9984612 1.0131364
1.001974 0.9892675 0.9959131 1.0022409 0.9987574 1.0103136 1.0043352 1.0014378

LayerNorm2.bias f4 [16]
00000000: 05a1 23bc c645 303c 1316 29bc 617f 2a3c
00000010: fa70 1f3c 7e51 3db9 46ce 8d3b 54c7 8b3b
00000020: 2144 fcbb 5aa4 2e3c c034 2dbc 71ab 283b
00000030: 137d 1d3c 844d 0c3c 6ee4 2d3c 775f d0ba
-0.0099871205 0.010758823 -0.010320204 0.010406346 0.009731526 -0.00018054803 0.004327568 0.004265705
-0.0076985513 0.010659302 -0.010571659 0.0025736953 0.00961234 0.008563403 0.010613544 -0.0015897591
