CMI-Net/checkpoint/ConvTrans/setting0/2025_03_31_21h_18m_36s/ConvTrans-best.pth (torch, 67498 bytes, 28 tensors)

embed_layer.0.weight f4 [64, 1, 1, 8]
00000000: f3d2 0dbd 27d0 9fbc 3958 11be 9187 8e3d
00000010: f1bd 55be 0cec 8cbd 85f2 053e 4366 a33e
00000020: 98c8 2a3d 3e7d 03be e97f 1ebc 00af 4abd
00000030: 1c99 d83d 036e d13b c226 ec3d bbbf 9c3e
00000040: 32bc d3bd 6af8 a43c a73f 8f3d 9363 ff3a
00000050: c7b0 33bb 812d 8abe 7981 86be 7187 8fbe
00000060: 38d7 99be 86cd 91be d295 68be a3e1 8dbe
00000070: 0857 91be 4507 023e 61a7 3c3e b4be 563e
00000080: e2ba 1b3e 71b5 c03d b7bd fb3d e41b 20be
00000090: fc06 8c3e f03e 863b 83f5 873e 3162 be3d
000000a0: 837b 763e 4feb 763e 0105 30bd 5c23 99bd
000000b0: 4f16 403d b24e 0f3c da15 783d e5f2 203e
000000c0: af32 8abe d93b fbbc 5a9d 8dbe 0e03 a03e
000000d0: b078 6ebe 7efa 353d 9878 e6bd 07e4 323e
000000e0: 6057 a93a f1c7 1bbd 42bb 7b3e 890d a13e
000000f0: 8849 7cbe 20ce a8be 5c89 0a3d 10db e83d
00000100: 02b4 993d 4bcc 953e 3ab1 163e d668 06be
00000110: 6dd7 51be f8c6 813e dbb2 9b3e 8c99 0cbe
00000120: 2fee 3ebe 0e73 a43d 9c18 57be 17c9 83bd
00000130: 100c 9fbe 015a 7d3d 8b64 b3bd c972 20be
00000140: 314b 69be ec71 07be 267d 223e 3fb1 053c
00000150: ef54 943e 2fd8 0cbe 074a e8bd 79cf a73e
00000160: e0fd a3be 5139 01be 5f6f 4dbe dc8f a73e
00000170: 1fcc 3d3e c0ca ebbd fe0b 0fbe 5662 c23d
00000180: 0bbc 02be db7d c93d fb06 43be 11e0 6abe
00000190: 7cda c5bc 7544 433e 0530 8f3e 9546 7f3d
000001a0: 8780 40be 24bf 423e e10d 093e 9853 143e
000001b0: aee7 bdbd e35d fcbc 49c7 143e 75e6 f83d
000001c0: e2cc 763e 8e99 41be e03c 6a3e 64df fdbd
000001d0: ca5a 743b 7f23 16be 5bbb aabd 1891 823e
000001e0: 3490 9c3e 2182 003e 554d 81be b2f1 f9bd
000001f0: ee72 813e 601b a2bd e661 87be d7aa c53d
00000200: 93e7 89be bada edbc abf2 58bd 6b1e 81bc
00000210: bf2b 6abd 0c5a 2dbd fb9b 31be ad1b 4abe
00000220: d228 013e abcf a73e 83f6 82be c61c 9fbe
00000230: 0523 2cbe 10ee b13e 9c95 a63e 9b61 a3be
00000240: 51ec c33d d8e4 813d 0216 a33e 4838 b5bd
00000250: 8be5 fe3d 5607 24be 8955 a1be c9df 483d
00000260: 81e8 21be d949 42bc 4620 88bd 5469 8abe
00000270: 54f3 583e b50c 813e d7c2 893e 8b2c 683d
00000280: 885f 96be a304 76be 8efd 25bd 1c1e bbbc
00000290: f205 8fbe 8ff2 3a3e 7755 66be eca3 2ebc
000002a0: 090d afbe c8d7 a93d 9137 23bc fdf4 683e
000002b0: 69de 403d 7476 8ebe 0428 a13e e755 9ebe
000002c0: e153 083e e678 56be 1051 2b3e 692f e43d
000002d0: 09e1 db3d 6023 68bd e8ae 8d3e f486 9c3e
000002e0: ef65 3dbc a932 9fbd 21cc 313d 06c3 453e
000002f0: 700a 953e 82c7 8d3e 3600 0d3e 4975 853d
00000300: 29b1 67be dad8 74be 7b9f 5c3e 7877 90be
00000310: 2b47 efbb 401a 883e 5757 8abe 1896 59be
00000320: 76eb b5be 2d05 373e 3331 843d 70c4 503e
00000330: 0793 5abd 8862 f6bd 75cf 923e 92cc 74be
00000340: 2da2 5cbe 5078 7c3e 5566 a73e 1e6f 33be
00000350: 544e a7be c8a8 ae3c 7769 9e3a 6cf3 c73d
00000360: 0b4f 2f3e 10b3 cb3c 21e1 73be 1e48 2fbd
00000370: da43 133e 6005 1e3d 0143 83be 4df3 0dbd
00000380: 5bcb 62bd bb75 0fbe 4a10 273e 1663 033e
00000390: af4c 883e 779e 823e 7555 12bc ac49 87be
000003a0: 457f aa3d fed9 143e 620c 333e 86ff 323e
000003b0: d63c 1a3e 3c1b 6d3d 7d02 f23b 1736 0c3e
000003c0: 3ddc abbe db54 293e 20b6 a93d 2dfa b13d
000003d0: 05d7 d7bd f292 aa3d 26aa 8e3d e76c a9be
000003e0: cdf0 27be eb91 2a3e c63c 7bbe 56b4 01be
000003f0: 4529 4d3e 3957 353e 928a 80be e7a8 1f3e
-0.034625005 -0.019508434 -0.1419381 0.06959451 -0.20873238 -0.0688096 0.13080795 0.31913957
0.041695207 -0.12840745 -0.009674051 -0.0494833 0.10576078 0.0063912882 0.1153083 0.3061503
-0.1033863 0.020137984 0.069945626 0.0019484631 -0.00274186 -0.26987842 -0.26270655 -0.2803302
-0.3004701 -0.28477114 -0.22713402 -0.2771121 -0.28386712 0.12698086 0.18423225 0.20971185
0.15208009 0.09409607 0.122920446 -0.1563564 0.2734908 0.004096858 0.26554498 0.09296072
0.24070553 0.241132 -0.042973522 -0.074774474 0.046896275 0.00874679 0.060567714 0.15717657
-0.26991794 -0.030668186 -0.27659112 0.3125233 -0.23288226 0.04442834 -0.1125347 0.17469798
0.0012919717 -0.038032476 0.24583152 0.3145564 -0.24637425 -0.3296976 0.033822402 0.11369908
0.07505037 0.29257426 0.14716044 -0.13125929 -0.20492335 0.25347114 0.30409893 -0.13730448
-0.18645547 0.080297574 -0.21005481 -0.06434839 -0.3106389 0.061853413 -0.087594114 -0.15668787
-0.2278259 -0.13227051 0.15868053 0.008159935 0.2897105 -0.13754342 -0.113422446 0.32775477
-0.3202963 -0.1261952 -0.20062016 0.32726943 0.18534897 -0.11513281 -0.13969418 0.09491412
-0.12767045 0.09838458 -0.19045632 -0.22937037 -0.024152033 0.19069083 0.27966323 0.06232317
-0.1879903 0.19018227 0.133842 0.14485013 -0.09272705 -0.030806487 0.14529146 0.12153331
0.24101594 -0.18906233 0.22874784 -0.12396124 0.003728556 -0.14661978 -0.083365165 0.25501323
0.30578768 0.1254964 -0.25254312 -0.12204303 0.25282997 -0.079153776 -0.26441878 0.09651726
-0.2693449 -0.029034961 -0.0529658 -0.015761575 -0.057170626 -0.042322204 -0.17344658 -0.1973712
0.12613228 0.32775626 -0.255787 -0.3107664 -0.16810234 0.3475194 0.32536018 -0.31910405
0.09566558 0.063424766 0.31852728 -0.088486254 0.124461256 -0.16018423 -0.3151057 0.049041543
-0.1581135 -0.011858427 -0.06646781 -0.27033484 0.21186572 0.25205007 0.26906464 0.056683104
-0.2936976 -0.24025206 -0.04052501 -0.022841506 -0.27934223 0.18256591 -0.2249354 -0.010659199
-0.34189633 0.0829311 -0.0099619785 0.22749706 0.047087107 -0.27824748 0.31475842 -0.30924913
0.13313247 -0.20944557 0.16730142 0.11141855 0.107362814 -0.05667436 0.27672505 0.3057171
-0.011559947 -0.077733345 0.043407563 0.19312677 0.29109526 0.27691275 0.13769612 0.06516511
-0.22626175 -0.23910847 0.21545212 -0.28216147 -0.007302185 0.26582527 -0.2701976 -0.21248662
-0.35531205 0.17873068 0.064546965 0.20387435 -0.053362872 -0.12030512 0.28673902 -0.23906162
-0.2154624 0.2465527 0.3269526 -0.17522857 -0.32676947 0.021320716 0.0012085874 0.09763226
0.17119996 0.024865657 -0.23816349 -0.042793386 0.14381352 0.038579345 -0.25637057 -0.034655858
-0.055369716 -0.14009754 0.16314808 0.12830767 0.26621005 0.25511524 -0.008931507 -0.26423395
0.08325056 0.14536282 0.17485192 0.17480287 0.1506227 0.0578873 0.0073855505 0.13692509
-0.33566466 0.16536276 0.08286691 0.08690295 -0.105390586 0.08328809 0.06966047 -0.33090898
-0.16400452 0.16657226 -0.24534902 -0.12666449 0.20035274 0.17709054 -0.2510572 0.15591775

embed_layer.0.bias f4 [64]
00000000: bfe4 dcbd 8aa7 f9bd 16ac 853e 4d85 923e
00000010: 9016 2ebe 59ea 403e 289a 9cbe 204b b33d
00000020: 2945 47bd 24ab 4cbe f5a8 03be 75b0 653c
00000030: 9025 40bd 959d abbe dbc4 163d d05a 87be
00000040: ecae 45be 2940 883e f6b6 9cbc 9741 b4be
00000050: 4a79 a83e d777 503e f06e 883e bdb8 10be
00000060: 0f6c 633e 6b40 3abd 1ee0 a03e 2dee 393e
00000070: bb31 3b3e c8a0 a73a 568c f9bd bb10 5cbe
00000080: 9d72 06be ed8b cfbd da4c 523d ca40 5abe
00000090: 8d6a 6cbe 374c 7fbe 526d 3cbe 0328 abbe
000000a0: 24a6 3cbe d04e 04be 8e2f 51be 3926 8fbe
000000b0: 2a21 ecbd ece5 9a3d 9dd5 c9bd 7f97 773e
000000c0: 1fc3 86be 8329 7bbe 5ea0 c9bc 42a8 133d
000000d0: eab4 8e3e 867e 6cbe 5a78 683e bd0a 4bbe
000000e0: 63af eebd 4085 dabd 7b02 88bd 967a 283e
000000f0: c657 133e 42c3 7a3e 8ad5 9fbe df46 72be
-0.10785817 -0.12190159 0.26107854 0.28617325 -0.17000794 0.18839397 -0.30586362 0.08754563
-0.04864994 -0.1998716 -0.1285742 0.014019121 -0.046910822 -0.33518663 0.03680883 -0.26436472
-0.19305009 0.2661145 -0.019130211 -0.3520629 0.32905036 0.20358215 0.2664714 -0.14132972
0.2220919 -0.04547159 0.31420988 0.18157263 0.1828069 0.0012789005 -0.1218497 -0.21490757
-0.13129659 -0.101341106 0.051342823 -0.21313778 -0.23087521 -0.24931417 -0.18401077 -0.33428964
-0.18422753 -0.1292069 -0.20428297 -0.2795885 -0.11529763 0.07563385 -0.098551966 0.24178885
-0.2632074 -0.24527554 -0.024612602 0.036049135 0.278724 -0.2309514 0.2270216 -0.19828315
-0.11654546 -0.10669947 -0.06641098 0.16453013 0.14388952 0.24488547 -0.31217605 -0.23659848

embed_layer.1.weight f4 [64]
00000000: 50ac 773f 3f62 7a3f 2804 783f 2846 7b3f
00000010: 609a 7a3f 4a64 783f 24ce 783f 7dfd 753f
00000020: 3933 793f 7a54 793f 487f 783f 93ef 773f
00000030: b7ac 763f 2004 763f 1a95 743f 605d 773f
00000040: 7c7f 7d3f 58bf 763f 1a31 773f 200f 773f
00000050: 395a 793f 357e 783f 6b60 763f 19b8 783f
00000060: b830 7b3f 2d4b 7c3f f9aa 7d3f 886a 793f
00000070: 6604 753f b777 773f 8341 793f 17cf 763f
00000080: 97dd 763f 8583 743f 9e9f 753f aeb2 763f
00000090: 9aca 793f 6ae5 7b3f 8c92 793f 0f0a 763f
000000a0: d4ee 783f dcdf 753f 355d 793f 85bb 7a3f
000000b0: 6cb0 7a3f 7e2f 763f fa8b 763f b9cd 783f
000000c0: 2c0d 773f 15dd 773f d7ca 753f f0c1 753f
000000d0: adad 773f 1b98 7b3f 0dcf 763f be02 783f
000000e0: 8f76 7a3f f417 773f 3b46 773f 6f66 753f
000000f0: a21c 7a3f 7a6e 7d3f 7271 763f ac7e 793f
0.96747303 0.9780616 0.9688134 0.98153925 0.9789181 0.9702803 0.97189546 0.9608992
0.97343785 0.97394526 0.97069216 0.96849936 0.9635729 0.96100044 0.9554001 0.96626854
0.9902265 0.9638572 0.965593 0.96507454 0.97403294 0.97067577 0.9624087 0.9715591
0.98121214 0.9855221 0.9908901 0.9742818 0.95709836 0.96667045 0.9736559 0.96409744
0.9643187 0.9551318 0.9594668 0.96366394 0.9757477 0.98396933 0.9748924 0.961091
0.9723942 0.9604471 0.9740785 0.9794238 0.9792545 0.9616622 0.9630734 0.9718891
0.96504474 0.9682172 0.96012634 0.9599905 0.96749383 0.9827897 0.96409684 0.96879184
0.97837156 0.96520925 0.9659154 0.95859426 0.9769994 0.989967 0.96266854 0.9745891

embed_layer.1.bias f4 [64]
00000000: 1c7f 97bc e890 f13a 1a51 a7bc f5d1 40ba
00000010: 56d2 d43a 3285 df3a 2dd4 9f3c 5b60 c9bc
00000020: 9e4a b53c 1d88 79ba 8c71 dbbb 0c51 853c
00000030: 198f d5bc ec72 f53c 4894 43bc c713 0abd
00000040: 267c 273c cd90 e9bb 2de2 1b3c 1df2 9b3c
00000050: c5a8 82bc c0e9 a9bc 6172 cb3b 056d 833c
00000060: 1fa2 e1bb 6692 163c f19b f6bc 827f 3a3c
00000070: 3a0e 50bb 34db 543b a9ce a73b 6acf 2d3a
00000080: ba56 e53c d7d6 2a3c 15aa 263c ed98 113c
00000090: fd8e c6bc 9d3d 4c3c fca2 dfbb 7465 973c
000000a0: f0fb baba cb76 fc3b 8f7e 373c 3109 9bbb
000000b0: d4d9 473c 638c 03bb 294e d7bb 76fb d7bc
000000c0: 95ac 6fbc 167b 103c 24b5 17bc 9371 573c
000000d0: f0c1 b23b bbf7 daba b4e1 9c3b f45b b1bb
000000e0: 4765 c0bb dd39 7ebb 0428 9cba e176 8a39
000000f0: 7f53 13bc 0e98 553c 09d4 563c 367e 95bc
-0.018493228 0.0018430026 -0.020424414 -0.0007355505 0.0016237001 0.0017053245 0.019510353 -0.024582079
0.022130307 -0.00095188787 -0.0066968855 0.016273998 -0.02606921 0.029962026 -0.0119372085 -0.033710267
0.01022247 -0.0071278573 0.009514374 0.019036347 -0.015949616 -0.020741343 0.0062087034 0.016043196
-0.0068857814 0.009190178 -0.030103656 0.011382939 -0.003174676 0.0032479288 0.0051210714 0.00066303334
0.027995456 0.010427198 0.010172387 0.008886558 -0.024238104 0.012465862 -0.006824849 0.018480994
-0.0014265757 0.007704591 0.0111996075 -0.0047313203 0.01219793 -0.002007269 -0.0065705967 -0.026365023
-0.014628549 0.0088184085 -0.009259496 0.013149637 0.005455248 -0.001670591 0.004787648 -0.005412573
-0.005871448 -0.0038791813 -0.0011913781 0.00026409983 -0.008992075 0.013036741 0.013112077 -0.018248659

embed_layer.1.running_mean f4 [64]
00000000: b216 e2bd 358a 20be fef7 ab3e 0b18 bc3e
00000010: 4054 7dbe 0d42 063e 027f 8abe 7867 9f3d
00000020: 0dea d2bd d609 f4bd ed3f 14be d468 203d
00000030: 0a31 50bd 3ac3 bfbe 45df ad3c 39cd 89be
00000040: affa efbd 9fbf 853e 5d71 e4bc d8fa c0be
00000050: 7122 d43e 770f 673e 2b0b 433e 8165 68be
00000060: b3c9 943e b048 35bd 1d56 a23e 0619 4c3e
00000070: 97fe 173e cf22 afbd 81c1 c8bd 9551 53be
00000080: fb47 02be beb3 01be d319 673d e940 7fbe
00000090: 02c9 6cbe bb32 90be c572 4fbe e856 cbbe
000000a0: 0ca6 17be f9e0 36be 72ba 4cbe d55a 9ebe
000000b0: 1bd2 39bd ce88 6d3d af54 fabd e068 7b3e
000000c0: 801b 8cbe cf5a a5be fcad 36bd 622c 883c
000000d0: e416 723e 167c 06be 1713 803e 737c 71be
000000e0: 7b95 39bd b8db b9bd dcde 4ebd bac7 8e3d
000000f0: 5c84 373e 8e68 9d3e bafb 77be 57eb 81be
-0.11039485 -0.15677722 0.3358764 0.36737093 -0.2473917 0.13111134 -0.27050024 0.07783407
-0.10298548 -0.119159386 -0.14477511 0.039162472 -0.050828017 -0.37453634 0.021224627 -0.26914385
-0.11717736 0.26122758 -0.027886087 -0.3769138 0.41432527 0.22564493 0.19047229 -0.2269497
0.29060134 -0.044258773 0.31706324 0.1993142 0.14843212 -0.08551561 -0.09802533 -0.2063659
-0.12722771 -0.12666222 0.056421112 -0.24927105 -0.23123553 -0.28163704 -0.20258625 -0.39714742
-0.14809436 -0.17859258 -0.19992998 -0.30928674 -0.045366388 0.057991795 -0.12223183 0.24551725
-0.2736473 -0.32295844 -0.04459952 0.016622726 0.23641545 -0.13133273 0.25014564 -0.2358263
-0.04530857 -0.09075111 -0.050505504 0.069716886 0.17921585 0.3074383 -0.2421712 -0.25374863

embed_layer.1.running_var f4 [64]
00000000: 94c8 f83c d1d9 fd3d 9fb0 003f 5237 1d3f
00000010: 1a96 043f 070b 963e 4eb5 103e 646c 6a3d
00000020: f21d 953e feeb 0d3f ea88 813d de74 d43d
00000030: bd1d 283d 2099 153e d3d6 423d 2457 463d
00000040: d82c fc3e dcd1 b73d 1ece 363d 11a5 cf3d
00000050: 1a77 213f 1a0e b83d 4428 033f 7298 213f
00000060: 5069 de3e c9b1 253d 389f 4c3d 6cf8 4e3d
00000070: 4f11 083e 85f6 203f ee5b a93d 5665 213d
00000080: 53f7 0e3d f637 d53d 1c37 f63c 7a8a 103e
00000090: 19cc 243d 6dce ea3d 8453 843d 730e b73e
000000a0: e4ac 1b3e 4a2b 873e bfce 583c 68d4 013e
000000b0: f01d d63e b1f7 aa3d c254 af3d b88e 8f3d
000000c0: cf53 6a3d 6791 063f 112e 823d bbbf 6f3d
000000d0: cd71 3c3e 890f 553f 3a29 a33d 31e0 1a3e
000000e0: 5a3b da3e ac95 873d f641 2f3d 7333 443f
000000f0: 64d5 0f3e 9e4c ae3e 2b80 df3e 0626 623d
0.03036908 0.12395061 0.502695 0.6141254 0.51791537 0.29305288 0.14131662 0.057232276
0.2912441 0.5543822 0.063249424 0.10373853 0.041043986 0.14609194 0.047568154 0.048422948
0.49252963 0.089755744 0.044630162 0.10138906 0.6307236 0.08987065 0.51233315 0.6312324
0.43439722 0.040452752 0.04995653 0.050529882 0.13287853 0.6287616 0.08269487 0.039403282
0.034903836 0.10411064 0.030055575 0.14115325 0.040233705 0.11465154 0.06461242 0.3575321
0.15202671 0.26400214 0.013232886 0.12678683 0.41819715 0.08348025 0.08561088 0.07009643
0.057208832 0.52565616 0.06356443 0.058532458 0.18402787 0.8322683 0.07966848 0.15124585
0.42623407 0.066203445 0.042787515 0.76641005 0.14046246 0.3404283 0.43652472 0.055212043

embed_layer2.0.weight f4 [16, 64, 3, 1]
00000000: 6db6 823d 47df b6bc eef4 1cbc 3b9c 913d
00000010: 09d6 a8bc f49b f63c 6105 703c d929 1f3d
00000020: 63cd 3c3d 3166 873b 6913 44bb 975d 3dbd
00000030: 6c29 633d 1211 883d e6ef 0c3b 5991 d3bc
00000040: 894b 773d 6201 46bd fd5e 47bd ead1 b33a
00000050: 77b1 5cbc 41f9 503d 3a54 d2bc 4296 f33c
00000060: dc6f 45bd 5dfb 993d 2407 2dbc 89ff 623d
00000070: 5816 053c 3b25 8dbd 0462 3b3d 3dfe 883b
00000080: 0639 603d 37fc 7d3d 0930 753c 5063 22bd
00000090: be7e 9bbc fc06 373d 4e96 ab3a 7f1f 0bbd
000000a0: 3daa b4ba 2d6f 2b3d ce38 babc 2dae 763d
000000b0: a9e2 d0bb fffe 973d dfc3 623d 0eed 683d
000000c0: 2a54 90bd ad92 423c 7a44 ea3b fb7e 80bc
000000d0: 69f9 c43c a5b0 f53b 4362 f73c 3672 01bd
000000e0: c9fb 233d f81d 09bb f214 b93c 0d24 343d
000000f0: 844b edbc 87ef b93c 3570 65bd 74c9 5abc
00000100: b0d0 3dbd b858 f33c 08b6 13bd aefc ac3b
00000110: e8aa e83c 8199 09bd b9be 00bd bbbd 213d
00000120: f07c 173d dd27 893d e28b 0e3c 797a 69bc
00000130: 2b2b 4e3d df63 913d 3369 853d 7a14 a13d
00000140: 9100 bb3b 4ecc 20bd 26d9 82bd 6573 253d
00000150: 398f 8c3d 2a8c ea3c 5ef1 553d 3003 82bd
00000160: 1ab6 953d 05e6 45bd 8df7 933c a2ee 04bd
00000170: f267 95bd 106b a23d 820a b13c 6916 e03c
00000180: a382 253d cdf8 84bc 5672 e5bc 2f99 54bd
00000190: 9644 cb3c 72da 47bd cf6f 2abd a20c 843d
000001a0: 7dcf bfbc 37de acbc 7ce5 94bc d85f 873d
000001b0: 607c 393b c7f4 de3c 27f6 813d 7b49 e63c
000001c0: 3c73 6a3d d11a 02bc bb4f 1cbd 47fa 53bd
000001d0: 412a f63c 89eb 913d c5da 05bd 45bb 13bd
000001e0: 1d42 1f3d 562c e23c 234f 57bb f072 92bc
000001f0: e4f1 823d 6ba6 3b3b f0c2 173d 81cc 4f3d
00000200: d8f9 133d 486b 43bd 410d c8bc 245b aebc
00000210: ed36 0bbc e96b cd3c cdad c63c 5a6d bcb9
00000220: a32e 3d3d adb5 90bc 4f87 29bc be7d 60bd
00000230: 805a 68bd 1b68 b6bc e045 e13c 095e af3c
00000240: 5e6c 0fbb 5a91 3d3d 3de1 f73c 762a 7ebc
00000250: 9789 aeba 69df d2b9 4ffc 803c c24f f4bc
00000260: 2fc1 0cbd b4ec d33c 8a6c 963c 8781 fc3b
00000270: 09d3 893d 12e6 693c 8864 a33c c367 51bd
00000280: 7837 c83c 0902 a3bd 02a6 9fbc d8b9 a03c
00000290: 072f 073d 0ed9 893b 2408 5bbd 18c1 51bc
000002a0: e920 9cbd da68 1e3d 87da 9abc 57bc 813d
000002b0: cd76 483d d83a cc3c f02e 973c c613 35bd
000002c0: 5d52 1e3d c1b2 803d 765b 063d 6890 9bbb
000002d0: c26c db3b 3d14 813d d970 a03c 56e0 59bd
000002e0: ca0b 4bbd 1144 393d 694b 073c 7bbc d1bc
000002f0: 320a 64bd 6528 39bd 4da8 663c 671b 4a3d
00000300: fd77 533d 46a7 5f3d 0781 e9bb f0e0 55bd
00000310: f4ec b8bc ffd7 563d 0015 df3c a925 1d3d
00000320: 0336 20bd ae82 66bd 7bdb 2dbd e0af e63c
00000330: 06a4 2d3c ed72 163c 853c 84bc ece6 8ebc
00000340: e98b 733d 44fc bcbc 420d 5d3d 3573 25bd
00000350: 6bd6 163d b1f1 13bd 290e 53bb 5ca7 8c3c
00000360: e9e8 48bc 5265 74bc 7c6a 87bc 36bc 263c
00000370: 9ae1 013c 16bd 1cbd 037b 3f3d 9723 3ebc
00000380: 0c69 e93c 5923 293d f0f6 853d 04a4 63bb
00000390: 78d8 8f3d 8a55 863d ecbe 583d 43e8 ef3c
000003a0: 803e 7fbc 6adf f43b 826e ed3c 739d 103d
000003b0: 80db 75ba de43 f53b 484b 383d 0d7e bebc
000003c0: e333 9b3d 76ea d53b 2f80 753d 1b02 28bd
000003d0: 8fcf 2a3c a3cd 8e3d dff8 19bd 99ac c1bb
000003e0: 41ff 423d 2bfb 63bc 70eb efbc be73 803d
000003f0: 5fa0 873d 15b0 693c 41fb 7c3d 10ed c1bc
0.06382451 -0.022323264 -0.00957988 0.07109877 -0.020609872 0.030103661 0.01464972 0.03885827
0.04609431 0.004132055 -0.0029918796 -0.046231832 0.055459425 0.06643881 0.0021505295 -0.025826143
0.06037477 -0.048341163 -0.048674572 0.0013719175 -0.013470045 0.051018957 -0.025674928 0.029734734
-0.04820238 0.07518647 -0.0105607845 0.05541948 0.008123003 -0.06891867 0.04574777 0.004180698
0.05474188 0.06200811 0.014965066 -0.039645493 -0.018981334 0.044684395 0.0013091059 -0.033965584
-0.0013783645 0.041854072 -0.022732165 0.0602247 -0.0063746762 0.074216835 0.05536258 0.056866698
-0.07047303 0.011875791 0.0071492763 -0.015685549 0.02404471 0.0074978643 0.030198222 -0.03160306
0.040035043 -0.0020922404 0.022592995 0.043979693 -0.028966673 0.022697223 -0.056015212 -0.013353694
-0.046341598 0.02970539 -0.03606227 0.005279145 0.028401807 -0.03359366 -0.031431887 0.03948758
0.036984384 0.066970564 0.008700343 -0.014250391 0.050334137 0.07099127 0.06514206 0.07865234
0.0057068546 -0.03925734 -0.06389074 0.040393252 0.06863255 0.028631289 0.05223214 -0.06348264
0.07310124 -0.048315067 0.018062377 -0.03245414 -0.072952166 0.07930577 0.021611456 0.027354436
0.040407788 -0.016231919 -0.028008621 -0.0519039 0.024812978 -0.04879231 -0.041610535 0.06447722
-0.023414368 -0.021102054 -0.018175833 0.066100776 0.0028302893 0.027216328 0.06345778 0.02811121
0.057238802 -0.007940964 -0.038161974 -0.051752355 0.030049445 0.07125003 -0.032679338 -0.036067266
0.03888141 0.027609032 -0.0032853566 -0.017877072 0.06393793 0.0028633128 0.03705114 0.05073214
0.03612694 -0.047709733 -0.024420382 -0.021283694 -0.008496982 0.02507587 0.024252797 -0.00035939628
0.046187054 -0.017664755 -0.0103472015 -0.054807417 -0.056726933 -0.022266438 0.02749914 0.021407144
-0.002188466 0.046281196 0.03025877 -0.015513053 -0.0013316151 -0.00040220775 0.01574531 -0.029823188
-0.03436392 0.025869705 0.018362302 0.0077058706 0.06729705 0.014276044 0.019945398 -0.051124346
0.024440512 -0.079593726 -0.019488338 0.019619867 0.033003833 0.004206783 -0.05347456 -0.012802385
-0.076234646 0.038674213 -0.01890303 0.06334751 0.048941422 0.024930403 0.018454999 -0.04420831
0.038652766 0.062840946 0.032802068 -0.004747439 0.0066963146 0.06302688 0.01958506 -0.05319246
-0.04957179 0.04523093 0.008257725 -0.02560257 -0.055673786 -0.04520454 0.014078212 0.04934254
0.0516281 0.054602884 -0.007125977 -0.05221647 -0.022573926 0.052452084 0.027231693 0.038365994
-0.03911401 -0.05627697 -0.04244564 0.028160036 0.010598188 0.009182674 -0.01614214 -0.017444097
0.0594596 -0.023069508 0.05396772 -0.040393073 0.03682558 -0.036119167 -0.0032204485 0.017169647
-0.012262561 -0.014916735 -0.016530268 0.010176709 0.007927323 -0.038266264 0.046748172 -0.011605165
0.028492473 0.041293476 0.0654124 -0.0034735212 0.0702371 0.06559284 0.052916452 0.029285556
-0.015578866 0.007472922 0.028983358 0.035306405 -0.00093787163 0.007484897 0.04499367 -0.023253465
0.07578256 0.006528194 0.0599367 -0.041017633 0.010425462 0.06972816 -0.037590858 -0.005910468
0.04760671 -0.013914864 -0.02928707 0.06272076 0.06622385 0.014263173 0.061763052 -0.02367261

embed_layer2.0.bias f4 [16]
00000000: 083a 82bd a4dd e9bc d3ab b2bc 7e0d 8abd
00000010: eb77 173c fe97 653d bb62 463d db50 913d
00000020: 6185 913c c49e 793c d4d1 53bd 994f 453c
00000030: 54a5 2b3d 53cc 823d 5a1d fb3c 79fa 6bbd
-0.06358725 -0.02854807 -0.021810448 -0.06740855 0.009244899 0.056053154 0.048434 0.070955
0.017763795 0.015235607 -0.05171378 0.012042903 0.041905716 0.06386628 0.030653644 -0.057611916

embed_layer2.1.weight f4 [16]
00000000: 7fcc 793f 367c 793f b20f 7f3f cccb 7d3f
00000010: 5620 7a3f c3fb 783f 4254 783f 90d6 813f
00000020: dfb8 813f ae71 7c3f 4907 7a3f 44a2 813f
00000030: 99fc 773f da4b 813f 5dc0 763f 190c 743f
0.9757766 0.97455156 0.99633324 0.99139094 0.9770559 0.9725916 0.9700357 1.0143604
1.0134543 0.9861096 0.97667366 1.0127645 0.9686981 1.0101273 0.96387273 0.9533096

embed_layer2.1.bias f4 [16]
00000000: a65b 16bc 5296 50bc 9e19 a43c 5543 a43c
00000010: a6b1 97bc fdc4 adbc 401f 94bc 5390 c83c
00000020: c559 623c 7c87 2e3c 81f6 91bc 5d9a 383c
00000030: 7cc1 7c3c e9b5 013d e15f 03bd 6bff 0dbd
-0.009177124 -0.012731152 0.020031746 0.020051638 -0.018517327 -0.021212095 -0.018081307 0.024482882
0.013815348 0.010652419 -0.017817738 0.011267272 0.01542699 0.031667624 -0.03207386 -0.034667414

embed_layer2.1.running_mean f4 [16]
00000000: 01de 833e 6ee0 203e 35f8 8b3e 9c7f db3d
00000010: 123d d73e e376 663d 13e0 b03d f789 353e
00000020: 9bc1 753e 8dc0 0fbd fdc2 e83e 9829 7c3e
00000030: 5706 3e3c 8c07 98be 5457 b0bc 29c9 f13d
0.25755313 0.15710613 0.27337804 0.10717699 0.4203878 0.056265723 0.08636489 0.1772841
0.23999636 -0.03509574 0.45461264 0.24625242 0.011598191 -0.29693258 -0.021526016 0.118059464

embed_layer2.1.running_var f4 [16]
00000000: 59e4 213e d0b1 bf3d c56e 293e ccf5 cd3d
00000010: 5162 c63d ca26 f53d 7357 2c3e d351 b63d
00000020: 140b 053e ea68 2b3e 4e27 cd3d 3619 3d3e
00000030: f114 363e a2dc 853e 32c1 f53d 8638 1d3e
0.15809764 0.09360087 0.16546161 0.10056648 0.09686721 0.11970289 0.16830234 0.089023255
0.12992507 0.1673924 0.100172624 0.18466648 0.17781426 0.26144892 0.1199974 0.15353593

Fix_Position.pe f4 [1, 50, 16]
00000000: 0000 0000 0000 803f 0000 0000 0000 803f
00000010: 0000 0000 0000 803f 0000 0000 0000 803f
00000020: 0000 0000 0000 803f 0000 0000 0000 803f
00000030: 0000 0000 0000 803f 0000 0000 0000 803f
00000040: de0e a13e 1801 733f b7e3 ce3d beb0 7e3f
00000050: b40c 033d 73de 7f3f a5ca 253c a5fc 7f3f
00000060: 00b7 513b aaff 7f3f afa2 843a f8ff 7f3f
00000070: abc5 a739 ffff 7f3f 8637 d438 0000 803f
00000080: cde1 183f 2656 4d3f c6d4 4d3e 66c6 7a3f
00000090: 87fb 823d d479 7f3f 78c8 a53c 94f2 7f3f
000000a0: b9b6 d13b a8fe 7f3f aaa2 043b deff 7f3f
000000b0: aac5 273a fdff 7f3f 8637 5439 0000 803f
000000c0: 8ab6 513f 35d2 123f 490e 993e 394b 743f
000000d0: 5f4e c43d 3ed2 7e3f 47a7 f83c cee1 7f3f
000000e0: b348 1d3c fbfc 7f3f f3f3 463b b3ff 7f3f
000000f0: 7ea8 7b3a f8ff 7f3f a529 9f39 ffff 7f3f
00000100: 8740 753f 57cc 923e 4ea1 c93e 3150 6b3f
00000110: e1b6 023e dde7 7d3f c7bf 253d 52ca 7f3f
00000120: a0b5 513c a2fa 7f3f 98a2 843b 77ff 7f3f
00000130: a8c5 a73a f2ff 7f3f 8637 d439 ffff 7f3f
00000140: 0ee4 7f3f a333 efbc 3524 f83e d4ec 5f3f
00000150: 4f24 233e edba 7c3f 9327 4f3d 22ac 7f3f
00000160: 0011 833c 9df7 7f3f 2ecb a53b 29ff 7f3f
00000170: 11b7 d13a ebff 7f3f b4a2 043a feff 7f3f
00000180: 9b8c 703f 3c2e afbe 970e 123f f63e 523f
00000190: fa66 433e bf4b 7b3f f289 783d 3e87 7f3f
000001a0: d846 9d3c ecf3 7f3f b7f3 c63b cbfe 7f3f
000001b0: 77a8 fb3a e1ff 7f3f a429 1f3a fdff 7f3f
000001c0: eec8 483f 05d0 1ebf 868c 263f 6a6a 423f
000001d0: 6c76 633e b29a 793f e6f2 903d a75b 7f3f
000001e0: 467c b73c 8fef 7f3f 351c e83b 5bfe 7f3f
000001f0: eecc 123b d6ff 7f3f 94b0 393a fcff 7f3f
00000200: 90a2 0c3f 25e9 55bf 3b56 393f a798 303f
00000210: 20a5 813e 38a8 773f 069d a53d 5e29 7f3f
00000220: 3ab1 d13c 87ea 7f3f 51a2 043c dafd 7f3f
00000230: 9fc5 273b c9ff 7f3f 8437 543a fbff 7f3f
00000240: c569 843e 6b4a 77bf 813a 4a3f 5bf8 1c3f
00000250: 0e6d 913e d374 753f cf42 ba3d 66f0 7e3f
00000260: a0e5 eb3c d3e4 7f3f 7f36 153c 48fd 7f3f
00000270: 50be 3c3b bbff 7f3f 75be 6e3a f9ff 7f3f
00000280: 8719 6fbd 3f90 7fbf 190d 593f eabc 073f
00000290: dd0e a13e 1801 733f b5e3 ce3d beb0 7e3f
000002a0: b40c 033d 73de 7f3f a3ca 253c a5fc 7f3f
000002b0: 00b7 513b aaff 7f3f b3a2 843a f8ff 7f3f
000002c0: 5d27 bdbe 9be3 6dbf 32a7 653f e53b e23e
000002d0: 7586 b03e aa4d 703f 317f e33d 696a 7e3f
000002e0: 4126 103d 67d7 7f3f bb5e 363c f1fb 7f3f
000002f0: acaf 663b 98ff 7f3f 2ae6 913a f6ff 7f3f
00000300: 909b 24bf e10f 44bf c8e7 6f3f 6cad b23e
00000310: c8cf bf3e 3f5b 6d3f b514 f83d 691d 7e3f
00000320: 6c3f 1d3d b0cf 7f3f c7f2 463c 2bfb 7f3f
00000330: 58a8 7b3b 84ff 7f3f a229 9f3a f4ff 7f3f
00000340: 0ced 59bf 3754 06bf 01b4 773f f04a 813e
00000350: d4e6 ce3e 9c2a 6a3f dc51 063e bfc9 7d3f
00000360: 2d58 2a3d 4dc7 7f3f c686 573c 54fa 7f3f
00000370: 8150 883b 6fff 7f3f 1a6d ac3a f2ff 7f3f
00000380: 541e 79bf 88d4 6bbe 72f7 7c3f a72b 1d3e
00000390: a3c7 dd3e 99bc 663f d895 103e 6f6f 7d3f
000003a0: 7e70 373d 3ebe 7f3f b71a 683c 6cf9 7f3f
000003b0: d6cc 923b 58ff 7f3f 91b0 b93a efff 7f3f
000003c0: a504 7fbf 8532 b33d 50a4 7f3f 1597 583d
000003d0: 516e ec3e 1a12 633f 0ad6 1a3e 790e 7d3f
000003e0: 5288 443d 84b4 7f3f 98ae 783c 73f8 7f3f
000003f0: 2849 9d3b 3fff 7f3f 09f4 c63a edff 7f3f
0.0 1.0 0.0 1.0 0.0 1.0 0.0 1.0
0.0 1.0 0.0 1.0 0.0 1.0 0.0 1.0
0.31456655 0.94923544 0.10102027 0.9948844 0.031994537 0.99948806 0.010119115 0.9999488
0.0031999946 0.9999949 0.0010119284 0.9999995 0.00031999996 0.99999994 0.0001011929 1.0
0.59719545 0.8020958 0.20100698 0.9795898 0.06395631 0.9979527 0.020237193 0.9997952
0.006399956 0.9999795 0.0020238557 0.999998 0.00063999987 0.9999998 0.0002023858 1.0
0.8191916 0.57352 0.2989371 0.9542728 0.095852606 0.99539554 0.030353202 0.99953926
0.009599852 0.9999539 0.0030357807 0.9999954 0.00095999974 0.9999995 0.0003035787 0.99999994
0.95801586 0.28671524 0.39380878 0.9191924 0.12765075 0.9918192 0.040466096 0.9991809
0.01279965 0.9999181 0.004047703 0.99999183 0.0012799995 0.99999917 0.0004047716 0.99999994
0.9995736 -0.029199427 0.48465124 0.87470746 0.1593182 0.98722726 0.05057485 0.9987203
0.015999317 0.999872 0.0050596213 0.9999872 0.0015999993 0.99999875 0.0005059645 0.9999999
0.93964547 -0.34214962 0.5705351 0.8212732 0.19082251 0.98162454 0.06067843 0.9981574
0.01919882 0.9998157 0.0060715335 0.9999816 0.0019199987 0.99999815 0.00060715736 0.9999998
0.78431594 -0.6203616 0.6505817 0.75943625 0.22213143 0.9750167 0.07077579 0.99749225
0.022398125 0.9997491 0.0070834407 0.9999749 0.002239998 0.9999975 0.0007083502 0.99999976
0.5493555 -0.83558875 0.723972 0.6898293 0.25321293 0.96741056 0.080865905 0.99672496
0.025597204 0.99967235 0.00809534 0.9999672 0.002559997 0.9999967 0.00080954307 0.9999997
0.25861946 -0.9659793 0.7899552 0.6131646 0.28403515 0.95881385 0.09094774 0.9958557
0.028796017 0.99958533 0.009107231 0.9999585 0.0028799959 0.9999959 0.000910736 0.9999996
-0.058373954 -0.9982948 0.8478561 0.53022635 0.31456652 0.94923544 0.101020254 0.9948844
0.031994537 0.99948806 0.010119113 0.9999488 0.0031999946 0.9999949 0.0010119289 0.9999995
-0.36944094 -0.92925423 0.89708245 0.4418632 0.34477583 0.93868506 0.11108244 0.9938112
0.03519273 0.9993805 0.011130984 0.9999381 0.0035199923 0.9999938 0.0011131216 0.9999994
-0.6429987 -0.7658673 0.93713045 0.34897935 0.37463212 0.92717355 0.121133246 0.99263626
0.038390562 0.9992628 0.012142844 0.99992627 0.0038399901 0.9999926 0.0012143145 0.9999993
-0.8512733 -0.5247225 0.9675904 0.25252485 0.40410483 0.91471267 0.13117164 0.99135965
0.041587997 0.99913484 0.013154691 0.99991345 0.0041599874 0.99999136 0.0013155073 0.99999917
-0.973119 -0.23030293 0.9881507 0.15348683 0.43316373 0.9013153 0.14119661 0.9899816
0.044785015 0.9989966 0.014166526 0.9998996 0.0044799848 0.99999 0.0014167001 0.999999
-0.9961646 0.0874987 0.99860096 0.052878458 0.46177915 0.88699496 0.15120712 0.9885021
0.047981568 0.9988482 0.015178345 0.9998848 0.0047999807 0.9999885 0.0015178929 0.99999887

attention_layer.key.weight f4 [16, 16]
00000000: d913 073d c36e a03d 31ed 19be b00e 373e
00000010: 6b7e d1bc 143c 2c3e 144f 453e 638c 5cbe
00000020: 1e96 353b 7fd6 d4bd 63d6 4dbe 4191 aabd
00000030: 50ae 33be c51d f339 f110 713d 676b 11be
00000040: 7072 06bd b577 f5bc c5f9 14be f4fa db3d
00000050: e074 453e 3566 aa3c f920 43be a45f 223b
00000060: 65b6 3b3e 5bf9 c93d 0573 3cbd a9d2 aebc
00000070: c099 8a3d 6f28 3fbe eaa9 7dbd f7d2 b4bd
00000080: 0e78 13be 1f33 59bd 7ac8 4b3e 7bda 3dbe
00000090: c87b 503e 12b4 483e eff3 b6bd d7ee cd3c
000000a0: 6cf1 153e b4ec b1bd 0f0d 8ebc e20d 113a
000000b0: 73ff 17be 8bd8 1dbd bd7e 593d d193 ed3d
000000c0: 4bfa 08be eb63 2fbe ed75 ca3b a361 85bc
000000d0: 46dc 0bbe 549e aa3d 476e dbbd cc96 73bd
000000e0: 46e7 0abe a707 4c3e a154 1b3a 720e 3f3e
000000f0: 68cd 01be 0dbe a0bd b9b3 17bd 1037 25be
00000100: f1ce d73d 840d 3cbe 3511 1dbe 0962 fc3d
00000110: 1edb 4cbe f127 333e 1478 d23c 2946 ca3d
00000120: 85e0 283e 144d 3f3e 76dd 873d 00cb 503e
00000130: 82fb ba3c 4fde 3f3c 0a5a 18be a651 993c
00000140: 96d7 1abd 6748 4dbe 7164 783d 01d3 fcbc
00000150: 72ab 083e 43b0 3e3e 46e3 493e b1bf 85bd
00000160: 87fe 1c3e d021 c3b9 99f8 333e 498d 313e
00000170: eb7e 523d fb8d 933c 77ac a6bd 0579 1bbc
00000180: 4d8d d8bc d75c 23be 0452 0a3e 4ae6 cf3d
00000190: 2251 7cbc 2580 ac3b df97 e73c 563b 0abb
000001a0: bedf 293e 762e cdbc 7d18 acbd f917 223e
000001b0: fcc2 e5bd 8511 393e 4308 42be 9f74 ba3d
000001c0: 7318 d6bc 4fcd 29be f01e 38be 7a5f 27be
000001d0: 901e 33be 345b 1a3e b8a2 d63a 5040 a4bd
000001e0: aa83 6dbe d375 26be d437 2d3e 8bce 29be
000001f0: c7d3 4f3e b219 3abe 2fc7 553d cae5 073e
00000200: 137b ba3b 9e17 763d 76de fcbc c39b 103e
00000210: 7d0b 95bc 1dcb 2cbe 26df 2b3e c259 2e3c
00000220: bdb5 ee3d a0fc afbd 2a57 8e3d 1953 7abd
00000230: 97b0 b03d f5c0 e63d a0a5 893c f178 babd
00000240: 540c 813b 3981 bebc db95 0b3e 3231 04be
00000250: 4d28 ce3d 5888 43be 975a 223e 0b90 eebd
00000260: 886e 28be a584 a23d f4da 303e 2ebf dbbb
00000270: f340 a0bc 2e63 c4bd 6d95 49bb 75ab 13be
00000280: 0b73 01be f26f 3ebd 7ccd 433e ddf3 513e
00000290: 621c 223e c578 413d ab84 783d 800b d1bd
000002a0: 57d9 813d 9214 bf3d a76d 83bd 6d83 4a3e
000002b0: 2c54 aabc b73b f93d 8a46 15be eb6b 8d3c
000002c0: 1484 11be f255 39be db04 b63d c48b c63d
000002d0: 10d8 4ebd e7d2 c03d b978 febd 3461 d53b
000002e0: 37e9 0abe 49b3 933a f152 3ebd 479c 22be
000002f0: 2807 a8bd 3259 44be e02e 173e bc72 093e
00000300: 59bc ef3d a47b 363e d452 b23d b7d5 3ebe
00000310: ae0f d4bd ce02 4c3e 9886 323e f916 3fbd
00000320: 7f64 54be b89f 32be 19c6 81bd d1b6 123e
00000330: c560 483c fd06 24be ac1d 50be b18f d63d
00000340: 3ebb 3e3d 74b8 9abd 1418 ad3d 2ffe 273d
00000350: 22fa 313e 8f9e 37bc c87f 983d 2e7a f4bb
00000360: 840c 5e3d 45b7 653c c6f8 16be c2ac eb3d
00000370: 2098 863d 2eb5 04be 67d5 48be e15d 95bc
00000380: c67d 2b3e b619 3dbd b95d 72bd 0ec5 51b9
00000390: 8df2 0ebe 508c 24be 1939 fa3d 549b fdbd
000003a0: 624a 0e3d 9dcd 533c 0d78 c9bd 305e 633d
000003b0: b588 1bbe af1f 3dbe 6553 a93d 7f12 82bd
000003c0: d7f1 d9bd daf4 993d 8acd 3c3e dd26 44be
000003d0: 1aa1 a5bb b4b5 52bc 952b c83d 287b 1dbd
000003e0: 7d12 f8bd 1bd1 e8bd 06d1 9f3b 78a7 4cbe
000003f0: 477c cb3d f873 69bd f088 b93d 0753 cbbd
0.032977913 0.07833626 -0.15031888 0.17876697 -0.025572976 0.16819793 0.19268447 -0.21537928
0.0027707885 -0.103924744 -0.20101313 -0.08328486 -0.17546964 0.00046370752 0.058854047 -0.14201127
-0.03282398 -0.029964307 -0.14548405 0.10741225 0.19282866 0.02080069 -0.19055547 0.0024776245
0.18331297 0.09862014 -0.04600813 -0.021340685 0.06767607 -0.18667768 -0.06192962 -0.08829301
-0.14401266 -0.05302727 0.19900694 -0.18540375 0.20359719 0.19599941 -0.089332454 0.025138302
0.14642876 -0.08687726 -0.017340211 0.000553338 -0.1484354 -0.03853659 0.053099383 0.11600459
-0.13376729 -0.1712796 0.0061786086 -0.016281908 -0.13658246 0.0833098 -0.10714393 -0.059469983
-0.13564786 0.19924794 0.00059253915 0.18657854 -0.12676013 -0.07848749 -0.03703663 -0.16134286
0.10537518 -0.18364531 -0.15338595 0.12323386 -0.20005462 0.17495705 0.025692023 0.09876663
0.16491897 0.18681747 0.06634037 0.20389938 0.022825006 0.011710717 -0.14878097 0.01871569
-0.037803255 -0.2004715 0.060642663 -0.030862333 0.13346651 0.18621926 0.19715604 -0.06530703
0.1533147 -0.0003721849 0.17575301 0.17339052 0.05139057 0.018012038 -0.08138364 -0.0094893025
-0.026434565 -0.15953384 0.13507849 0.10151346 -0.015400203 0.0052642995 0.02827066 -0.0021092496
0.16589257 -0.025046568 -0.08403108 0.15829457 -0.11218831 0.1807309 -0.18948464 0.09104275
-0.026134705 -0.16582225 -0.17980552 -0.16345015 -0.17492127 0.15073854 0.0016375398 -0.08020079
-0.23194757 -0.16255884 0.16915828 -0.16582696 0.2029563 -0.18173864 0.05219191 0.13271251
0.005690941 0.060081117 -0.030867796 0.14121918 -0.018193955 -0.16874357 0.16784343 0.010641517
0.116557576 -0.08593106 0.06950219 -0.061114404 0.08627432 0.112672724 0.016802609 -0.09105099
0.003938237 -0.023254978 0.13631384 -0.12909392 0.100662805 -0.1909498 0.1585487 -0.11648568
-0.16448414 0.07935456 0.17271024 -0.00670614 -0.01956222 -0.095892295 -0.003075923 -0.14420874
-0.12641542 -0.046493478 0.19121355 0.20503183 0.1583114 0.047234315 0.060673397 -0.102072716
0.063402824 0.09330095 -0.06417399 0.19776697 -0.02079209 0.12169593 -0.1457769 0.017263373
-0.1421054 -0.18099192 0.08887645 0.09694627 -0.050499022 0.094152264 -0.1242537 0.0065118317
-0.13565527 0.0011268641 -0.046465818 -0.15879928 -0.0820449 -0.1917465 0.14763975 0.13422674
0.11705846 0.17820603 0.087072045 -0.18636213 -0.10354553 0.19922945 0.17434156 -0.046652768
-0.20741461 -0.1744374 -0.06336612 0.14327551 0.012230103 -0.16018291 -0.20323819 0.10476626
0.046565287 -0.07554713 0.08451858 0.041013893 0.17380574 -0.011207237 0.07446247 -0.007460854
0.054211155 0.014020746 -0.14743337 0.1150756 0.06571984 -0.1295974 -0.19612657 -0.018233242
0.16747198 -0.046167098 -0.059171412 -0.00020005202 -0.13959713 -0.1606915 0.12217922 -0.12383142
0.034738906 0.01292744 -0.09837351 0.055509746 -0.15188868 -0.18469118 0.08267859 -0.06351184
-0.106418304 0.07517405 0.18437782 -0.1915545 -0.005054605 -0.012860704 0.097739376 -0.03844753
-0.12112901 -0.11368009 0.0048772125 -0.1998576 0.099358134 -0.056995362 0.09059322 -0.099279456

attention_layer.value.weight f4 [16, 16]
00000000: 361d 8e3d 6e91 46be afa6 563e f88d fc3d
00000010: ad4f 9b3c b147 00bd 085e 8c3d 1d05 68be
00000020: dc45 9cbd f0b5 61be 8349 423e ca56 a1bd
00000030: 3b0c 3f3e a175 ac3b dc1c 6cbe 1232 dc3d
00000040: 90ad 893d 3a56 d7bc e499 213e 3df5 f13d
00000050: 0533 d83d b9d3 153c f0f0 80bd dd2e 9c3d
00000060: c471 a0bd 2673 9cbd dec9 133e acc9 1b3e
00000070: a25c 8abd 4386 2a3d 4ab9 163b 3bde 153e
00000080: cb9d 343e ac79 173d 6f09 8a3c c6d9 063e
00000090: f8cb 493e 5ad3 65be 4147 803c aacd 793d
000000a0: bc2e 1d3c b84a 00be 722b e03d ced5 0fbe
000000b0: b45d fe3d db38 ebbd 91c7 f9bc 7fba 143e
000000c0: 84cf 46be 50de 54be fff6 7d3e e83e 5e3a
000000d0: f2e6 07be 393d 923d d4e3 87bd 9e5c a9bd
000000e0: 770f cbbd f936 67bd a1e2 0b3e 19be b3bd
000000f0: fe3f ed3d ad22 903d f0e0 14be bae9 e4bd
00000100: 07b9 af3d d65d 653d 6cdd 1cbe 1b3a b63d
00000110: 481d 4f3d 7868 303e e033 32bc 621a a7bc
00000120: de73 30be 2af7 f1bd 39f5 063e fdf4 173e
00000130: 1557 90bd 42bb 403e 9dc9 c73d 80a2 3c3e
00000140: 4a23 773e c1d5 2d3e 2538 73be b512 063e
00000150: c29d 6c3e c634 cfbd a644 37bd a8b7 683e
00000160: 9af9 3ebe a88d a1bd ce53 b83d fd6d 433e
00000170: a0f0 6e3e db01 80be 5b86 e9bc 5e21 04bc
00000180: 12bd c43d 2b83 e0bd 7ce9 1abe 535f 063e
00000190: 26f5 76be fde5 a63d 026e f3bc fef8 35be
000001a0: 239d 86be 7898 9e3d 86e3 62be fd6a 0b3d
000001b0: 7f01 cebd ba79 3f3d ee6c 50bd 8686 adbd
000001c0: 0d54 2dbe 4e13 0d3e 5e13 afbd a11d 2ebe
000001d0: 423f a3bc 12fb 893d 1f22 413e a01f 0a3e
000001e0: 5092 413e 5ecc 5fbc 2300 0ebd 2eb4 2cbe
000001f0: 9bf7 ab3d 4a97 0cbe 0cc6 d5bd dd1b 10be
00000200: e5be cd3d 1c66 383e ac95 4c3e d64d 393c
00000210: d203 67be de7a bc3d 7253 423e 54b0 353e
00000220: 437a 42be 94d2 85be c018 413e 2ddb e7bd
00000230: 0e1e ae3d fb48 c0bd 9e9c b53c 0f17 ed3d
00000240: 12c7 053e 8238 e2bc fe68 8abd fd45 a53d
00000250: f4b0 403e 4add 4abe 1d34 4dbe 7474 1abe
00000260: ccff 77bc a371 703e 4015 4dbe 26dc 203e
00000270: c115 583d 7d77 a1bc d57e 11be ebe4 0d3c
00000280: b5b4 f3bc f5eb 5cbe d541 003e bdee bb3c
00000290: 322d 803d b9e1 433d 133b 15be cca1 48be
000002a0: 2cff 49bd 8145 4b3d 4f41 593d d835 eabd
000002b0: ceb5 22be fee7 dc3d 85b9 2bbd ef23 dbbd
000002c0: 92ce 223e 26d9 2cbe 3645 bfbc ef73 3dbe
000002d0: 65e0 673e a2c9 eebc 5eca 443c 32da 76bd
000002e0: f4a9 1e3e f59f 51be 3c17 53be 8620 2d3e
000002f0: ef87 663d 220e 92bd 7253 393e c703 0d3e
00000300: 463a 3abe faad 08bd 6ec5 473d aba8 b13d
00000310: 0142 b5bd 5b30 4f3e e79b cf3b a070 3f3d
00000320: 2a16 0c3d 2d14 6dbe 61ca 13be a827 5b3e
00000330: 49aa 1dbd 2eae 33be ee2d 30be 5e79 8b3d
00000340: 6457 54be 09e4 153e 76da 7fbe 3394 01be
00000350: ec1d 37be 439b 0cbe 1812 f43c 5a2e 68be
00000360: 7307 42be e42d fdbb 0149 713e 8dd3 1f3e
00000370: d8ee 323e ff36 aabc 68e1 213e 6587 053d
00000380: 30b6 01be b474 6a3e 41e1 c23d 658c 2bbd
00000390: a264 14bd 23c7 f83d 2b43 37be b9dd 603e
000003a0: fba5 ac3d e81b e5bd cc5e 57be 5e8e 08be
000003b0: 98d3 9cbd 1844 33bd e01c d5ba 8eb2 6d3e
000003c0: 1813 ebbc 4227 633e c4a4 3e3e b99a b13d
000003d0: d3aa 043e cb74 d73d f085 17be fd48 e7bd
000003e0: 1505 12be 6405 133e 410f c63d 02a5 eb3d
000003f0: 3338 cb3d b76c 3d3d bd37 4e3e 95f1 b9bd
0.06939165 -0.19391415 0.20962022 0.12331766 0.01895889 -0.03131837 0.068538725 -0.226582
-0.07630512 -0.2204206 0.18973355 -0.07877882 0.1865701 0.005263046 -0.23057884 0.10751738
0.067225575 -0.026286233 0.15781361 0.118143536 0.10556606 0.009144717 -0.06295955 0.07626126
-0.07834199 -0.0763915 0.14432475 0.1521365 -0.067559496 0.04163195 0.0022998624 0.14635555
0.17638318 0.03698127 0.016850201 0.13169011 0.19706714 -0.22443905 0.015658977 0.060987152
0.009593662 -0.12528503 0.109457865 -0.14046404 0.12420216 -0.11485454 -0.030490668 0.14524268
-0.19415098 -0.2078793 0.24801253 0.00084780017 -0.13271692 0.071405835 -0.06635252 -0.082696185
-0.09915059 -0.05644891 0.13660671 -0.087764926 0.11584471 0.07037864 -0.14538932 -0.11177392
0.08580213 0.055997692 -0.1531884 0.088978015 0.050565034 0.17227352 -0.010876626 -0.020398322
-0.172317 -0.11814721 0.13179483 0.1483955 -0.070478596 0.18821433 0.097552516 0.18421364
0.24134555 0.16976072 -0.23751886 0.13093074 0.23107055 -0.101174876 -0.044743203 0.2272631
-0.18649903 -0.07888347 0.090003595 0.19084926 0.23333979 -0.25001416 -0.028506448 -0.008064596
0.09606375 -0.10962518 -0.1512813 0.13122301 -0.24116954 0.081493355 -0.029715542 -0.17770764
-0.2629176 0.07743925 -0.22157106 0.03403758 -0.10058879 0.046746947 -0.050885133 -0.08472924
-0.16926594 0.13776895 -0.08548616 -0.1700349 -0.019927625 0.06737341 0.18860672 0.13488626
0.1890347 -0.013659565 -0.0346681 -0.16865608 0.08396836 -0.13729587 -0.10438165 -0.14073129
0.10046176 0.18007702 0.1997897 0.011310061 -0.22560051 0.092031226 0.18977144 0.17743045
-0.18991952 -0.2613722 0.18857098 -0.11321101 0.08501826 -0.0938892 0.022169407 0.11576664
0.1306422 -0.027614836 -0.06758307 0.0806999 0.18817502 -0.19810978 -0.20039411 -0.15083486
-0.01513667 0.23480849 -0.20027637 0.1570898 0.05275512 -0.019710297 -0.14208539 0.008660535
-0.029749254 -0.21574385 0.12525113 0.022940988 0.0625862 0.047822688 -0.14573316 -0.1959297
-0.049315616 0.04962683 0.0530408 -0.11436051 -0.15889665 0.107864365 -0.041924972 -0.10700213
0.15899113 -0.1687971 -0.023348432 -0.18501256 0.22644193 -0.02914888 0.012011139 -0.06026668
0.1549452 -0.20471175 -0.20614332 0.16906938 0.05628198 -0.07131602 0.18098238 0.13770972
-0.18186292 -0.033369042 0.048772268 0.08674749 -0.0885048 0.2023329 0.0063357237 0.046738267
0.034200825 -0.23152228 -0.1443267 0.21401846 -0.038492475 -0.17546913 -0.17205021 0.06810258
-0.20736462 0.1463777 -0.2498568 -0.1265419 -0.17882508 -0.13731103 0.029793784 -0.22673932
-0.18948154 -0.007726418 0.23563005 0.15608044 0.17473924 -0.020778177 0.15808642 0.032599825
-0.12667155 0.22896081 0.0951562 -0.041881938 -0.036228783 0.12147357 -0.17896716 0.2195958
0.08430096 -0.11186963 -0.21032256 -0.13335559 -0.07657546 -0.04376611 -0.0016259216 0.23212644
-0.028695628 0.22182944 0.1861754 0.08672089 0.1295579 0.10520323 -0.14797187 -0.11293218
-0.14259751 0.14357525 0.09670878 0.11506082 0.099228285 0.046246257 0.2013845 -0.09079281

attention_layer.query.weight f4 [16, 16]
00000000: be10 d3bd 7865 bfbc b29e 0abd 7b7e 5ebd
00000010: a99b c23d ba30 d63d 9f8d 483e d956 8d3d
00000020: 9e61 bebd f67f 473d 6368 c7bd 1c9f ddbd
00000030: 4603 a63d 0e79 0a3d 473e 323e 5854 493e
00000040: 3d83 16bd c33f ed3a 7c27 26bd f193 2dbe
00000050: 700c 51be 9edf e83d 1a4f cdbd 8633 423e
00000060: 64b3 0fbe 9c2c 9e3d 5405 233e 52bc aabd
00000070: a32e 1c3c af4c 20bd cf20 15be 5c0c 3dbd
00000080: 8750 78bc 0864 f73d 843e ddbc 9cdd 40be
00000090: b662 243e e692 28be 57b2 21be 0386 3c3d
000000a0: 063e 9cbd 631a 57bd 43e2 143e a3a4 573d
000000b0: c7ff 593d d037 f53c 0f3b 9a3b f686 613c
000000c0: 76fc 083e f470 3e3e b4d9 86bd 0ea0 9539
000000d0: 5e74 00bd 1267 7b3d ec91 423e 7328 29be
000000e0: 074a 57be ddcd 283e 317b e9bd f156 c33d
000000f0: 0f7c 0f3e 78c3 4bbd 44e2 10be c1ff 453e
00000100: c128 03be 9667 8abd f9f0 1abe 41bf 843c
00000110: c006 31be b034 27be d636 01bd 186b 0fbe
00000120: 7c98 e2bc 1a70 1ebb bf4d 28bd 7780 40be
00000130: 6e1f 52be a708 673d f698 053e c819 f4bd
00000140: 6256 113b e8ed 75bd 9069 77bd e414 c63d
00000150: eab6 53be c029 0e3e 418e 2ebe cdcb 9738
00000160: a33a b83c c104 013e beed 3dbd ad5b 0d3e
00000170: ac8d c73a 15d6 513e dbdc edbd 9005 1fbd
00000180: 00fe 133e 006c 793d eb74 2c3e 8fbf 4f3e
00000190: 2e4b f63d 9084 44be 7bfd 9a3d d379 4e3d
000001a0: f053 5c3d 516b a23d d40a 373d 7f9d eebd
000001b0: f06d a13c 47cb be3d 9434 f2ba 7c56 48be
000001c0: f2fe 27be 6eaf d7bd 6e50 2e3d ad1d 2f3d
000001d0: 7a5d f1bd 3de4 c6bd 04df 43be 6c85 0cbe
000001e0: 9a21 083e 1256 b03b d3a4 163d 4987 b0bc
000001f0: 52c2 c93d 8dc5 24be 3365 283d 93dc 0abe
00000200: 7c7a 06bd bd6d 0b3e e9cb 0c3e 7549 1c3e
00000210: 6dc5 223e 0760 2fbe 876b e83c 8c5c 3bbd
00000220: 84d6 d13d 5edc d4bd e5b6 47be ec33 3c3e
00000230: 8549 50bd 10ef a43b 8588 203e 2bd9 ccbd
00000240: 1053 ce3c b9a0 00be 872b 483e 32ee 833c
00000250: d62e 08be 5b4f a43c 593b 06bd 9777 3e3d
00000260: f7b5 693d 479f dabc 21da be3b 1aa1 3cbe
00000270: ebb4 a43d d628 4dbd 97bd 22b9 e8ee 3abb
00000280: 6c2f 543e b987 db3d a241 96bd 46d0 1bbe
00000290: 41d8 113e d62e 233e 9b19 323b 364f 2ebb
000002a0: b2f4 09be 2eb1 3c3e 4035 bf3d c9ab 5e3d
000002b0: 4f1c 463d 6f5e 903d 8a9a 173e 4076 a03b
000002c0: 7e62 8ebd ea68 293e 699a 073c 89e6 c73d
000002d0: 07e8 523e c172 143e d06f 9ebd 27ab 23bd
000002e0: 61e5 53be 1cb6 41be dfbe 31be 6a9d a5bd
000002f0: 783a 4abe 6eb2 c9bd 9a9f d5bc 14e7 00bc
00000300: e076 543e 0268 bc3c 8a5f 00bd fc2d 843d
00000310: 512c f43d 8340 023e 5b55 6dbd a325 013e
00000320: 3b88 4d3d 097f 36be 792b 103e ed25 0a3e
00000330: 8a5b 1f3e f34d 26be 11ab 6c3c b926 1fbc
00000340: 6c77 733d 4b2a 173e bf8b c83d 71d6 903d
00000350: 7b36 babc 73a7 2f3e e1fb 103e 7089 cd3d
00000360: 6fcd 103e 59d7 ff3d 31d5 79bd d5f4 7fbd
00000370: 31d7 393e 47c1 2bbe 1ab2 483d 0d3d 16be
00000380: 3560 26bd bdd0 033e 6818 16be e041 c8bd
00000390: c47d febb 2407 143d a310 2ebd f245 5ebc
000003a0: f661 3c3e 2a1d 223e 4c9a 2e3c b558 9f3c
000003b0: 487b 6e3b c681 133e ec92 33be 7e1a 3c3d
000003c0: f339 0cbe bf4d 9f3d 4209 e63b 8ba0 c4bd
000003d0: 5272 d13b 8a01 0abe 9ef6 1bbe ac5c 3a3c
000003e0: 1c8c 06bc 0caa 5cbc 2fd6 953d 6e20 f73d
000003f0: 9c10 4cbd db59 ddbc 89b4 1e3a 42e0 68bd
-0.10305928 -0.023363814 -0.03384275 -0.05431984 0.09502346 0.104585126 0.19585274 0.069013305
-0.09295963 0.048706017 -0.09736707 -0.10821363 0.08106093 0.033806853 0.1740657 0.19661081
-0.036746252 0.0018100668 -0.040565 -0.16950966 -0.20414901 0.113707766 -0.10024853 0.18964967
-0.14033276 0.07723352 0.15920001 -0.083367005 0.009532603 -0.03913563 -0.14563297 -0.046154365
-0.015155918 0.12079626 -0.027007349 -0.18834537 0.1605328 -0.16462287 -0.15790688 0.04602624
-0.076290175 -0.0525154 0.14539437 0.052647244 0.053222444 0.02993384 0.0047067474 0.013765087
0.13377556 0.18597776 -0.06584492 0.00028538745 -0.031360976 0.061377592 0.19000977 -0.16519336
-0.21024333 0.1648478 -0.1140045 0.09538067 0.14012168 -0.04974696 -0.14148813 0.19335844
-0.12808515 -0.06758039 -0.15130986 0.016204478 -0.17287731 -0.16328692 -0.031546436 -0.14005697
-0.0276606 -0.0024175704 -0.04108977 -0.18799005 -0.20519802 0.056404736 0.13046631 -0.1191898
0.0022176732 -0.06004134 -0.060403407 0.09671953 -0.20675245 0.13883114 -0.17046453 7.238202e-05
0.022488898 0.1259947 -0.046369307 0.13804503 0.0015224717 0.20491822 -0.116143905 -0.038823664
0.14452362 0.060894012 0.16841476 0.20287918 0.12026058 -0.19191194 0.07567879 0.05040915
0.053790987 0.07930625 0.04468806 -0.11651134 0.019705743 0.09316116 -0.0018478804 -0.19564241
-0.16405848 -0.105315074 0.042557172 0.04275291 -0.11785407 -0.09711502 -0.19128042 -0.13722771
0.13294068 0.005381354 0.036778282 -0.021548884 0.09851517 -0.16090985 0.041112136 -0.13560705
-0.032831654 0.1361608 0.1374966 0.15262397 0.15895624 -0.17126475 0.028371586 -0.045742556
0.10245994 -0.10393594 -0.19503362 0.18379182 -0.050851364 0.0050333813 0.15677078 -0.10002359
0.025186092 -0.12561311 0.19547854 0.016104791 -0.13299116 0.02005737 -0.032771442 0.04650077
0.0570583 -0.026687277 0.005824343 -0.1842083 0.0804232 -0.050087772 -0.00015520152 -0.0028523747
0.20721215 0.107192464 -0.07336737 -0.15216169 0.1424265 0.15935835 0.0027175907 -0.0026597506
-0.1347225 0.18426964 0.093363285 0.054363046 0.04836684 0.07049262 0.14805046 0.004896909
-0.0695238 0.16543928 0.00827656 0.09760768 0.20596324 0.144969 -0.0773617 -0.039958145
-0.2069297 -0.18917125 -0.17357968 -0.08086665 -0.19748867 -0.09848486 -0.02607708 -0.007867593
0.20748472 0.022998814 -0.031341113 0.06454083 0.11922515 0.12719922 -0.05794273 0.12612014
0.050178748 -0.17821898 0.14079084 0.1349103 0.15562263 -0.16240673 0.014445082 -0.009713822
0.05944006 0.14762227 0.097922795 0.070721515 -0.022731056 0.1715372 0.14158584 0.1003598
0.14140867 0.12492246 -0.06099433 -0.06248935 0.18148495 -0.16772948 0.048997976 -0.14671727
-0.040619094 0.12872596 -0.14657748 -0.0977819 -0.0077664573 0.036139622 -0.042496335 -0.013566481
0.18396744 0.15831438 0.010656904 0.019451478 0.00363894 0.14404973 -0.17536515 0.045923702
-0.13693981 0.07778501 0.0070201466 -0.09600934 0.006391802 -0.1347715 -0.15230796 0.011374634
-0.008212116 -0.013468277 0.07316243 0.12066732 -0.049820527 -0.027020385 0.00060541235 -0.056854494

attention_layer.to_out.weight f4 [16]
00000000: 6dbb 803f 4b85 7a3f ab72 803f d305 7b3f
00000010: 48c8 793f 1d6d 7f3f 7ac3 803f 2548 763f
00000020: e372 7e3f eebe 773f 9b56 793f ad60 793f
00000030: 14f1 793f 996e 7e3f e910 753f 4ff1 753f
1.0057198 0.9785964 1.0034994 0.9805576 0.9757123 0.9977587 1.0059655 0.96203834
0.99394053 0.9677571 0.97397774 0.9741314 0.9763348 0.9938751 0.9572893 0.9607133

attention_layer.to_out.bias f4 [16]
00000000: 105c 33bb d403 18bc dee4 aa3b d520 803c
00000010: dbe3 83bc 3ec5 c5bb 36ca 803c 667b 943c
00000020: 8a09 7ebc 1f7a 623c 7e36 55bc 33f1 c8bb
00000030: 44f4 443c 5390 0a3c 038c 3b3c 25c7 dabc
-0.0027368106 -0.009278256 0.0052152714 0.015640656 -0.01609986 -0.006035476 0.015721422 0.018125247
-0.015505204 0.013823061 -0.01301348 -0.006132269 0.012021128 0.008457261 0.011446956 -0.026706288

LayerNorm.weight f4 [16]
00000000: 5d9a 813f e800 793f c895 823f 7f7f 7a3f
00000010: a4e1 783f 35e7 7d3f 7fcf 803f 5206 763f
00000020: 561d 7f3f 37a6 783f acbf 743f 4372 7a3f
00000030: a838 793f 979e 7d3f 3690 753f 3d08 763f
1.0125233 0.9726701 1.020196 0.97850794 0.972193 0.9918092 1.0063323 0.96103394
0.9965414 0.97128624 0.9560497 0.978306 0.97352076 0.99070114 0.95923173 0.9610632

LayerNorm.bias f4 [16]
00000000: 9065 cfbb 4a69 9cbb 432e 11bc 9b37 873c
00000010: b067 3fbc 6696 43bc 4dc5 583c feaa ae3c
00000020: 24f6 24bc 3ed6 89bc b168 4abc e67f 76bb
00000030: fb93 b23b 339f 993c f2fa 473b e961 e4bc
-0.006329246 -0.0047732936 -0.008861127 0.016506007 -0.011682436 -0.011937713 0.013230634 0.02132177
-0.01006845 -0.016825791 -0.012354062 -0.0037612855 0.0054497696 0.01875267 0.0030514565 -0.027878718

LayerNorm2.weight f4 [16]
00000000: 4a0e 863f aa75 843f f71c 873f 3a31 813f
00000010: b7ab 833f 453c 863f 4a98 843f 56bc 843f
00000020: 08fe 843f 3289 7a3f 859e 843f 2ae2 843f
00000030: bb95 833f 0f5a 853f 5e86 853f 2014 843f
1.0473111 1.0348408 1.0555714 1.0093148 1.0286778 1.0487143 1.0358975 1.0369976
1.0390024 0.97865593 1.0360876 1.038152 1.0280069 1.0418109 1.0431631 1.0318642

LayerNorm2.bias f4 [16]
00000000: 0571 1ebd 19ff 1d3d 6d70 31bd 63bd 0e3d
00000010: f1fc 143d d223 583c ab53 453c 2257 f93c
00000020: 79f3 1cbc 943a 103d 743e 13bd 60e8 ff3c
00000030: edc2 013d 1d6e 1a3d 462b 153d ede9 583b
-0.038682003 0.03857336 -0.04332011 0.034848582 0.036374036 0.013192134 0.012043874 0.030437056
-0.009579533 0.035212114 -0.03594823 0.031238735 0.031680036 0.03770267 0.036418222 0.0033098415
