run/0.99-2.5-64-0.00005/PatchTST-best.pth (torch, 667762 bytes, 123 tensors)

class_weights f4 [5]
1.0 1.0 1.0 1.0 1.0
00000000: 0000 803f 0000 803f 0000 803f 0000 803f
00000010: 0000 803f

model_trend.revin_layer.affine_weight f4 [3]
0.8491021 1.1950235 0.9968941
00000000: c15e 593f 88f6 983f 7434 7f3f

model_trend.revin_layer.affine_bias f4 [3]
-0.0450182 0.027286792 0.010959521
00000000: 0165 38bd 8d88 df3c 908f 333c

model_trend.backbone.W_pos f4 [10, 48]
-0.00047682796 -0.004328918 0.004382164 0.010143496 -0.009591984 -0.021640796 -0.0151311895 0.0135780275
-0.0013167261 -0.017050033 -0.004257915 0.012997468 0.0018016184 -0.021104043 -0.00998276 0.012812432
0.009046307 -0.0059874747 0.0053635957 0.0009658571 -0.029667906 -0.016074652 -0.036011215 -0.008411142
-0.015045629 0.0028638653 -0.017439667 0.014267225 0.0073724375 -0.017929943 0.021646593 -0.00620242
-0.004614663 -0.013157644 -0.029340073 -0.011009774 -0.0043114442 -0.018668115 0.014596394 -0.02251494
-0.010585872 0.011129728 -0.007600398 -0.023699474 0.014781733 -0.016026273 0.004518435 -0.041092176
-0.027001143 -0.0018443391 -0.006960849 -0.00038374084 0.020532537 0.00018232179 -0.0006698183 -0.018597523
-0.0315097 0.0013439227 0.01770039 -0.016207438 -0.005834749 -0.025421944 0.009687685 0.008398233
0.0065081352 -0.034480374 -0.020082962 -0.02194849 0.010525852 0.0038487967 0.020715332 -0.006607115
-0.0125883715 -0.046939194 0.024909511 -0.013259423 0.014231525 0.012299173 0.0092107495 -0.018831288
-0.011383192 -0.01982749 0.013614222 -0.0138621535 -0.008778226 0.009332845 -0.004309316 -0.0041042403
0.007913728 0.011675142 -0.028963743 -0.02632337 -0.017924193 0.013735229 0.013592485 0.021341648
0.00024501566 -0.0034710253 0.0139631955 -0.005874371 -0.007804996 0.0008892443 0.0031138314 -0.0056316475
0.02935069 -0.01763859 0.024249252 -0.013977566 -0.01925673 0.009891253 -0.0015572133 -0.0037300547
-0.00024092181 0.026776984 0.023513902 -0.01640004 0.032064795 0.0071636285 -0.008097838 0.014495879
-0.004411879 0.011401164 0.010572282 -0.01379118 -0.0059293048 -0.016869422 0.03190522 -0.006123385
0.015462992 0.022998339 0.0020607444 0.023735514 0.0032598171 -0.01867925 -0.0145850945 0.012148277
-0.01782001 -0.03110749 0.03993714 0.0017795812 0.013365896 0.00074260216 0.005057 -0.00935574
0.007189695 -0.011282989 0.018263074 0.019358015 0.0002560765 -0.013378541 0.003988129 0.0041173305
0.007834988 0.015586429 -0.0025471319 0.0028671513 0.0055657993 0.006451788 0.022943018 0.015437557
-0.005024401 0.013247724 -0.0023534815 0.021110838 0.021206062 -0.018576946 0.018158233 0.0075515667
0.018202009 -0.0027880599 -0.015238585 0.006471573 0.0037949737 0.021791633 -0.01030072 0.008638595
0.018672591 -3.25047e-05 0.020359008 -0.034624826 0.019211492 0.004541388 0.020759396 0.0061454964
0.0030120043 -0.0024602977 0.00586484 -0.022092585 0.00023493003 -0.009198132 -0.01534548 0.017921273
0.022640133 -0.0186506 -0.0013668137 0.003318962 0.008624553 0.038836513 -0.0075221946 -0.011558494
0.0075304303 0.04094198 -0.017492998 0.0014208935 -0.01831291 0.0036173854 0.021313595 -0.012947675
-0.0072476687 0.01038751 -0.02316717 0.012998134 0.0044482383 -0.019268574 0.015667262 0.02546971
0.003242377 0.004018026 -0.03438226 -0.03051152 -0.008959464 0.019436235 0.0071539436 -0.0059273704
-0.0032738645 0.017376773 0.0059730993 -0.0105971545 0.02353803 -0.012510232 0.018254284 0.0068790275
0.00029074115 0.03162188 0.008040505 0.00491748 -0.026674058 -0.0038100546 -0.013165224 -0.029854693
0.0036623164 -0.004894955 0.020475738 -0.015381966 -0.0042736595 0.009958751 0.013335742 -0.0070167747
0.018551864 -0.036960166 -0.006904131 -0.001572243 0.017826252 0.017209517 0.013137004 -0.010068319
00000000: c4fe f9b9 99d9 8dbb 4298 8f3b e830 263c
00000010: b227 1dbc 0a48 b1bc cfe8 77bc 6076 5e3c
00000020: ff95 acba 83ac 8bbc fb85 8bbb 55f3 543c
00000030: 4824 ec3a 63e2 acbc bb8e 23bc 3ceb 513c
00000040: f636 143c 9432 c4bb 1ac1 af3b 9331 7d3a
00000050: 1c0a f3bc fdae 83bc 7f80 13bd e3ce 09bc
00000060: f181 76bc b0af 3b3b a2dd 8ebc 14c1 693c
00000070: 7d94 f13b d1e1 92bc 3254 b13c ac3d cbbb
00000080: 9936 97bb 2993 57bc 985a f0bc 5762 34bc
00000090: 0447 8dbb e0ed 98bc b725 6f3c 4071 b8bc
000000a0: 5e70 2dbc 7659 363c c20c f9bb 6625 c2bc
000000b0: 152f 723c 8849 83bc 610f 943b 4550 28bd
000000c0: 8031 ddbc c0bd f1ba d517 e4bb d330 c9b9
000000d0: da33 a83c a22d 3f39 bf96 2fba d559 98bc
000000e0: 5110 01bd 9026 b03a 6900 913c 76c5 84bc
000000f0: 6c31 bfbb ae41 d0bc 19b9 1e3c be98 093c
00000100: 3242 d53b 4b3b 0dbd 0685 a4bc 52cd b3bc
00000110: a074 2c3c 183c 7c3b 33b3 a93c 7f80 d8bb
00000120: 753f 4ebc 5043 40bd 080f cc3c 0d3e 59bc
00000130: 582b 693c 7882 493c afe8 163c 1344 9abc
00000140: 9180 3abc 436d a2bc 300e 5f3c 161e 63bc
00000150: 8cd2 0fbc cae8 183c 2a35 8dbb dd7c 86bb
00000160: 95a8 013c 1849 3f3c 5f45 edbc 1ca4 d7bc
00000170: c2d5 92bc ba09 613c 04b3 5e3c aed4 ae3c
00000180: 7275 8039 247a 63bb e3c5 643c cc7d c0bb
00000190: 0dc1 ffbb 2d1c 693a 6c11 4c3b af89 b8bb
000001a0: dc70 f03c ce7e 90bc 5ea6 c63c 2902 65bc
000001b0: 4ac0 9dbc ec0e 223c 681b ccba ef73 74bb
000001c0: f59f 7cb9 685b db3c 3aa0 c03c 6059 86bc
000001d0: 6056 033d dfbc ea3b cbac 04bc 2080 6d3c
000001e0: 8691 90bb f3cb 3a3c 5d37 2d3c 67f4 61bc
000001f0: 9d4a c2bb be31 8abc 0caf 023d ada6 c8bb
00000200: 7d58 7d3c 0367 bc3c 8e0d 073b fb70 c23c
00000210: a8a2 553b 3a05 99bc 52f6 6ebc 9109 473c
00000220: 45fb 91bc 23d5 febc 2095 233d d640 e93a
00000230: a2fc 5a3c 30ab 423a 31b5 a53b d148 19bc
00000240: 8897 eb3b 49dc 38bc 719c 953c b394 9e3c
00000250: 0242 8639 ab31 5bbc daae 823b acea 863b
00000260: 525e 003c 395e 7f3c c8ed 26bb d1e6 3b3b
00000270: 4f61 b63b 8569 d33b fff2 bb3c cfed 7c3c
00000280: bba3 a4bb fb0c 593c de3c 1abb a3f0 ac3c
00000290: 56b8 ad3c ae2e 98bc 93c0 943c 2273 f73b
000002a0: 611c 953c e2b7 36bb 42ab 79bc 7d0f d43b
000002b0: 18b5 783b 5e84 b23c 5ac4 28bc e588 0d3c
000002c0: 43f7 983c a855 08b8 efc7 a63c c3d2 0dbd
000002d0: 6b61 9d3c eccf 943b 9c0f aa3c 2960 c93b
000002e0: 0c65 453b f23c 21bb d82d c03b 82fb b4bc
000002f0: 8d57 7639 c3b3 16bc 9c6b 7bbc a2cf 923c
00000300: cd77 b93c 25c9 98bc a826 b3ba f182 593b
00000310: ff4d 0d3c 0913 1f3d be7c f6bb d65f 3dbc
00000320: d4c1 f63b c7b2 273d 7a4d 8fbc 463d ba3a
00000330: f504 96bc a811 6d3b d999 ae3c 7c22 54bc
00000340: da7d edbb 6030 2a3c 14c9 bdbc 20f6 543c
00000350: 87c2 913b 21d9 9dbc a158 803c daa5 d03c
00000360: 0f7e 543b a5a9 833b 6ad4 0cbd 4cf3 f9bc
00000370: b7ca 12bc bd38 9f3c a16b ea3b 633a c2bb
00000380: 558e 56bb bc59 8e3c fdb9 c33b b09f 2dbc
00000390: d4d2 c03c b7f7 4cbc 028a 953c 7769 e13b
000003a0: 9e6e 9839 f285 013d 53bc 033c d022 a13b
000003b0: 8e83 dabc 1cb2 79bb f4b2 57bc d491 f4bc
000003c0: 7903 703b dc65 a0bb bcbc a73c a404 7cbc
000003d0: 0e0a 8cbb 072a 233c 287e 5a3c f9ec e5bb
000003e0: 14fa 973c 8b63 17bd 0c3c e2bb b913 ceba
000003f0: 5c08 923c f9fa 8c3c 973c 573c 97f5 24bc

model_trend.backbone.W_P.weight f4 [48, 10]
-0.029071398 -0.015905218 -0.072589725 -0.08588374 -0.066099584 -0.00039933604 0.021458555 0.015884891
0.043244407 0.01486966 0.0072642458 0.025199844 0.04789891 0.057001647 0.055357892 0.023236454
0.020440552 -0.009715141 -0.016100943 -0.01753501 -0.058387168 -0.05556166 -0.054813348 -0.033863187
0.015286004 0.002658436 -0.019382015 -0.0050894255 -0.039256305 -0.013550403 -0.02842488 0.0067462255
-0.013911231 -0.065348886 0.034463495 0.0798016 0.060239684 -0.028738143 0.002946547 -0.028368114
0.0327898 0.007894511 0.020818101 0.006935559 0.043474972 0.018847177 0.06346872 0.03300045
0.011565622 0.0068745706 0.06758668 0.045300633 0.016265232 0.035695106 -0.039457764 -0.03771029
-0.058111124 -0.030319711 0.0053110598 0.017450606 0.0257346 0.025731228 -0.027709289 -0.05102139
-0.1078173 -0.042760327 0.0017124842 0.007973403 -0.017803336 0.013443548 -0.02993154 -0.020131871
-0.07158237 -0.07483961 -0.030866811 0.014297701 0.016358433 0.012616092 0.014605297 0.014622226
-0.0019035625 -0.028155979 -0.015487401 -0.037249982 -0.055453427 -0.037136942 -0.0022511692 0.0041996744
0.0079497695 0.0045719114 -0.0072496315 0.03769657 0.057101816 0.064009 0.043754447 -0.016460039
-0.006912595 -0.023544725 -0.002151292 -0.0044061677 0.00047534856 -0.024432927 -0.039936293 -0.042225063
-0.02740695 0.03652762 0.018920008 0.021778453 0.016754137 0.0013215946 0.06261758 0.05700494
0.07199285 0.036172427 0.016487215 0.017357701 -0.016415201 -0.0141978385 -0.007526085 -0.011726978
0.0013986155 0.0013688403 0.002182797 0.03068714 0.06446153 -0.0034976339 0.041325077 0.029560454
-0.017399544 -0.017036464 0.059925847 0.053059842 0.00086824916 -0.01492126 0.0010559793 -0.021600485
0.014707667 0.0406861 0.020855201 0.008808752 0.031470533 0.024915269 0.013910991 0.033439886
0.029002042 0.0063752877 -0.002338003 0.0011046246 -0.01892388 -0.024028039 -0.056129634 -0.0232106
0.009281822 0.040716138 0.0007810407 0.029382909 -0.018788798 -0.014572745 -0.049895514 -0.03437739
0.01525527 0.03597351 0.061666302 0.048343465 0.033703186 -0.0046989745 0.007590967 0.010692776
-0.002528736 0.0039008253 -0.009276428 -0.00036228626 -0.019959105 -0.0078365635 -0.0704644 -0.050862983
-0.025315337 -0.023656983 0.028987896 0.04442306 -0.024381287 -0.07527019 -0.03642113 -0.004308761
-0.031781405 0.0048332606 -0.007769505 0.011897438 -5.1111518e-05 0.012900053 0.01141364 0.026881246
0.05267028 0.02907838 0.080677666 0.03503659 0.028149659 0.0012367716 -0.008279713 -0.029487232
0.0007642122 -0.03714612 -0.05273308 -0.019311033 -0.017631348 -0.041133128 -0.041968722 -0.00086860865
-0.008290785 0.014682384 -0.0025664563 -0.017169964 -0.041197885 -0.049999233 0.0026800926 0.022926232
0.022491634 0.011660939 -0.019511394 -0.0208977 0.055069324 -0.014104705 -0.017269282 0.011853734
0.047356572 -0.0028145288 0.020211596 0.03633541 0.01528415 -0.002085362 -0.048596885 -0.022782512
0.03252923 0.017822005 0.0154749 0.008644821 -0.04582129 -0.046223618 -0.001642496 0.03644643
-0.026437998 -0.03013283 -0.007032171 -0.033967543 -0.0012967715 -0.018559467 -0.018427607 0.002399615
-0.0005795913 -0.020146318 -0.04390121 -0.057161752 -0.03608735 -0.042398162 -0.044892628 -0.021324892
00000000: 2427 eebc a94b 82bc eca9 94bd d0e3 afbd
00000010: 385f 87bd fa5d d1b9 dac9 af3c 0821 823c
00000020: 0c21 313d e09f 733c e908 ee3b e76f ce3c
00000030: a631 443d 8f7a 693d f5be 623d 605a be3c
00000040: f272 a73c 412c 1fbc 20e6 83bc 95a5 8fbc
00000050: 6227 6fbd a094 63bd f683 60bd 20b4 0abd
00000060: 2672 7a3c 2839 2e3b 08c7 9ebc 32c5 a6bb
00000070: 38cb 20bd 8202 5ebc 4bdb e8bc 710f dd3b
00000080: efeb 63bc a3d5 85bd 9829 0d3d 056f a33d
00000090: e3bd 763d 416c ebbc db1a 413b 3f64 e8bc
000000a0: 994e 063d fb57 013c b98a aa3c b043 e33b
000000b0: d012 323d 6565 9a3c e3fb 813d 7b2b 073d
000000c0: bc7d 3d3c 1444 e13b e36a 8a3d 288d 393d
000000d0: aa3e 853c 0835 123d 779e 21bd 1b76 1abd
000000e0: ee05 6ebd 0b61 f8bc 6608 ae3b 93f4 8e3c
000000f0: 5ed1 d23c 4cca d23c 97fe e2bc cefb 50bd
00000100: 51cf dcbd 7425 2fbd 6f75 e03a e0a2 023c
00000110: 4dd8 91bc 5442 5c3c fd32 f5bc 98eb a4bc
00000120: c799 92bd 8245 99bd 65dc fcbc e840 6a3c
00000130: 1f02 863c bab3 4e3c 0e4b 6f3c 1092 6f3c
00000140: f580 f9ba 5ea7 e6bc debe 7dbc 7093 18bd
00000150: 2223 63bd e81c 18bd 5a88 13bb 6c9d 893b
00000160: c03f 023c f9cf 953b 518e edbb b867 1a3d
00000170: 98e3 693d 2717 833d dd37 333d 34d7 86bc
00000180: 0d83 e2bb dee0 c0bc b1fc 0cbb 9d61 90bb
00000190: 3438 f939 9027 c8bc 3d94 23bd 30f4 2cbd
000001a0: 8a84 e0bc fc9d 153d 22fe 9a3c ba68 b23c
000001b0: f93f 893c 5b39 ad3a a53d 803d 037e 693d
000001c0: fd70 933d 8a29 143d 3210 873c bd31 8e3c
000001d0: 2c79 86bc 0d9e 68bc 609d f6bb 8322 40bc
000001e0: c051 b73a a96a b33a 420d 0f3b 9963 fb3c
000001f0: 6804 843d 8f38 65bb 7c44 293d c428 f23c
00000200: 7d89 8ebc 0e90 8bbc ce74 753d 4755 593d
00000210: 379b 633a 4d78 74bc c968 8a3a 80f3 b0bc
00000220: 6df8 703c 78a6 263d 87d8 aa3c 9552 103c
00000230: 3fe7 003d 1b1b cc3c edea 633c 43f8 083d
00000240: b195 ed3c cae7 d03b 2e39 19bb 0dc9 903a
00000250: 4106 9bbc 73d6 c4bc 30e8 65bd 2824 bebc
00000260: c812 183c f7c5 263d c1be 4c3a 6db4 f03c
00000270: f7ea 99bc 86c2 6ebc 3d5f 4cbd 4ecf 0cbd
00000280: 3df1 793c f658 133d ce95 7c3d cc03 463d
00000290: 5a0c 0a3d dbf9 99bb a6bd f83b c130 2f3c
000002a0: 26b9 25bb fda4 7f3b 29fc 17bc 3df1 bdb9
000002b0: 4781 a3bc ee64 00bc a44f 90bd b455 50bd
000002c0: 1c62 cfbc 4acc c1bc 0678 ed3c f4f4 353d
000002d0: 44bb c7bc 4227 9abd 532e 15bd 8230 8dbb
000002e0: 382d 02bd 5460 9e3b 5597 febb 79ed 423c
000002f0: 9360 56b8 be5a 533c 4700 3b3c 0f36 dc3c
00000300: cbbc 573d c835 ee3c 553a a53d 8782 0f3d
00000310: 1d9a e63c 2b1b a23a a2a7 07bc 358f f1bc
00000320: 6a55 483a 8826 18bd a4fe 57bd 2c32 9ebc
00000330: 9e6f 90bc 367b 28bd 65e7 2bbd 57b3 63ba
00000340: 13d6 07bc 628e 703c fe31 28bb 06a8 8cbc
00000350: 1dbf 28bd ffcb 4cbd 7ea4 2f3b cbcf bb3c
00000360: 6040 b83c 860d 3f3c 5cd6 9fbc a731 abbc
00000370: 5f90 613d 6c17 67bc 4f78 8dbc 2a36 423c
00000380: f7f8 413d f573 38bb ca92 a53c 70d4 143d
00000390: 5f6a 7a3c 92aa 08bb 870d 47bd 64a2 babc
000003a0: 5f3d 053d 74ff 913c 6f8a 7d3c 02a3 0d3c
000003b0: 1baf 3bbd fa54 3dbd 0549 d7ba da48 153d
000003c0: 8094 d8bc 20d9 f6bc 206e e6bb 8d21 0bbd
000003d0: 6ef8 a9ba 060a 98bc 7ef5 96bc dc42 1d3b
000003e0: b7ef 17ba e409 a5bc c1d1 33bd 7122 6abd
000003f0: 54d0 13bd b2a9 2dbd 55e1 37bd 8ab1 aebc

model_trend.backbone.W_P.bias f4 [48]
-0.023355946 -0.015883744 -0.00788464 -0.015141167 -0.01740244 -0.013879877 -0.009630367 0.03674047
0.020587362 0.00964739 0.009483492 0.018377015 -0.021830844 0.026740063 -0.008238106 -0.020714654
0.0056417473 0.014981151 -0.015078521 0.013449029 0.026543645 -0.030729566 0.00507123 0.0010529916
0.015209607 0.0068230904 0.0071453676 -0.03478633 0.010915184 0.015966762 0.027540457 -0.009247271
0.009007047 -0.010678683 -0.008858357 -0.026520897 0.0013793852 -0.0148860235 0.037246708 -0.021464832
0.01427679 -0.009103381 0.010957334 -0.0020454843 -0.008566954 0.008524102 0.012743881 0.01784209
00000000: f854 bfbc a01e 82bc 942e 01bc a812 78bc
00000010: 908f 8ebc 6c68 63bc b0c8 1dbc 2d7d 163d
00000020: d4a6 a83c 1610 1e3c a660 1b3c 658b 963c
00000030: 99d6 b2bc fa0d db3c 1ff9 06bc c7b1 a9bc
00000040: 68de b83b 8073 753c e70b 77bc 5159 5c3c
00000050: 0f72 d93c 92bc fbbc 902c a63b 8904 8a3a
00000060: b731 793c 3b94 df3b b023 ea3b 1c7c 0ebd
00000070: 9ad5 323c bacc 823c 869c e13c de81 17bc
00000080: 4b92 133c a5f5 2ebc a422 11bc 5a42 d9bc
00000090: 7dcc b43a 82e4 73bc 0190 183d 04d7 afbc
000000a0: 33e9 693c 5926 15bc 6486 333c 880d 06bb
000000b0: 695c 0cbc ada8 0b3c b6cb 503c 9329 923c

model_trend.backbone.encoder.layers.0.self_attn.W_Q.weight f4 [48, 48]
-0.0046446314 -0.028738119 -0.011828407 0.009751929 0.03430328 0.058052283 0.039913457 -0.075495906
0.032503095 0.045983084 0.02530765 0.035936896 -0.036279753 0.02507334 -0.000171753 -0.03323288
-0.0064557353 0.070520744 0.017836459 -0.024544371 0.01474362 -0.0096002 -0.006581121 -0.058296118
0.0036440007 -0.011180924 -0.053335436 0.029088024 0.037721943 -0.0063949153 -0.03802231 0.0046418784
0.035329647 -0.01813389 0.07540196 -0.011623374 -0.09291863 -0.047814034 -0.008966372 0.019964432
0.015106238 -0.004773578 0.07007643 0.03215994 -0.10423515 -0.08500203 0.019537149 0.017915357
0.017881738 -0.019240025 0.026320355 -0.01073867 0.0026956748 0.03785907 0.008843756 -0.03495491
0.04008687 -0.034991458 0.017072743 0.025522726 -0.02718308 0.012349888 -0.0154255945 0.003960396
-0.04142918 -0.01813575 -0.014275694 -0.021703033 -0.020311544 -0.00065340794 0.018355962 -0.00025955928
0.00074388616 -0.016431391 0.03827266 -0.027903337 -0.054245 0.016572205 -0.06060676 0.027391257
0.0059206286 -0.014719325 0.00377506 -0.005738686 0.032472614 -0.017129056 0.050578415 -0.04958236
0.066821285 0.0029678836 0.02954742 0.01447087 -0.05034535 0.021336362 0.011070074 -0.0077042338
-0.041951668 -0.031656515 -0.020130645 0.005125012 0.011997522 0.08231979 0.01972761 -0.0017808997
0.054883614 0.025434142 0.011421532 0.021431465 -0.022991765 0.031884056 -0.03381482 -0.040109012
-0.00499555 0.035439707 -0.009340413 0.0011997406 -0.022538519 0.004804832 -0.022508794 -0.01160758
0.0057766903 -0.033778623 -0.01564688 0.04324448 -0.010330528 -0.014259201 -0.052837558 -0.012205759
0.015622556 0.0012152144 0.07555724 -0.015698442 -0.033641234 -0.037884574 0.03229309 -0.020954324
0.014259791 0.01992282 0.020713514 0.02789359 -0.06432633 -0.07270667 0.008404971 0.006204017
-0.009386309 0.013242754 0.020218298 -0.00361139 -0.037927 -0.048827242 -0.03700712 0.04593425
-0.039219927 0.0012187226 -0.015215352 -0.008192374 0.04769439 0.0067442055 0.042360026 0.009073332
0.021751616 -0.047126357 0.014197366 -0.005173409 0.01860424 0.019274646 -0.006403353 0.02237476
-0.018060995 -0.006821618 0.009528834 -0.0013348369 -0.003820852 -0.015008638 0.04386922 -0.013536783
-0.022281108 -0.008097454 -0.03507783 0.016901717 0.056120593 0.058598414 -0.059327804 0.018934615
-0.03546925 0.0054145255 -0.010785277 -0.015910042 0.08320741 0.060019746 -0.006401507 -0.0028819726
-0.020595198 0.04428308 -0.08710448 -0.06321111 0.07708417 0.07334979 -0.016090736 -0.056353457
-0.0225358 0.02748323 -0.02119661 0.08516581 0.020245403 0.07458633 0.036874298 -0.098948754
0.056863002 -0.008252666 -0.036231816 0.020305853 -0.025920587 -0.08754263 0.09283267 -0.099314906
-0.039268427 -0.07351909 -0.13496032 0.13916476 -0.014965809 0.04897081 -0.024434155 -0.020987317
0.034822166 -0.064427316 0.08479246 -0.06847416 -0.18025503 -0.06799231 -0.06489695 0.02242318
-0.041948434 0.038772732 0.122545734 0.027170777 -0.17026164 -0.05471251 -0.034461368 -0.045993336
0.041401085 -0.04862875 0.11923302 0.049031492 -0.08744217 -0.10924131 0.00047831566 0.034059554
0.024823349 -0.06527388 0.01417798 -0.0921516 -0.045318034 -0.073944114 -0.039558105 0.1336255
00000000: fe31 98bb 346c ebbc efcb 41bc 8ec6 1f3c
00000010: 9981 0c3d 3bc8 6d3d 4b7c 233d 999d 9abd
00000020: f721 053d c258 3c3d fd51 cf3c 9132 133d
00000030: 149a 14bd 9b66 cd3c 9818 34b9 331f 08bd
00000040: a28a d3bb 2e6d 903d c41d 923c 4711 c9bc
00000050: 398f 713c 284a 1dbc 72a6 d7bb e9c7 6ebd
00000060: 30d0 6e3b 3230 37bc 4276 5abd 024a ee3c
00000070: 5382 1a3d 708c d1bb 48bd 1bbd e61a 983b
00000080: d2b5 103d 868d 94bc 586c 9a3d f76f 3ebc
00000090: 1f4c bebd a6d8 43bd b1e7 12bc 738c a33c
000000a0: 2880 773c ad6b 9cbb 3b84 8f3d 24ba 033d
000000b0: 3d79 d5bd 8b15 aebd 5f0c a03c 3ac3 923c
000000c0: b97c 923c 429d 9dbc c99d d73c 3ff1 2fbc
000000d0: eba9 303b 1d12 1b3d 67e5 103c e12c 0fbd
000000e0: 2132 243d 3453 0fbd 23dc 8b3c 0915 d13c
000000f0: 0daf debc 2f57 4a3c a2bb 7cbc 36c6 813b
00000100: a5b1 29bd 6d91 94bc 9ae4 69bc 8fca b1bc
00000110: 6564 a6bc 7749 2bba 3e5f 963c 7515 88b9
00000120: 5b01 433a 209b 86bc cbc3 1c3d 8a95 e4bc
00000130: 0130 5ebd 6fc2 873c cb3e 78bd a163 e03c
00000140: d501 c23b 5329 71bc ff66 773b 960b bcbb
00000150: 0102 053d 3c52 8cbc 502b 4f3d df16 4bbd
00000160: 99d9 883d d380 423b 6e0d f23c 3a17 6d3c
00000170: ed36 4ebd 98c9 ae3c 415f 353c cc73 fcbb
00000180: 83d5 2bbd 43aa 01bd 06e9 a4bc b7ef a73b
00000190: 4191 443c 4797 a83d cc9b a13c 146d e9ba
000001a0: a4cd 603d 435b d03c 6121 3b3c 0a91 af3c
000001b0: 3a59 bcbc db98 023d 6981 0abd 5949 24bd
000001c0: b6b1 a3bb 3a29 113d 8808 19bc 9d40 9d3a
000001d0: b3a2 b8bc da71 9d3b 5d64 b8bc b82d 3ebc
000001e0: 644a bd3b 745b 0abd e32d 80bc 2021 313d
000001f0: 6041 29bc 6c9f 69bc 326c 58bd aafa 47bc
00000200: c0f5 7f3c d447 9f3a c1bd 9a3d 059a 80bc
00000210: 64cb 09bd db2c 1bbd c245 043d 67a8 abbc
00000220: e6a1 693c 2f35 a33c 63af a93c 1981 e43c
00000230: 86bd 83bd 3ce7 94bd 01b5 093c 114b cb3b
00000240: 09c9 19bc 23f8 583c d8a0 a53c 12ad 6cbb
00000250: 5859 1bbd 13ff 47bd c794 17bd 8d25 3c3d
00000260: 13a5 20bd 8bbd 9f3a d049 79bc 4f39 06bc
00000270: 315b 433d 7ffe dc3b b581 2d3d 50a8 143c
00000280: 7230 b23c 9107 41bd 129c 683c b385 a9bb
00000290: eb67 983c dde5 9d3c 38d3 d1bb 464b b73c
000002a0: a7f4 93bc e187 dfbb d41e 1c3c b2f5 aeba
000002b0: 4267 7abb cae6 75bc 36b0 333d 62c9 5dbc
000002c0: df86 b6bc 2fab 04bc c5ad 0fbd 7875 8a3c
000002d0: b5de 653d e404 703d b601 73bd c41c 9b3c
000002e0: 3448 11bd 556c b13b bbb4 30bc c755 82bc
000002f0: a668 aa3d 44d7 753d bcc3 d1bb 7adf 3cbb
00000300: 43b7 a8bc 2d62 353d d563 b2bd d474 81bd
00000310: 4ede 9d3d 6a38 963d b8d0 83bc e2d2 66bd
00000320: ff9c b8bc 8324 e13c 83a4 adbc 6a6b ae3d
00000330: b0d9 a53c b8c0 983d 8109 173d a5a5 cabd
00000340: 2ee9 683d 3136 07bc d067 14bd 7658 a63c
00000350: 6957 d4bc 8d49 b3bd 0e1f be3d 9d65 cbbd
00000360: eed7 20bd 2d91 96bd 0a33 0abe 3581 0e3e
00000370: 2733 75bc 9e95 483d 232a c8bc 98ed abbc
00000380: b0a1 0e3d 78f2 83bd aba7 ad3d 2e3c 8cbd
00000390: c694 38be 8d3f 8bbd b1e8 84bd d1b0 b73c
000003a0: 1fd2 2bbd 28d0 1e3d 42f9 fa3d 4095 de3c
000003b0: 1159 2ebe 3a1a 60bd 5d27 0dbd 8263 3cbd
000003c0: 2f94 293d f12e 47bd 7130 f43d 3fd5 483d
000003d0: e114 b3bd e8b9 dfbd 71c6 fa39 0882 0b3d
000003e0: 565a cb3c 50ae 85bd c24a 683c fab9 bcbd
000003f0: 679f 39bd 0370 97bd ae07 22bd 20d5 083e

model_trend.backbone.encoder.layers.0.self_attn.W_Q.bias f4 [48]
-0.0146498615 -0.01428719 -0.0088895075 0.009940127 -0.008970233 0.0013156303 0.006663564 0.010721779
0.01441414 -0.014347875 0.011870178 -0.008086533 -0.0053941472 -0.06313402 -0.046749145 0.05835697
0.0064361705 -0.02706545 -0.058179785 0.04597644 0.07423 -0.046275552 -0.018343639 -0.0052491627
-0.0073858188 -0.0022646629 -6.82271e-05 -0.014036543 -0.025805125 0.023557976 0.035345137 -0.011947072
0.027042853 0.03289825 -0.012143446 -0.027476804 -0.009550236 0.0101678595 -0.0077865324 -0.006694939
0.007815817 0.013515298 0.013573172 0.004438003 0.014318235 0.00031817722 -0.013566997 0.0040117125
00000000: f905 70bc d114 6abc 4ca5 11bc eadb 223c
00000010: e2f7 12bc 3a71 ac3a 075a da3b 67aa 2f3c
00000020: 4929 6c3c 5913 6bbc 237b 423c 617d 04bc
00000030: 63c1 b0bb 694c 81bd 087c 3fbd b807 6f3d
00000040: 83e6 d23b 5db8 ddbc ed4d 6ebd cb51 3c3d
00000050: e605 983d 6f8b 3dbd 6645 96bc 2b01 acbb
00000060: bd04 f2bb bd6a 14bb 2515 8fb8 87f9 65bc
00000070: 4565 d3bc a8fc c03c 10c6 103d a7bd 43bc
00000080: f988 dd3c 51c0 063d 4ef5 46bc 0917 e1bc
00000090: 9878 1cbc 1897 263c 2b26 ffbb 3861 dbbb
000000a0: ea0d 003c 456f 5d3c 0262 5e3c ab6c 913b
000000b0: 0897 6a3c 06d1 a639 1c48 5ebc af74 833b

model_trend.backbone.encoder.layers.0.self_attn.W_K.weight f4 [48, 48]
-0.00051925046 0.021621177 -0.05583108 -0.11359434 -0.005779295 0.039214738 0.005444528 0.021310776
0.015330195 0.0042957854 0.0106634 -0.0073514194 0.013628391 -0.028217854 0.037477463 0.05843073
-0.024591113 -0.013527483 -0.0065059294 0.01133674 -0.0054296185 0.024951559 -0.0062688715 0.020493107
0.021024067 -0.0057545663 -0.0026698716 -0.02428925 -0.029869217 0.009485671 -0.038128585 0.015747922
-0.031789746 0.0142625505 -0.02642155 0.0072368663 0.0364813 0.013960902 -0.07101999 -0.007522013
0.00034810856 0.006652189 0.0038897872 -0.033126656 -0.057192296 0.009982919 -0.00029985764 0.015771318
0.021260297 -0.02022984 -0.02601412 -0.03726902 -0.008455315 -0.015625924 0.025549501 0.025665866
-0.0033001371 0.020448297 0.0014530169 -0.0052576233 0.000748876 -0.03328718 -0.04273896 0.012867574
-0.029687276 -0.0022742103 -0.033522896 0.020017376 0.007868134 0.072038226 0.02792888 -0.025225747
-0.006753582 -0.023618812 0.00029393577 -0.025183016 0.015763758 0.0011831617 0.0013457906 0.0034127748
-0.011561873 0.023857724 -0.027480487 -0.019787135 0.016291128 0.007555137 0.014765132 0.02817128
-0.02518547 -0.027388128 -0.0024850797 -0.010470199 -0.023448365 0.03155051 -0.011158968 0.03666925
0.0063107763 0.002434014 -0.032051574 -0.047348946 0.011020339 0.001017764 -0.0079901805 0.02798107
-0.0058190385 0.022479374 0.015699772 -0.03021694 0.02638844 -0.037641358 0.01871603 0.018944228
-0.03288527 -0.035714976 -0.018554876 -0.014093226 0.03416638 0.02342787 0.034744877 0.009642245
-0.02094003 0.01847561 -0.032715287 -0.033963107 -0.030974496 0.019171122 0.013401302 0.0011201418
-0.063037254 0.012303333 -0.016607827 0.019834198 0.023958886 0.036276735 -0.046396982 0.0447388
-0.006628042 -0.0037079623 -0.009209256 -0.010192453 -0.025611151 0.024610402 -0.0032636619 0.0618801
0.03357751 0.00094488135 0.042377587 0.028900143 0.010290136 0.03633664 0.008232201 -0.02089431
-0.020498244 -0.005502251 0.02239727 0.014622404 -0.013408182 0.032095138 -0.009350895 -0.003880381
0.03213527 0.0055000996 0.004728306 -0.014600422 0.01102242 -0.048318457 0.015871204 0.006211621
-0.0059677437 0.014074041 -0.026213909 0.030436408 0.005187911 0.015078673 0.008267493 0.008487865
0.05776426 -0.0066061676 0.035271678 -0.033991072 -0.06189068 -0.02900856 0.05320477 0.011577058
0.029102921 -0.007760021 -0.03570138 0.011140843 0.0059558866 -0.033529997 0.021139968 -0.032468732
0.025768397 -0.021947678 0.018902838 -0.13377342 -0.08031647 0.0351292 0.039500922 0.00880916
0.092146665 -0.04584155 0.031412646 -0.04190122 0.0030077484 -0.0463567 0.0059321946 0.059956267
-0.06670091 0.06330292 0.014793807 -0.033625007 0.046720035 0.08832459 -0.018427284 0.04342892
0.05242828 0.039845552 0.028555172 -0.10405332 0.018616168 -0.060502693 -0.088646814 0.022357397
-0.061064344 0.070022024 0.0060774647 0.077435695 0.0910254 0.05261467 -0.1165959 0.0057535293
0.036220435 -0.008789879 -0.009962429 -0.02165699 -0.032157928 -0.064586714 0.055724088 0.062686205
-0.0141344005 0.04920403 -0.015336126 0.10261095 0.091416016 -0.01685589 -0.06380432 -0.010846972
-0.078627296 0.034394696 -0.036732733 0.04502058 0.035800114 0.038422287 0.0328766 -0.077272035
00000000: 4f1e 08ba e51e b13c 21af 64bd 26a4 e8bd
00000010: 3e60 bdbb a29f 203d 0368 b23b f093 ae3c
00000020: 802b 7b3c a9c3 8c3b 8bb5 2e3c 2de4 f0bb
00000030: 9d49 5f3c 2129 e7bc f881 193d 1055 6f3d
00000040: 4d73 c9bc 60a2 5dbc b12f d5bb bcbd 393c
00000050: f1ea b1bb 3667 cc3c 1b6b cdbb 29e1 a73c
00000060: aa3a ac3c cd90 bcbb 03f9 2ebb 40fa c6bc
00000070: 4ab0 f4bc ca69 1b3c b82c 1cbd c901 813c
00000080: f735 02bd 79ad 693c 0272 d8bc 3c23 ed3b
00000090: 6a6d 153d 44bc 643c ee72 91bd 387b f6bb
000000a0: 5782 b639 9bfa d93b cdeb 7e3b d1af 07bd
000000b0: 7842 6abd 668f 233c 3636 9db9 da32 813c
000000c0: 132a ae3c 0db9 a5bc 901b d5bc 66a7 18bd
000000d0: 2988 0abc f001 80bc 304d d13c 3941 d23c
000000e0: 1d47 58bb 3083 a73c 2873 be3a 2448 acbb
000000f0: 3850 443a 2358 08bd 0c0f 2fbd 84d2 523c
00000100: bb32 f3bc eb0a 15bb 4e4f 09bd 7bfb a33c
00000110: 59e9 003c c788 933d 1bcb e43c 3aa6 cebc
00000120: 274d ddbb 3d7c c1bc 641b 9a39 9d4c cebc
00000130: ff22 813c 5214 9b3a 3d65 b03a dca8 5f3b
00000140: 036e 3dbc 4671 c33c c21e e1bc a118 a2bc
00000150: f974 853c 1591 f73b 74e9 713c 75c7 e63c
00000160: c251 cebc 115d e0bc b8dc 22bb 338b 2bbc
00000170: c916 c0bc 1c3b 013d 1bd4 36bc 7f32 163d
00000180: a1ca ce3b fb83 1f3b 8348 03bd f8f0 41bd
00000190: a78e 343c 7e66 853a 3fe9 02bc 8f38 e53c
000001a0: a2ad bebb aa26 b83c cf9c 803c 8489 f7bc
000001b0: 922c d83c d32d 1abd 5c52 993c ed30 9b3c
000001c0: b4b2 06bd de49 12bd 6500 98bc 46e7 66bc
000001d0: 0cf2 0b3d ceeb bf3c a550 0e3d 82fa 1d3c
000001e0: 6d8a abbc 2a5a 973c 7700 06bd e61c 0bbd
000001f0: 3abe fdbc c20c 9d3c 2291 5b3c b9d1 923a
00000200: ad19 81bd eb93 493c 230d 88bc 547b a23c
00000210: 6d45 c43c ea96 143d c30a 3ebd 0840 373d
00000220: 0c30 d9bb 4901 73bb 6be2 16bc 3ffe 26bc
00000230: 7ace d1bc c19b c93c 29e3 55bb fd75 7d3d
00000240: 9288 093d eab1 773a 1f94 2d3d febf ec3c
00000250: f597 283c bbd5 143d 5be0 063c 8b2a abbc
00000260: efeb a7bc 3a4c b4bb 7b7a b73c cf92 6f3c
00000270: fead 5bbc 3176 033d 7f34 19bc fd4d 7ebb
00000280: 46a0 033d 2e3a b43b e8ef 9a3b 9c36 6fbc
00000290: 6197 343c 93e9 45bd 5404 823c db8a cb3b
000002a0: 108d c3bb ce96 663c 8dbe d6bc c655 f93c
000002b0: 5aff a93b 8a0c 773c 6174 073c b010 0b3c
000002c0: 379a 6c3d 8d78 d8bb 0979 103d 393a 0bbd
000002d0: 1581 7dbd 5ca3 edbc 3fed 593d b3ad 3d3c
000002e0: 4069 ee3c c647 febb 9c3b 12bd 1588 363c
000002f0: 9929 c33b c056 09bd ba2d ad3c effd 04bd
00000300: 3f18 d33c 9ecb b3bc 20da 9a3c e6fb 08be
00000310: f67c a4bd a3e3 0f3d b8cb 213d 4c54 103c
00000320: 64b7 bc3d 59c4 3bbd 8caa 003d 9da0 2bbd
00000330: a51d 453b 86e0 3dbd db62 c23b b494 753d
00000340: 7d9a 88bd f6a4 813d b961 723c 60ba 09bd
00000350: 825d 3f3d 86e3 b43d d1f4 96bc 86e2 313d
00000360: 09bf 563d 1735 233d 89ec e93c e819 d5bd
00000370: ef80 983c acd1 77bd 768c b5bd dc26 b73c
00000380: 9b1e 7abd b567 8f3d 7825 c73b 9b96 9e3d
00000390: 866b ba3d 7b82 573d d5c9 eebd 1a88 bc3b
000003a0: e15b 143d 6d03 10bc 7539 23bc 006a b1bc
000003b0: 08b8 03bd 0a46 84bd f13e 643d a061 803d
000003c0: f993 67bc 2a8a 493d 6044 7bbc b125 d23d
000003d0: 5238 bb3d 5d15 8abc d7ab 82bd 80b7 31bc
000003e0: 5907 a1bd 74e1 0c3d 1075 16bd 8067 383d
000003f0: 24a3 123d b060 1d3d 9da9 063d cd40 9ebd

model_trend.backbone.encoder.layers.0.self_attn.W_K.bias f4 [48]
0.06056105 0.012042976 -0.008276608 -0.0056935386 0.018314306 0.0038660218 -0.06791345 -0.048734225
-0.02531184 -0.033114336 0.0025865813 0.026872627 0.029619614 -0.014429723 0.0124677 0.064710386
-0.05901941 0.08137032 -0.03002256 0.004563066 0.045248464 0.0032235873 0.00940247 0.0084274765
0.022510335 0.0628248 0.10731972 -0.041968923 0.0004263285 0.008954151 -0.046969946 -0.014829633
-0.0762429 -0.011088855 -0.018783007 -0.045422073 0.05123543 -0.081408046 -0.062578835 0.046093725
-0.0072846934 -0.030790916 -0.07310862 -0.04586966 -0.038532898 -0.020221742 0.023186412 -0.07546316
00000000: dd0e 783d e74f 453c 9c9a 07bc dd90 babb
00000010: e207 963c 155d 7d3b 3516 8bbd 8a9d 47bd
00000020: c75a cfbc e6a2 07bd a283 293b fc23 dc3c
00000030: d5a4 f23c a56a 6cbc 5345 4c3c e186 843d
00000040: 56be 71bd 7ba5 a63d dff1 f5bc c685 953b
00000050: 7456 393d d242 533b d10c 1a3c 6613 0a3c
00000060: 9867 b83c 4aaa 803d 71ca db3d 9be7 2bbd
00000070: d884 df39 6eb4 123c 8f63 40bd fdf7 72bc
00000080: 3d25 9cbd 07ae 35bc d2de 99bc 7f0c 3abd
00000090: 3edc 513d 43b9 a6bd 5529 80bd c6cc 3c3d
000000a0: 70b4 eebb 3b3d fcbc f9b9 95bd d3e1 3bbd
000000b0: acd4 1dbd 11a8 a5bc 6ef1 bd3c 6e8c 9abd

model_trend.backbone.encoder.layers.0.self_attn.W_V.weight f4 [48, 48]
-0.07019581 0.14571847 -0.057424184 0.05419829 0.050387714 0.034531843 -0.038665276 -0.095543295
-0.03197692 0.09136843 -0.058587275 0.090523966 0.047537077 0.081716545 0.05614067 -0.05097076
0.07610404 -0.073076405 -0.055921987 0.052778486 -0.03947356 -0.019899629 0.056490086 -0.07841327
-0.069211654 -0.095638126 -0.16112201 0.07804092 -0.07439193 0.11775852 0.031267468 -0.12979507
0.12126945 -0.039297562 0.005413224 -0.033683896 -0.02513255 -0.02502991 0.004625389 0.070526995
-0.10602471 0.029480584 0.04288918 0.10013242 -0.039653357 0.052842494 -0.040242355 -0.108450584
0.088730305 -0.1425253 0.0930929 -0.009147682 -0.04913378 -0.033180717 0.041228797 0.09088183
0.025370657 -0.07925312 0.06396011 -0.09378895 -0.04160655 -0.120322086 -0.051835157 0.08367827
-0.07832265 0.10077973 0.09618049 -0.097562164 0.05363245 0.022158943 -0.078943856 0.08014931
0.0776366 0.08409121 0.12139302 -0.07725656 0.109188296 -0.091164775 -0.048107434 0.1250511
-0.07272553 0.06318296 0.007580934 0.052069474 0.032303646 0.06231351 -0.026329372 -0.03572984
0.10141963 -0.034277495 -0.039189447 -0.10074218 0.06295736 -0.07230516 0.037593983 0.11349689
-0.01418891 0.06257113 0.007287215 -0.038226675 0.0046829786 -0.004992749 0.035986498 0.008776236
0.0038108644 0.030610755 -0.0013667247 0.026345441 -0.015496992 -0.0066500376 -0.0008631443 -0.015423455
-0.0011047189 0.0060816407 0.0153859 -0.019838152 0.0029807524 -0.016193671 0.008576002 -0.036786903
-0.03355834 0.0038905884 -0.00034829343 0.07621308 0.030280001 0.0064037764 -0.008271219 -0.015903581
-0.012292395 -0.031946227 -0.0011784505 -0.027908854 -0.016750798 0.013146678 -0.0051094317 0.014634977
-0.05807094 -0.028025685 0.0132134585 -0.004929285 0.02194113 -0.04469016 0.029643679 0.020895492
0.024935039 -0.022832023 0.069588736 -0.022988278 0.019966092 0.0070161754 0.015150817 0.023448197
-0.01685028 -0.019632319 0.029006531 -0.035731133 -0.01503292 -0.05011285 0.020828174 0.03289801
-0.050445385 0.03087103 -0.006504919 -0.015838902 -0.004142445 -0.01737449 -0.013553517 0.031736005
0.029910062 0.05732884 0.045571525 -0.028536946 0.010559356 -0.045669083 -0.005867754 0.0085639255
-0.048257913 0.020177785 -0.033672266 0.020823669 0.01857948 0.010612626 -0.07815435 -0.022618346
0.0022992499 -0.00044214388 -0.00946618 -0.021739982 0.02316088 -0.009432236 -0.01376106 0.02471307
-0.024725668 0.09220114 -0.06219244 0.033906437 0.026570367 -0.004218188 -0.027952729 -0.03212465
-0.009600979 0.030389074 -0.01639169 0.048457783 0.037954748 0.05487683 0.03159419 -0.052897904
0.071786925 -0.06662313 -0.02824963 0.03960927 0.007211516 -0.021009661 0.055498067 -0.024183646
-0.08677609 -0.03334626 -0.0854757 0.06338439 -0.07015989 0.05605066 0.017710572 -0.03416728
0.0656259 -0.017751789 0.0308311 -0.032825295 -0.04901423 -0.036901105 0.033992358 0.06976969
-0.06521388 0.0211891 0.051111776 0.06285444 -0.052441757 0.07018782 -0.023087498 -0.06966156
0.08825291 -0.107252024 0.12777393 -0.0093718385 0.003160805 -0.030030278 0.027452018 0.05210112
0.00875588 -0.06931801 0.09786056 -0.077882625 -0.04887657 -0.08952345 -0.027263232 0.0027561882
00000000: d2c2 8fbd 3937 153e 9f35 6bbd 07ff 5d3d
00000010: 5963 4e3d 4371 0d3d 7b5f 1ebd 34ac c3bd
00000020: 3bfa 02bd 5f1f bb3d 36f9 6fbd a164 b93d
00000030: 3db6 423d 015b a73d c2f3 653d b7c6 50bd
00000040: 6fdc 9b3d 15a9 95bd 740e 65bd 412e 583d
00000050: 07af 21bd 8c04 a3bc 2662 673d 2397 a0bd
00000060: d7be 8dbd ecdd c3bd 2bfd 24be ebd3 9f3d
00000070: cc5a 98bd 612b f13d 5112 003d 00e9 04be
00000080: 1e5c f83d 7bf6 20bd 6a61 b13b 20f8 09bd
00000090: c7e2 cdbc 870b cdbc 9390 973b 7570 903d
000000a0: 7c23 d9bd 4481 f13c 91ac 2f3d 3a12 cd3d
000000b0: 8f6b 22bd 5f71 583d 2bd5 24bd 571b debd
000000c0: 3cb8 b53d 27f2 11be 7ea7 be3d 29e0 15bc
000000d0: 8140 49bd 81e8 07bd 87df 283d 4120 ba3d
000000e0: 20d6 cf3c 764f a2bd 85fd 823d 6c14 c0bd
000000f0: a16b 2abd 6d6b f6bd 1a51 54bd 835f ab3d
00000100: a067 a0bd 9a65 ce3d 47fa c43d acce c7bd
00000110: b3ad 5b3d ac86 b53c 51ad a1bd 5225 a43d
00000120: f0ff 9e3d 0338 ac3d e79c f83d b038 9ebd
00000130: 1d9e df3d 99b4 babd 4d0c 45bd 650d 003e
00000140: 1ff1 94bd 1166 813d 7c69 f83b cd46 553d
00000150: d450 043d 733c 7f3d b2b0 d7bc 7459 12bd
00000160: 18b5 cf3d 8f66 0cbd 1d85 20bd eb51 cebd
00000170: caef 803d ba14 94bd 26fc 193d 0f71 e83d
00000180: 9a78 68bc 4b25 803d 97c9 ee3b 9393 1cbd
00000190: ac73 993b 379a a3bb 9466 133d 34ca 0f3c
000001a0: b2bf 793b 68c3 fa3c ac23 b3ba 65d2 d73c
000001b0: 18e7 7dbc 8fe8 d9bb a244 62ba a9b2 7cbc
000001c0: 37cc 90ba 8048 c73b 2415 7c3c 9f83 a2bc
000001d0: ba58 433b 97a8 84bc 5c82 0c3c ddad 16bd
000001e0: 7874 09bd 3ef9 7e3b 279b b6b9 9a15 9c3d
000001f0: c40d f83c c5d6 d13b 0284 07bc 3a48 82bc
00000200: 0b66 49bc 0cda 02bd 3d76 9aba 1ca1 e4bc
00000210: f838 89bc 2a65 573c 056d a7bb 8bc7 6f3c
00000220: cbdb 6dbd 1f96 e5bc 437d 583c d785 a1bb
00000230: e2bd b33c 070d 37bd 4dd7 f23c 062d ab3c
00000240: 9144 cc3c 390a bbbc 8a84 8e3d ea51 bcbc
00000250: ee8f a33c f2e7 e53b 223b 783c 6f16 c03c
00000260: 9909 8abc f5d3 a0bc 1b9f ed3c cf5a 12bd
00000270: a34c 76bc 2243 4dbd d99f aa3c 10c0 063d
00000280: d29f 4ebd 3ee5 fc3c 3727 d5bb 96c0 81bc
00000290: 59bd 87bb f254 8ebc 920f 5ebc 9dfd 013d
000002a0: f205 f53c a5d1 6a3d 35a9 3a3d 50c6 e9bc
000002b0: 2601 2d3c 810f 3bbd 4a46 c0bb b54f 0c3c
000002c0: 17aa 45bd e24b a53c eeeb 09bd 6696 aa3c
000002d0: fe33 983c 94e0 2d3c 630f a0bd 1c4a b9bc
000002e0: 03af 163b 8ccf e7b9 0918 1bbc 0c18 b2bc
000002f0: e3bb bd3c aa89 1abc 1276 61bc 1073 ca3c
00000300: 7c8d cabc f4d3 bc3d 80bd 7ebd 7ae1 0a3d
00000310: 19aa d93c ba38 8abb 1ffd e4bc 2395 03bd
00000320: 6d4d 1dbc 82f2 f83c de47 86bc ab7b 463d
00000330: 7076 1b3d 87c6 603d e968 013d 79ab 58bd
00000340: 0605 933d b571 88bd c56b e7bc 543d 223d
00000350: 954e ec3b 741c acbc f151 633d c81c c6bc
00000360: aab7 b1bd 1796 08bd e20d afbd adcf 813d
00000370: fdaf 8fbd 6095 653d c315 913c fdf2 0bbd
00000380: df66 863d 336c 91bc 8191 fc3c d173 06bd
00000390: 25c3 48bd 9d25 17bd 923b 0b3d 69e3 8e3d
000003a0: db8e 85bd c394 ad3c 955a 513d d4b9 803d
000003b0: 2bcd 56bd a2be 8f3d fe21 bdbc b8aa 8ebd
000003c0: f1bd b43d f3a6 dbbd 2bd7 023e 578c 19bc
000003d0: 8225 4f3b 0f02 f6bc 0ee3 e03c fc67 553d
000003e0: d374 0f3c 9af6 8dbd 1e6b c83d ed80 9fbd
000003f0: cc32 48bd 1258 b7bd 2457 dfbc 2aa1 343b

model_trend.backbone.encoder.layers.0.self_attn.W_V.bias f4 [48]
0.009213107 -0.024480509 -0.0017009568 -0.018299343 0.014316918 -0.0129510425 -0.022482544 0.013840107
-0.0008734291 0.009351535 0.008034415 -0.013907966 -0.005289082 -0.010251926 0.0026607916 0.0068608816
-0.027756732 -0.016397094 0.004703983 0.030919839 0.009633157 -0.0039436924 0.0058832266 -0.0072348225
-0.009129532 0.013225867 0.01242725 -0.012900116 -0.015953282 -0.008641392 0.009503822 -0.007363077
0.009721365 -0.022264235 -0.011129716 -0.0062293042 -0.010225181 -0.0021860814 0.0039844965 -0.005734642
0.009438993 -0.0019151157 0.00047562097 0.014461876 -0.0022037737 0.0012838199 -0.002951862 0.00921874
00000000: 92f2 163c 598b c8bc a4f2 deba 81e8 95bc
00000010: 8291 6a3c 9c30 54bc 502d b8bc 9ec1 623c
00000020: d6f6 64ba 2e37 193c c7a2 033c 3dde 63bc
00000030: 0950 adbb b2f7 27bc ad60 2e3b 3fd1 e03b
00000040: 1662 e3bc 3353 86bc df23 9a3b 9a4b fd3c
00000050: 64d4 1d3c 173a 81bb 15c8 c03b 1712 edbb
00000060: 0894 15bc 4fb1 583c aa9b 4b3c 025b 53bc
00000070: 75b0 82bc a094 0dbc ebb5 1b3c f745 f1bb
00000080: 5c46 1f3c 7c63 b6bc 6a59 36bc 311f ccbb
00000090: 8487 27bc 5c44 0fbb 6190 823b aae9 bbbb
000000a0: 02a6 1a3c 9f04 fbba c45c f939 81f1 6c3c
000000b0: 306d 10bb d945 a83a 0774 41bb 330a 173c

model_trend.backbone.encoder.layers.0.self_attn.to_out.0.weight f4 [48, 48]
0.05567068 -0.04859397 -0.0115936715 -0.026113173 0.031590715 -0.036381938 -0.049155954 0.035579875
0.00071260275 0.027343987 0.00628631 -0.04553042 -0.046452638 -0.015594599 0.0031552336 0.011205512
-0.020816311 0.010992805 0.05466989 -0.0015955273 -0.028749207 0.014455652 -0.07331288 -0.00037155556
-0.0073069423 0.001740737 0.02336444 -0.031890605 -0.04664704 0.016049631 -0.012834496 -0.0067742057
0.026389632 -0.01874661 -0.04218744 0.022656629 0.028497953 0.04498949 0.014718962 0.05501056
-0.019815696 0.020418586 -0.024640672 0.038562324 -0.05961338 -0.061771475 -0.007922425 -0.015378588
-0.07575366 0.12570716 0.039553702 0.03156344 -0.10105145 0.10543817 0.10021712 -0.0718526
-0.06162413 -0.09703771 -0.087144814 0.06861856 0.03859559 0.013388994 -0.029205045 0.035214543
-0.04476252 -0.002357555 -0.022399472 0.020403879 0.04296876 -0.027964927 0.06032981 -0.017540757
-0.038322035 0.057403937 -0.01909732 0.016207255 -0.02689583 -0.017035887 0.06765095 -0.08857823
-0.0011728356 -0.0011737396 0.028589746 -0.0062514474 0.035619 0.03655447 -0.08641384 -0.116417736
0.08697561 -0.07916121 0.08745607 -0.12820901 0.06532163 0.13180009 -0.019443238 0.05422806
0.13406031 -0.16504456 -0.0533463 -0.058890905 0.115856685 -0.11515579 -0.16963586 0.12700412
0.03466974 0.11311709 0.12995446 -0.06478112 0.01636085 0.016818644 0.019698849 -0.02699176
-0.017030198 -0.029020153 0.017321365 -0.0076512923 0.04702877 0.001146285 0.0142625915 0.006117555
0.025026646 -0.0077053225 -0.0013203995 0.0045649423 -0.041380085 -0.037354812 0.020898532 0.008442445
-0.036911324 0.027558705 0.016912881 -0.0040701777 0.0017578002 -0.032256894 0.033184912 0.03708916
-0.024090393 0.050875675 -0.014313641 0.07125341 -0.08044364 -0.056622848 0.07316273 -0.02214915
0.02742979 -0.03638584 -0.0076737753 -0.028262598 0.02517819 -0.02404443 -0.042193715 0.04217841
0.0022028892 0.01678408 0.04395473 -0.03272526 -0.011457452 -0.02985215 0.01662717 -0.006042219
-0.031626012 -0.013505009 0.0018488829 0.044381376 -0.01479534 0.008566539 0.018814003 -0.008933727
-0.020872146 0.0156213725 0.039494824 -0.046084642 -0.03345027 0.003579239 0.0013770481 -0.0030915802
0.035614435 -0.045062788 -0.04477925 -0.0086340625 -0.034844328 -0.0042404123 -0.011374882 -0.011752988
0.013361148 -0.0005508351 0.0050148764 -0.0026064331 0.01005368 0.018912468 0.0013935486 0.014939939
-0.0808117 0.0973392 -0.02576669 0.04656611 -0.057953607 0.11829101 0.108588874 -0.10776178
-0.018340053 -0.066666484 -0.13378042 0.073493995 0.0368176 -0.010052933 -0.010636542 0.022412049
0.0059944387 -0.016906854 -0.026531557 -0.020526806 0.066358864 -0.00434766 0.023243839 -0.005295411
-0.03845136 0.0013559485 -0.013535528 0.03744757 -0.0025847177 -0.014338164 0.010842873 -0.028480092
-0.032374043 0.02751557 0.050533753 0.025558388 -0.006206355 0.023167048 -0.07577136 -0.09468589
0.08936966 -0.067153715 0.071759686 -0.10513606 0.0575803 0.078501455 0.016784403 0.054986667
-0.018024223 0.015434354 0.014331975 -0.006707892 0.010097614 0.003936652 0.022423757 -0.0019652736
0.023991333 0.0137213 -0.011857045 -0.0037076042 -0.03789701 -0.0065401015 0.020069586 -0.01923689
00000000: f006 643d 780a 47bd 62f3 3dbc 4beb d5bc
00000010: 4465 013d 3a05 15bd c157 49bd 34bc 113d
00000020: f6cd 3a3a 7f00 e03c 64fd cd3b 1b7e 3abd
00000030: 1f45 3ebd 7d80 7fbc 09c8 4e3b 5397 373c
00000040: f886 aabc 2a1b 343c 89ed 5f3d 0321 d1ba
00000050: 7583 ebbc 66d7 6c3c 1025 96bd 58cd c2b9
00000060: 136f efbb 7129 e43a c866 bf3c b99f 02bd
00000070: f710 3fbd 847a 833c c747 52bc 28fa ddbb
00000080: 122f d83c 7e92 99bc bdcc 2cbd 659a b93c
00000090: 8a74 e93c e646 383d cd27 713c c152 613d
000000a0: 8754 a2bc e144 a73c 3cdb c9bc 87f3 1d3d
000000b0: 292d 74bd 1604 7dbd 0fcd 01bc 79f6 7bbc
000000c0: bc24 9bbd 61b9 003e 1003 223d aa48 013d
000000d0: 10f4 cebd f8ef d73d a23e cd3d 7527 93bd
000000e0: 9569 7cbd b5bb c6bd fb78 b2bd e387 8c3d
000000f0: 6916 1e3d 835d 5b3c 6b3f efbc 203d 103d
00000100: e758 37bd 3681 1abb 197f b7bc 0926 a73c
00000110: 0300 303d b416 e5bc 641c 773d a2b1 8fbc
00000120: 91f7 1cbd 6420 6b3d fc71 9cbc 14c5 843c
00000130: a554 dcbc d88e 8bbc 958c 8a3d 8168 b5bd
00000140: d5b9 99ba 2ad8 99ba 0b35 ea3c f1d8 ccbb
00000150: 3be5 113d 24ba 153d bdf9 b0bd 6c6c eebd
00000160: 4520 b23d 461f a2bd 2b1c b33d 3949 03be
00000170: 59c7 853d 9af6 063e 6d47 9fbc 3e1e 5e3d
00000180: 1b47 093e 7101 29be a681 5abd 9737 71bd
00000190: 4546 ed3d ccd6 ebbd 06b5 2dbe 5e0d 023e
000001a0: db01 0e3d efa9 e73d c812 053e f7ab 84bd
000001b0: 3007 863c 41c7 893c 7b5f a13c d31d ddbc
000001c0: ea82 8bbc acbb edbc 89e5 8d3c b1b7 fabb
000001d0: 3da1 403d f13e 963a a5ad 693c c575 c83b
000001e0: ae04 cd3c ee7c fcbb 4111 adba 8395 953b
000001f0: 2a7e 29bd 5c01 19bd 6633 ab3c 2e52 0a3c
00000200: 5430 17bd cbc2 e13c e28c 8a3c 205f 85bb
00000210: fd65 e63a ce1f 04bd e7ec 073d ceea 173d
00000220: 3759 c5bc 0363 503d c383 6abc 4fed 913d
00000230: a3bf a4bd 5ced 67bd 57d6 953d 2272 b5bc
00000240: 70b4 e03c 5209 15bd 4b74 fbbb f786 e7bc
00000250: 7e42 ce3c d3f8 c4bc 51d3 2cbd 45c3 2c3d
00000260: 595e 103b c47e 893c e009 343d ec0a 06bd
00000270: 09b8 3bbc 7f8c f4bc b435 883c cffd c5bb
00000280: 478a 01bd 1d44 5dbc 3756 f23a 3fc9 353d
00000290: 2768 72bc ab5a 0c3c d31f 9a3c c45e 12bc
000002a0: 10fc aabc c9f0 7f3c 53c5 213d 40c3 3cbd
000002b0: 2603 09bd aa91 6a3b 117e b43a 1c9c 4abb
000002c0: 71e0 113d c293 38bd 726a 37bd e275 0dbc
000002d0: edb8 0ebd 28f3 8abb b75d 3abc 9b8f 40bc
000002e0: b7e8 5a3c eb65 10ba d553 a43b b1d0 2abb
000002f0: 31b8 243c 52ee 9a3c bba7 b63a a5c6 743c
00000300: 9b80 a5bd c659 c73d aa14 d3bc 1bbc 3e3d
00000310: c360 6dbd 8f42 f23d d863 de3d 35b2 dcbd
00000320: e13d 96bc 7088 88bd bcfd 08be 0584 963d
00000330: 0dce 163d 0fb5 24bc e444 2ebc 7999 b73c
00000340: ff6c c43b 3e80 8abc b558 d9bc d527 a8bc
00000350: 28e7 873d d176 8ebb dd69 be3c 2185 adbb
00000360: 2c7f 1dbd 15ba b13a 1fc4 5dbc a062 193d
00000370: 5e64 29bb 9eea 6abc 4ea6 313c 154f e9bc
00000380: a59a 04bd 5568 e13c 7bfc 4e3d d35f d13c
00000390: ae5e cbbb d2c8 bd3c 042e 9bbd adea c1bd
000003a0: 7107 b73d e387 89bd bef6 923d 9351 d7bd
000003b0: 52d9 6b3d 5fc5 a03d 727f 893c b339 613d
000003c0: 89a7 93bc 5fe0 7c3c a9d0 6a3c e0cd dbbb
000003d0: 7670 253c 08ff 803b 07b2 b73c d2cb 00bb
000003e0: 7989 c43c 4ecf 603c 0d44 42bc 47fb 72bb
000003f0: e539 1bbd 594e d6bb f968 a43c af96 9dbc

model_trend.backbone.encoder.layers.0.self_attn.to_out.0.bias f4 [48]
-0.0035220678 0.007541134 -5.7033925e-05 0.020354163 -0.015307456 -0.017090399 0.0193194 0.0019653605
-0.017324738 -0.005094643 0.021556461 -0.010842669 0.037048925 -0.032488476 0.013386366 0.042382453
0.011478508 0.03647534 0.0035033592 0.028590385 -0.0012108632 0.0028143318 0.012061148 -0.0052629486
0.00049685495 0.006919236 0.0114648035 -2.424904e-06 0.027514374 0.025742633 0.018440597 0.00086906546
0.007677333 -0.0035713105 0.02616788 -0.0033287231 0.0095529305 -0.01181453 0.012497864 0.0039453204
0.017761277 -0.010231353 -0.006415932 0.027211333 -0.0072477898 -0.0080155805 0.026698664 -0.026026709
00000000: 7ed2 66bb 9e1b f73b b637 6fb8 c6bd a63c
00000010: 20cc 7abc 2a01 8cbc b843 9e3c 47cd 003b
00000020: 9cec 8dbc f7f0 a6bb 2d97 b03c 73a5 31bc
00000030: 9dc0 173d a312 05bd 7d52 5b3c 3999 2d3d
00000040: 5a10 3c3c 2b67 153d 9d98 653b 6236 ea3c
00000050: d4b5 9eba a770 383b 1f9c 453c d074 acbb
00000060: 5f3f 023a c2ba e23b dfd6 3b3c 89bb 22b6
00000070: d365 e13c 37e2 d23c bc10 973c ffd1 633a
00000080: 2392 fb3b a60c 6abb 065e d63c b526 5abb
00000090: e583 1c3c bb91 41bc d7c3 4c3c bf47 813b
000000a0: 1980 913c 68a1 27bc bd3c d2bb 4dea de3c
000000b0: de7e edbb c853 03bc 28b7 da3c f735 d5bc

model_trend.backbone.encoder.layers.0.norm_attn.1.weight f4 [48]
0.9714849 0.90559 1.0037681 1.0436308 0.9463184 0.953251 0.98150074 0.98245984
0.96733207 1.0163105 0.9084716 0.93122894 0.9679907 0.9494561 0.95741063 1.0031126
0.981316 0.986713 0.92455286 0.91535556 0.89038336 0.94496983 0.9920231 1.0751073
0.9801642 0.9690616 1.000481 1.0166378 1.0390582 0.9888762 0.9885656 0.95745873
0.95337063 1.0337529 0.95744073 0.96886414 1.0810895 1.0247505 0.9610377 0.98195887
0.93415534 0.9364816 0.9466545 0.96862936 1.0348982 1.040978 0.9477634 0.9791596
00000000: 3cb3 783f bfd4 673f 797b 803f b295 853f
00000010: ec41 723f 4208 743f a243 7b3f 7d82 7b3f
00000020: 13a3 773f 7616 823f 9891 683f 0565 6e3f
00000030: 3dce 773f 8e0f 733f dd18 753f fe65 803f
00000040: 8637 7b3f 3999 7c3f 7faf 6c3f be54 6a3f
00000050: 2af0 633f 8be9 713f 3af5 7d3f 1e9d 893f
00000060: 0aec 7a3f 6c14 783f c30f 803f 3021 823f
00000070: dcff 843f fe26 7d3f a312 7d3f 041c 753f
00000080: 1910 743f 0452 843f d61a 753f 7b07 783f
00000090: 2461 8a3f 062b 833f 9106 763f a861 7b3f
000000a0: ce24 6f3f 42bd 6f3f f357 723f 18f8 773f
000000b0: 8b77 843f c43e 853f 9fa0 723f 34aa 7a3f

model_trend.backbone.encoder.layers.0.norm_attn.1.bias f4 [48]
-0.003406372 0.03477669 0.0047251396 0.030773763 -0.041026212 -0.0458539 -0.0023062062 0.0014687354
0.08419533 0.01999239 0.034774963 -0.066199884 -0.11501614 -0.010622916 -0.1262166 0.0120176
0.021276817 0.044776477 0.03135155 -0.058294844 0.0043417406 -0.023716057 -0.07779151 0.07790933
0.039666846 -0.0062547987 0.08452315 -0.107097186 -0.099202625 -0.023392348 -0.0015515375 0.028481124
-0.062205013 0.11094355 0.009889854 -0.04651402 0.009394014 0.01847803 0.03867924 -0.024223797
0.080682084 -0.061205946 -0.01709744 0.050536178 -0.02105501 -0.06345783 0.09309072 0.038096033
00000000: 703d 5fbb 0172 0e3d 58d5 9a3b 4219 fc3c
00000010: 1a0b 28bd 4dd1 3bbd b823 17bb 9582 c03a
00000020: 9a6e ac3d 15c7 a33c 3170 0e3d ce93 87bd
00000030: 958d ebbd bd0b 2ebc ed3e 01be 78e5 443c
00000040: b84c ae3c 8a67 373d 7c6a 003d 93c6 6ebd
00000050: 2945 8e3b 2d48 c2bc 2851 9fbd ed8e 9f3d
00000060: b479 223d 0ef5 ccbb 791a ad3d c555 dbbd
00000070: bf2a cbbd 4fa1 bfbc f65c cbba 3f51 e93c
00000080: afca 7ebd 5f36 e33d 0e09 223c 7c85 3ebd
00000090: 5ae9 193c 3d5f 973c 1f6e 1e3d fc70 c6bc
000000a0: a63c a53d 16b3 7abd ee0f 8cbc 06ff 4e3d
000000b0: 8e7b acbc 2ef6 81bd 59a6 be3d 960a 1c3d

model_trend.backbone.encoder.layers.0.norm_attn.1.running_mean f4 [48]
-0.017933551 -0.026046582 0.0077849254 0.02007607 -0.045256156 -0.025119051 0.013140956 0.048517536
0.023213957 -0.00025797906 0.046662185 -0.0012285032 -0.0020283856 -0.008464883 -0.013267483 0.037559435
-0.00018859848 0.068814896 -0.007035461 0.024265807 0.045956016 -0.016712904 0.009075878 -0.00070229603
0.017962357 0.0151051 0.025901405 -0.037791617 0.058978617 0.019284157 0.04588558 -0.0008902848
0.015088707 -0.0047790925 0.031604826 -0.018564004 0.015279958 -0.03468031 0.05355736 -0.02087119
0.042127825 -0.027127024 0.0019015264 0.009080461 -0.016907549 -0.004041895 0.053362258 0.004838507
00000000: 62e9 92bc a45f d5bc b018 ff3b 9276 a43c
00000010: 855e 39bd 78c6 cdbc 2a4d 573c 53ba 463d
00000020: 322b be3c 5d41 87b9 d920 3f3d ba05 a1ba
00000030: aaee 04bb 4bb0 0abc db5f 59bc ecd7 193d
00000040: 85c2 45b9 d3ee 8c3d b989 e6bb 16c9 c63c
00000050: 603c 3c3d 80e9 88bc feb2 143c 4a1a 38ba
00000060: cb25 933c 627b 773c 2f2f d43c 62cb 1abd
00000070: 9093 713d cff9 9d3c 85f2 3b3d 0062 69ba
00000080: a036 773c ef99 9cbb 1074 013d 8a13 98bc
00000090: ca58 7a3c f10c 0ebd f65e 5b3d 0ffa aabc
000000a0: 3a8e 2c3d 7e39 debc a33c f93a 37c6 143c
000000b0: b381 8abc df71 84bb 6292 5a3d 578c 9e3b

model_trend.backbone.encoder.layers.0.norm_attn.1.running_var f4 [48]
0.058679868 0.10925956 0.14499344 0.0036987038 0.123478405 0.009090741 0.045913484 0.026752733
0.13679215 0.046934254 0.06604272 0.10801378 0.05772343 0.04508258 0.109096564 0.03543726
0.14086638 0.05495824 0.09214261 0.13388138 0.09877829 0.047426913 0.06930652 0.007605899
0.057777524 0.110504955 0.0206317 0.048877604 0.06481482 0.07660701 0.04112453 0.05409677
0.037495214 0.11070281 0.013659712 0.09238673 0.004821339 0.013059702 0.0044008004 0.018117515
0.02945877 0.024095153 0.007119109 0.058309253 0.009360897 0.033916127 0.084552824 0.106032364
00000000: 4d5a 703d 7ac3 df3d 2979 143e f465 723b
00000010: 3fe2 fc3d 55f1 143c c70f 3c3d 8c28 db3c
00000020: 3e13 0c3e 223e 403d 6841 873d 5436 dd3d
00000030: 676f 6c3d 83a8 383d 056e df3d a926 113d
00000040: 473f 103e e41b 613d 44b5 bc3d 3318 093e
00000050: 464c ca3d b942 423d 94f0 8d3d e83a f93b
00000060: 20a8 6c3d 6c50 e23d d003 a93c e233 483d
00000070: a2bd 843d 23e4 9c3d 3272 283d 9394 5d3d
00000080: 9594 193d 28b8 e23d fccc 5f3c 4135 bd3d
00000090: 53fc 9d3b 5cf8 553c 9734 903b 2f6b 943c
000000a0: 8553 f13c 3363 c53c 6a47 e93b afd5 6e3d
000000b0: 735e 193c a3eb 0a3d 082a ad3d 7f27 d93d
