run/0.99-3.0-64-0.00005/PatchTST-best.pth (torch, 667762 bytes, 123 tensors)

class_weights f4 [5]
1.0 1.0 1.0 1.0 1.0
00000000: 0000 803f 0000 803f 0000 803f 0000 803f
00000010: 0000 803f

model_trend.revin_layer.affine_weight f4 [3]
0.89240396 1.1677412 1.0051746
00000000: 9674 643f 8b78 953f 90a9 803f

model_trend.revin_layer.affine_bias f4 [3]
-0.027038788 0.01928815 0.007653093
00000000: 7380 ddbc 2f02 9e3c ccc6 fa3b

model_trend.backbone.W_pos f4 [10, 48]
-0.016957643 -0.0020283202 0.006976919 -0.0042744353 0.005148516 0.008073279 -0.0006427495 -0.021870507
0.01734602 -0.024277734 0.0022937052 -0.0049022697 -0.013445854 -0.017695948 -0.013930877 0.010074896
-0.01657038 -0.012802928 -0.016712803 0.0067214975 -0.010815903 0.003459734 0.00031994595 0.008540211
-0.024066234 0.006846693 0.024417251 -0.0076357485 0.016851284 -0.007959513 0.007303383 -0.022873364
0.010590276 0.016494276 -0.0022977984 -0.0029137442 0.0038600673 -0.0015924065 0.0030863099 0.001602279
0.0031558294 0.00079771946 -0.00526225 -0.01635456 -0.011770842 -0.007629077 -0.013088288 0.011696642
-0.0029172935 0.012784926 -0.0062113954 0.01453788 -0.023769282 0.002884535 -0.0059053577 0.011292863
-0.0054399837 0.0113168545 0.0130674215 0.006060195 0.0014131875 0.0222492 -0.018253729 -0.0123004
0.019206662 -0.0013580843 0.0128488 -0.016670242 -0.0019652867 -0.0027832757 -0.01177139 0.022732414
0.007692069 -0.0029591143 -0.005060805 0.002335655 0.004675241 -0.023340192 0.0018538975 0.0024775343
0.0007026754 -0.0145964995 0.011597434 -0.0028190592 -0.00026898683 -0.003045565 -0.0034323458 0.01575491
0.011340537 -0.012451421 0.009270003 -0.033272557 0.014189149 -0.025551882 -0.012084872 -0.019645367
0.013710806 -0.027124887 -0.0076624434 -0.0044891834 -0.006110617 -0.0015685981 -0.021119164 -0.0019532351
0.007950016 -0.010659205 -0.008837656 0.02658737 0.0013723746 0.027322508 -0.004867623 0.011848054
-0.0034268077 0.0023633747 0.021134926 -0.011457312 -0.003220254 0.007406727 0.0058849268 0.016320482
-0.0088686105 -0.011394637 0.010084374 0.003217693 0.005416904 0.0037905443 -0.00813165 0.014464413
-0.037624843 -0.0171653 -0.016312782 -0.001106131 -8.097162e-05 0.0049768384 2.2499025e-05 0.0018411144
0.014030468 -0.02781557 -0.020544685 0.014496729 0.02134919 -0.005259268 -0.014341171 -0.00064963376
-0.039982416 -0.009160787 -0.018466216 -0.013796696 -0.0008638591 0.003372088 -0.0019249358 0.017102772
-0.003829048 0.0033843818 -0.00043183504 0.002953658 -0.005040263 -0.009586647 -0.015587702 0.020303043
-0.0044745076 0.02967508 -0.014764249 -0.008636988 0.0046760556 -0.0015702647 -0.017030053 -0.020399716
-0.0072553097 -0.011303303 0.015013922 0.014176717 -0.008051807 -0.00507889 -0.00020907207 0.004202237
-0.0022474257 -0.019046592 -0.0136669865 0.004941045 -0.012724199 0.0060713417 -0.00016117346 -0.020058924
-0.004654899 0.009776529 -0.0069974875 0.007815898 0.0013615951 0.013771966 -0.02017057 0.005484729
0.009435563 0.0030735557 -0.012569302 -0.00019471276 -0.0014544004 -0.013961859 -0.013404227 -0.012136187
-0.01569456 0.020018551 0.010181411 0.017643236 -0.008667766 -0.020702558 -0.013309356 -0.003547331
-0.0067484616 0.004711637 0.012711337 -0.02429366 -0.010879407 0.015472133 0.00042276253 -0.011067639
-0.010873182 0.008087758 -0.015796343 0.0033473729 -0.04525923 -0.018735783 -0.020554803 0.0143672405
-0.012167899 0.009620581 -0.021303467 0.0077840374 0.0036684945 0.003558274 -0.0050564045 -0.00044493916
-0.016792586 -0.009177314 0.007362018 0.020595241 -0.004235556 0.014014597 -0.017326787 -0.0036264192
-0.0063130097 0.007920645 0.004142908 0.023617093 -0.0074772835 -0.0017032236 0.015155978 -0.013406162
-0.0011198488 -0.013653562 -0.0052978466 0.026430042 0.0020221123 -0.019820616 0.016253354 -0.0064087277
00000000: c1ea 8abc 91ed 04bb a39e e43b 9010 8cbb
00000010: e2b4 a83b c945 043c 307e 28ba c729 b3bc
00000020: 3e19 8e3c 19e2 c6bc fd51 163b 38a3 a0bb
00000030: 004c 5cbc 18f7 90bc 553e 64bc 2d11 253c
00000040: 9bbe 87bc 5fc3 51bc 4ae9 88bc 0240 dc3b
00000050: 2f35 31bc b4bc 623b 6bbe a739 3eec 0b3c
00000060: 8d26 c5bc 395a e03b b006 c83c 4d35 fabb
00000070: b40b 8a3c 9e68 02bc 3851 ef3b ec60 bbbc
00000080: d682 2d3c 011f 873c a996 16bb 84f4 3ebb
00000090: 2ff9 7c3b 4cb8 d0ba b043 4a3b 9003 d23a
000000a0: 08d2 4e3b 0c1e 513a f46e acbb 00fa 85bc
000000b0: 7dda 40bc 56fd f9bb 4270 56bc 46a3 3f3c
000000c0: 1030 3fbb de77 513c f688 cbbb 4a30 6e3c
000000d0: ccb7 c2bc 770a 3d3b bb81 c1bb b305 393c
000000e0: e441 b2bb 546a 393c bd18 563c 9a94 c63b
000000f0: b43a b93a f443 b63c d888 95bc 9e87 49bc
00000100: 4a57 9d3c bf01 b2ba c683 523c 0890 88bc
00000110: 0acc 00bb 9e67 36bb cadc 40bc 5439 ba3c
00000120: c00d fc3b b3ed 41bb 1cd5 a5bb ca11 193b
00000130: c432 993b ee33 bfbc 7afe f23a 215e 223b
00000140: bf33 383a 2826 6fbc 2a03 3e3c f7bf 38bb
00000150: cd06 8db9 1a98 47bb 35f1 60bb 7110 813c
00000160: a9cd 393c 0b01 4cbc 36e1 173c ce48 08bd
00000170: 9b79 683c 2e52 d1bc a1ff 45bc 52ef a0bc
00000180: 4aa3 603c 0335 debc 3c15 fbbb 001a 93bb
00000190: 923b c8bb 6b99 cdba 1902 adbc d901 00bb
000001a0: c940 023c f2a3 2ebc d1cb 10bc c2cd d93c
000001b0: 40e1 b33a 74d3 df3c 9580 9fbb 571e 423c
000001c0: 4b94 60bb d9e2 1a3b 2723 ad3c 73b7 3bbc
000001d0: e60a 53bb 21b4 f23b 58d6 c03b 88b2 853c
000001e0: a64d 11bc 92b0 3abc ee38 253c eedf 523b
000001f0: 4980 b13b c86a 783b 9d3a 05bc 25fc 6c3c
00000200: 821c 1abd 3e9e 8cbc 62a2 85bc 99fb 90ba
00000210: 4fcf a9b8 bf14 a33b 4abc bc37 8c51 f13a
00000220: 0ce0 653c 7add e3bc 544d a8bc b083 6d3c
00000230: 7fe4 ae3c f055 acbb 3bf7 6abc 2f4c 2aba
00000240: 9ac4 23bd 2017 16bc 7646 97bc 8a0b 62bc
00000250: 9a74 62ba 40fe 5c3b 214e fcba 1d1b 8c3c
00000260: c4f0 7abb 81cc 5d3b eb67 e2b9 2992 413b
00000270: ca28 a5bb 5011 1dbc 9063 7fbc 9152 a63c
00000280: e49e 92bb 2719 f33c c0e5 71bc 2782 0dbc
00000290: 9939 993b 57d1 cdba 9c82 8bbc 4e1d a7bc
000002a0: f3bd edbb 7d31 39bc f4fc 753c 7645 683c
000002b0: baeb 03bc d16c a6bb 5b3a 5bb9 ebb2 893b
000002c0: 8c49 13bb 9907 9cbc 7feb 5fbc 7de8 a13b
000002d0: 2979 50bc 1bf2 c63b ac00 29b9 9d52 a4bc
000002e0: 1f88 98bb bc2d 203c 2e4b e5bb 410e 003c
000002f0: 8d77 b23a d0a3 613c c03c a5bc 3eb9 b33b
00000300: 9f97 1a3c b56d 493b 79ef 4dbc cf2b 4cb9
00000310: 94a1 beba 48c0 64bc 679d 5bbc dcd6 46bc
00000320: e191 80bc f2fd a33c efcf 263c 8c88 903c
00000330: 3f03 0ebc 6998 a9bc 7c0f 5abc 577a 68bb
00000340: 3322 ddbb 1364 9a3b 3643 503c 7f03 c7bc
00000350: 8a3f 32bc d47e 7d3c 3aa6 dd39 0b55 35bc
00000360: 6e25 32bc 8482 043c 5567 81bc 995f 5b3b
00000370: be61 39bd c97b 99bc 8c62 a8bc 9364 6b3c
00000380: de5b 47bc a49f 1d3c 9c84 aebc 3d11 ff3b
00000390: 206b 703b ee31 693b 32b0 a5bb b946 e9b9
000003a0: 9b90 89bc 725c 16bc 153d f13b 5ab7 a83c
000003b0: 6bca 8abb 7b9d 653c e8f0 8dbc 38a9 6dbb
000003c0: 5ddd cebb 98c5 013c 3bc1 873b a278 c13c
000003d0: 0004 f5bb b33e dfba c750 783c 85a5 5bbc
000003e0: e4c7 92ba 31b3 5fbc 8f99 adbb d183 d83c
000003f0: 6a85 043b d85e a2bc c125 853c 4e00 d2bb

model_trend.backbone.W_P.weight f4 [48, 10]
0.017143752 -0.022872968 -0.029843824 -0.034082472 -0.04645979 -0.009699618 -0.006558205 0.011944538
0.017628858 0.04329579 -0.049961414 -0.052840926 -0.049837146 0.008262229 0.0063289367 0.027050732
0.03420141 -0.0054242313 -0.00051282113 0.0033916312 -0.008036931 0.0001285704 0.015787365 -0.009834524
0.0050549083 0.029294576 0.040420614 0.01800984 0.023639617 -0.0024513223 -0.0056981654 0.02901441
0.006958114 0.0095894905 0.04926846 0.028868895 -0.0056006364 0.023848424 0.0064994716 -0.021455811
0.005243492 0.014861063 0.01025055 0.022221098 -0.006615296 -0.008991796 -0.045158733 -0.051482357
-0.031936295 0.02636954 0.032558877 0.026773077 0.0086587 0.010187751 -0.047203157 -0.04034762
-0.03899378 -0.02486259 -0.015745977 0.035541818 0.0077151665 0.040952224 0.024440961 0.021291696
0.022841867 0.017290942 0.022896256 0.012483366 0.00953544 -0.0017126614 -0.058349725 -0.046975847
0.0040156143 -0.013080927 -0.010830108 0.0028738976 0.008120944 -0.0015517288 -0.004828645 0.03360828
-0.070968784 -0.042915206 -0.039138205 -0.018012997 -0.0033140301 -0.008866192 0.0011300759 0.0303144
0.007635469 0.009443182 -0.028661147 -0.050022524 -0.01177259 0.02003098 0.014851502 0.011387177
0.049827635 0.009827473 -0.010730924 0.009614577 0.0351705 0.01267224 0.0005059395 -0.028090207
-0.030043598 -0.008645919 -0.02980354 -0.038612515 -0.004976164 0.011661759 -0.012241886 -0.002800598
-0.018350674 0.044276576 0.08812686 0.035397913 0.020555984 -0.009587448 0.019786898 -0.03213186
0.030001592 0.028704915 0.0076774717 -0.011744101 0.008229447 -0.0008758191 0.02664679 0.021850144
-0.0027481378 -0.019676138 -0.0054018 -0.047541138 -0.054461796 -0.011507992 0.021659663 0.0044597173
-0.0027079508 -0.0032158487 -0.046492074 -0.020437377 0.054041475 0.047174815 0.034993768 0.0073520765
-0.026403654 -0.0013087933 -0.0029243736 -0.00162328 0.030000469 -0.008893834 0.07486036 0.08448974
0.07115054 0.05033709 0.0029696685 0.017268203 -0.0017027148 -0.009533762 0.0032197193 0.0040810923
-0.048280485 -0.06234048 -0.010979713 -0.02686139 -0.019899836 -0.015158991 -0.015005546 0.014322352
-0.024352632 -0.01821574 -0.03923454 -0.0772904 -0.023510907 -0.04190783 -0.024159528 0.02957372
0.010411901 -0.015830636 -0.00085385336 -0.014713163 0.031781513 0.029732713 0.0056357197 0.03749932
0.025624316 -0.016061919 0.005382173 0.021076307 -0.01670958 -0.013459736 -0.02260566 -0.0037432625
0.007268231 -0.035103638 -0.0056834924 -0.027127568 -0.032367237 -0.022421062 -0.020021882 0.016037332
0.020530982 0.022246845 0.028778378 0.028982721 0.012726862 0.020191196 -0.010321608 -0.019482406
-0.0011520508 -0.013269508 -0.058074374 -0.016027518 -0.019465366 -0.011785594 -0.012968548 0.005413018
-0.004101203 -0.0076499074 -0.012589443 -0.0127311805 0.030051632 0.065221 0.049160425 0.035472706
0.00028496428 -0.0008271182 -0.04178688 -0.0046781567 -0.014038938 -0.0020971522 -0.037747793 0.0062531237
-0.007033815 -0.0150133455 0.016939018 -0.018408628 -0.041925274 -0.040764444 -0.04470624 -0.019449102
0.009819567 -0.036603503 0.009227164 0.028721798 -0.0035587589 -0.042094644 -0.0051005716 0.028836446
0.02177372 0.043150425 -0.054921933 -0.042499345 -0.003524979 -0.049341757 -0.02121365 -0.0029915774
00000000: 0e71 8c3c 1760 bbbc 097b f4bc 109a 0bbd
00000010: 9f4c 3ebd 26eb 1ebc 36e6 d6bb 06b3 433c
00000020: 656a 903c ed56 313d 57a4 4cbd ba6f 58bd
00000030: 0922 4cbd 4d5e 073c f862 cf3b 7f99 dd3c
00000040: c716 0c3d c0bd b1bb d86e 06ba 2146 5e3b
00000050: 55ad 03bc dbd0 0639 8154 813c fc20 21bc
00000060: a5a3 a53b 2efb ef3c 1690 253d 5f89 933c
00000070: dfa7 c13c 5da6 20bb adb7 babb a1af ed3c
00000080: e400 e43b 3d1d 1d3c bacd 493d 767e ec3c
00000090: 8b85 b7bb c55d c33c 85f9 d43b 19c4 afbc
000000a0: 99d1 ab3b d17b 733c ecf1 273c 0509 b63c
000000b0: 20c5 d8bb 5352 13bc 5df8 38bd 2adf 52bd
000000c0: a2cf 02bd ef04 d83c 755c 053d 3653 db3c
000000d0: 38dd 0d3c 86ea 263c 1958 41bd 8c43 25bd
000000e0: f1b7 1fbd a1ac cbbc b5fd 80bc 4c94 113d
000000f0: 82cf fc3b 85bd 273d 6938 c83c ec6b ae3c
00000100: de1e bb3c bca5 8d3c ee90 bb3c 0887 4c3c
00000110: 893a 1c3c 617b e0ba 1f00 6fbd bf69 40bd
00000120: 6a95 833b 6251 56bc c470 31bc 0058 3c3b
00000130: b50d 053c 6163 cbba 9c39 9ebb d6a8 093d
00000140: 1558 91bd dbc7 2fbd 624f 20bd fe8f 93bc
00000150: 3330 59bb 8143 11bc 0e1f 943a e855 f83c
00000160: f532 fa3b 93b7 1a3c c8ca eabc 6be4 4cbd
00000170: d2e1 40bc 0318 a43c b753 733c 4891 3a3c
00000180: 1018 4c3d 6903 213c c2d0 2fbc 7586 1d3c
00000190: f10e 103d 3a9f 4f3c 06a1 043a 6f1d e6bc
000001a0: fe1d f6bc 9da7 0dbc 8e26 f4bc 2828 1ebd
000001b0: 170f a3bb f610 3f3c 3192 48bc 3d8a 37bb
000001c0: 2754 96bc 5b5b 353d db7b b43d 67fd 103d
000001d0: 0665 a83c ac14 1dbc 2218 a23c b29c 03bd
000001e0: e6c5 f53c 9226 eb3c 4d93 fb3b 546a 40bc
000001f0: cdd4 063c 3a97 65ba 5e4a da3c 13ff b23c
00000200: 1a1a 34bb da2f a1bc 9501 b1bb 7fba 42bd
00000210: 5513 5fbd 048c 3cbc 9b6f b13c d222 923b
00000220: e077 31bb fdc0 52bb 796e 3ebd 496c a7bc
00000230: 985a 5d3d 613a 413d a055 0f3d b0e9 f03b
00000240: 7a4c d8bc d18b abba d9a6 3fbb 3dc4 d4ba
00000250: 8bc3 f53c 72b7 11bc 6350 993d f508 ad3d
00000260: 60b7 913d 442e 4e3d c59e 423b 0c76 8d3c
00000270: a12d dfba 7f33 1cbc ed01 533b afba 853b
00000280: c2c1 45bd bb58 7fbd 41e4 33bc 6b0c dcbc
00000290: fb04 a3bc 6b5d 78bc d2d9 75bc 4ca8 6a3c
000002a0: 2c7f c7bc 2d39 95bc 66b4 20bd 6e4a 9ebd
000002b0: f299 c0bc 8ba7 2bbd 34ea c5bc 9644 f23c
000002c0: ae96 2a3c 40af 81bc 21d5 5fba 7a0f 71bc
000002d0: 552d 023d 0592 f33c d8ab b83b e398 193d
000002e0: 16ea d13c 4994 83bc f15c b03b 38a8 ac3c
000002f0: 87e2 88bc 3986 5cbc 812f b9bc 8651 75bb
00000300: 572a ee3b d5c8 0fbd 973c babb a23a debc
00000310: 8293 04bd 60ac b7bc ee04 a4bc b960 833c
00000320: 9730 a83c 043f b63c a2c0 eb3c 2c6d ed3c
00000330: 5484 503c 0268 a53c f61b 29bc 9199 9fbc
00000340: 6900 97ba 5a68 59bc 65df 6dbd 244c 83bc
00000350: d575 9fbc 5d18 41bc 087a 54bc b05f b13b
00000360: 6263 86bb 13ac fabb f343 4ebc 7196 50bc
00000370: d72e f63c 9692 853d 715c 493d d44b 113d
00000380: 4267 9539 f6d2 58ba b828 2bbd 394b 99bb
00000390: 9303 66bc 6070 09bb 6e9d 1abd 01e7 cc3b
000003a0: eb7b e6bb 89fa 75bc b2c3 8a3c b1cd 96bc
000003b0: d6b9 2bbd 9ef8 26bd e41d 37bd b953 9fbc
000003c0: 40e2 203c 8eed 15bd 882d 173c fa49 eb3c
000003d0: 113a 69bb 6f6b 2cbd b222 a7bb 693a ec3c
000003e0: cd5e b23c 80be 303d d2f5 60bd cb13 2ebd
000003f0: 5603 67bb 951a 4abd 40c8 adbc 570e 44bb

model_trend.backbone.W_P.bias f4 [48]
-0.017760009 -0.00031038278 -0.012376319 0.016149445 -0.02383922 -0.008230728 -0.009721048 -0.01667141
0.024370817 0.0053421063 -0.0021820161 0.0037841047 0.0038993794 -0.0306466 -0.026837409 0.0028844594
-0.01639033 0.012102037 -0.015057405 -0.008666278 0.012663583 0.0016297001 0.022696644 -0.0068818987
0.0060420274 -0.007247415 -0.009633121 -0.0069090417 0.011807852 0.016390577 -0.009895617 0.002315108
-0.040329643 0.0034090572 -0.012364335 0.018050618 0.012839526 -0.0019077676 0.0074562603 -0.04081971
-0.010749097 -0.0076018185 -0.010165067 0.03470133 0.018188417 0.0051231505 -0.014043405 0.008539216
00000000: 707d 91bc dfba a2b9 0bc6 4abc d74b 843c
00000010: 784a c3bc 2dda 06bc 0845 1fbc 7b92 88bc
00000020: 4fa5 c73c d60c af3b 2800 0fbb befe 773b
00000030: bb8c 7f3b 940e fbbc 20da dbbc 3309 3d3b
00000040: 0345 86bc 9f47 463c 56b3 76bc 01fd 0dbc
00000050: eb7a 4f3c a99b d53a 50ee b93c 8d81 e1bb
00000060: 33fc c53b b97b edbb 3dd4 1dbc 3e65 e2bb
00000070: b975 413c 8845 863c 3a21 22bc 11b9 173b
00000080: b230 25bd 7d6a 5f3b c893 4abc e4de 933c
00000090: e05c 523c 0f0e faba a553 f43b 9132 27bd
000000a0: fb1c 30bc ad18 f9bb 628b 26bc fb22 0e3d
000000b0: e0ff 943c 1ae0 a73b 4f16 66bc 11e8 0b3c

model_trend.backbone.encoder.layers.0.self_attn.W_Q.weight f4 [48, 48]
0.025190292 -0.0013179643 0.008560575 9.651517e-05 -0.04372118 0.0004943561 0.014406639 0.022000812
-0.012083597 -0.0025044938 -0.0150527945 0.034586675 0.0016782489 0.033218987 -0.029562935 -0.030507727
-0.00087183533 0.019634927 0.005270374 -0.01281393 -0.010932182 0.020648396 -0.010934765 -0.012473688
0.014592076 0.03363515 0.0045352313 0.010234132 -0.025318367 -0.015525001 -0.016591104 -0.008874802
-0.013285188 -0.03541614 0.03130658 0.035734914 -0.014973494 0.0111345835 -0.028118635 0.020534312
0.008363374 -0.0010178151 -0.009188791 -0.0029240109 -0.010805495 0.039306153 -0.0020653456 0.02099752
0.005319645 -0.0051318095 0.0035096284 -0.046554692 -0.0063535594 0.012086172 -0.028707732 -0.028384458
0.007486621 -0.005270527 0.02192335 -0.0562548 -0.01947276 -0.005746207 0.00051251287 -0.030539677
-0.02686676 0.0022569385 0.0133148795 -0.011957979 -0.009753629 0.017247979 -0.003550011 0.012538927
0.0022264915 -0.0022922028 0.012184656 0.022465052 0.0070543955 -0.0037725614 0.010839123 -0.0043004868
-0.004344149 0.033998992 0.017159244 0.0049914615 -0.03878265 0.04467959 0.04889072 -0.027754823
0.032438163 -0.017020788 0.035797216 -0.036099922 0.022488724 0.061334413 0.02056302 0.030427821
-0.043703448 0.02499445 0.010639655 -0.0049353247 -0.0041112187 -0.0032898742 -0.016578866 0.069996305
0.02886961 0.0073304866 0.002079635 -0.050053604 -0.04078399 0.0055570477 0.007761715 -0.048655633
0.059145194 0.026227716 -0.0026240062 0.0076362016 0.00091978326 0.035950106 0.03549554 0.007843503
-0.031212986 -0.0038985282 0.004999337 -0.011698903 0.0024260704 0.023849046 -0.035922114 -0.021377586
0.003486192 0.041673005 0.038483463 -0.0060244435 0.00974574 -0.065126166 -0.04054287 0.002824005
0.008348463 -0.013560595 -0.038949747 0.021164358 -0.008965395 0.038515873 0.06239525 0.021810608
-0.029691502 -0.0123913335 -0.0160573 0.022221306 0.018214852 0.04414972 -0.0032101742 0.041334867
0.0018117324 0.009151153 0.033530176 0.005020787 0.013604308 -0.024489492 0.034814075 -0.017010227
-0.0013421765 0.009374493 -0.018622674 0.022170663 -0.010879989 -0.021829555 -0.033426404 0.0034427384
-0.004346665 -0.008610728 -0.021787569 0.0088535175 0.014491749 -0.003990436 -0.011461187 0.003801869
0.0005255419 -0.047434762 0.0068503283 -0.004577843 0.023910398 -0.010834746 0.017124243 0.062456124
-0.004524272 0.034766242 -0.009308448 0.0036896777 -0.017585166 -0.03328024 0.0040831245 0.013817984
0.011099914 0.024291579 -0.050791334 0.018431135 -0.027536377 -0.00092194375 0.037005454 0.029113181
0.056359127 0.0008404626 -0.0061187446 0.005758442 -0.0060833157 0.048409242 0.009848489 -0.027303463
0.043718867 0.0227698 -0.015939908 0.012414088 -0.0058881277 0.04731408 0.025086187 -0.023193602
-0.029809944 -0.015353561 0.0021186078 0.0011735549 -0.04242713 0.033550773 -0.0065168957 0.00071486365
-0.0020817139 0.007196545 0.01654407 -0.0064439103 0.04003444 -0.021350289 0.021892553 0.036267936
0.020912888 0.01862745 0.00057366217 0.05332273 0.034530036 -0.03001573 0.0063449605 0.04194895
0.029403642 0.0153612 -0.036828864 0.041692905 -0.025363514 0.019771878 0.045049965 0.046802998
0.019079102 0.00862212 -0.010814224 0.06416648 0.03319898 0.035718583 -0.014497453 0.028782066
00000000: df5b ce3c 8bbf acba a741 0c3c 3068 ca38
00000010: fb14 33bd ad97 013a d309 6c3c 0c3b b43c
00000020: 47fa 45bc 6f22 24bb ff9f 76bc c2aa 0d3d
00000030: b0f8 db3a a210 083d f82d f2bc 57eb f9bc
00000040: e18b 64ba 6dd9 a03c 1ab3 ac3b 85f1 51bc
00000050: e51c 33bc d326 a93c bb27 33bc 715e 4cbc
00000060: 9a13 6f3c 03c5 093d 479c 943b 10ad 273c
00000070: 7768 cfbc 935c 7ebc 11ea 87bc 9e67 11bc
00000080: 1eaa 59bc 8410 11bd 543b 003d c65e 123d
00000090: 6353 75bc d46d 363c 0d59 e6bc 9337 a83c
000000a0: 8806 093c 3568 85ba 958c 16bc c3a0 3fbb
000000b0: 8809 31bc 7dff 203d c05a 07bb fe02 ac3c
000000c0: 6b50 ae3b bd28 a8bb cb01 663b 22b0 3ebd
000000d0: 8531 d0bb 1405 463c 7a2c ebbc 8686 e8bc
000000e0: 5452 f53b 63b4 acbb 9998 b33c 6f6b 66bd
000000f0: 5685 9fbc ae4a bcbb 285a 063a 582e fabc
00000100: ae17 dcbc 25e9 133b a726 5a3c 66eb 43bc
00000110: afcd 1fbc a24b 8d3c 4da7 68bb 1270 4d3c
00000120: 54ea 113b c838 16bb 27a2 473c a108 b83c
00000130: 8f28 e73b 143d 77bb 9496 313c 19eb 8cbb
00000140: 5d59 8ebb 8742 0b3d 8b91 8c3c 6a8f a33b
00000150: 8eda 1ebd f201 373d a341 483d 155e e3bc
00000160: e1dd 043d 2e6f 8bbc 1aa0 123d 83dd 13bd
00000170: 463a b83c cb39 7b3d c773 a83c c443 f93c
00000180: 6302 33bd 29c1 cc3c f351 2e3c 81b8 a1bb
00000190: 67b7 86bb ee9a 57bb 67d0 87bc 395a 8f3d
000001a0: f67f ec3c 9434 f03b 7c4a 083b 0205 4dbd
000001b0: 1d0d 27bd e517 b63b fc55 fe3b 214b 47bd
000001c0: 3b42 723d 82db d63c 85f7 2bbb 1a39 fa3b
000001d0: 9c1d 713a 6b40 133d c563 113d 0982 003c
000001e0: 60b2 ffbc 737e 7fbb 7ad1 a33b c1ac 3fbc
000001f0: b5fe 1e3b 135f c33c 1123 13bd 0c20 afbc
00000200: 9978 643b 50b1 2a3d d6a0 1d3d b268 c5bb
00000210: 99ac 1f3c de60 85bd 4810 26bd f112 393b
00000220: fec7 083c 422d 5ebc c589 1fbd e060 ad3c
00000230: 98e3 12bc d2c2 1d3d 2992 7f3d 29ac b23c
00000240: 983b f3bc 0505 4bbc 998a 83bc 7509 b63c
00000250: 5037 953c 56d6 343d c961 52bb c04e 293d
00000260: a777 ed3a b8ee 153c f056 093d 6a85 a43b
00000270: 9ae4 5e3c 309e c8bc 3499 0e3d 0859 8bbc
00000280: f8eb afba 7997 193c 948e 98bc 409f b53c
00000290: fb41 32bc e5d3 b2bc 20ea 08bd 919f 613b
000002a0: 786e 8ebb 0314 0dbc d87b b2bc 580e 113c
000002b0: cd6e 6d3c 34c2 82bb b4c7 3bbc c728 793b
000002c0: 85c4 093a f44a 42bd b878 e03b bb01 96bb
000002d0: bddf c33c 3884 31bc 2448 8c3c fed1 7f3d
000002e0: 5840 94bb 0c67 0e3d 7682 18bc 85ce 713b
000002f0: c40e 90bc dc50 08bd bbcb 853b d364 623c
00000300: 6adc 353c 22ff c63c 930a 50bd e4fc 963c
00000310: f893 e1bc 99ae 71ba 0893 173d c47e ee3c
00000320: d4d8 663d 7e52 5c3a c07f c8bb 50b1 bc3b
00000330: 8d56 c7bb c548 463d 8f5b 213c 83ab dfbc
00000340: 8e12 333d bb87 ba3c 6994 82bc 7564 4b3c
00000350: 32f1 c0bb 69cc 413d 8c81 cd3c 8200 bebc
00000360: fc33 f4bc 818d 7bbc 57d8 0a3b f8d1 993a
00000370: 12c8 2dbd 896c 093d af8b d5bb b065 3b3a
00000380: 5d6d 08bb ffd0 eb3b 6e87 873c 7027 d3bb
00000390: 27fb 233d cde6 aebc 0358 b33c b08d 143d
000003a0: 8151 ab3c 9898 983c d161 163a ef68 5a3d
000003b0: 5e6f 0d3d 8ce3 f5bc 63e9 cf3b aad2 2b3d
000003c0: e8df f03c 8bad 7b3c ddd9 16bd 2ec6 2a3d
000003d0: 25c7 cfbc a2f8 a13c 5086 383d 80b4 3f3d
000003e0: c74b 9c3c cb43 0d3c 252e 31bc b769 833d
000003f0: a7fb 073d a64d 123d ba86 6dbc 5ec8 eb3c

model_trend.backbone.encoder.layers.0.self_attn.W_Q.bias f4 [48]
-0.010060749 0.0017185609 0.0073880604 -0.011093506 -0.0029831866 0.009832809 -0.003972338 0.003113936
0.0020843493 0.0007711808 -0.007645056 0.006136778 0.032136064 -0.026144616 0.011045413 -0.02046746
-0.011809406 -0.053696457 -0.037565164 0.039084587 -0.015638163 0.03694505 -0.023743011 0.02948385
0.0060630147 0.06845073 -0.043438125 0.06722379 0.074075274 0.052947044 0.04850379 -0.043118425
-0.04012399 0.02586497 0.07846599 -0.02302172 -0.07852215 -0.0045679975 -0.0978599 0.0027668749
0.02919028 0.030737512 -0.08939687 0.014054127 -0.09797815 0.0072438875 -0.07031787 -0.034399074
00000000: d7d5 24bc 5641 e13a 8b17 f23b 89c1 35bc
00000010: 9181 43bb ca19 213c 632a 82bb 2d13 4c3b
00000020: 9499 083b 1129 4a3a 6183 fabb 0617 c93b
00000030: 1ba1 033d 3c2d d6bc d2f7 343c 60ab a7bc
00000040: 3d7c 41bc d1f0 5bbd eedd 19bd 2917 203d
00000050: 9b1b 80bc b153 173d b480 c2bc 1d88 f13c
00000060: 41ac c63b e52f 8c3d 2dec 31bd a0ac 893d
00000070: c7b4 973d 00df 583d e9ab 463d f29c 30bd
00000080: 0e59 24bd c6e2 d33c c7b2 a03d 0c98 bcbc
00000090: 39d0 a0bd 24af 95bb c56a c8bd 7554 353b
000000a0: 7420 ef3c 3ccd fb3c b515 b7bd 4843 663c
000000b0: c5a8 c8bd 225e ed3b d102 90bd 0be6 0cbd

model_trend.backbone.encoder.layers.0.self_attn.W_K.weight f4 [48, 48]
0.003098538 -0.01691763 -0.0035781374 -0.0022105032 0.025269523 0.0064434814 -0.000527306 -0.0021629774
0.026073253 -0.013243949 -0.0066154874 -0.0264254 0.01415197 -0.017935053 0.009255715 0.027931154
0.016932737 -0.017388003 -0.0041257343 -0.0030045323 -0.002077599 0.00879736 0.024097325 0.019966654
-0.007154209 0.0012075272 -0.015916497 -0.028452842 -0.015218313 0.01328082 0.03463867 -0.05312396
-0.005364162 -0.002780585 0.017588506 -0.033967596 0.0090904925 0.023711381 -0.014075114 0.017145557
-0.0076090815 0.024006076 0.010676989 0.0051888637 -0.033163354 0.031878065 0.024891725 -0.024097526
-0.023105595 0.060387652 0.0058477367 -0.007818222 -0.05392344 -0.050444033 0.031027704 0.052392546
0.03239198 -0.019320551 -0.009178708 -0.022998655 -0.0043411646 0.01823615 0.01613454 0.033081546
0.044290826 0.026044888 -0.04450555 0.004516106 -0.03770722 0.017649667 -0.0053951438 0.0028169495
-0.024812616 -0.023577183 -0.035628486 -0.037387203 -0.016281899 -0.014492269 0.044580054 -0.035775468
0.0062497132 -0.0064362152 0.015184219 0.035458274 0.037852872 -0.043514553 0.022447497 0.015785167
-0.05435762 -0.003368142 0.016220367 -0.014196852 0.027817609 -0.0392389 0.030241204 -0.004625075
0.020700676 -0.037659805 -0.023483543 0.024669845 0.0051888274 -0.016566327 -0.015977297 -0.03441192
-0.008689551 -0.011799375 -0.051658534 0.0393952 0.0029790883 -0.02934574 -0.008565123 -0.0012730483
-0.008782195 0.0037217129 0.009602625 -0.031267334 0.011972115 -0.011022706 0.023272866 0.024581982
0.04998959 0.042132147 -0.020842217 -0.009424263 0.030311663 0.0051631476 0.015453552 -0.02322335
-0.029246788 -0.06622394 -0.02665384 0.0024231432 0.04256034 -0.06662061 0.06566684 0.039249495
0.02287229 0.0003985383 0.024109848 0.005466809 -0.061475184 0.013129368 0.042467017 0.0007383483
0.03829114 -0.0093931155 0.014101159 0.018036967 0.05169792 0.06898376 -0.037709706 -0.033378433
-0.03936769 -0.0151411025 0.014896086 0.015704863 -0.008292137 -0.014050856 0.0023234375 -0.034729574
-0.036476072 -0.008955127 0.047126826 0.045260012 -0.030729186 0.008019468 0.013380667 0.0012121676
-0.013101525 0.035832845 0.02703489 -0.010932383 0.020034846 -0.0514271 0.0023618343 0.02949131
0.00064198504 -0.027980806 -0.014435865 -0.010368457 -0.03411484 0.01232219 0.04647773 -0.00079983805
0.002132624 -0.0063199718 0.03518498 0.048910636 -0.021530798 0.032190233 -0.0034157129 0.012959751
0.022373484 -0.047437705 -0.019184574 0.0056299237 0.029545318 -0.002528557 -0.011849876 -0.01815015
-0.021663433 -0.012254008 -0.032660242 0.008737689 -0.0141779585 -0.00095042295 0.0034162842 -0.006375943
-0.018055102 -0.019466626 0.025162823 0.0019821718 -0.0017300008 0.0005444908 0.0026526758 0.016320327
0.003419382 0.023602761 -0.0079934215 -0.006821382 0.049013987 -0.012813303 0.015289287 -0.0019026734
0.024970466 -0.030511066 0.007228862 0.0073780823 0.014718088 -0.020414108 0.042056978 0.010960791
-0.017674167 -0.020093495 0.00015330542 0.00020525994 -0.01859957 -0.007751748 -0.014850244 0.011488589
0.008595143 -0.011987074 0.0038770481 -0.006117165 0.041805513 0.03426492 -0.018993082 -0.008971373
-0.018443832 0.00026127545 0.013896677 0.0093750935 -0.0032838038 -0.004309599 0.0324186 -0.009173154
00000000: d710 4b3b d796 8abc 2f7f 6abb 17de 10bb
00000010: 0802 cf3c d723 d33b e83a 0aba bdc0 0dbb
00000020: 9397 d53c 26fd 58bc bbc6 d8bb 157a d8bc
00000030: aadd 673c 88ec 92bc 48a5 173c e0cf e43c
00000040: 86b6 8a3c 4971 8ebc 2b31 87bb b0e7 44bb
00000050: 5428 08bb cd22 103c c167 c53c 1c91 a33c
00000060: db6d eabb e445 9e3a 5063 82bc ef15 e9bc
00000070: 3b56 79bc cc97 593c 47e1 0d3d 8298 59bd
00000080: dac5 afbb 7a3a 36bb c515 903c 9b21 0bbd
00000090: 4af0 143c 5f3e c23c 4f9b 66bc d774 8c3c
000000a0: 9a55 f9bb 64a8 c43c 8aee 2e3c 5807 aa3b
000000b0: 4cd6 07bd 9392 023d bbe9 cb3c 2d68 c5bc
000000c0: f247 bdbc 0b59 773d 5f9e bf3b 0018 00bc
000000d0: d3de 5cbd 679e 4ebd d02d fe3c 9199 563d
000000e0: 74ad 043d 2246 9ebc 4b62 16bc ad67 bcbc
000000f0: 5440 8ebb fa63 953c 952c 843c 8480 073d
00000100: 4c6a 353d 175c d53c 744b 36bd d8fb 933b
00000110: e372 1abd 0996 903c bfc9 b0bb 929c 383b
00000120: d443 cbbc f024 c1bc 2def 11bd 5323 19bd
00000130: 9e61 85bc fb70 6dbc 9399 363d 4c89 12bd
00000140: 65ca cc3b e3e6 d2bb 3bc7 783c b23c 113d
00000150: 9d0b 1b3d 513c 32bd d0e3 b73c e54f 813c
00000160: 19a6 5ebd 0cbc 5cbb 93e0 843c ea99 68bc
00000170: c1e1 e33c f8b8 20bd 67bc f73c f18d 97bb
00000180: 7794 a93c 2b41 1abd 8f60 c0bc 6a18 ca3c
00000190: 0a07 aa3b 1bb6 87bc d2e2 82bc 83f3 0cbd
000001a0: 9e5e 0ebc 2a52 41bc e697 53bd dc5c 213d
000001b0: cf3c 433b 7a66 f0bc bb54 0cbc 6adc a6ba
000001c0: 32e3 0fbc fbe7 733b 5454 1d3c 2d12 00bd
000001d0: b126 443c 9498 34bc bda6 be3c 2760 c93c
000001e0: e2c1 4c3d c292 2c3d 4cbd aabc 3968 1abc
000001f0: 2a50 f83c 9f2f a93b e530 7d3c e53e bebc
00000200: f696 efbc 6ba0 87bd 2759 dabc 99cd 1e3b
00000210: c053 2e3d 6370 88bd 567c 863d 14c4 203d
00000220: ab5e bb3c e8f2 d039 0482 c53c eb22 b33b
00000230: 67cd 7bbd 901c 573c e5f1 2d3d b78d 413a
00000240: 2cd7 1c3d 95e5 19bc 8c08 673c 43c2 933c
00000250: 33c1 533d 5c47 8d3d 7e75 1abd d3b7 08bd
00000260: 0440 21bd 6312 78bc b70e 743c 7ca7 803c
00000270: bedb 07bc 9035 66bc d044 183b 9940 0ebd
00000280: ef67 15bd 86b8 12bc 0f08 413d 9062 393d
00000290: c6bb fbbc 1664 033c 963a 5b3c 98e1 9e3a
000002a0: c7a7 56bc 76c5 123d 4678 dd3c bd1d 33bc
000002b0: 1e20 a43c 39a5 52bd 01c9 1a3b c297 f13c
000002c0: e34a 283a 0138 e5bc 6884 6cbc 76e0 29bc
000002d0: 01bc 0bbd 03e3 493c 6f5f 3e3d 39ac 51ba
000002e0: 7ec3 0b3b c417 cfbb 201e 103d 8556 483d
000002f0: 5b61 b0bc e8d9 033d 27da 5fbb 2355 543c
00000300: 9948 b73c 0a4e 42bd f828 9dbc 397b b83b
00000310: 0609 f23c 26b6 25bb fb25 42bc a0af 94bc
00000320: 8377 b1bc 09c5 48bc bfc6 05bd 8628 0f3c
00000330: ab4a 68bc ce25 79ba bde3 5f3b 49ed d0bb
00000340: 4be8 93bc 7978 9fbc 4422 ce3c 53e7 013b
00000350: 32c1 e2ba 29bc 0e3a 84d8 2d3b 35b2 853c
00000360: b617 603b 945a c13c d7f6 02bc e685 dfbb
00000370: e4c2 483d e3ee 51bc eb7f 7a3c 2063 f9ba
00000380: dd8e cc3c 58f2 f9bc 17e0 ec3b d7c3 f13b
00000390: 2324 713c 7d3b a7bc f043 2c3d e494 333c
000003a0: 6ac9 90bc 1d9b a4bc 9cc0 2039 0c3b 5739
000003b0: 205e 98bc 6002 febb 704e 73bc a33a 3c3c
000003c0: a5d2 0c3c 6f65 44bc 1316 7e3b 8072 c8bb
000003d0: 423c 2b3d 5f59 0c3d 6197 9bbc aafc 12bc
000003e0: 8517 97bc ccfb 8839 e3ae 633c fe99 193c
000003f0: 1635 57bb 8937 8dbb 5ec9 043d ff4a 16bc

model_trend.backbone.encoder.layers.0.self_attn.W_K.bias f4 [48]
-0.0035882222 -0.006477367 0.020185662 0.037042372 0.057899505 -0.01543236 0.012911748 0.06378169
0.0051771137 0.026289567 0.003169372 0.015313509 -0.008845766 0.04976986 0.034360107 0.021668289
-0.0013373208 0.03797139 0.02293384 0.009267827 -0.00046513614 -0.005038473 -0.0020509162 0.012871774
0.01700043 -0.020615682 0.034642644 0.08935658 -0.03238038 -0.016938454 -0.017310932 -0.02116449
0.004552091 -0.025620855 -0.0022690715 -0.009906399 -0.0017348211 -0.0450939 0.03298272 -0.008706476
0.021617062 -0.01268177 -0.006281544 -0.0015337707 0.017309459 0.030461473 -0.0033858472 0.039830636
00000000: 6128 6bbb 1840 d4bb 675c a53c beb9 173d
00000010: 0828 6d3d 02d8 7cbc cc8b 533c fa9f 823d
00000020: c7a4 a93b 385d d73c 3db5 4f3b 83e5 7a3c
00000030: d5ed 10bc 7bdb 4b3d 2fbd 0c3d b281 b13c
00000040: 0a49 afba e387 1b3d c0df bb3c 15d8 173c
00000050: 84dd f3b9 c619 a5bb aa68 06bb 22e4 523c
00000060: 7c44 8b3c 38e2 a8bc 72e5 0d3d 9500 b73d
00000070: 4aa1 04bd 83c2 8abc a8cf 8dbc 2761 adbc
00000080: b529 953b d4e2 d1bc b4b4 14bb 734e 22bc
00000090: f062 e3ba 62b4 38bd e318 073d 9ba5 0ebc
000000a0: 4416 b13c 33c7 4fbc 69d5 cdbb ce08 c9ba
000000b0: 91cc 8d3c 578a f93c 17e5 5dbb 7325 233d

model_trend.backbone.encoder.layers.0.self_attn.W_V.weight f4 [48, 48]
-0.034193262 -0.035438057 -0.040610954 0.007390018 0.041155048 0.035960913 0.048544373 -0.020496162
-0.04971638 -0.037746895 -0.0055993204 0.013399205 0.06442763 -0.085683756 0.055090357 0.077138424
-0.036359165 -0.012710963 0.025773628 -0.014000111 0.027128799 -0.09967612 0.0416062 -0.043320026
0.025809672 -0.0694791 -0.039543316 0.029091975 0.027927928 0.025156615 -0.04806706 0.012233805
-0.050907005 -0.0135043515 -0.0303874 -0.010509074 0.014437092 -0.007386469 0.08258421 -0.010375371
-0.00015838776 -0.051960163 0.13425684 -0.07456011 0.01845134 0.06856404 0.012849014 -0.009417588
0.001272987 -0.018719967 0.017448239 -0.05186718 -0.007207133 0.017400963 -0.019555924 0.008295757
0.025984697 0.026342113 0.010677327 -0.05681039 -0.014176845 0.049586732 -0.0024553882 -0.03901931
0.032730754 0.05144741 -0.019025533 0.03966609 -0.008361601 0.048902307 -0.015493096 0.055657923
-0.038269773 0.03679951 0.047993645 -0.031812523 -0.012896678 -0.017135322 0.03233392 -0.012296795
0.0580234 0.02351987 0.01097412 -0.013689982 -0.025766812 -0.005404052 -0.043481354 -0.0134556815
0.0030443592 0.010104032 -0.07452503 0.037009567 0.03236241 -0.047494967 -0.0012856501 -0.008101022
0.019493477 0.020392185 0.014705524 -0.056677446 -0.009558125 0.007280445 -0.03925679 0.0019949337
0.008730667 0.03133028 -0.002356929 -0.021222059 0.033232477 0.070197165 -0.04580315 -0.08077944
-0.0027644746 0.03444204 -0.025406232 0.049887735 -0.026145598 0.040050652 -0.011017692 0.033018116
-0.04305103 0.050384 0.041223336 -0.018474704 -0.029295351 -0.031621724 -0.0029629765 0.012258667
0.044910256 0.0052577606 -0.0069769523 0.009536416 -0.021904545 -0.0044099777 -0.06468689 -0.0016580201
-0.01914762 0.05574668 -0.1152752 0.068829775 0.036201753 -0.02093718 -0.00026793836 0.005320578
0.010469352 -0.002396653 -0.051294096 -0.040746473 0.0153368 0.020440498 -0.03234758 -0.02904698
0.021660967 0.021834617 0.0238037 -0.040005036 -0.004132225 0.08427104 -0.01590144 -0.012542576
0.028965471 0.01827768 -0.01740548 0.042050794 0.01242817 0.033210427 -0.014980255 0.029767303
-0.034127478 0.018868329 0.04489967 0.017480621 -0.008847286 -0.005253843 0.017939556 0.034914196
0.015969183 0.023353012 0.0046169595 0.007851469 -0.014347789 0.030201761 -0.09003292 -0.025383284
-0.017792132 0.008574574 -0.06778809 0.055323876 0.024483131 -0.016411036 -0.020382982 0.01245744
0.008323423 -0.011431331 -0.01174091 -0.002714436 -0.0072589912 0.0075222887 -0.023068152 -0.019840956
0.006467168 0.00702706 -0.002303337 -0.043870665 -0.032801412 0.014092652 -0.031089338 -0.056645203
-0.008831644 0.0132363485 0.017093284 0.041084923 -0.02556832 0.021970643 0.008572844 0.038637605
-0.012215638 0.0025612984 0.0018577923 -0.025660576 0.013487306 -0.003405538 0.037048582 -0.0010686549
0.016260054 0.014685361 -0.0019052181 0.0069392314 0.016620018 -0.0046970323 -0.04095162 -0.02533544
-0.0021822262 0.007968768 -0.04009866 0.015431132 -0.0069225943 0.009196759 0.0061431383 0.008491083
-0.037488017 0.008335213 0.026303472 0.018618636 -0.008826228 -0.0004792782 0.042710435 0.015529966
-0.013223846 -0.015629882 -0.008569418 0.01940539 0.0063812523 -0.102880545 0.0456066 0.07716143
00000000: 3c0e 0cbd 7f27 11bd ac57 26bd f727 f23b
00000010: 3292 283d c04b 133d 77d6 463d 91e7 a7bc
00000020: 67a3 4bbd 7d9c 1abd 817a b7bb 5788 5b3c
00000030: a2f2 833d f77a afbd 6da6 613d c0fa 9d3d
00000040: 59ed 14bd a541 50bc 3723 d33c b960 65bc
00000050: 373d de3c fe22 ccbd 436b 2a3d 5770 31bd
00000060: ce6e d33c 0f4b 8ebd 2cf8 21bd 4b52 ee3c
00000070: 1cc9 e43c 3f15 ce3c f7e1 44bd 4c70 483c
00000080: dd83 50bd 5b41 5dbc ffee f8bc 402e 2cbc
00000090: 8d89 6c3c 310a f2bb e921 a93d 76fd 29bc
000000a0: e414 26b9 2ed4 54bd a07a 093e f9b2 98bd
000000b0: 4427 973c 4e6b 8c3d ac84 523c 3a4c 1abc
000000c0: 5bda a63a 9e5a 99bc 9cef 8e3c ae72 54bd
000000d0: d029 ecbb 778c 8e3c bf33 a0bc edea 073c
000000e0: dcdd d43c 6acb d73c f5ef 2e3c 03b2 68bd
000000f0: ff45 68bc 751b 4b3d 94ea 20bb b6d2 1fbd
00000100: af10 063d 85ba 523d 6fdb 9bbc e978 223d
00000110: 19ff 08bc c94d 483d c1d6 7dbc 90f9 633d
00000120: c4c0 1cbd 15bb 163d fc94 443d d94d 02bd
00000130: 974c 53bc 605f 8cbc 9370 043d 7f78 49bc
00000140: f2a9 6d3d beac c03c cccc 333c f24b 60bc
00000150: ec14 d3bc 7914 b1bb 8119 32bd 3875 5cbc
00000160: df83 473b 628b 253c 94a0 98bd 5897 173d
00000170: 728e 043d 158a 42bd 4283 a8ba 26ba 04bc
00000180: c9b0 9f3c 830d a73c 70ef 703c 9c26 68bd
00000190: af99 1cbc cd90 ee3b bacb 20bd 6fbd 023b
000001a0: 120b 0f3c 2e54 003d b576 1abb e2d9 adbc
000001b0: c71e 083d 88c3 8f3d 159c 3bbd b16f a5bd
000001c0: 302c 35bb 1913 0d3d bb20 d0bc 1557 4c3d
000001d0: 4b2f d6bc 270c 243d 8d83 34bc 013e 073d
000001e0: 4756 30bd 745f 4e3d cdd9 283d 4358 97bc
000001f0: cefc efbc c885 01bd 7f2e 42bb 93d8 483c
00000200: d1f3 373d 4b49 ac3b eb9e e4bb a13e 1c3c
00000210: 2971 b3bc 9381 90bb 8f7a 84bd ec51 d9ba
00000220: 78db 9cbc a156 643d 6715 ecbd a0f6 8c3d
00000230: 4a48 143d 7384 abbc 147a 8cb9 3e58 ae3b
00000240: a587 2b3c 2a11 1dbb c219 52bd c6e5 26bd
00000250: 3447 7b3c d572 a73c e57e 04bd eff3 edbc
00000260: 5772 b13c 83de b23c faff c23c 52dc 23bd
00000270: 9e67 87bb 4c96 ac3d bd43 82bc 607f 4dbc
00000280: ff48 ed3c 13bb 953c f095 8ebc 743d 2c3d
00000290: 869f 4b3c a807 083d be6f 75bc 8fda f33c
000002a0: 41c9 0bbd c191 9a3c b7e8 373d 8533 8f3c
000002b0: 35f4 10bc 6e28 acbb faf5 923c 3002 0f3d
000002c0: ced1 823c d14e bf3c dd49 973b 73a3 003c
000002d0: fd12 6bbc af69 f73c 2e63 b8bd 9bf0 cfbc
000002e0: cec0 91bc 5f7c 0c3c 7bd4 8abd 4a9b 623d
000002f0: d990 c83c 7070 86bc 36fa a6bc 4a1a 4c3c
00000300: f75e 083c 7a4a 3bbc f25c 40bc aee4 31bb
00000310: d5dc edbb 887d f63b 6cf9 bcbc 8089 a2bc
00000320: 8aea d33b 4043 e63b 95f3 16bb bab1 33bd
00000330: c65a 06bd dee4 663c 11af febc cd04 68bd
00000340: 9ab2 10bc 45dd 583c 3707 8c3c aa48 283d
00000350: a774 d1bc c7fb b33c 1d75 0c3c 7742 1e3d
00000360: 1924 48bc 75db 273b 2a81 f33a 2136 d2bc
00000370: ddf9 5c3c 722f 5fbb 41c0 173d 1c12 8cba
00000380: ce33 853c de9a 703c 83b8 f9ba 7e62 e33b
00000390: b426 883c 90e9 99bb e3bc 27bd 458c cfbc
000003a0: ae03 0fbb 6f8f 023c 7e3e 24bd dcd2 7c3c
000003b0: eed6 e2bb 01ae 163c 614c c93b 2f1e 0b3c
000003c0: 098d 19bd 6b90 083c 617a d73c 1c86 983c
000003d0: e29b 10bc a247 fbb9 23f1 2e3d 6671 7e3c
000003e0: d5a8 58bc 3d0a 80bc bf66 0cbc 0df8 9e3c
000003f0: d319 d13b 09b3 d2bd fccd 3a3d d006 9e3d

model_trend.backbone.encoder.layers.0.self_attn.W_V.bias f4 [48]
0.0090393815 -0.0069102105 -0.009806086 0.0017795342 0.0009332377 0.016250161 -0.008225648 -0.021910528
0.0033527908 -0.0045256624 -0.017412316 -0.008400645 -0.0014985044 0.005438308 0.0049865628 -0.011069382
-0.001269427 0.007984965 -0.009457404 0.007374506 -0.015067369 -0.0031925738 -0.018144552 -0.010878051
0.0030634757 0.008873807 0.004824917 0.013022788 0.016520122 -0.00485084 -0.011651779 -0.008059463
0.0048640156 -0.011057682 9.814638e-05 -0.007112684 -0.0019152701 0.0073884437 -0.005842074 0.010091793
-0.013168341 0.0016666966 -0.008393573 0.0021519696 0.00063025934 -0.004438054 -0.002845061 -0.0015426603
00000000: ea19 143c 0c6f e2bb b5a9 20bc 423f e93a
00000010: 86a4 743a 0f1f 853c dec4 06bc b57d b3bc
00000020: 7fba 5b3b 024c 94bb 46a4 8ebc dca2 09bc
00000030: 7769 c4ba d633 b23b 5266 a33b 5a5c 35bc
00000040: e762 a6ba 5fd3 023c 3af3 1abc d7a5 f13b
00000050: 20dd 76bc 803a 51bb e2a3 94bc da39 32bc
00000060: 98c4 483b 7263 113c 561a 9e3b 885d 553c
00000070: 3555 873c ccf3 9ebb 1ae7 3ebc d70b 04bc
00000080: 5262 9f3b 482b 35bc f0d3 cd38 8511 e9bb
00000090: cd09 fbba c21a f23b de6e bfbb 0c58 253c
000000a0: 06c0 57bc 0f75 da3a 3285 09bc 0f08 0d3b
000000b0: fd37 253a 186d 91bb 3474 3abb 1733 caba

model_trend.backbone.encoder.layers.0.self_attn.to_out.0.weight f4 [48, 48]
-0.003427442 0.0073770746 0.013949972 0.018921873 -0.0017722839 -0.03758579 0.014646206 0.05091201
-0.02430933 -0.0039441655 0.056068327 0.07417536 -0.018844578 -0.027615786 -0.0074936547 0.03780681
-0.028518142 -0.006632316 -0.0065141497 -0.0034337856 0.04979457 -0.004955971 0.047084596 0.035300042
0.06168895 -0.08297336 -0.025019748 -0.044393297 -0.018604368 0.020053094 0.035912905 0.09310949
-0.041845836 0.068478726 0.058956843 0.0025333187 -0.0035480252 -0.028104361 -0.008697707 -0.041902408
0.031335335 -0.047820967 0.012055911 0.012476068 0.059086353 -0.014006749 0.020234628 -0.014153091
0.00082191057 0.01825734 0.020628363 -0.0017718973 -0.016714148 -0.024041621 0.017850643 0.0056159934
-0.019512245 0.0008655298 0.023416117 -0.0124716135 0.019066967 -0.013964986 0.0042449352 0.028069947
-0.021642264 0.03363497 0.014953773 -0.012149842 0.01770783 0.038805928 0.017447002 -0.0023564352
-0.0027731722 0.044547357 4.4158947e-05 0.0040185284 -0.042967692 0.015723074 0.0054229223 -0.031293005
0.01643209 0.004560896 -0.0073113125 -0.0032977657 0.037557676 -0.0049713044 -0.010362189 -0.019684996
0.02362639 0.014831668 -0.025039362 -0.006570489 -0.03640604 0.013367346 0.026422996 0.008419635
0.017488042 0.02269486 -0.00044996975 0.010513795 -0.021075184 -0.00862146 -0.008583032 0.0044783982
0.0064424938 -0.025682174 0.013310439 -0.04503622 0.042865492 0.043227676 0.011476903 -0.019155396
8.2358645e-05 -0.020296251 0.04754812 -0.025029536 -0.020903736 -0.015683718 -0.012387834 -0.029184805
0.003094566 0.03853193 0.01351675 0.024830932 -0.054827534 -0.02581336 -0.014136987 -0.047137104
0.013266186 -0.008416526 0.0011893247 -0.01383983 -0.020030556 0.037854273 0.03151734 -0.027244365
-0.031065727 0.0070573566 -0.07391261 0.0073807444 -0.051615357 0.037032645 -0.012081495 0.051995404
0.016131409 -0.013382345 -0.027668504 0.01694973 -0.011690778 0.031139264 -0.030031055 -0.021997068
0.028332826 -0.0023893958 0.0055250204 -0.032890234 0.024122644 0.0050457274 -0.0057713483 -0.033662014
0.02164268 -0.016918873 0.028296053 0.0054322574 -0.045174494 0.0045132465 -0.046761777 -0.05262193
-0.044150688 0.0730917 0.009178627 0.073199466 0.042980757 -0.036684126 -0.06626203 -0.055456366
0.049284805 -0.05193973 -0.055414326 -0.05953547 -0.030849926 0.053680975 0.0290941 0.02328732
-0.05569306 0.024550894 -0.05503494 0.017195644 -0.03864935 -0.016714307 -0.034104932 0.04051688
-0.016370077 -0.0074135126 0.008775736 -0.005886306 -0.010493388 -0.009336724 -0.0028237507 0.008253405
-0.019329635 0.012508419 -0.0028019326 0.038394224 -0.020896904 0.0014719834 0.0037300354 0.004579165
-0.0023711796 0.006339907 -0.004677298 0.002352923 0.02256928 -0.0033858654 0.0094067 0.010201589
-0.009304678 -0.005346859 -0.018847533 0.0029267499 0.008020514 -7.028717e-05 -0.012295382 0.00089007546
0.019737542 0.00070104626 0.0044864644 -0.0025351732 -0.0119975135 -0.0031775143 0.008420698 -0.0005927783
0.0024429588 -0.014317567 0.0013548412 0.011162982 0.0041186414 0.0031053748 -0.006830086 -0.0006085865
-0.038550667 0.04312719 0.014366473 -0.008258162 0.023587253 -0.009264798 0.040123753 0.06703761
0.030820781 0.0256657 0.020378094 0.07468193 -0.016230676 -0.006543032 0.00574196 0.016243747
00000000: ef9e 60bb 63bb f13b 6c8e 643c 0b02 9b3c
00000010: fb4b e8ba 8ff3 19bd a4f6 6f3c 1d89 503d
00000020: 5c24 c7bc 0f3e 81bb e7a7 653d 40e9 973d
00000030: f25f 9abc 803a e2bc 558d f5bb 50db 1a3d
00000040: e19e e9bc e653 d9bb a674 d5bb 5d09 61bb
00000050: 64f5 4b3d b365 a2bb c7db 403d c796 103d
00000060: 8dad 7c3d f0ed a9bd 37f6 ccbc bfd5 35bd
00000070: 3068 98bc 6346 a43c 6919 133d 30b0 be3d
00000080: 8a66 2bbd 933e 8c3d bb7c 713d 0906 263b
00000090: fc85 68bb 1e3b e6bc d480 0ebc dca1 2bbd
000000a0: 7b59 003d ebdf 43bd 2886 453c 6c68 4c3c
000000b0: 8804 723d 907c 65bc 17c3 a53c 5ee2 67bc
000000c0: 7c75 573a 6b90 953c d0fc a83c 023f e8ba
000000d0: 1cec 88bc eff2 c4bc 833b 923c 5e06 b83b
000000e0: 25d8 9fbc b9e4 623a 28d3 bf3c bd55 4cbc
000000f0: 5432 9c3c 66cd 64bc 1919 8b3b f2f2 e53c
00000100: 1e4b b1bc d3c4 093d ab00 753c 2210 47bc
00000110: 0310 913c f7f2 1e3d 04ed 8e3c 6c6e 1abb
00000120: 1cbe 35bb 4a77 363d 4f37 3938 dcad 833b
00000130: e4fe 2fbd adcd 803c c5b2 b13b 182d 00bd
00000140: 979c 863c 9273 953b bc93 efbb 541f 58bb
00000150: 14d6 193d 53e6 a2bb 2cc6 29bc 6e42 a1bc
00000160: 228c c13c 8600 733c 591f cdbc 424d d7bb
00000170: 801e 15bd b602 5b3c 0a75 d83c 82f2 093c
00000180: 1543 8f3c 92ea b93c ebe9 ebb9 0d42 2c3c
00000190: dda5 acbc 0641 0dbc d89f 0cbc 87bf 923b
000001a0: 8e1b d33b 6c63 d2bc 0714 5a3c e677 38bd
000001b0: ba93 2f3d 810f 313d 9f09 3c3c c7eb 9cbc
000001c0: f6b7 ac38 5344 a6bc d1c1 423d be0a cdbc
000001d0: 503e abbc 247b 80bc 57f6 4abc f914 efbc
000001e0: 34ce 4a3b a8d3 1d3d 5c75 5d3c 3d6a cb3c
000001f0: d692 60bd 8a76 d3bc d29e 67bc d612 41bd
00000200: 6b5a 593c 78e5 09bc 1de3 9b3a 74c0 62bc
00000210: 1f17 a4bc 150d 1b3d 5418 013d 932f dfbc
00000220: 8d7d febc 6641 e73b 7f5f 97bd 2cda f13b
00000230: a06a 53bd 8baf 173d 76f1 45bc 22f9 543d
00000240: 0426 843c a041 5bbc 0fa9 e2bc 29da 8a3c
00000250: ad8a 3fbc c517 ff3c b003 f6bc 3233 b4bc
00000260: 3e1a e83c 6997 1cbb 3b0b b53b e9b7 06bd
00000270: da9c c53c a156 a53b 941d bdbb 2ee1 09bd
00000280: fd4b b13c 7399 8abc 20cd e73c 1401 b23b
00000290: e408 39bd dbe3 933b 4789 3fbd 188a 57bd
000002a0: 5ad7 34bd 1ab1 953d f461 163c 9ae9 953d
000002b0: 970c 303d 1842 16bd 63b4 87bd 3726 63bd
000002c0: ddde 493d c1be 54bd 22fa 62bd 77db 73bd
000002d0: fcb8 fcbc 95e0 5b3d c056 ee3c 0dc5 be3c
000002e0: 681e 64bd f51e c93c 516c 61bd e1dd 8c3c
000002f0: c84e 1ebd 71ec 88bc 9db1 0bbd 07f5 253d
00000300: 8a1a 86bc 0ded f2bb 1bc8 0f3c eae1 c0bb
00000310: 76ec 2bbc 0ff9 18bc ad0e 39bb 4a39 073c
00000320: 2f59 9ebc 1df0 4c3c a1a0 37bb 4343 1d3d
00000330: fc2f abbc 91ef c03a 9c73 743b d20c 963b
00000340: cb65 1bbb ffbe cf3b 0544 99bb 7f33 1a3b
00000350: 36e3 b83c 65e5 5dbb 8f1e 1a3c 9124 273c
00000360: a672 18bc b434 afbb 2466 9abc b7ce 3f3b
00000370: 7968 033c 2367 93b8 9272 49bc f453 693a
00000380: a0b0 a13c 6bc6 373a 3103 933b 2625 26bb
00000390: 3891 44bc d83d 50bb f8f6 093c ae64 1bba
000003a0: 0c1a 203b 3b94 6abc ed94 b13a f1e4 363c
000003b0: abf5 863b 8b83 4b3b eace dfbb 8c89 1fba
000003c0: 4ee7 1dbd 23a6 303d 5b61 6b3c 3e4d 07bc
000003d0: 0e3a c13c 61cb 17bc ce58 243d 044b 893d
000003e0: dd7b fc3c e040 d23c f6ef a63c d7f2 983d
000003f0: 32f6 84bc ee66 d6bb 0d27 bc3b 9b11 853c

model_trend.backbone.encoder.layers.0.self_attn.to_out.0.bias f4 [48]
0.0054895994 0.00034097178 0.0062216115 -0.009288142 -0.004385671 -0.013602136 0.019807458 0.0017026943
0.0028663436 0.0054509924 0.0013008994 -0.024856769 0.01678999 0.0005200951 0.0019722437 -0.008286894
-0.0008363254 0.0106343515 0.0172733 0.015963946 0.013194989 -0.0007787684 0.005544441 0.0020269975
0.0089855995 -0.004249678 -0.022467082 0.0010894971 0.018360384 0.005100256 -0.003271105 0.030023286
-0.011125369 -0.0084817195 0.027375605 -0.0049329875 -0.030782124 -0.0014984406 0.002941615 0.012469189
-0.0073630447 0.004467032 -0.0075957812 0.0015666332 0.013248486 -0.004535224 0.011543293 0.027221475
00000000: 19e2 b33b 75c4 b239 a9de cb3b 4b2d 18bc
00000010: adb5 8fbb 7edb 5ebc 4043 a23c f12c df3a
00000020: 44d9 3b3b 3d9e b23b f182 aa3a 6ca0 cbbc
00000030: 298b 893c fe56 083a c240 013b c1c5 07bc
00000040: d93c 5bba b43b 2e3c bc80 8d3c d2c6 823c
00000050: cc2f 583c 4326 4cba 24ae b53b 60d7 043b
00000060: 5638 133c e240 8bbb e30c b8bc 75cd 8e3a
00000070: 8468 963c 0c20 a73b 0960 56bb 65f3 f53c
00000080: 2e47 36bc e9f6 0abc ce42 e03c e6a4 a1bb
00000090: cb2a fcbc 5367 c4ba 1cc8 403b 924b 4c3c
000000a0: b245 f1bb 2e60 923b 08e6 f8bb 7d57 cd3a
000000b0: 2e10 593c 379c 94bb 1420 3d3c 92ff de3c

model_trend.backbone.encoder.layers.0.norm_attn.1.weight f4 [48]
0.95210356 0.9652329 0.99066734 0.9957089 1.0573484 1.0159295 0.9920476 1.0414184
0.97728574 0.9676576 0.9648809 0.9550519 1.0090752 0.9831333 0.97294015 0.97675556
1.0028083 0.95644885 0.9915085 0.9475616 1.0230116 0.9654597 0.95329183 0.95992637
1.0627589 0.9985092 0.9450862 1.0043955 0.9982688 0.97144955 0.9566177 0.98159397
1.0370809 0.9129795 0.9688017 0.97494966 0.93431205 0.9893692 0.9999483 0.99252266
1.0556892 0.99690753 0.9851932 0.9564214 0.9436648 1.009644 0.94712716 0.9692351
00000000: 0fbd 733f 8119 773f 609c 7d3f c7e6 7e3f
00000010: 3157 873f fa09 823f d5f6 7d3f 334d 853f
00000020: 662f 7a3f 69b8 773f 6f02 773f 487e 743f
00000030: 6029 813f a0ae 7b3f 9b12 793f a70c 7a3f
00000040: 065c 803f d5d9 743f 80d3 7d3f 6693 723f
00000050: 0bf2 823f 5e28 773f ef0a 743f bcbd 753f
00000060: 7c08 883f 4d9e 7f3f 2bf1 713f 0890 803f
00000070: 8b8e 7f3f ebb0 783f e6e4 743f be49 7b3f
00000080: 11bf 843f 06b9 693f 6303 783f 4d96 793f
00000090: 132f 6f3f 4d47 7d3f 9dfc 7f3f f715 7e3f
000000a0: d320 873f 5535 7f3f 9f35 7c3f 08d8 743f
000000b0: 0494 713f 043c 813f ed76 723f cb1f 783f

model_trend.backbone.encoder.layers.0.norm_attn.1.bias f4 [48]
-0.016917935 -0.009626606 0.058980886 0.022182114 -0.0007360387 0.036602955 0.0204761 -0.06363952
0.05638182 -0.029237654 -0.015117574 0.025383554 0.013348849 0.016187022 0.011949954 0.066172026
0.024233392 -0.031837754 0.017463505 0.02861231 -0.023189867 -0.013209187 -0.026283188 0.0035984882
0.019051298 0.05063662 -0.020446375 0.010544003 0.022450728 0.012428066 -0.022113414 -0.012598558
-0.009915215 0.008869874 0.012751338 0.02475869 0.06461564 0.017203871 -0.06625437 0.050414957
-0.004962937 0.033993088 0.0024244715 -0.02551822 -0.015364532 0.05126228 -0.027142014 0.040110912
00000000: 7b97 8abc e9b8 1dbc f195 713d 44b7 b53c
00000010: b9f2 40ba fbec 153d 7ebd a73c 7055 82bd
00000020: a0f0 663d ce83 efbc b3af 77bc 2cf1 cf3c
00000030: 21b5 5a3c a59a 843c bdc9 433c 3385 873d
00000040: 1b85 c63c 4e68 02bd a00f 8f3c 5d64 ea3c
00000050: adf8 bdbc 596b 58bc d74f d7bc 9dd4 6b3b
00000060: 7811 9c3c 5868 4f3d 287f a7bc c1c0 2c3c
00000070: 97ea b73c 169f 4b3c 3127 b5bc 2f6a 4ebc
00000080: 6d73 22bc f352 113c fdea 503c bcd2 ca3c
00000090: 3455 843d 22ef 8c3c 5fb0 87bd ea7f 4e3d
000000a0: 22a0 a2bb 563c 0b3d e2e3 1e3b 960b d1bc
000000b0: 85bb 7bbc 66f8 513d ee58 debc 574b 243d

model_trend.backbone.encoder.layers.0.norm_attn.1.running_mean f4 [48]
-0.032521628 -0.007939808 -0.009266772 0.02107434 -0.035936244 -0.03368918 0.011996546 -0.029556833
0.025623484 -0.011341075 -0.009524451 0.0038272718 0.028595729 -0.026873115 -0.027769262 -0.0075698886
-0.02274424 0.016944813 0.014328102 -0.023084175 0.03141042 -0.0017111113 0.03259946 -0.0027733445
0.0039469954 -0.009804072 -0.022209145 -0.015051459 0.02177466 0.0077014086 -0.030493647 0.018160239
-0.06481891 -0.009058935 0.0054489067 0.01172712 -0.023691116 -0.0077356747 0.0041577644 -0.019458778
-0.035459537 -0.00914974 -0.03991762 0.021098163 0.03404765 0.011871552 0.008891371 0.047641356
00000000: 6635 05bd f815 02bc a9d3 17bc 18a4 ac3c
00000010: e231 13bd aafd 09bd 298d 443c 2c21 f2bc
00000020: 57e8 d13c ebcf 39bc 710c 1cbc f7d2 7a3b
00000030: 9741 ea3c 0225 dcbc 5d7c e3bc d40c f8bb
00000040: 2152 babc d9cf 8a3c 6ac0 6a3c 061b bdbc
00000050: 36a8 003d 5e47 e0ba 0387 053d 00c1 35bb
00000060: cc55 813b 42a1 20bc f4ef b5bc 659a 76bc
00000070: c660 b23c 195c fc3b d0cd f9bc c8c4 943c
00000080: c7bf 84bd ed6b 14bc be8c b23b 1b23 403c
00000090: df13 c2bc 8b7b fdbb db3d 883b 0468 9fbc
000000a0: 053e 11bd cbe8 15bc a980 23bd 0ed6 ac3c
000000b0: 8c75 0b3d e680 423c 1dad 113c 9523 433d

model_trend.backbone.encoder.layers.0.norm_attn.1.running_var f4 [48]
0.014076943 0.009990184 0.014753418 0.021718517 0.0071920226 0.009733357 0.033979736 0.018294504
0.022346985 0.0041082315 0.013197796 0.02897203 0.013603994 0.021802362 0.018256871 0.09894297
0.05763576 0.04078205 0.018928066 0.031130092 0.013290261 0.024485271 0.018875014 0.0416694
0.0045471652 0.018044753 0.049966257 0.018026777 0.025399003 0.010516578 0.025475457 0.010629095
0.02993219 0.038388878 0.012049362 0.021821998 0.01854329 0.0017668376 0.0010311985 0.013696134
0.0023331232 0.04340869 0.020441847 0.048945695 0.008766434 0.034017622 0.021603229 0.007706181
00000000: faa2 663c dead 233c 52b8 713c 08eb b13c
00000010: 0fab eb3b a878 1f3c 562e 0b3d 5bde 953c
00000020: 0611 b73c 589e 863b 923b 583c c056 ed3c
00000030: 49e3 5e3c de9a b23c 6f8f 953c 9da2 ca3d
00000040: 7a13 6c3d 140b 273d 080f 9b3c 8904 ff3c
00000050: 65bf 593c 5695 c83c c69f 9a3c 88ad 2a3d
00000060: 6300 953b 97d2 933c 6ba9 4c3d e4ac 933c
00000070: 9211 d03c ba4d 2c3c e8b1 d03c a825 2e3c
00000080: 5a34 f53c a83d 1d3d b06a 453c 0cc4 b23c
00000090: 19e8 973c 3b95 e73a 4829 873a c065 603c
000000a0: 50e7 183b 4fcd 313d a975 a73c 487b 483d
000000b0: 17a1 0f3c 1056 0b3d 41f9 b03c 2284 fc3b
