CMI-Net/checkpoint/ConvTrans/setting0/2025_03_29_19h_55m_03s/ConvTrans-best.pth (torch, 66379 bytes, 28 tensors)

embed_layer.0.weight f4 [64, 1, 1, 8]
000000 0d 31 10 3e 18 05 de bd c1 20 b7 bc 4d 48 d0 3d
       0.14081211 -0.10840815 -0.022354485 0.1017004
000010 5c 4f 94 3c 89 6b 9e 3e 33 fe 73 be 16 34 1b 3e
       0.018104248 0.30941418 -0.23827438 0.15156588
000020 fb 55 1a 3b 92 04 93 be c2 cf 2f 3e 5f 27 4d 3c
       0.0023549784 -0.28714424 0.17169097 0.012521594
000030 31 11 04 3e 07 bc 11 bd 34 6c 08 be df 34 99 be
       0.12897183 -0.035579707 -0.13322526 -0.2992315
000040 4b 17 e9 bb ef 47 46 3e d4 03 59 3e 43 34 b0 bd
       -0.0071133724 0.19363378 0.21192867 -0.08603718
000050 ae b4 2e 3d 8c db d7 bd fe 06 84 3e 67 be 28 bd
       0.04265278 -0.10539922 0.25786585 -0.041197207
000060 05 cf 6e bd 50 90 93 be 6c 8b 4f be 30 09 9f 3e
       -0.058302898 -0.2882104 -0.20268029 0.31061697
000070 de 1a 7b 3c 76 3b 5c 3e 67 8c 83 be a3 8a 8f bc
       0.01532623 0.21507058 -0.25693056 -0.017522162
000080 5b 37 0c 3c 31 4e 96 3d 92 4a 30 bd f0 da f6 3d
       0.00855812 0.073391326 -0.043039866 0.12053478
000090 87 36 7c 3e 80 9e 17 3e ac f8 23 bd 27 fe 52 3e
       0.24630176 0.14806557 -0.040032074 0.20604764
0000a0 7b b4 92 3e 5a c8 2c bd 4f 06 03 be b7 2c 9f 3e
       0.2865332 -0.042183258 -0.12795375 0.31088802
0000b0 8b fe 8e 3d d5 1c 97 be 9b e5 a5 be 66 da b3 bd
       0.06982144 -0.29514185 -0.32401738 -0.087818906
0000c0 d6 a1 4c be a2 56 0f 3e 6c 84 92 3d 4b 26 8a be
       -0.1998361 0.13997892 0.07154164 -0.2698234
0000d0 1a ab de 3d b8 ab 12 bd 58 6d 67 be be d0 8c be
       0.10872479 -0.035808295 -0.22600305 -0.27503008
0000e0 d4 17 4f be 45 71 23 bd 79 0e 80 3e e7 12 1c 3d
       -0.20223933 -0.039902944 0.25011042 0.038103964
0000f0 90 69 a0 3e c3 4d 69 be 56 3b 80 3e d0 8a 91 be
       0.31330538 -0.2278357 0.2504527 -0.28426218
000100 e7 d5 85 3e 65 0f a0 be 0b 32 77 3e 0c fb 3d 3e
       0.26139757 -0.31261745 0.24140184 0.18552798
000110 4e b0 84 be 3a a9 50 bd 6f 71 17 3e 3b bf 5d 3e
       -0.2591576 -0.050942637 0.14789365 0.2165498
000120 b1 81 a0 3c 14 a3 be 3d 45 e7 ff bd 03 96 00 3e
       0.019593092 0.093084484 -0.12495283 0.12557225
000130 8b 6a 46 3e 2e e3 84 3d 14 f5 51 3e 14 a8 9c be
       0.1937658 0.064886436 0.20503646 -0.30596983
000140 c6 0a 02 3e 34 92 22 3e 53 c9 09 3e b2 45 64 be
       0.12699422 0.15876085 0.13455705 -0.22292212
000150 f0 52 96 3e e4 50 11 3e 7b 5b 78 3e af a1 46 be
       0.2936015 0.14191014 0.24253647 -0.19397615
000160 69 f2 45 be e4 ec 0b be 04 1a 81 be 09 8b ec bd
       -0.19330753 -0.13664585 -0.2521516 -0.11549956
000170 95 f2 31 be 1b 98 89 bd 9c 97 7a 3d d5 7b 61 3e
       -0.17377694 -0.06718465 0.061179742 0.22019894
000180 11 60 2d 3e c1 a0 bf 3c 70 46 87 be 65 2c 16 3d
       0.16931178 0.023392083 -0.26420927 0.03666343
000190 b1 7d 30 3d 1d a4 e9 bd cc 8c ce bd 0e 67 3f bd
       0.04308862 -0.11408255 -0.100854486 -0.04672914
0001a0 46 7d a6 3d f9 c8 7c 3c 25 8b 4c 3e de 70 09 be
       0.08129363 0.015428775 0.19974954 -0.13421962
0001b0 48 fb 93 3e 6d 13 ab be 74 fc 4b be 40 34 c9 3d
       0.2890265 -0.33413258 -0.19920522 0.09824419
0001c0 53 c4 7b be 7f 65 9f be 74 5c 69 bd cf ae 1a 3e
       -0.2458661 -0.31132123 -0.056972936 0.15105747
0001d0 42 55 16 3e fc be c2 3d 48 18 c1 bd c2 cb cc 3a
       0.14680961 0.09509084 -0.094284594 0.0015624689
0001e0 d1 be 8f be 78 c7 2a bd e6 ce 94 be 3b 9b ef bd
       -0.2807527 -0.041694134 -0.290641 -0.1169953
0001f0 ab 1f c5 3d 9a fe e3 bc 20 77 1d be f0 75 97 3e
       0.09625181 -0.027831364 -0.15377474 0.29582167
000200 d8 0f 7a 3e 00 3b 6c 3e 6e b2 a3 3d 67 c2 93 3e
       0.24420106 0.23069382 0.07993017 0.28859255
000210 fd 83 92 3d b9 17 83 bc 70 34 ac bc 34 c4 43 3b
       0.07154081 -0.016002523 -0.021021098 0.0029871585
000220 f4 6e 9b 3e 53 5c 88 be da 4e 87 3e 74 ed a9 be
       0.30358088 -0.26632938 0.26427346 -0.33188975
000230 ba 4e 59 3d eb d4 45 3e 0d f8 2f be 88 d4 85 be
       0.053053595 0.19319503 -0.17184468 -0.2613871
000240 cd 7f 9a 3e 51 46 a0 bd ec 4a 6c 3e 12 65 4d be
       0.3017563 -0.07825912 0.23075455 -0.20058087
000250 57 a1 72 3e ef 0c 6d 3d 9b 1b d7 bd 5e d7 75 bd
       0.23694359 0.057873663 -0.10503312 -0.060019843
000260 62 0f 8c 3e f9 cf 94 be 53 f8 63 3e 59 9d ec bd
       0.27355486 -0.2906492 0.22262697 -0.11553449
000270 6d f1 eb bd 0f 43 99 3e 28 42 a5 be ff fb 25 bd
       -0.11520658 0.29933974 -0.32277036 -0.040523525
000280 50 e9 d7 bd dd 23 4d 3e c8 a8 88 be 3e bf 12 be
       -0.10542548 0.20033212 -0.2669127 -0.14330766
000290 42 64 39 3e 8f 33 ca bd 19 dc b5 3d 46 d3 6f be
       0.18104652 -0.09873115 0.08879871 -0.23420438
0002a0 e7 ab 93 3e 01 5a 54 3e 40 4e 8c bc 65 67 89 be
       0.2884209 0.20737459 -0.017127156 -0.26836696
0002b0 b9 21 52 3d 22 b9 2c 3d 20 73 9d be 06 2d 98 be
       0.05130169 0.042168744 -0.30751896 -0.2972185
0002c0 b2 0e 84 3e dc f8 69 be b8 e4 5d 3e 50 26 98 be
       0.25792462 -0.22848839 0.2166928 -0.2971673
0002d0 1c 77 c0 3d 9c b6 7d bd a9 2f f5 bd b1 2b 18 3e
       0.09397718 -0.061941728 -0.11971981 0.14860417
0002e0 46 c2 8a 3e 7e 73 a8 3c 0f 2b 82 3d 09 bf 35 3e
       0.27101344 0.020562883 0.06355869 0.17748655
0002f0 a2 35 2a bc 9a 8b 0c 3e 99 1a 87 3c 60 04 35 be
       -0.010388764 0.13725129 0.016492175 -0.1767745
000300 57 3e c9 bd 81 6f 62 bd dc ed 99 be 49 46 0c 3e
       -0.098263435 -0.05528212 -0.30064285 0.13698687
000310 a8 6a d5 3d 0e f8 a1 3d f8 c9 1e 3e 68 d4 1d bd
       0.10420734 0.07908641 0.15506732 -0.038532645
000320 9f 99 2e be 81 d9 a5 be 68 16 af be 38 2a 95 3e
       -0.1705079 -0.32392505 -0.34196782 0.29133773
000330 19 9f fa bd 1b f4 23 3e 5a 93 25 3e 33 89 b3 3d
       -0.12237377 0.16011088 0.16169491 0.08766403
000340 15 1e b2 be 47 9c b5 3c a5 3e 25 be 45 0d 5f 3e
       -0.34788576 0.022169245 -0.16137178 0.21782406
000350 be d0 09 3d b2 ea 8b 3e 7a 6b 83 be 32 3e d5 bd
       0.033646338 0.27327496 -0.25667936 -0.104122534
000360 f5 15 42 3e 55 21 3a 3e 70 20 a7 3d 09 c7 a9 3c
       0.18953688 0.18176778 0.08160484 0.02072479
000370 49 cd c8 3d d3 af 41 be 8c 6e 21 be a2 7b 90 be
       0.0980478 -0.18914728 -0.15764827 -0.28219324
000380 0c bd 6b 3e cd e3 4e be a7 fc 1c 3d f0 2e 12 be
       0.23021334 -0.20204087 0.038326886 -0.14275718
000390 bc 0f 93 be 59 25 05 be ba 04 73 3e ef bb 77 be
       -0.28722942 -0.13002528 0.23732272 -0.24192785
0003a0 5c 4a ef bd 9a 1d cc 3c 77 60 b1 3d df d4 50 3e
       -0.11684105 0.024916459 0.08660977 0.20393704
0003b0 49 6d 34 3e ec f2 ee bd 59 93 83 3d 95 7c 5c 3e
       0.17619814 -0.116674274 0.06424589 0.215319
0003c0 ae d4 89 3e cd 24 74 be 59 5f 90 be c0 9d 01 3e
       0.26920074 -0.23842163 -0.28197744 0.12657833
0003d0 ba e7 7a be 7e 1d 5c 3d 8e 8d ab 3e d9 d9 07 bc
       -0.24502459 0.053739063 0.33506435 -0.008291685
0003e0 de f6 22 be 8f dc 95 3e 97 b0 85 be df 2e 54 3e
       -0.15914485 0.29269835 -0.2611129 0.20721005
0003f0 b7 5e b1 3d 89 3e 92 3e c0 2b 66 bd 30 de a1 3a
       0.086606435 0.28563336 -0.056194067 0.0012349542

embed_layer.0.bias f4 [64]
000000 92 57 0e 3e 3f 59 2e be 69 ee 2e 3e f7 b6 a3 be
       0.13900593 -0.17026232 0.17083134 -0.3197553
000010 82 1d 0a 3e ec 35 7b bc 10 b9 8c be f4 bd 85 3e
       0.13487819 -0.01533268 -0.2748494 0.26121485
000020 43 d2 4d be 9a b5 f1 3c f0 a4 ef bd ac 3c f8 bd
       -0.2009974 0.02950554 -0.11701381 -0.12120947
000030 c5 dd 99 be b0 4d 9c bd 51 4a 54 bd 19 47 79 bd
       -0.3005201 -0.07632005 -0.051828686 -0.06085882
000040 1d a0 ad 3e 42 96 6f 3e c9 4d a1 be ef e6 08 3e
       0.3391122 0.23397163 -0.31504658 0.13369344
000050 de bc d9 bd e1 13 8c be 2e d5 7e 3e 0f 49 aa 3e
       -0.10631727 -0.27358916 0.24886009 0.33258864
000060 ac c9 8c 3e 91 a8 87 3e 5e 25 ad 3e d2 46 79 3d
       0.27497613 0.26495793 0.3381757 0.060858555
000070 0d 93 3e 3e c8 b6 7e be 4a d8 02 be 28 86 38 bd
       0.18610783 -0.24874413 -0.1277782 -0.045049816
000080 31 51 72 3e 9f d1 fb bc 57 a4 46 3e 32 75 89 3e
       0.23663785 -0.030739604 0.19398628 0.26847225
000090 35 cc a6 be 73 fa a7 3e 81 19 45 bb a0 2c 5e bd
       -0.32577673 0.32808265 -0.0030075016 -0.054241776
0000a0 5c 71 b3 3e c1 3b cc bd 32 bd bb bd 8f 82 a6 be
       0.35047424 -0.09972335 -0.091669455 -0.32521483
0000b0 9a 4a ae be 46 7b 74 3a 45 e3 91 bd 1c a3 af bc
       -0.3404129 0.00093262305 -0.07123426 -0.021440081
0000c0 9d 3b ca bd 21 53 0d 3e b5 c1 1e be e2 15 30 bc
       -0.098746516 0.13801242 -0.15503581 -0.010747405
0000d0 4d 5e 9b be ce 0f 2d be 27 a8 00 be 0a 0f a1 3e
       -0.30345383 -0.1690056 -0.12564145 0.31456786
0000e0 5f c3 94 3e fd c7 9c 3e 49 13 b9 bc 20 10 43 be
       0.29055306 0.3062133 -0.022592204 -0.1904912
0000f0 ca 46 6d be d8 4b 3c be 94 ba a8 3e 7a 25 6c 3d
       -0.23171535 -0.18388307 0.32954848 0.057652928

embed_layer.1.weight f4 [64]
000000 b2 93 77 3f ef 38 77 3f 35 01 72 3f 37 ac 73 3f
       0.9670974 0.9657125 0.9453309 0.95184654
000010 40 b4 73 3f 56 1a 74 3f 33 cd 78 3f 2d 5e 73 3f
       0.95196915 0.95352685 0.9718811 0.95065576
000020 16 1d 75 3f f3 31 75 3f 55 d3 73 3f 3e 92 79 3f
       0.95747507 0.9577934 0.9524434 0.9748877
000030 06 c3 73 3f ff ff 79 3f 4c 28 76 3f 1c 50 76 3f
       0.9521946 0.97656244 0.9615524 0.9621599
000040 f8 b6 75 3f e4 b9 73 3f e7 79 71 3f dc 7e 71 3f
       0.95982313 0.9520552 0.94326633 0.943342
000050 10 89 77 3f 81 b8 73 3f 7d 48 77 3f 3f f0 73 3f
       0.96693516 0.95203406 0.96594983 0.9528846
000060 fb 4e 78 3f 2a 27 73 3f a8 0b 76 3f d6 5d 74 3f
       0.96995515 0.94981635 0.96111536 0.9545568
000070 35 66 74 3f 7b 61 74 3f 8e 8d 80 3f cf 96 73 3f
       0.95468456 0.95461243 1.0043199 0.9515199
000080 af 0b 72 3f e2 a4 75 3f 1d cc 75 3f de 0c 71 3f
       0.9454908 0.95954716 0.9601458 0.9416026
000090 9f 2b 72 3f f3 0a 72 3f 50 c3 74 3f 25 a6 76 3f
       0.9459781 0.9454796 0.95610523 0.96347266
0000a0 f6 7d 74 3f 57 01 79 3f c3 07 77 3f 17 92 78 3f
       0.955047 0.9726767 0.9649622 0.97097915
0000b0 a9 a2 77 3f 63 67 74 3f c2 10 75 3f 22 01 80 3f
       0.96732575 0.95470256 0.95728695 1.0000346
0000c0 87 25 74 3f 97 5e 78 3f 9f 97 78 3f 5f 94 75 3f
       0.9536976 0.9701933 0.97106355 0.9592952
0000d0 77 ce 75 3f 04 a9 72 3f 03 5a 71 3f 3d ed 76 3f
       0.96018165 0.9478915 0.9427797 0.96455747
0000e0 97 46 75 3f 78 b7 72 3f 24 64 73 3f f6 38 7a 3f
       0.95810837 0.948112 0.9507468 0.97743165
0000f0 49 8f 75 3f 1f b5 71 3f c1 33 75 3f 7f 64 72 3f
       0.9592176 0.94416994 0.95782095 0.94684595

embed_layer.1.bias f4 [64]
000000 bd 34 06 3d f1 e6 40 3c c3 cb d0 3c f2 e0 b1 3c
       0.03276514 0.011773811 0.025487786 0.021713708
000010 07 e5 3c 3c 65 54 ed bb 1a 87 c2 3c 0a d1 0d bd
       0.011529214 -0.0072427266 0.023746062 -0.034623183
000020 f5 6b ed 3a 55 8e ae bc e4 9f 46 3c 43 0a 31 3c
       0.0018113839 -0.021308104 0.012123082 0.010805669
000030 a3 d7 36 bc e8 fd 7c bc 8e 6c 02 bc 94 ce 40 3c
       -0.01115981 -0.015441395 -0.007960452 0.011768002
000040 e9 35 aa 3b 2d 10 18 3c 0e 86 e6 b8 2b e1 c0 3c
       0.005194415 0.0092812 -0.00010992224 0.023544868
000050 f9 53 2d bc f5 8a 58 3c 0e 8d 97 bc f3 94 f0 3c
       -0.010579103 0.013216724 -0.018499877 0.0293679
000060 96 1c 99 bb cc 02 f8 3c 5b a7 0a 3c e9 9a 74 bc
       -0.004672597 0.030274771 0.008462752 -0.014929512
000070 8e 06 5e bc c0 8c 66 bc dc 86 4a bd 5e 2e 1e 3d
       -0.013551367 -0.014071643 -0.04944502 0.038618438
000080 52 e9 67 3b a6 6a 87 bc d5 9f 87 bc 22 dc 9a bc
       0.0035386872 -0.016530346 -0.016555706 -0.018903796
000090 53 68 96 bc 8f 87 22 3d 96 27 ac 3c e4 1f d6 bb
       -0.018360293 0.03968006 0.02101497 -0.0065345634
0000a0 39 fb c7 3c c1 6b ce 3c 29 8b 14 bd 30 36 dc bc
       0.024411784 0.025197865 -0.036265526 -0.026881307
0000b0 91 aa b1 bb 22 11 e1 bc 75 de a9 3c 83 da e3 bc
       -0.0054219444 -0.02747399 0.020735959 -0.027814155
0000c0 ad fa d6 bc e1 0b 8d 3c 47 1f 0e bc a4 48 02 bd
       -0.026242578 0.017217578 -0.008674449 -0.031807557
0000d0 af 22 35 3c 92 02 53 3b 2c 2c 01 3b 64 96 7e bc
       0.0110556325 0.0032197577 0.0019710166 -0.015538786
0000e0 be 08 f3 bc b1 fb 09 3d 47 b9 ab 3a a1 18 b4 3b
       -0.029667255 0.033687297 0.0013101482 0.0054961
0000f0 7e dd 9a 3c 4b 0a a3 bc ed 9d 03 bd cb 01 9b 3c
       0.018904444 -0.019902369 -0.03213303 0.018921753

embed_layer.1.running_mean f4 [64]
000000 26 cf df 3d e8 2d 0a be 1a 9a 06 3e 49 3f 98 be
       0.10928182 -0.13494074 0.13144723 -0.29735783
000010 50 32 97 3d 2c f4 7d 3a 02 44 5f be b8 6e 80 3e
       0.07382643 0.00096875685 -0.21803287 0.25084472
000020 cb 4a 72 be 6a b9 b0 3b c5 ec 32 be 2c ea 82 bd
       -0.23661344 0.005393197 -0.17473133 -0.06392321
000030 c3 db 8e be 13 95 9f bd 23 28 db bc 0e 28 84 bc
       -0.2790204 -0.077921055 -0.026752537 -0.01613238
000040 a1 13 87 3e 60 1d 81 3e 29 d0 b1 be 82 b4 10 3e
       0.26382163 0.25217724 -0.34729126 0.14131358
000050 ed a0 98 bd ac 6d 7e be 23 37 7f 3e 90 39 94 3e
       -0.07452569 -0.24846524 0.24923377 0.28950167
000060 da 72 8d 3e 2f d6 92 3e df 0a ba 3e c6 27 84 3d
       0.27626687 0.28679034 0.3633642 0.06452899
000070 0a c1 6a 3e 33 de 96 be 17 34 02 be f6 85 a2 bd
       0.22925201 -0.294664 -0.12715183 -0.07935707
000080 ce 4f 1d 3e 4f 7e b6 bc 01 ca 4f 3e 84 0b 86 3e
       0.15362474 -0.022277026 0.20291902 0.2618066
000090 d5 37 bd be 53 09 b3 3e c2 77 bf bc 8b 14 a3 bd
       -0.3695666 0.3496805 -0.023372535 -0.07962903
0000a0 c6 a9 a7 3e 35 56 0b be 92 08 bc bd ce 34 a5 be
       0.32746714 -0.13607104 -0.09181322 -0.3226685
0000b0 e8 58 91 be 6e 58 05 3b 10 77 d4 bd 5e de b8 bc
       -0.28388143 0.0020346898 -0.10374272 -0.02256697
0000c0 07 3f 9b bd a4 d0 38 3e a4 27 3f be 04 0c 55 bc
       -0.07580381 0.1804834 -0.18667465 -0.013003353
0000d0 1f 06 a9 be d1 76 11 be bc f2 b4 bd 1b 1c b9 3e
       -0.33012483 -0.14205481 -0.088353604 0.36154255
0000e0 38 c3 95 3e a9 ec a2 3e 0c d8 11 bd 32 28 07 be
       0.29250503 0.31821182 -0.03560643 -0.13198927
0000f0 c8 39 8b be ce 7e c6 bd 60 95 ab 3e f7 ee b5 bc
       -0.2719252 -0.09692155 0.33512402 -0.022208674

embed_layer.1.running_var f4 [64]
000000 22 c2 dc 3d bc 60 20 3e 42 50 30 3e a9 50 c0 3d
       0.107792154 0.15661901 0.17218116 0.09390385
000010 87 63 c4 3e 26 d4 bb 3d 5a 59 b5 3e d4 f5 54 3d
       0.38357183 0.091713235 0.35419732 0.051992252
000020 86 51 2e 3e ae d8 a5 3d 23 9f ba 3e f0 2b b4 3e
       0.17023286 0.08097969 0.36449537 0.35189772
000030 6b 1b 80 3d f9 dd 14 3d 2e 30 ce 3d 54 a5 70 3e
       0.062552296 0.036344502 0.10067783 0.23500568
000040 c3 6e 14 3f dd d7 af 3d 6c 79 06 3e fb fc 45 3d
       0.5798151 0.085860945 0.13132256 0.048336964
000050 c8 7b ff 3d 78 2c 05 3e 42 c2 e8 3c 59 e2 4d 3e
       0.12474781 0.13005245 0.028412942 0.20105876
000060 eb 65 c6 3c ba 1b e3 3d 0e e7 d9 3d bf 1e 3d 3d
       0.02421852 0.11089273 0.10639773 0.0461719
000070 04 ca 5f 3e db eb 67 3e f3 c3 4a 3d df 3a 16 3e
       0.21854407 0.22648565 0.049503278 0.14670895
000080 aa fa 36 3f 16 9b 48 3d 04 1b 24 3d 17 99 30 3d
       0.71476233 0.048976026 0.040064827 0.043114748
000090 e7 52 61 3e 82 d4 9a 3d 5a 91 67 3d bd 12 ba 3d
       0.22004281 0.07560064 0.056535102 0.09085605
0000a0 50 d3 98 3d d5 68 1e 3e d1 48 18 3d bd a7 2e 3d
       0.0746218 0.15469678 0.037178818 0.042640436
0000b0 4d e5 aa 3e db cb 0e 3d d1 7c f4 3d 2d f5 3f 3d
       0.33378068 0.03486238 0.11937869 0.046864677
0000c0 18 f0 a2 3d 9c 50 5e 3e 99 67 ec 3d 21 c9 06 3d
       0.079559505 0.21710438 0.11543197 0.032906655
0000d0 91 e2 b1 3d a0 c3 d7 3d e8 52 1d 3e ab 53 87 3e
       0.08685792 0.105353594 0.15363657 0.2643102
0000e0 a7 bf 29 3d 47 09 70 3d 1d 79 85 3d 29 0b c7 3e
       0.04144254 0.058602598 0.06517241 0.38875702
0000f0 c6 95 33 3e 88 dc 44 3f a2 fe 43 3d 6d 91 26 3f
       0.17537603 0.76899004 0.04785026 0.6506565

embed_layer2.0.weight f4 [16, 64, 3, 1]
000000 c4 33 f4 3c ca 23 c6 3c dd 42 99 ba cf fd 66 3d
       0.02980984 0.024186987 -0.00116929 0.056394394
000010 96 94 f7 bc f0 f3 40 bd da ce 49 bc 50 35 fa 3b
       -0.030222218 -0.047107637 -0.012317384 0.00763575
000020 67 87 71 bd a9 76 52 3d 02 39 a2 3c d8 52 d5 bc
       -0.05896702 0.051382694 0.019802574 -0.02604048
000030 f0 01 a0 bd 08 d0 c5 3c 82 60 35 3c a0 89 02 3d
       -0.078128695 0.024147049 0.011070373 0.03186953
000040 a5 a6 ac 3a b4 e8 bf bc af d9 65 3d d7 ed 06 3d
       0.0013172223 -0.023426391 0.056115802 0.032941666
000050 51 9f 5d 3d 8e df a1 bc 0c 4b 1e bc e3 67 fd 3c
       0.054107014 -0.01975992 -0.009661447 0.030933326
000060 9d 78 f8 ba d9 2c 2b 3d 9b 5a 6e bb 9b d5 31 3d
       -0.0018956844 0.041790817 -0.0036369923 0.0434166
000070 70 ea 2e bd 3d 89 1e 3d 1f 3c 57 bd 02 fd c9 bb
       -0.042704046 0.0387051 -0.05254757 -0.006164194
000080 a7 15 1f bd 1a ea 32 bc 92 dd 55 3c 8b 2b 25 3d
       -0.03883901 -0.010920072 0.013053315 0.04032473
000090 7b 2f 85 bb 1c aa 47 3d 50 30 83 3d 9b 05 0d 3d
       -0.004064498 0.048746213 0.06405699 0.034429174
0000a0 c7 ea 63 bd b3 2d 50 bd 1b 5f aa bc 23 3a 65 3d
       -0.055643823 -0.050824832 -0.020797303 0.055963647
0000b0 5c 51 6c bd 85 86 84 3d 93 1a 48 bc e5 21 8b bc
       -0.057694778 0.0647097 -0.012213367 -0.016983936
0000c0 0e a9 a1 3b fc 2a 2a bd 68 0a c2 3c 73 be 89 3a
       0.004933483 -0.0415449 0.023686603 0.0010509029
0000d0 96 e2 ab 3c 3a ac 48 bd af 95 bc bc be 51 62 bd
       0.020982068 -0.048992373 -0.023020593 -0.055253737
0000e0 57 2f 74 3d 31 9b ac bc 61 dd 78 bd 54 c6 64 bb
       0.05961546 -0.021070095 -0.060758 -0.0034908252
0000f0 2c d9 a7 bc e8 7c 59 bd c3 79 ff bc 6f 60 3f 3d
       -0.020489298 -0.053097636 -0.03118599 0.046722826
000100 aa 20 36 3d ef 48 07 3d f4 12 57 3d d4 53 72 3c
       0.044464745 0.03302854 0.05250831 0.014790494
000110 86 fc 09 3d 2b c8 56 bd fe 29 c3 bc be 9c 1d 3c
       0.03368809 -0.05243699 -0.023823734 0.00961989
000120 7a 5a 2a bb 81 79 1f bd 8b 13 c9 bc 35 20 80 3d
       -0.002599387 -0.038934235 -0.024545452 0.06256143
000130 17 62 3d 3d 06 4f c8 3b fd f1 18 3b 01 b3 cf bc
       0.046236124 0.006112936 0.0023337596 -0.02535391
000140 44 55 08 bb c8 cd 09 bd 39 3e 1b 3d c6 b5 82 3c
       -0.0020802775 -0.033643514 0.037901137 0.015955817
000150 18 c0 99 3c c0 ed d5 3c e9 e1 bc 3c 68 34 39 bd
       0.018768355 0.026114345 0.023056941 -0.045215994
000160 62 fe 5e bd 16 90 81 bc d1 d8 fa bb b3 91 a8 bc
       -0.054441817 -0.015815776 -0.007655241 -0.020577287
000170 20 78 54 3d 02 8f 5e bd 3e 00 0e bc 52 06 08 ba
       0.051872373 -0.0543356 -0.00866705 -0.000518893
000180 96 36 80 b8 bc b8 53 bd e2 39 33 bd 61 93 b3 3b
       -6.113683e-05 -0.05168985 -0.043756373 0.0054802154
000190 38 91 79 bd 86 d7 05 3d b8 8f d1 bc 94 65 30 bb
       -0.060929507 0.032676242 -0.025581226 -0.0026916014
0001a0 e9 2c 12 bd 90 f8 7e 3c 02 df c4 3c 86 d0 21 bc
       -0.03568736 0.015562192 0.02403212 -0.009876376
0001b0 ec 1a 46 bc f6 e0 fb 3c 54 e7 36 3c 90 15 91 3d
       -0.01209138 0.030746918 0.011163551 0.07084191
0001c0 c3 84 12 3d 54 49 e1 3c 11 2b ff bc 6e 68 16 bd
       0.035771143 0.027500786 -0.031148465 -0.036720686
0001d0 1e 16 91 3c b6 30 0d 3c ad 76 1d 3d a2 f9 4f 3c
       0.017710742 0.008617571 0.038443256 0.012693794
0001e0 48 44 5a bd df 8f fd 3b f9 34 2d bd ec 28 0b bd
       -0.053287774 0.007738098 -0.042286847 -0.033974573
0001f0 f4 8a 94 bd 92 54 31 bd c3 db e9 bc 4f db 16 3d
       -0.07253066 -0.043293543 -0.028547173 0.036830243
000200 0d 25 1a 3c 8e a9 d3 3c c2 67 d8 bb 98 fc 0d bd
       0.009408248 0.025837686 -0.006604166 -0.03466472
000210 1b e1 2c 3d eb dc 94 bc 9a a0 53 3d 75 b4 21 3d
       0.042206865 -0.018171748 0.051666833 0.039478738
000220 d4 5a 0d bc cb dc ff 3c de 7b 8f bd d1 25 8c bc
       -0.008627612 0.031233212 -0.07006048 -0.017107876
000230 90 99 62 bd fa 20 04 bd af 10 af bc d8 2b 26 3c
       -0.05532223 -0.03225801 -0.02137026 0.010142289
000240 b7 85 38 3d 68 a9 58 3c d2 66 b8 3c 5c 35 9c 3d
       0.045049395 0.013223983 0.022509966 0.07627365
000250 c8 0d bc 3b c6 90 00 bd df 80 2d 3d 67 74 1a bc
       0.0057389475 -0.031388067 0.04235923 -0.009427167
000260 55 c7 19 3d 25 28 86 bd c7 79 8c 3c 88 75 51 3c
       0.037543613 -0.06550626 0.017147912 0.012784369
000270 8d 43 19 bd 66 ed 25 3d e4 5f 11 3d 1b 0e 0b 3d
       -0.037417937 0.040509604 0.03549184 0.033949
000280 22 91 fb 3c c8 6d 58 3b c0 2e 3b 3d ab 90 49 3c
       0.030708853 0.003302442 0.04569888 0.012302558
000290 8c 13 aa bc 15 a6 5d bb 12 ca 9e bc db 9a b2 3b
       -0.020761274 -0.0033820916 -0.019383464 0.005450589
0002a0 20 5e 43 bd cd b2 25 bd e4 c0 1c 3b 05 9b 3b 3d
       -0.047697186 -0.04045372 0.0023918683 0.045802135
0002b0 61 7b b4 3c ab e7 69 bd 5c 82 a4 bd 6f 80 6c bd
       0.022031488 -0.0571057 -0.080326766 -0.05773967
0002c0 97 1e 60 3b 2a bc f0 3c 51 90 bd 3c 99 20 9f 3c
       0.003419792 0.029386599 0.023140104 0.019424723
0002d0 e7 9d 5b 3c af 1c 87 bd c0 3e 34 3d fb a2 8b 3c
       0.013404346 -0.06597268 0.044005156 0.017045489
0002e0 9d 44 5d 3b 27 97 22 3d 00 1e 38 bd 8d 18 fe 3c
       0.003376282 0.03969493 -0.044950485 0.031017566
0002f0 0e 00 04 3d 50 f8 a3 3c 8e 9b 39 3c 99 c7 a7 3c
       0.032226615 0.020015866 0.011328591 0.020480918
000300 db c1 3a 3d 72 77 91 3b e7 31 3b bd b4 d8 53 bd
       0.04559503 0.004439288 -0.045701887 -0.051720336
000310 58 8d 31 3d be 97 45 bd 3d 71 84 bc 1a b2 58 3c
       0.043347687 -0.048240416 -0.016167277 0.0132260565
000320 a9 89 22 3d 2e c9 50 bd 90 24 04 bd a1 1e 04 bd
       0.039682064 -0.05097311 -0.03226143 -0.032255773
000330 ac c5 5d 3d 84 32 7e bd 0a 6d 1f 3c 0e c7 b3 bd
       0.054143593 -0.062059894 0.009730587 -0.08778201
000340 31 b8 51 3c 43 af 93 bd 89 9c 38 bd 21 1c 44 bd
       0.012800262 -0.07211163 -0.04507116 -0.04787839
000350 f9 70 43 3c dd 78 55 bd 29 53 a5 3c fb b6 32 3d
       0.01192879 -0.052117217 0.020181255 0.043631535
000360 ae 73 c5 bc 31 12 37 bd 10 f4 38 3d bf e2 a4 bc
       -0.024103012 -0.044695083 0.04515463 -0.020127652
000370 6d 1c 0a 3d 6f 95 0c bd d0 ed 54 3c 1d 36 1f bc
       0.033718515 -0.0343222 0.012996152 -0.009717491
000380 6a a9 47 bd 85 fc 1e 3d e4 59 eb ba ea 24 15 bd
       -0.04874555 0.03881504 -0.0017955867 -0.036412157
000390 03 f2 e9 3c 42 69 1f bc c3 e4 68 bb ab 37 0a 3d
       0.028557783 -0.009729685 -0.0035536743 0.033744495
0003a0 8b 44 27 bc 0c 9b a1 bc 97 29 00 bd c2 59 4f bd
       -0.010209213 -0.019727252 -0.031289663 -0.05062271
0003b0 0f 37 61 bd d8 d4 23 bd 40 9b 1c 3b 8e 21 f7 bc
       -0.05498415 -0.039997905 0.0023896247 -0.030167367
0003c0 1f 85 42 3d f9 95 3a 3d db e9 76 bd e2 19 1b 3b
       0.047490235 0.04555318 -0.060281616 0.002366655
0003d0 08 65 90 3c b9 1a 47 3c 67 59 02 bd 5b fa dc 3c
       0.0176263 0.012152367 -0.031823542 0.026974848
0003e0 7a ff 84 bd 80 b3 18 3d d2 75 49 bd f4 b0 6f bc
       -0.06494041 0.03728056 -0.049184628 -0.014629591
0003f0 45 ce c2 ba 74 91 37 bd f3 a6 bf bc 17 8d 84 bd
       -0.0014862499 -0.04481645 -0.023395037 -0.06472223

embed_layer2.0.bias f4 [16]
000000 f1 56 6a bc bb fb ec 3c 9c a2 f0 3c f7 51 f2 bc
       -0.014302955 0.028928628 0.029374413 -0.0295801
000010 5c cd 11 bd 21 01 8f bd 95 e8 59 ba ff d4 86 3d
       -0.035596237 -0.06982637 -0.00083125505 0.065835945
000020 1d 6e 1c 3d ca 52 06 3d 70 b8 84 3d c9 ed 57 3d
       0.03819095 0.032793798 0.06480491 0.052717004
000030 12 b0 b4 bc 5b 88 75 3c 5b f6 5e 3d ae 46 6c bc
       -0.022056613 0.014986123 0.05443416 -0.014421148

embed_layer2.1.weight f4 [16]
000000 74 de 78 3f cc 64 7e 3f ac cb 81 3f 80 a6 75 3f
       0.97214437 0.99372554 1.0140281 0.95957184
000010 49 d7 75 3f 35 17 7c 3f 2a c5 84 3f d4 a0 73 3f
       0.96031624 0.9847291 1.037267 0.9516728
000020 3c d3 7a 3f 3f 6a 7e 3f 77 4c 7c 3f 6f 32 7e 3f
       0.9797857 0.9938087 0.98554176 0.99295706
000030 cf 2a 78 3f db 18 73 3f 0e 2f 7a 3f e0 6d 77 3f
       0.9694032 0.949598 0.9772805 0.9665203

embed_layer2.1.bias f4 [16]
000000 1e 7c c3 3c a6 25 b5 3b f6 0a 14 3c 31 86 a6 bb
       0.023862895 0.0055281697 0.009035816 -0.005081915
000010 d1 fe b7 ba 76 7c 36 3c 65 78 f4 3c e2 d7 0a bd
       -0.0014037733 0.011138072 0.029842565 -0.03389729
000020 41 3a 1b 3c 02 5a 99 3c 3a 82 f7 3a 55 1b 87 3c
       0.009474338 0.018719677 0.0018883415 0.016492525
000030 51 ae be bb b0 89 2a bd b4 e4 a1 3b 7f 16 a6 3b
       -0.00581912 -0.041635215 0.0049405936 0.0050685997

embed_layer2.1.running_mean f4 [16]
000000 3b ad d3 3d 03 8d e6 be 8d 72 b4 be d5 1c d1 be
       0.103357755 -0.45029458 -0.35243645 -0.4084231
000010 cd 28 d5 be 71 3d 37 3d 8e 88 90 bd 0d 6a a7 be
       -0.4163269 0.04473633 -0.07057296 -0.32698098
000020 c1 ce 53 be 38 c8 06 3f 47 25 bc 3e b3 cc 88 3e
       -0.20684339 0.5264926 0.3674719 0.26718673
000030 40 00 56 3e fd be ff bd e7 f0 2c be 82 3d b0 3e
       0.20898533 -0.124876 -0.16888772 0.34421927

embed_layer2.1.running_var f4 [16]
000000 bf 53 0e 3e 55 8b 78 3e 3a 0d 8a 3e 11 1f 43 3e
       0.13899134 0.24271901 0.26963216 0.1905482
000010 2c a7 27 3e b5 58 13 3e 4c 33 24 3e d5 9b be 3d
       0.16372365 0.14389308 0.16035193 0.09307066
000020 25 8b 36 3e f2 de 26 3e 8f d9 d3 3d bf f3 c9 3d
       0.17826517 0.16295984 0.103442304 0.09860944
000030 00 7e 3a 3e 93 1a ba 3d 7a a3 0b 3e fd 7f 3f 3e
       0.18212128 0.090871 0.1363658 0.18701167

Fix_Position.pe f4 [1, 50, 16]
000000 00 00 00 00 00 00 80 3f 00 00 00 00 00 00 80 3f
       0.0 1.0 0.0 1.0
000010 00 00 00 00 00 00 80 3f 00 00 00 00 00 00 80 3f
       0.0 1.0 0.0 1.0
000020 00 00 00 00 00 00 80 3f 00 00 00 00 00 00 80 3f
       0.0 1.0 0.0 1.0
000030 00 00 00 00 00 00 80 3f 00 00 00 00 00 00 80 3f
       0.0 1.0 0.0 1.0
000040 de 0e a1 3e 18 01 73 3f b7 e3 ce 3d be b0 7e 3f
       0.31456655 0.94923544 0.10102027 0.9948844
000050 b4 0c 03 3d 73 de 7f 3f a5 ca 25 3c a5 fc 7f 3f
       0.031994537 0.99948806 0.010119115 0.9999488
000060 00 b7 51 3b aa ff 7f 3f af a2 84 3a f8 ff 7f 3f
       0.0031999946 0.9999949 0.0010119284 0.9999995
000070 ab c5 a7 39 ff ff 7f 3f 86 37 d4 38 00 00 80 3f
       0.00031999996 0.99999994 0.0001011929 1.0
000080 cd e1 18 3f 26 56 4d 3f c6 d4 4d 3e 66 c6 7a 3f
       0.59719545 0.8020958 0.20100698 0.9795898
000090 87 fb 82 3d d4 79 7f 3f 78 c8 a5 3c 94 f2 7f 3f
       0.06395631 0.9979527 0.020237193 0.9997952
0000a0 b9 b6 d1 3b a8 fe 7f 3f aa a2 04 3b de ff 7f 3f
       0.006399956 0.9999795 0.0020238557 0.999998
0000b0 aa c5 27 3a fd ff 7f 3f 86 37 54 39 00 00 80 3f
       0.00063999987 0.9999998 0.0002023858 1.0
0000c0 8a b6 51 3f 35 d2 12 3f 49 0e 99 3e 39 4b 74 3f
       0.8191916 0.57352 0.2989371 0.9542728
0000d0 5f 4e c4 3d 3e d2 7e 3f 47 a7 f8 3c ce e1 7f 3f
       0.095852606 0.99539554 0.030353202 0.99953926
0000e0 b3 48 1d 3c fb fc 7f 3f f3 f3 46 3b b3 ff 7f 3f
       0.009599852 0.9999539 0.0030357807 0.9999954
0000f0 7e a8 7b 3a f8 ff 7f 3f a5 29 9f 39 ff ff 7f 3f
       0.00095999974 0.9999995 0.0003035787 0.99999994
000100 87 40 75 3f 57 cc 92 3e 4e a1 c9 3e 31 50 6b 3f
       0.95801586 0.28671524 0.39380878 0.9191924
000110 e1 b6 02 3e dd e7 7d 3f c7 bf 25 3d 52 ca 7f 3f
       0.12765075 0.9918192 0.040466096 0.9991809
000120 a0 b5 51 3c a2 fa 7f 3f 98 a2 84 3b 77 ff 7f 3f
       0.01279965 0.9999181 0.004047703 0.99999183
000130 a8 c5 a7 3a f2 ff 7f 3f 86 37 d4 39 ff ff 7f 3f
       0.0012799995 0.99999917 0.0004047716 0.99999994
000140 0e e4 7f 3f a3 33 ef bc 35 24 f8 3e d4 ec 5f 3f
       0.9995736 -0.029199427 0.48465124 0.87470746
000150 4f 24 23 3e ed ba 7c 3f 93 27 4f 3d 22 ac 7f 3f
       0.1593182 0.98722726 0.05057485 0.9987203
000160 00 11 83 3c 9d f7 7f 3f 2e cb a5 3b 29 ff 7f 3f
       0.015999317 0.999872 0.0050596213 0.9999872
000170 11 b7 d1 3a eb ff 7f 3f b4 a2 04 3a fe ff 7f 3f
       0.0015999993 0.99999875 0.0005059645 0.9999999
000180 9b 8c 70 3f 3c 2e af be 97 0e 12 3f f6 3e 52 3f
       0.93964547 -0.34214962 0.5705351 0.8212732
000190 fa 66 43 3e bf 4b 7b 3f f2 89 78 3d 3e 87 7f 3f
       0.19082251 0.98162454 0.06067843 0.9981574
0001a0 d8 46 9d 3c ec f3 7f 3f b7 f3 c6 3b cb fe 7f 3f
       0.01919882 0.9998157 0.0060715335 0.9999816
0001b0 77 a8 fb 3a e1 ff 7f 3f a4 29 1f 3a fd ff 7f 3f
       0.0019199987 0.99999815 0.00060715736 0.9999998
0001c0 ee c8 48 3f 05 d0 1e bf 86 8c 26 3f 6a 6a 42 3f
       0.78431594 -0.6203616 0.6505817 0.75943625
0001d0 6c 76 63 3e b2 9a 79 3f e6 f2 90 3d a7 5b 7f 3f
       0.22213143 0.9750167 0.07077579 0.99749225
0001e0 46 7c b7 3c 8f ef 7f 3f 35 1c e8 3b 5b fe 7f 3f
       0.022398125 0.9997491 0.0070834407 0.9999749
0001f0 ee cc 12 3b d6 ff 7f 3f 94 b0 39 3a fc ff 7f 3f
       0.002239998 0.9999975 0.0007083502 0.99999976
000200 90 a2 0c 3f 25 e9 55 bf 3b 56 39 3f a7 98 30 3f
       0.5493555 -0.83558875 0.723972 0.6898293
000210 20 a5 81 3e 38 a8 77 3f 06 9d a5 3d 5e 29 7f 3f
       0.25321293 0.96741056 0.080865905 0.99672496
000220 3a b1 d1 3c 87 ea 7f 3f 51 a2 04 3c da fd 7f 3f
       0.025597204 0.99967235 0.00809534 0.9999672
000230 9f c5 27 3b c9 ff 7f 3f 84 37 54 3a fb ff 7f 3f
       0.002559997 0.9999967 0.00080954307 0.9999997
000240 c5 69 84 3e 6b 4a 77 bf 81 3a 4a 3f 5b f8 1c 3f
       0.25861946 -0.9659793 0.7899552 0.6131646
000250 0e 6d 91 3e d3 74 75 3f cf 42 ba 3d 66 f0 7e 3f
       0.28403515 0.95881385 0.09094774 0.9958557
000260 a0 e5 eb 3c d3 e4 7f 3f 7f 36 15 3c 48 fd 7f 3f
       0.028796017 0.99958533 0.009107231 0.9999585
000270 50 be 3c 3b bb ff 7f 3f 75 be 6e 3a f9 ff 7f 3f
       0.0028799959 0.9999959 0.000910736 0.9999996
000280 87 19 6f bd 3f 90 7f bf 19 0d 59 3f ea bc 07 3f
       -0.058373954 -0.9982948 0.8478561 0.53022635
000290 dd 0e a1 3e 18 01 73 3f b5 e3 ce 3d be b0 7e 3f
       0.31456652 0.94923544 0.101020254 0.9948844
0002a0 b4 0c 03 3d 73 de 7f 3f a3 ca 25 3c a5 fc 7f 3f
       0.031994537 0.99948806 0.010119113 0.9999488
0002b0 00 b7 51 3b aa ff 7f 3f b3 a2 84 3a f8 ff 7f 3f
       0.0031999946 0.9999949 0.0010119289 0.9999995
0002c0 5d 27 bd be 9b e3 6d bf 32 a7 65 3f e5 3b e2 3e
       -0.36944094 -0.92925423 0.89708245 0.4418632
0002d0 75 86 b0 3e aa 4d 70 3f 31 7f e3 3d 69 6a 7e 3f
       0.34477583 0.93868506 0.11108244 0.9938112
0002e0 41 26 10 3d 67 d7 7f 3f bb 5e 36 3c f1 fb 7f 3f
       0.03519273 0.9993805 0.011130984 0.9999381
0002f0 ac af 66 3b 98 ff 7f 3f 2a e6 91 3a f6 ff 7f 3f
       0.0035199923 0.9999938 0.0011131216 0.9999994
000300 90 9b 24 bf e1 0f 44 bf c8 e7 6f 3f 6c ad b2 3e
       -0.6429987 -0.7658673 0.93713045 0.34897935
000310 c8 cf bf 3e 3f 5b 6d 3f b5 14 f8 3d 69 1d 7e 3f
       0.37463212 0.92717355 0.121133246 0.99263626
000320 6c 3f 1d 3d b0 cf 7f 3f c7 f2 46 3c 2b fb 7f 3f
       0.038390562 0.9992628 0.012142844 0.99992627
000330 58 a8 7b 3b 84 ff 7f 3f a2 29 9f 3a f4 ff 7f 3f
       0.0038399901 0.9999926 0.0012143145 0.9999993
000340 0c ed 59 bf 37 54 06 bf 01 b4 77 3f f0 4a 81 3e
       -0.8512733 -0.5247225 0.9675904 0.25252485
000350 d4 e6 ce 3e 9c 2a 6a 3f dc 51 06 3e bf c9 7d 3f
       0.40410483 0.91471267 0.13117164 0.99135965
000360 2d 58 2a 3d 4d c7 7f 3f c6 86 57 3c 54 fa 7f 3f
       0.041587997 0.99913484 0.013154691 0.99991345
000370 81 50 88 3b 6f ff 7f 3f 1a 6d ac 3a f2 ff 7f 3f
       0.0041599874 0.99999136 0.0013155073 0.99999917
000380 54 1e 79 bf 88 d4 6b be 72 f7 7c 3f a7 2b 1d 3e
       -0.973119 -0.23030293 0.9881507 0.15348683
000390 a3 c7 dd 3e 99 bc 66 3f d8 95 10 3e 6f 6f 7d 3f
       0.43316373 0.9013153 0.14119661 0.9899816
0003a0 7e 70 37 3d 3e be 7f 3f b7 1a 68 3c 6c f9 7f 3f
       0.044785015 0.9989966 0.014166526 0.9998996
0003b0 d6 cc 92 3b 58 ff 7f 3f 91 b0 b9 3a ef ff 7f 3f
       0.0044799848 0.99999 0.0014167001 0.999999
0003c0 a5 04 7f bf 85 32 b3 3d 50 a4 7f 3f 15 97 58 3d
       -0.9961646 0.0874987 0.99860096 0.052878458
0003d0 51 6e ec 3e 1a 12 63 3f 0a d6 1a 3e 79 0e 7d 3f
       0.46177915 0.88699496 0.15120712 0.9885021
0003e0 52 88 44 3d 84 b4 7f 3f 98 ae 78 3c 73 f8 7f 3f
       0.047981568 0.9988482 0.015178345 0.9998848
0003f0 28 49 9d 3b 3f ff 7f 3f 09 f4 c6 3a ed ff 7f 3f
       0.0047999807 0.9999885 0.0015178929 0.99999887

attention_layer.key.weight f4 [16, 16]
000000 ab 73 3e 3e f5 bb 9d 3d e7 d1 98 3d 35 2a 00 be
       0.18598811 0.077018656 0.07461911 -0.125161
000010 25 02 9d bc 33 a3 b2 3d 8e 91 94 3d 07 f0 84 bc
       -0.019166062 0.08722534 0.07254325 -0.016227735
000020 b9 ae 69 bd b1 88 a8 bc b7 24 9b bc 6b 49 a2 3c
       -0.057051394 -0.020572992 -0.018938405 0.019810399
000030 6e ac 4c bb e5 45 19 be 30 5a 24 bd d9 78 1f 3e
       -0.0031230706 -0.14968069 -0.040125072 0.15573443
000040 41 05 ac 3d 52 8c 36 3e 60 02 f2 3d 43 2f 56 3d
       0.083994396 0.17826965 0.11816859 0.052291166
000050 39 b9 c6 bd 3b 7a b8 bd 65 64 3b 3a 0d 0b 1f be
       -0.09703297 -0.090076886 0.0007148444 -0.1553156
000060 f5 97 8d bd ba 60 0b bd 9b f7 38 3e 87 65 12 3d
       -0.06913749 -0.034027793 0.18063204 0.035741355
000070 a7 13 3b 3e 50 2f 68 bd 3c d6 23 3e 82 96 47 bd
       0.18269216 -0.056685746 0.15999693 -0.04872752
000080 f3 25 ec bd bb 17 31 be 84 1f 3a bd f1 ab 53 3d
       -0.11530676 -0.17294209 -0.045440212 0.051677648
000090 8a e2 39 be 2f 5a 07 bc 16 71 85 3d 51 dd b5 bd
       -0.18152824 -0.008261248 0.0651571 -0.088801034
0000a0 e6 89 c5 3c e4 9e 3b 3e a7 4e 84 bd c8 83 48 3a
       0.024113607 0.1832233 -0.06460314 0.00076490315
0000b0 5a 02 31 3e 83 29 7a 3d ce 8f a3 bd 34 ee 09 bd
       0.17286053 0.061074745 -0.07986413 -0.033674434
0000c0 71 23 8d 3d e3 ed 01 3e c4 e6 88 3d f1 f5 2b be
       0.068915255 0.12688403 0.0668464 -0.16793038
0000d0 12 66 ae 3d ee 3f a1 bd 64 ed e0 bd 92 34 04 3e
       0.08515562 -0.07873522 -0.10982779 0.12910679
0000e0 2a 90 a3 39 d8 9c 14 be d9 66 61 be ba 43 d7 bd
       0.00031197193 -0.14512956 -0.2201189 -0.10510965
0000f0 91 1e d2 3d 4e 5c 23 be 31 64 a0 3d 20 43 3d 3e
       0.10259736 -0.1595318 0.0783161 0.18482637
000100 fb b9 2d be aa 89 2b 3b 5d 96 78 bc 03 39 a5 3d
       -0.16965477 0.0026174583 -0.015172568 0.08067515
000110 8b eb ce 3b 68 be 1b 3e b2 d8 d7 bd 8a 3c f9 3d
       0.0063147 0.15209353 -0.10539378 0.1216975
000120 97 53 40 3e df e9 10 be 74 a4 fb bc 4a 1d 9f bd
       0.18781887 -0.14151715 -0.030718066 -0.07769258
000130 69 7b 8f 3d a7 d6 aa 3d 29 68 28 be 21 9e 80 3d
       0.070059605 0.08341723 -0.16445984 0.06280161
000140 84 ac d1 3c 5a 69 c9 3c 06 ea 78 bd 6d 3e 1a 3c
       0.025594957 0.024586368 -0.060770057 0.0094142975
000150 49 43 22 3d 2b 97 ff 3c 79 f5 29 be 07 6b 32 3e
       0.03961495 0.031200012 -0.16597547 0.1742364
000160 93 66 87 3c cc 54 33 be 90 59 04 3e 1d 93 f7 3b
       0.016528403 -0.17512816 0.1292479 0.007555379
000170 5a dc 00 3e c7 85 29 3d 94 02 1a 3e 87 db 19 3d
       0.12584057 0.041387346 0.15040046 0.037562873
000180 d5 f3 1c 3c b2 41 9d bd de ed 86 3d 8f 23 24 3d
       0.009579618 -0.07678546 0.06588338 0.040072974
000190 db 11 17 3b e5 4a 37 be 1a 62 11 be 1d 0c 24 be
       0.0023051414 -0.17899664 -0.14197579 -0.16020246
0001a0 4a 41 6a ba 9b d6 0e 3b a7 97 21 3e 11 b2 a0 bc
       -0.00089361204 0.0021795395 0.15780507 -0.019616159
0001b0 1e bc 00 bd e7 3f ec 3b 15 74 01 ba cf 01 3b 3e
       -0.031429403 0.007209766 -0.0004938257 0.18262409
0001c0 4e c2 2a 3e 3f fe aa bb 5f 31 96 ba 6c 6e b9 bc
       0.16675684 -0.005218297 -0.0011458806 -0.022635661
0001d0 63 6b 2d 3e 82 21 a2 3d 8e 7d a4 b9 7a 68 00 be
       0.16935496 0.07916547 -0.00031374063 -0.12539855
0001e0 5f 6c a3 bd ba 6c 8c 3d af c6 a7 bd 67 a8 0e be
       -0.079796545 0.068566754 -0.08192193 -0.13931428
0001f0 6d b6 cd 3d 65 36 e8 3d 7c fd 26 be d4 59 0e bd
       0.100445606 0.113385 -0.16307634 -0.034753636
000200 2d 69 5d 3d 2f a2 e5 bb 1e 02 fc bd 2a bf 36 be
       0.05405538 -0.007007859 -0.12305091 -0.17846361
000210 2d ca d2 bd eb a6 82 bd 8e ac dc 3d de df e4 bd
       -0.10292468 -0.06379493 0.107751 -0.11175512
000220 b0 61 da 3b 60 59 1d be e6 b3 40 3c d0 7d d9 bd
       0.0066644773 -0.15366125 0.011761641 -0.106197
000230 b9 56 b0 bc 2f 37 52 3d f5 6a 17 bd fe 0c 14 be
       -0.021525728 0.05132216 -0.036967237 -0.14458081
000240 98 79 6a bd 15 ca a8 bb ff 8c a3 3c 33 68 60 3d
       -0.057244867 -0.005151043 0.019964693 0.054786872
000250 c9 a7 06 3e 52 95 32 3e 61 96 fd bd a1 f1 06 3e
       0.13149942 0.17439774 -0.12382198 0.13178112
000260 fb 96 94 3d 26 2c e9 3d fb 07 07 be ed 5f 28 3e
       0.0725536 0.11385374 -0.13186638 0.16442843
000270 7a 87 97 bd f8 84 27 3d 81 61 0d 3c 1d a9 ca bd
       -0.07398887 0.040898293 0.008629204 -0.09895537
000280 a6 ba af bd a3 40 1e 3e e6 45 6b bd 42 e4 c4 3d
       -0.08580522 0.15454344 -0.057439707 0.09613849
000290 b8 cc 89 3c aa 83 14 3c 6a b6 8f bd 55 88 18 be
       0.01682125 0.009064594 -0.070172146 -0.14895757
0002a0 7f 49 c0 3b 71 b1 4f 3c 9e dc 94 3d a2 7d 25 be
       0.0058681364 0.012676583 0.07268642 -0.16161206
0002b0 b4 eb e7 3d f5 6b a9 3d c0 6f e2 3c e4 b9 20 3e
       0.11324254 0.08272544 0.027641177 0.15695912
0002c0 85 71 1f 3b cb 48 62 3c 19 8a e0 3d 8f 55 2b bd
       0.0024329138 0.0138113005 0.1096384 -0.041829642
0002d0 ef f3 c2 bd 31 09 c2 bd 6e 34 e3 bd 2e 37 8e 3d
       -0.09519183 -0.09474409 -0.110939845 0.069441184
0002e0 3d 17 f3 3d 98 05 0d bb 83 1a 0e 3e 63 17 46 bc
       0.11869667 -0.0021518227 0.13877301 -0.012090537
0002f0 d9 f1 ce 3d 18 e8 86 3a f9 2a ce 3d d6 e1 0d be
       0.101047225 0.0010292558 0.1006679 -0.13855681
000300 12 81 2f 3d 2c 71 0b 3e 07 e2 52 bc 1b 16 e9 3c
       0.0428477 0.1361739 -0.012871272 0.028452924
000310 d6 56 8c 3d 75 ca 9b bb 5c ef 1a be 6f ae 06 3d
       0.068525 -0.0047543594 -0.15130371 0.032881197
000320 a0 0f 0f be 04 ba 12 be 8e 8d dd bd 30 29 e4 3d
       -0.13970804 -0.14328772 -0.10818015 0.111406684
000330 92 a0 a8 bc 6e 0b 13 be 56 4e 1c 3e c9 15 1b 3e
       -0.020584378 -0.14359829 0.15264258 0.15145029
000340 2c 23 3a 3e a8 a0 19 3d a0 f5 bb 3b 65 ab 6b bd
       0.1817748 0.03750673 0.005736068 -0.0575365
000350 c7 ee 3b 3e dd cc 17 3b 3d 7f 06 be c7 e1 a3 3a
       0.18352805 0.002316288 -0.13134475 0.00125032
000360 a0 98 16 be c3 43 86 3d 3a cd a0 3c 41 ad 07 bc
       -0.1470666 0.06555893 0.01962911 -0.008281053
000370 77 87 0a 3d df 9c 39 3d 65 08 29 3e 66 ea 9c bc
       0.033820596 0.04531562 0.16507109 -0.019154739
000380 9a 0a cc 3c c3 d1 53 3d c2 fa 08 be f9 b6 b5 3a
       0.024907399 0.051713716 -0.13376907 0.0013863734
000390 e3 5f 26 be fc d4 08 be 2e 4e 9f bb 61 77 0d be
       -0.16247515 -0.13362497 -0.0048616147 -0.1381507
0003a0 12 e8 93 3c 38 39 b2 bd 0a b9 b2 3b b8 0a 66 bc
       0.018054996 -0.0870232 0.0054541873 -0.0140406415
0003b0 06 8c f9 3d e2 c4 36 bd ec 86 45 3d 88 6c c8 3d
       0.121849105 -0.044621356 0.048224375 0.09786326
0003c0 b8 d0 9c 3d 1f dd f0 3c 23 36 04 b9 14 69 98 3d
       0.076569974 0.029402314 -0.00012608668 0.07441917
0003d0 4d 09 a1 3d 55 a9 dc bd 04 4a 05 be 77 15 d7 3b
       0.07863102 -0.10774485 -0.13016516 0.006563838
0003e0 d4 85 dd bd a1 26 24 3e af 85 dd bc 73 d7 16 3c
       -0.10816541 0.16030361 -0.027041284 0.0092066405
0003f0 bb 61 55 3d 1a 77 ca 3d 0c 83 f3 bd 2c 54 3a bc
       0.052095156 0.09885998 -0.118902296 -0.011372607

attention_layer.value.weight f4 [16, 16]
000000 1c 5c 26 be ef c7 5b 3e d9 66 c7 bc c9 a5 34 be
       -0.16246074 0.21462987 -0.024341034 -0.17641367
000010 37 03 23 be 43 5b e7 bd 5b 72 6f 3e b1 64 fb bd
       -0.15919195 -0.11296704 0.23383467 -0.12275065
000020 ba 51 13 3d 4b e8 36 3c c1 02 4c 3d 61 a7 83 3e
       0.035966612 0.011163781 0.049807314 0.25713637
000030 e6 62 9f bd a3 06 26 be 3b 5a 7a 3e fc 19 09 3e
       -0.07782535 -0.16213469 0.24448483 0.13388819
000040 99 55 00 be 97 d1 15 be 96 23 e3 3d 1b 8e 2f be
       -0.12532653 -0.14630733 0.11090772 -0.17144053
000050 6c 8e df 3d 04 b7 5f be ca b1 6d be 2a 96 e9 bc
       0.10915837 -0.21847159 -0.23212352 -0.028513987
000060 09 65 bd 3d ef f5 1d bd ff e3 1d 3e 97 37 16 be
       0.092477866 -0.03856462 0.15419005 -0.14669643
000070 4d a3 28 be dc c3 26 3e ca 71 79 3e 21 3d fb bd
       -0.16468544 0.16285652 0.24359813 -0.12267519
000080 df d6 c7 3d 46 48 9d 3d 1f 02 c3 bc 4c f8 83 bd
       0.0975778 0.07679801 -0.023804722 -0.06443843
000090 9c 10 61 3d ee 02 35 bc 86 dc 38 3e ea 4a 18 3e
       0.05494748 -0.011048062 0.18052873 0.14872327
0000a0 ff d7 09 be 37 a0 f7 bd 94 c3 75 be 56 80 0b 3e
       -0.13461302 -0.120911054 -0.24000388 0.13623175
0000b0 49 1f f8 bd 09 91 c5 3d ff c5 f6 bd 04 b0 06 be
       -0.12115342 0.09646804 -0.120494835 -0.13153082
0000c0 45 78 16 3e d7 36 0f 3e 0e 8a 4c be e3 5f 0d 3e
       0.14694317 0.13985763 -0.19974539 0.13806109
0000d0 df d7 e9 3b 34 28 8d 3c 87 49 05 3e e8 cb 2e be
       0.0071363295 0.017231084 0.1301633 -0.17069972
0000e0 85 05 92 bb ed 60 5c 3e ce ef 6a bd db 36 ab bd
       -0.0044562244 0.21521349 -0.0573576 -0.08360072
0000f0 6b 97 f7 3d fd fe 08 3d 3e 63 54 3e e3 76 82 3d
       0.120894276 0.0334463 0.20740983 0.06370332
000100 8c 28 0e 3e 83 3c 83 3c 5f 00 33 3e 63 2c b3 3d
       0.13882655 0.016020065 0.1748061 0.087487005
000110 a3 c5 4a be 45 1e 16 3e 7a fc 31 3d 1f 2d 43 3e
       -0.19801955 0.14659984 0.04345367 0.19060181
000120 6f 7c ad 3d 30 3c 38 3e bc 0a 31 3e d0 39 18 3e
       0.084709994 0.1799171 0.17289251 0.14865804
000130 9a 56 0a 3e 2a 04 f8 3d 08 d7 a1 bd bd 3f e7 bd
       0.13509598 0.12110169 -0.07902342 -0.11291454
000140 c0 d7 6f 3e 84 45 7b bd 5f 80 9a bc 9f cc 63 be
       0.23422146 -0.061345592 -0.01886004 -0.22246026
000150 33 b6 f7 bc 4b cd c1 bd f9 86 5e be ab 63 87 bd
       -0.030238247 -0.09462985 -0.21731175 -0.06610807
000160 6c 6a 2d 3c ec 18 c7 bd 48 d2 68 3e 1a 06 3d 3e
       0.010584455 -0.0972155 0.22736466 0.18459359
000170 32 3b 88 3d 5d 3e d6 3d 1b 39 ed bd a6 b8 bc bd
       0.066519156 0.104611136 -0.11583158 -0.092149064
000180 dc e3 06 3d 50 2c 45 be ca 2c 9c 3d f0 86 17 be
       0.032932147 -0.19255185 0.0762573 -0.14797568
000190 d0 90 07 3e 10 89 0f 3e 5a a0 0b bc b8 f2 73 3e
       0.13238835 0.14017129 -0.0085221175 0.23823059
0001a0 53 1a 39 be a0 f7 68 3e d0 ac 48 bc de 64 0e be
       -0.18076448 0.22750711 -0.012248233 -0.13905665
0001b0 c9 d0 5b 3d a6 30 65 be 08 68 3e be e3 b0 7e 3c
       0.05366591 -0.22381839 -0.18594372 0.015545103
0001c0 00 ce 63 3e e3 1a 03 3c 52 ce 46 bd 36 83 02 3e
       0.22246552 0.008002016 -0.048536606 0.12745366
0001d0 e2 dd d9 bb 95 81 b1 3c c6 13 32 3d 6d da 76 be
       -0.006648765 0.021668235 0.04347589 -0.2410676
0001e0 f4 0b e6 bd b9 9f 10 3d 93 be ae 3b 39 fb 7d be
       -0.11232749 0.035308573 0.005332777 -0.24802865
0001f0 b8 c7 57 3e 3e c0 08 3e f9 6f 36 be 1a d1 02 3e
       0.2107228 0.13354585 -0.17816152 0.12775078
000200 38 4f 50 be a7 67 54 3e da 59 b3 3d 4f cd 1c 3e
       -0.2034272 0.20742665 0.08757372 0.15312694
000210 0d 16 be bc 33 a6 5b be d8 36 3a 3d 72 fc 75 3c
       -0.023203874 -0.21450119 0.04546246 0.015013801
000220 82 13 34 3b 7b ab 4d 3e 44 3a 1f be d3 4f 8e 3d
       0.0027477448 0.20084946 -0.1554957 0.06948819
000230 5f 83 67 bd e0 8d 3e 3e 3b 83 53 3d 55 9f 21 3e
       -0.05652177 0.18608809 0.051638823 0.15783437
000240 fd 88 b8 3d 76 76 9c 39 1c 41 b0 bd f1 55 61 3d
       0.090105034 0.000298429 -0.08606169 0.0550136
000250 2c bb 46 3e 57 d1 d8 bd b6 61 40 be 18 a2 30 3b
       0.19407338 -0.105868034 -0.18787274 0.0026952084
000260 3f b1 15 be 04 6c 53 bd e4 63 24 3e 2b 4c 3a be
       -0.14618395 -0.051616684 0.1605373 -0.18193118
000270 fd 87 d1 bc ed 74 15 3e 56 9a be bd cc 5c e6 bd
       -0.02557754 0.14595385 -0.09306781 -0.11248168
000280 f9 b3 f1 3d 19 8f 60 be 35 f1 af bd 88 0d 4e be
       0.11801905 -0.21929587 -0.085909285 -0.2012235
000290 03 b7 11 be 0e b5 2b be 07 94 3c be 9f cb 19 3e
       -0.1422997 -0.16768286 -0.18415843 0.15019082
0002a0 ef 5d 5c be 2f 4f d7 3d 83 52 54 3d 5e 60 68 bb
       -0.21520208 0.1051315 0.0518365 -0.003545783
0002b0 f6 de da bd 4a 7e d7 3d 7b ad 0b 3e 0c 57 fb bc
       -0.10687058 0.105221346 0.13640396 -0.030681156
0002c0 6d 3b 17 3d 88 56 ac 3c a6 cd 0e be 05 db 11 be
       0.036921907 0.021037355 -0.13945636 -0.14243706
0002d0 46 29 4f 3d ef c2 a2 3d 29 c7 51 3d c8 80 de bb
       0.05057647 0.07947337 0.051215325 -0.0067902543
0002e0 83 0d 95 3d 0f 0c b8 bd 02 6c 69 bd 08 7a 81 bd
       0.07277968 -0.08986675 -0.05698777 -0.06322104
0002f0 3a 36 60 3e 84 44 55 be 4a be 38 be 68 7a c1 3d
       0.21895686 -0.20826918 -0.1804134 0.09447175
000300 8a 4f 76 be 4d f2 e5 3d c8 04 78 3e 72 ce 9a bd
       -0.24053779 0.11227856 0.24220574 -0.075589076
000310 3c 15 1b 3e f4 f4 4a 3e 34 e1 61 be ec e6 b8 bd
       0.15144819 0.19820005 -0.22058564 -0.0902842
000320 2f 63 d9 bd 63 f5 58 be f8 9b 30 be 4f 30 32 bd
       -0.10614621 -0.21187358 -0.17246997 -0.043503102
000330 9b 20 10 be 4a e5 3a 3d f1 05 ab 3d 00 98 f9 3d
       -0.14074938 0.045628823 0.083507426 0.12187195
000340 3d 1f 46 3d 9e cd e3 bd a6 35 a0 bb be 5e 2f be
       0.048369635 -0.11123203 -0.004889208 -0.17125985
000350 10 73 23 be b6 ac 2e 3e d3 9f 76 3e 9b 4f 21 be
       -0.15961862 0.17058071 0.24084406 -0.15753023
000360 e0 47 01 bd ef bf ca bd d8 58 17 bd d9 9e 13 3c
       -0.031562686 -0.0989989 -0.036949962 0.00901004
000370 f7 94 b0 3d f8 d9 58 be e1 78 3a 3e dd d1 67 3c
       0.08622163 -0.21176898 0.18210174 0.014149156
000380 ab 6c 2c 3e f8 51 ee 3b d3 fc a7 bd a2 75 80 bd
       0.16838329 0.007272955 -0.08202519 -0.06272437
000390 d7 9e 82 bc 3b 11 ac 3d e3 c6 66 3e 13 c4 e6 3d
       -0.015944881 0.08401724 0.22536807 0.11267867
0003a0 21 ed 86 3b d5 c5 72 3e 0b 12 0a be f2 13 30 be
       0.0041176234 0.2370828 -0.13483445 -0.17195109
0003b0 36 53 79 be f8 49 ac bd 12 db 05 3e b4 53 fe bd
       -0.24348149 -0.08412546 0.1307185 -0.12418309
0003c0 41 c9 18 3e 0b bd 91 bd e7 e6 2d 3e 8e 45 25 3e
       0.14920522 -0.07116135 0.16982614 0.16139814
0003d0 9c 34 4e 3e 5e ee 9a bd 0b fd 8b bd 68 0c a5 bd
       0.20137256 -0.07564996 -0.068353735 -0.08059007
0003e0 65 36 03 3e de 3a 31 be 88 72 b9 3d 44 ec 55 be
       0.12813719 -0.17307612 0.09055048 -0.2089091
0003f0 17 ef 3a 3e f0 64 b0 3d bc f6 c4 3b 01 27 4e be
       0.18255268 0.08613002 0.0060108583 -0.20132066
