CMI-Net/checkpoint/PatchTST_wyh/setting0/Monday_17_March_2025_10h_01m_18s/PatchTST_wyh-best.pth (torch, 435845 bytes, 29 tensors)

model.backbone.W_pos f4 [12, 32]
0	0x3945e71b	0.00018873478
1	0xbbb16c05	-0.0054144883
2	0xbc2c3af9	-0.010512107
3	0xbad3d1b2	-0.0016160517
4	0xbc1f9b50	-0.009741619
5	0x3c00923f	0.007847368
6	0xbc66b73a	-0.014081771
7	0xbb7b1750	-0.0038313456
8	0x3c68b58f	0.014203443
9	0xbca8c13f	-0.02059996
10	0xbcbbf113	-0.022942102
11	0xbab4427d	-0.0013752725
12	0x3ae5e895	0.0017540628
13	0xbc8c7db7	-0.01714979
14	0xbc541bd1	-0.012946085
15	0xbb216e6a	-0.0024632462
16	0x3c0eb391	0.008709804
17	0x3c7218c1	0.01477641
18	0xbb8dddff	-0.0043294425
19	0x3cbd7b5b	0.02313011
20	0x3ba0acbc	0.004903404
21	0x3cc8e132	0.024521444
22	0xbc914e83	-0.017737633
23	0x3b0b93a0	0.0021297708
24	0x3c2a0c04	0.010378841
25	0x3b3053ec	0.002690549
26	0xbc215d73	-0.00984894
27	0x3c3a66aa	0.011377016
28	0x3c26ea85	0.01018775
29	0xbc9011be	-0.017586585
30	0xbacddc4b	-0.0015705911
31	0xbc5d75cc	-0.0135168545
32	0xbc09a2f9	-0.008400672
33	0x3a4af874	0.0007742711
34	0x3c37c151	0.011215524
35	0x3c56a649	0.013101169
36	0x3c3c044d	0.011475635
37	0xbb1d46c4	-0.0023998478
38	0xbcad06d9	-0.02112143
39	0x3c6f411e	0.0146029275
40	0x3cb8ed32	0.022574041
41	0x3c0346ba	0.008012468
42	0xbb2a9f33	-0.0026034832
43	0x3c87759d	0.016535575
44	0xbb0df7bf	-0.002166256
45	0x3bed0ca1	0.0072341715
46	0x3c4d52dd	0.012531963
47	0x3ba3babe	0.0049966266
48	0x3bacb4e1	0.005270586
49	0xbb6de3a1	-0.0036299007
50	0xbcca7c67	-0.024717523
51	0x3c8de2cb	0.017320057
52	0x3c8ee2d1	0.017442139
53	0xbcc8d31b	-0.024514725
54	0xbc86796a	-0.016415317
55	0xbbb6937e	-0.0055717817
56	0xbc628e09	-0.013827809
57	0xbc4edb74	-0.012625564
58	0xbc1fdc74	-0.00975715
59	0xba0b648a	-0.00053174107
60	0x3c2f3ba5	0.010695373
61	0xbbf4a269	-0.00746565
62	0xbc2e9059	-0.010654532
63	0x3c4edb35	0.012625505
64	0xbb85f7f1	-0.004088395
65	0xbbf235e0	-0.0073916763
66	0xbc65e004	-0.01403046
67	0xbc0541c1	-0.008133353
68	0x3bdf9ded	0.006824246
69	0x389303e5	7.010232e-05
70	0x3a8238e8	0.0009935172
71	0x3c505626	0.012715852
72	0xbc551214	-0.013004798
73	0x3c3fd3ec	0.011708241
74	0xbcd1442f	-0.025545208
75	0x3b17f1d7	0.002318492
76	0xbc2ffcbd	-0.01074141
77	0xbc0e9e4c	-0.008704733
78	0xbbc90013	-0.006134042
79	0xbc79b309	-0.015240439
80	0x3bc86c3c	0.006116418
81	0x3b9e0ee5	0.004823553
82	0x3ccd5292	0.025063787
83	0x3bf184c5	0.0073705637
84	0x3bb431e0	0.0054991096
85	0xbc869d33	-0.01643238
86	0xbc001783	-0.007818106
87	0x3cda8e05	0.026679048
88	0x3c891196	0.016732018
89	0x3c8fc081	0.017547848
90	0xbbbd1e15	-0.0057714083
91	0xbc088290	-0.00833191
92	0xbc12e077	-0.008964649
93	0xbb56da36	-0.0032783872
94	0x3c8727ce	0.016498473
95	0xbafa9d27	-0.0019120321
96	0x3be8ea24	0.00710799
97	0x3a1b75bc	0.00059303246
98	0x3b808da2	0.003923134
99	0x3ba56586	0.005047503
100	0xbc8afef9	-0.016967284
101	0x3c9ed34d	0.019387865
102	0xbbd37750	-0.006453432
103	0x3b8c583c	0.0042829793
104	0xbbad93e0	-0.005297169
105	0x3c88b0fc	0.016685955
106	0x3c6192f6	0.013767948
107	0x3c89a0d6	0.016800325
108	0x3af6d4b3	0.00188317
109	0x3c59c041	0.013290466
110	0xbc543bcd	-0.012953711
111	0xbc466127	-0.012108124
112	0xbc635d86	-0.013877278
113	0xbc0678a3	-0.008207473
114	0xbca281e6	-0.019837331
115	0x3c722f47	0.01478178
116	0x3b95476d	0.0045556338
117	0xbcd505e6	-0.02600379
118	0x3bd55d7c	0.0065113883
119	0x3c83dc14	0.016096152
120	0x3c36cb83	0.011156919
121	0xbc5acb1c	-0.013354089
122	0xbc8fa012	-0.017532382
123	0x3c19bcd9	0.009383404
124	0xbc75caae	-0.015001936
125	0x3926044b	0.00015832593
126	0x38ab7240	8.175196e-05
127	0x3c2397a0	0.009984881
128	0xbb03e14f	-0.0020123308
129	0x3ba4b336	0.0050262464
130	0xbb35cd1d	-0.0027740665
131	0xbc1b54c2	-0.009480657
132	0xbc17edd3	-0.00927301
133	0x3cd44ee5	0.025916526
134	0xbc591bec	-0.013251286
135	0xbc631219	-0.013859295
136	0xbc9490f6	-0.018135529
137	0x3becda4d	0.007228172
138	0x3c2db819	0.010602974
139	0x3c6a1407	0.014287001
140	0x3c4f1739	0.012639814
141	0xbb17c251	-0.0023156593
142	0xbab208f5	-0.0013582992
143	0x3ca1040f	0.019655256
144	0xbc3557b8	-0.011068277
145	0xba26b813	-0.00063598267
146	0xbb4d5f18	-0.0031337198
147	0xbcb4c54b	-0.022066733
148	0xbcd6e642	-0.026232842
149	0x3ca1a9f1	0.019734355
150	0xbc558bc5	-0.013033812
151	0x3bb9081f	0.00564672
152	0xbc93bb3b	-0.018033614
153	0x3b27dbc6	0.0025613173
154	0x3ca93de2	0.02065939
155	0xbbaefbfd	-0.005340098
156	0x3c9e0b7c	0.019292586
157	0x3af72e15	0.0018858338
158	0x3bfaf6f7	0.007658835
159	0xb90d7da4	-0.00013493613
160	0x3cc747fe	0.02432632
161	0xbc2ef71f	-0.010679035
162	0xbc8690d4	-0.016426481
163	0x3c070d82	0.008242967
164	0x3b980c15	0.004640112
165	0x3c8ad0a7	0.016945196
166	0xbc8867b9	-0.016651021
167	0x3c35fab0	0.011107132
168	0x3b797e56	0.0038069687
169	0x3c7c40e0	0.015396327
170	0x3bb7a85e	0.0056047877
171	0x3c284195	0.010269542
172	0x3c40c72c	0.011766236
173	0x3bda2b42	0.0066579888
174	0xbc72326f	-0.014782532
175	0x3c909dac	0.017653309
176	0x3c88b8a2	0.016689602
177	0xba0f58d3	-0.0005468253
178	0x3ca383ce	0.01996031
179	0xb9bbb095	-0.00035798983
180	0x3cbe1b7f	0.02320647
181	0x3ccd7a84	0.025082834
182	0xbc83a7b2	-0.016071174
183	0xbb921641	-0.0044582193
184	0xbc010902	-0.007875683
185	0xba28947c	-0.00064308173
186	0xbc31b4e4	-0.01084635
187	0xbbb385d9	-0.0054786024
188	0x3beb493e	0.007180362
189	0x3bdd4d24	0.0067535806
190	0xbc519a4b	-0.012793134
191	0x3bdaac49	0.00667337
192	0xba8f964c	-0.0010954826
193	0x3d022f4b	0.031783383
194	0x3c0c4307	0.008560902
195	0x3c659b1c	0.014014032
196	0xbc08e2fe	-0.0083549
197	0xbccf9479	-0.025339352
198	0x3c38ca31	0.011278675
199	0xbca21457	-0.01978509
200	0x3c738761	0.01486382
201	0x3c3393ba	0.010960514
202	0xb8882ab3	-6.492939e-05
203	0xbc76c646	-0.0150619205
204	0x3c7573cf	0.014981224
205	0xbc97c570	-0.018526763
206	0x3c837de4	0.01605124
207	0x3a65d2bd	0.0008767059
208	0x3b9010b5	0.004396523
209	0x3c2c4c38	0.010516219
210	0xbc873df2	-0.01650903
211	0x3ba7d42d	0.005121729
212	0xbc1c4c54	-0.009539682
213	0x3c6a8413	0.0143137155
214	0x3baca644	0.005268844
215	0xbc602448	-0.013680525
216	0xbb8d60c4	-0.004314514
217	0x3b6bd1bf	0.0035983173
218	0x3bf709ce	0.0075390106
219	0xbbfb5124	-0.007669585
220	0xbc8a12ef	-0.016854731
221	0x3c8a0bba	0.016851295
222	0xbcaa76e7	-0.02080865
223	0x3c0f37be	0.008741317
224	0xbb1643d5	-0.0022928615
225	0xbc392e8b	-0.011302601
226	0x3ca3af01	0.01998091
227	0x3c8358e5	0.0160336
228	0xbcb06620	-0.021533072
229	0x3b669634	0.0035184743
230	0x3c5ad703	0.013356927
231	0xbc36b85e	-0.011152355
232	0xbb0c59f6	-0.0021415926
233	0xbc8e4929	-0.01736887
234	0xba32bd82	-0.00068184
235	0xb9c06ac0	-0.0003670063
236	0x3b942f64	0.004522251
237	0x3ca64c4c	0.020300053
238	0xbbad7b12	-0.005294212
239	0x3c2f2906	0.010690933
240	0xbc87160a	-0.016490001
241	0x3cbab9a9	0.022793608
242	0x3c88d37b	0.016702404
243	0x3bfa654b	0.0076414696
244	0x3bf4b706	0.007468107
245	0xbcaca8e2	-0.021076623
246	0xbc333f34	-0.010940362
247	0xba60e23d	-0.0008578634
248	0xbc8e8960	-0.01739949
249	0xbc0feab3	-0.008783984
250	0x3c6ab478	0.014325254
251	0xbc457355	-0.012051423
252	0x3cacde95	0.02110223
253	0x3bd738fc	0.0065680724
254	0xbc8de663	-0.017321771
255	0xbc1d5837	-0.009603552

model.backbone.W_P.weight f4 [32, 8]
0	0xbe5d621f	-0.21619461
1	0x3e0f055a	0.13966885
2	0x3ea76a6b	0.32698378
3	0x3dcc563a	0.09977384
4	0x3cb2bac5	0.021817574
5	0xbe836b01	-0.25667575
6	0xbe2b87c8	-0.16751015
7	0xbb0b5e2d	-0.002126585
8	0xbda520cd	-0.08062897
9	0x3db591ad	0.08865676
10	0xbdfad036	-0.12246744
11	0xbd14e93d	-0.036355246
12	0xbe017a37	-0.12644278
13	0x3e50de9d	0.2039742
14	0x39908a45	0.0002756884
15	0x3d11af6a	0.03556768
16	0x3ea600ed	0.3242258
17	0xbe287c80	-0.16453743
18	0x3e5e7d5c	0.21727508
19	0x3e1039c7	0.1408454
20	0x3dcd496b	0.10023769
21	0x3b19a7c3	0.002344594
22	0x3e08773b	0.13326733
23	0xbe7533a8	-0.23945487
24	0xbe247a40	-0.1606226
25	0xbbbd0fec	-0.0057697203
26	0x3c8cec98	0.01720266
27	0x3e2368a0	0.1595788
28	0x3d663f9f	0.056213018
29	0x3e7988a1	0.24368526
30	0xbd946f32	-0.07247771
31	0x3dde4e89	0.10854823
32	0x3e37e452	0.17958191
33	0x3d9c7279	0.076390214
34	0x3e14c3ff	0.14527892
35	0xbe9edbd6	-0.31027097
36	0x3e2e1690	0.17000794
37	0x3e91aa91	0.28450444
38	0x3d4dd47e	0.050251476
39	0xbea65930	-0.3248992
40	0xbd2d1a13	-0.042261194
41	0x3ea36188	0.31910348
42	0xbe08cfa6	-0.13360462
43	0x3e5eb087	0.21747027
44	0x3c2a7aa6	0.010405218
45	0xbe9b4548	-0.30326295
46	0x3c1eaf32	0.0096853245
47	0x3dbe7a53	0.09300675
48	0x3e1873d0	0.14887929
49	0x3ea6042a	0.32425052
50	0x3e9f13ef	0.31069896
51	0xbe12ece4	-0.14348179
52	0xbba635bb	-0.005072323
53	0x3e4c7a0f	0.19968437
54	0xbd12b3bf	-0.03581595
55	0xb815388f	-3.5577043e-05
56	0xbd908799	-0.07057113
57	0x3e321cea	0.17393842
58	0xbe9af5d1	-0.30265668
59	0x398ce2e7	0.00026871936
60	0x3d876391	0.06610788
61	0x3d96f15c	0.073702544
62	0x3bd180bb	0.0063935197
63	0xbe5f6a37	-0.21817861
64	0x3e99d6f5	0.30046812
65	0x3e8ee7c4	0.27911198
66	0xba5c910c	-0.00084139477
67	0xbe464798	-0.19363248
68	0xbea2ad07	-0.31772634
69	0x3e4a3bdd	0.19749399
70	0xbd20e8e8	-0.039284617
71	0xbd4be38f	-0.049777564
72	0x3e7135c5	0.23555668
73	0xbd6d209e	-0.057892434
74	0xbdf98a87	-0.12184625
75	0x3c9ea190	0.019364148
76	0xbe6aad43	-0.22917657
77	0x3e7770e6	0.24164161
78	0xbe9a4296	-0.30128926
79	0xbe56c98f	-0.20975326
80	0x3dd71f75	0.10504047
81	0x3d9eaabe	0.0774741
82	0xbc32e2c8	-0.010918327
83	0x3da9e6b7	0.082959585
84	0xbd6f1639	-0.058370803
85	0xbe5a9d86	-0.21349153
86	0x3d671121	0.05641282
87	0xbcea1caf	-0.02857813
88	0x3e919715	0.2843558
89	0x3d6f29a6	0.05838933
90	0xbd9a251b	-0.075266086
91	0x3e88c5fa	0.26713544
92	0x3e36708f	0.17816375
93	0x3cde3cde	0.027128633
94	0x3e3d3fa5	0.1848131
95	0xbe22fd15	-0.15916856
96	0x3e5180c3	0.20459275
97	0xbe4caf98	-0.19988859
98	0xbdadf0b7	-0.08493178
99	0x3c9e2156	0.019303005
100	0xbe01173f	-0.12606524
101	0xbe4b3f9e	-0.19848487
102	0x3e7666a7	0.24062596
103	0xbe7082ed	-0.23487444
104	0xbe6dbe06	-0.2321702
105	0x3e9c4d76	0.30527848
106	0xbca0ff05	-0.019652853
107	0xb8c031fa	-9.164582e-05
108	0x3e9522da	0.29128152
109	0xbd9206c5	-0.071301974
110	0x3e66db41	0.22544576
111	0xbceb05d9	-0.028689312
112	0x3e408974	0.18802434
113	0xbc3ab108	-0.011394747
114	0x3a396058	0.0007071546
115	0xbda0f246	-0.0785871
116	0x3e1356d2	0.14388588
117	0xbe13df00	-0.14440536
118	0xbe713250	-0.23554349
119	0x3e836c90	0.25668764
120	0x3e457d85	0.19286163
121	0x3e029df3	0.12755565
122	0xbe8621a3	-0.26197538
123	0x3cae0ea8	0.021247223
124	0x3e051f17	0.13000141
125	0xbda90d30	-0.082544684
126	0x3e406e3e	0.18792054
127	0xbe5bb199	-0.21454467
128	0x3cde27c7	0.027118577
129	0x3e5c732a	0.21528307
130	0x3de934ac	0.113869995
131	0xbd084606	-0.033269905
132	0xbe296486	-0.16542253
133	0x3e4f9cd8	0.20274675
134	0x3e1bb5f2	0.15206125
135	0xbdfcd16d	-0.12344632
136	0xbe6a38fc	-0.228733
137	0xbe976294	-0.29567397
138	0xbd19802b	-0.037475746
139	0x3e43af61	0.1910987
140	0xbce71a12	-0.028210673
141	0xbe928a19	-0.28620985
142	0x3db46ced	0.088098384
143	0xbd9887d8	-0.07447785
144	0x3ea27bb9	0.31735018
145	0x3e3e59bb	0.18588917
146	0x3ea0a6b7	0.31377193
147	0xbdbd35f3	-0.092388056
148	0xbe0d132e	-0.13776848
149	0xbda89fbf	-0.08233594
150	0xbc959d2f	-0.018263428
151	0xbe8fc7e8	-0.28082204
152	0x3e0447d5	0.12918027
153	0xbe4657e1	-0.1936946
154	0x3ea57fb0	0.3232398
155	0x3e1340fb	0.14380257
156	0x3cf24fbc	0.029579036
157	0x3bae4aa5	0.005318957
158	0xbe807149	-0.2508643
159	0xbe425762	-0.18978646
160	0x3e09b3a2	0.1344743
161	0xbe59791f	-0.2123761
162	0xbdf662e1	-0.120305784
163	0xbdf3eb26	-0.119100854
164	0x3e80e0b3	0.25171432
165	0xbde530dc	-0.1119096
166	0x3dfefaf1	0.12450207
167	0x3e9a4dfa	0.30137616
168	0xbe7952a1	-0.24347927
169	0xbe0c7ca6	-0.13719425
170	0x3cac8da6	0.021063637
171	0x3e35628b	0.17713372
172	0xbdfb6915	-0.12275902
173	0x3e5bdab3	0.21470146
174	0x3ddd99b1	0.1082033
175	0xbe46daee	-0.19419453
176	0x3e2dfd4a	0.16991153
177	0xbd109c08	-0.035305053
178	0x3db886ca	0.09010084
179	0xbd00c2eb	-0.03143589
180	0xbea7e79d	-0.32793894
181	0x3e08d9e3	0.13364367
182	0x3a75b2c4	0.00093726465
183	0x3e5e00b8	0.21679962
184	0x3d648305	0.055789012
185	0xbcf25736	-0.029582601
186	0xbe669d1f	-0.22520874
187	0x3e6a72f8	0.2289542
188	0xb8ddac57	-0.00010570202
189	0xbe70799d	-0.23483892
190	0xbe8fbc45	-0.28073326
191	0xbe585a64	-0.21128231
192	0x3e926b8c	0.28597677
193	0xbe15598e	-0.14584944
194	0x3dd23393	0.10263743
195	0xbe619572	-0.22029665
196	0xbe3ebcab	-0.18626659
197	0xb93113ea	-0.00016887454
198	0xbab624e2	-0.001389649
199	0xbea545bd	-0.3227977
200	0xba484985	-0.000764035
201	0xbe816ca9	-0.25278214
202	0xbe661d7e	-0.22472188
203	0xbda54569	-0.080698796
204	0xbd9d0bc5	-0.076682605
205	0x3e217b3d	0.15769668
206	0x3e2027a1	0.15640117
207	0x3d299469	0.0414013
208	0x3e8bfa45	0.27339378
209	0xb9d9c09c	-0.0004153297
210	0xbe6bb1e9	-0.23017086
211	0x3e1df5f2	0.15425852
212	0x3e01d481	0.1267872
213	0xbc76282b	-0.015024225
214	0x3da5528c	0.08072385
215	0x3e959c93	0.2922102
216	0xbea535d0	-0.32267618
217	0xbea687d8	-0.32525516
218	0x3e99c001	0.300293
219	0xbe2b206e	-0.1671159
220	0xbe993ba1	-0.29928306
221	0xbe4e9fa8	-0.20178092
222	0x3d345ee5	0.04403581
223	0x3d00fcd7	0.031491127
224	0x3e6a00cf	0.22851871
225	0x3e337a23	0.1752706
226	0xbe616c68	-0.2201401
227	0xbd861b7e	-0.065482125
228	0xbea7b63e	-0.32756227
229	0xbddfc91c	-0.109270304
230	0x3e41a4f1	0.18910576
231	0xbe14f8d9	-0.14548053
232	0x3da285d0	0.07935679
233	0x3e324db3	0.17412452
234	0xbdc23a26	-0.09483747
235	0xbe03e4d8	-0.12880266
236	0xbe2b025b	-0.16700117
237	0xbe03c12c	-0.12866658
238	0x3e4bdf40	0.19909382
239	0x3e330935	0.17483981
240	0xbd742400	-0.059604645
241	0xbdbc13ca	-0.09183462
242	0xbe8b11ee	-0.27162117
243	0xbea6def3	-0.32591972
244	0x3e66d5a6	0.22542438
245	0xbe5192ee	-0.20466205
246	0x3e0dccb5	0.13847621
247	0xbdf8ca82	-0.12148
248	0xbe4f3155	-0.20233662
249	0x3e58573d	0.21127029
250	0xbe9b49d9	-0.3032978
251	0x3db5eecf	0.0888344
252	0xbe9ef991	-0.3104978
253	0xbdf250ba	-0.118318036
254	0x3df0f1f7	0.11764901
255	0x3e98a506	0.29813403

model.backbone.W_P.bias f4 [32]
0	0x3d84566b	0.064617954
1	0x3e7fcf54	0.24981433
2	0xbb999561	-0.004686997
3	0x3eafa8be	0.34308428
4	0xbeb510b2	-0.353643
5	0xbe18cc9d	-0.14921804
6	0xbe0937bf	-0.13400172
7	0xbde2550e	-0.11051379
8	0x3e814862	0.25250536
9	0x3e2e3bca	0.17014995
10	0xbe536cc5	-0.20646961
11	0x3e7f93ba	0.24958697
12	0x3cc08b11	0.023503812
13	0xbeaca856	-0.3372218
14	0xbeb249d1	-0.34821942
15	0xbc90a563	-0.017656988
16	0xbe87b413	-0.26504573
17	0xbda16189	-0.078799315
18	0x3dd21590	0.10258019
19	0x3c122f36	0.008922389
20	0xbe747a3c	-0.23874754
21	0x3e571abd	0.21006294
22	0xbe2fdf32	-0.17174986
23	0xbe06a300	-0.13148117
24	0xbe10098b	-0.1406614
25	0xbd1dda59	-0.03853831
26	0x3dc3fd63	0.09569814
27	0x3ea1a84b	0.3157371
28	0xbe2f3cac	-0.17112988
29	0xbe9d82c1	-0.3076382
30	0x3d73ecab	0.059551876
31	0xbe692a23	-0.2276998

model.backbone.encoder.layers.0.self_attn.W_Q.weight f4 [32, 32]
0	0xbde8f48b	-0.11374768
1	0xbd7f3548	-0.062306672
2	0x3b293e47	0.0025824474
3	0x3cec384c	0.028835438
4	0xbd843a34	-0.06456414
5	0x3ca6286d	0.020282948
6	0x3d807b1e	0.06273483
7	0xbcdbe821	-0.026844086
8	0xbdbce227	-0.09222823
9	0x37302756	1.0499576e-05
10	0xbd62316b	-0.05522291
11	0xbddc987c	-0.107712716
12	0x3e08c825	0.13357599
13	0xbc82f10e	-0.015984084
14	0xbca0c4ff	-0.019625185
15	0xbd290d8b	-0.04127268
16	0x3bd78881	0.006577552
17	0xbd93fb04	-0.07225612
18	0x3d5528b2	0.052040763
19	0x3d9b960b	0.07596978
20	0xbd42caca	-0.047556676
21	0x3c276870	0.010217771
22	0x3c88035d	0.016603166
23	0x3b3521b4	0.0027638497
24	0x3d6abc4d	0.057308484
25	0x3e175ed5	0.1478227
26	0xbd148182	-0.03625632
27	0xbd6ab0a6	-0.05729737
28	0x3e14e21b	0.14539377
29	0x3ddc208a	0.10748394
30	0x37826c93	1.5547766e-05
31	0xbd3cc0d6	-0.04608234
32	0xbde82360	-0.11334872
33	0x3e03de30	0.12877727
34	0xbce108cd	-0.027470017
35	0x3beeace4	0.0072837938
36	0x397b4a32	0.00023964865
37	0x3dce49f3	0.100726984
38	0xb79977f1	-1.8294873e-05
39	0xbdf1a1bc	-0.117984265
40	0xbdc30afe	-0.09523581
41	0x3d67932e	0.056536846
42	0x3d5de431	0.0541727
43	0x3d3174b1	0.043324176
44	0xbdfc0d35	-0.123072065
45	0xbe03005f	-0.1279311
46	0xbd0bb2f0	-0.034106195
47	0x3defe22c	0.11713061
48	0x3e04a975	0.12955268
49	0xbd649ccf	-0.055813607
50	0xbd906bfa	-0.07051845
51	0x3c767336	0.015042117
52	0x3d2a4479	0.041569207
53	0xbd0bebf4	-0.03416057
54	0x3d99496e	0.07484709
55	0xbd23d908	-0.0400019
56	0x3859f8be	5.196849e-05
57	0x3cdcd7a3	0.026958292
58	0x3bff81d2	0.007797458
59	0x3d65d328	0.056109577
60	0xbd4600d4	-0.048340634
61	0x3c1446c1	0.009050072
62	0x3d5eb2bb	0.05436967
63	0x3da24f0a	0.07925232
64	0x3dd4f8f2	0.10399045
65	0xbc9cbc58	-0.019132778
66	0x3d986fca	0.07443197
67	0x3ccac379	0.024751412
68	0xbdebe5ea	-0.11518462
69	0xbd843fef	-0.06457507
70	0xbb6eb397	-0.0036422962
71	0xbe03023d	-0.12793823
72	0x3e10869a	0.14113846
73	0xbd9ab6d0	-0.075544
74	0x3dc855f7	0.097820215
75	0x3d97460e	0.07386409
76	0xbdc188f7	-0.09449952
77	0xbdd4d96e	-0.10393034
78	0xbd18845f	-0.037235614
79	0x3e0645e1	0.13112594
80	0xb6b9ea9c	-5.5407418e-06
81	0x3d783ec8	0.060606748
82	0xbdb0d9c3	-0.08635285
83	0x3d124092	0.03570611
84	0xbe09317c	-0.13397783
85	0xbe06630f	-0.13123725
86	0xbdc9eaa3	-0.098592065
87	0x3db1380e	0.0865327
88	0x3e085844	0.1331492
89	0xbaa9635f	-0.0012923292
90	0x3d8b953e	0.06815575
91	0xbe173e25	-0.147698
92	0x3ddf327b	0.108983
93	0xbd8ba81f	-0.06819176
94	0x3e0aa16c	0.1353814
95	0x3de642be	0.11243199
96	0x3d839f0c	0.0642682
97	0x3de57344	0.11203626
98	0x3e18d572	0.14925173
99	0xbd934847	-0.0719152
100	0xbdaee8b4	-0.08540478
101	0x3e05b533	0.13057403
102	0xbe146ab4	-0.14493829
103	0xbd625edf	-0.055266257
104	0xbd063032	-0.032760806
105	0xb66e8270	-3.5540688e-06
106	0x3e05a283	0.13050275
107	0xbe022298	-0.12708509
108	0x3da52aa3	0.08064773
109	0x3db8a6fe	0.09016226
110	0x3dc962fd	0.09833334
111	0xb7f84fc3	-2.9601046e-05
112	0xbccb824a	-0.0248424
113	0x3df2217d	0.11822794
114	0xbe090a70	-0.13382888
115	0x3ce33833	0.027736759
116	0xbd95f61f	-0.073223345
117	0x3df826ab	0.1211675
118	0x3de661cb	0.11249121
119	0x3cbf4461	0.023348035
120	0xbe15aad2	-0.14615944
121	0xb82a6b63	-4.063117e-05
122	0x3d69a213	0.05703933
123	0x3df30b99	0.118674465
124	0x3c530bdd	0.012881246
125	0x3dd7d227	0.1053813
126	0x3d55e85b	0.052223545
127	0x3e0a5f2a	0.13512865
128	0xbe044ff0	-0.12921119
129	0x3bc3c72e	0.005974672
130	0xbd06d50c	-0.03291802
131	0xbdc32763	-0.09528997
132	0x3dc6ebe5	0.09712962
133	0xbcc6209e	-0.024185475
134	0x3d330bb2	0.043712325
135	0xbda6195a	-0.08110304
136	0x3dd079e2	0.10179497
137	0x3d6f588d	0.058434058
138	0x3da3464a	0.07972391
139	0xb8434a6d	-4.6560937e-05
140	0x3dc02226	0.09381513
141	0xbded42f3	-0.11585035
142	0x3db9e419	0.09076709
143	0xbe113003	-0.14178471
144	0xbd880e25	-0.06643323
145	0xbc7babea	-0.015360812
146	0x3d7f5801	0.062339786
147	0xbd8b4c8e	-0.06801711
148	0x3db6f323	0.089330934
149	0x3d688404	0.056766525
150	0x3d319b2a	0.043360867
151	0xbd80dc47	-0.062920146
152	0xbdda9602	-0.10673143
153	0x3ce65dc6	0.028120887
154	0xbb8a4c5d	-0.004220529
155	0xbd8a48f3	-0.06752195
156	0x3d93e0b9	0.07220597
157	0x3e17e8ec	0.14834946
158	0x3e0731fd	0.13202663
159	0x3d5ae082	0.053436764
160	0xbd98cb5c	-0.07460663
161	0xbe05aa33	-0.13053207
162	0x3dd43e45	0.103634395
163	0xbd4bceee	-0.04975789
164	0xbd876d40	-0.06612635
165	0xbe0ced26	-0.1376234
166	0x399bdaf0	0.00029727025
167	0xbc444a96	-0.011980673
168	0x345a759c	2.0345618e-07
169	0x3dfae4d9	0.122506805
170	0xbd2caff0	-0.042159975
171	0xbde92da0	-0.113856554
172	0x3e0650b8	0.1311673
173	0x3c47df52	0.01219924
174	0x37108163	8.613194e-06
175	0x3da39c8f	0.079888456
176	0xbdf2d3b0	-0.118567824
177	0xbda028c5	-0.07820276
178	0xbb58b0b6	-0.0033064312
179	0x3e09b539	0.13448037
180	0xba32a26e	-0.0006814365
181	0xb7e21250	-2.6949827e-05
182	0x3de90737	0.11378329
183	0xbdd34f7f	-0.10317897
184	0x3dd2178e	0.10258399
185	0xbdf14ee5	-0.11782626
186	0x3d9f573a	0.07780309
187	0x3dab8b2e	0.08376156
188	0x3bd41abc	0.0064729135
189	0x3aa1b9d0	0.0012338702
190	0x3d38244d	0.044956494
191	0xbc623096	-0.013805529
192	0xbdf89b3b	-0.12138983
193	0xbd544d27	-0.05183139
194	0xbdf7d23c	-0.12100646
195	0x3dd0ef34	0.102018744
196	0xbd984843	-0.07435658
197	0xbd8ab058	-0.06771916
198	0xbe007107	-0.12543117
199	0xbda8fe87	-0.08251672
200	0xbd686a5a	-0.05674205
201	0x3cbd75aa	0.023127396
202	0xbe05caf8	-0.13065708
203	0xbd126a76	-0.03574606
204	0xbda2e9d7	-0.07954758
205	0xbc4b47c5	-0.012407248
206	0xbc23a575	-0.0099881785
207	0xbd0cdfa8	-0.034392983
208	0xbce158a1	-0.027508082
209	0xbde3a6c1	-0.1111579
210	0xbdfb16ef	-0.122602336
211	0x3c950a10	0.018193275
212	0x373242da	1.0625192e-05
213	0x3d4575b2	0.048207946
214	0xbd9ef723	-0.07761981
215	0xbd896c5b	-0.0671012
216	0x3de4eab4	0.111775786
217	0xb7439298	-1.1657037e-05
218	0xbcb7bcd6	-0.022428911
219	0xbde9bcee	-0.114129886
220	0xbd2093b2	-0.039203353
221	0x3d8c9283	0.068638824
222	0x3d91d197	0.07120054
223	0xbce39a45	-0.027783522
224	0x3d2baa80	0.04191065
225	0x3df69b49	0.12041337
226	0xbc4b6360	-0.01241383
227	0xbcf722d7	-0.03016798
228	0x3e1b5496	0.15168986
229	0x3d4ec10f	0.050477084
230	0x380d86b4	3.374247e-05
231	0xbd44bb3e	-0.04803013
232	0xb6bce152	-5.6290673e-06
233	0xbd4dc10f	-0.050232943
234	0xbdd5314e	-0.10409795
235	0x3cbda710	0.02315095
236	0x3e060a1b	0.13089792
237	0x3d771dc6	0.06033113
238	0x3d5ca45f	0.053867694
239	0x3e0ea2dd	0.13929315
240	0x3c0f5dbb	0.008750374
241	0xbda79017	-0.0818178
242	0x3e150a2b	0.1455466
243	0xbda0aaf4	-0.07845107
244	0x39a3d440	0.0003124792
245	0x3733f586	1.0726397e-05
246	0xbd278528	-0.040898472
247	0x3ce96257	0.028489275
248	0xbd5530a4	-0.05204834
249	0xbdc4007f	-0.09570407
250	0xbdcced87	-0.10006242
251	0x3d49487b	0.04914139
252	0xbde3cd9a	-0.111232
253	0xbdd80f3d	-0.105497815
254	0x3db20a1d	0.08693335
255	0xbd87fad6	-0.0663964

model.backbone.encoder.layers.0.self_attn.W_Q.bias f4 [32]
0	0x3bff19e6	0.0077850698
1	0xbd43fe9b	-0.047850233
2	0x3ddb5213	0.10709014
3	0xbd5de7fb	-0.054176312
4	0xbdf7e0ac	-0.121034
5	0xbe1a550b	-0.15071504
6	0xbdbb76de	-0.091535315
7	0xbe2f2194	-0.17102653
8	0x3d9d3e7b	0.07677933
9	0xbdd2c68d	-0.10291777
10	0x3ddcfba3	0.107901834
11	0xbdd0699f	-0.101763956
12	0x3e2394cb	0.15974729
13	0x3ca0e042	0.019638184
14	0x3dbb607c	0.09149262
15	0x3e0cc7b8	0.13748062
16	0xbe2efec6	-0.17089376
17	0x3c8fdb6f	0.017560689
18	0xbc558caa	-0.013034025
19	0xbd9dccce	-0.07705079
20	0x3dc78c3d	0.09743545
21	0x3d5ac53a	0.053410746
22	0xbe0c1bf0	-0.13682532
23	0x3d9fd121	0.0780356
24	0x3de67850	0.112534165
25	0x3dcc769b	0.0998356
26	0xbde23a1b	-0.11046239
27	0x3dfa084e	0.12208615
28	0x3e0c669a	0.13711014
29	0x3d5bd910	0.053673804
30	0x3e0d3d40	0.13792896
31	0xbdb7e4b7	-0.08979171

model.backbone.encoder.layers.0.self_attn.W_K.weight f4 [32, 32]
0	0x3e0d4999	0.13797607
1	0x3d54f14d	0.051987935
2	0x3cd1c2cf	0.025605587
3	0xbd2b5160	-0.041825652
4	0xbca8e079	-0.02061485
5	0x3e131583	0.14363675
6	0xb788df4f	-1.631645e-05
7	0xbd3ca061	-0.046051387
8	0x3d835c77	0.06414121
9	0x3d63a1b6	0.05557414
10	0x3c98ca3b	0.018651119
11	0x385170fb	4.9934704e-05
12	0x3c55dace	0.013052655
13	0x3bc024f0	0.0058637783
14	0xbd0ef9dc	-0.034906253
15	0x3e100e6d	0.14068003
16	0x3dc9e2ba	0.09857698
17	0xbc7c2fb7	-0.0153922355
18	0xbe16d0da	-0.14728108
19	0x3d951258	0.072788894
20	0x37f1f1bf	2.884201e-05
21	0xbdbdfcc1	-0.092767246
22	0xb808c0bf	-3.2604436e-05
23	0x3e158cfe	0.14604566
24	0x3c45dbca	0.012076328
25	0xbdd37a16	-0.103260204
26	0x3d02bc7b	0.03191803
27	0xbd2ef507	-0.042714145
28	0xbcede73a	-0.029040921
29	0x3aa0cde9	0.0012268397
30	0xbda552bc	-0.08072421
31	0xbdcd6011	-0.10028089
32	0x3dd14f84	0.102202445
33	0xbd2e3445	-0.042530317
34	0x3c9122b8	0.01771675
35	0x3dcb5dd8	0.09930009
36	0xbc820cc3	-0.015875226
37	0x3e10daa4	0.14145905
38	0xbc441507	-0.011967904
39	0x3dc1d4d3	0.09464421
40	0xbdf41803	-0.11918642
41	0x3d9de2d8	0.07709283
42	0xbdce879a	-0.10084458
43	0x3df77cdc	0.12084362
44	0xbb8f9509	-0.00438178
45	0xbda8bcb8	-0.0823912
46	0xbcd32934	-0.025776483
47	0x3dc7a38b	0.0974799
48	0xbc8b2b70	-0.016988486
49	0x3db5bb87	0.088736586
50	0xbdb1e98e	-0.08687125
51	0xbe116a90	-0.14200807
52	0x3dce5f3a	0.10076757
53	0xbe0ae93e	-0.13565537
54	0xbc028260	-0.007965654
55	0xbd25e2ec	-0.040499613
56	0x3e03e1ae	0.12879059
57	0x3df91a9a	0.12163277
58	0xbda4daf7	-0.08049577
59	0xb708c069	-8.151031e-06
60	0x3da16d38	0.0788216
61	0xbc7f9e1c	-0.015601661
62	0xbd960f67	-0.073271565
63	0xbca234d6	-0.019800585
64	0x370fd5b6	8.573223e-06
65	0xbdd7f2c4	-0.10544351
66	0xbe04c598	-0.12966001
67	0xb66e0e02	-3.5472917e-06
68	0xbc2fac2d	-0.010722202
69	0x3dd02c4f	0.10164701
70	0xbdad6b2c	-0.08467707
71	0xbdf07ab9	-0.117421575
72	0xb6ac7971	-5.140137e-06
73	0x3d51ab0f	0.051188525
74	0x3c3cfa7e	0.011534331
75	0x3debdb1d	0.11516402
76	0xbdc64fa8	-0.09683162
77	0x391e4abc	0.00015095895
78	0xbdedf123	-0.11618259
79	0xbbe99967	-0.0071288827
80	0x3cce6866	0.025196265
81	0xbe08f1b1	-0.13373448
82	0x37cd9c01	2.451055e-05
83	0x3d9a6f9a	0.075408176
84	0x3d1db4a7	0.03850236
85	0xbddb950c	-0.10721788
86	0xbdb114c3	-0.08646538
87	0xbc71fe11	-0.014770047
88	0xbd218d4e	-0.0394414
89	0xbe0f224c	-0.13977927
90	0x3dcb6066	0.09930496
91	0x3d9b6ccb	0.0758911
92	0xbd836454	-0.064156204
93	0xbde1ec54	-0.11031404
94	0xbcffddac	-0.031233631
95	0x3d848d1e	0.064722285
96	0x3a8cf3c3	0.0010753799
97	0x3dbb3da0	0.091426134
98	0xb7e63cb2	-2.74464e-05
99	0x3e07bd1d	0.13255735
100	0xb79a4b76	-1.839337e-05
101	0xbd71a700	-0.058997154
102	0x3d3a5ec5	0.045500536
103	0x3de38c4e	0.11110745
104	0xbc0743ac	-0.00825588
105	0x3def96f7	0.11698716
106	0xbdd0d925	-0.10197667
107	0x3bbb3a95	0.0057137706
108	0xbd1bf580	-0.038075924
109	0x3de540ef	0.11194026
110	0x3de89d8b	0.11358174
111	0x3d730f03	0.05934049
112	0x3dc345ce	0.095347986
113	0xbd5ed786	-0.054404758
114	0x3df254d3	0.11832585
115	0x36be07c2	5.6633444e-06
116	0xbdc725a6	-0.09723978
117	0xbdc5c8ec	-0.096574634
118	0x3de91e8f	0.11382782
119	0x3d4c2189	0.04983667
120	0x3d62287b	0.055214386
121	0x3d570d5f	0.052502986
122	0xbd15ba92	-0.03655488
123	0x3cff1607	0.031138433
124	0xbdd0114c	-0.10159549
125	0xbdc9668b	-0.09834012
126	0x3bd67861	0.006545112
127	0xbd193641	-0.037405256
128	0x3dac3670	0.08408821
129	0xbd9bd1dd	-0.076083876
130	0x3d8a40f8	0.06750673
131	0xbc05f9aa	-0.0081772
132	0x3d8c39c7	0.06846958
133	0xba85c3cc	-0.0010205447
134	0x3c2a218f	0.010383978
135	0x3db9dedd	0.09075711
136	0xbdc37643	-0.09544041
137	0x3d69210e	0.05691629
138	0x3d8fa343	0.070135616
139	0x3df95701	0.12174798
140	0xbe185f19	-0.14880027
141	0x39b8c43d	0.00035241424
142	0xbb24f4af	-0.0025170257
143	0xbbb83248	-0.0056212284
144	0x3d8d5817	0.069015674
145	0x3ddc128b	0.10745724
146	0x3dc8ce42	0.098049656
147	0xbe0331f8	-0.1281203
148	0x3ceabc8a	0.028654356
149	0x37d1198d	2.492664e-05
150	0x3e13509f	0.14386223
151	0xbde373ac	-0.11106047
152	0xb7ffa369	-3.0474463e-05
153	0xb8011313	-3.077376e-05
154	0xbdec3dd9	-0.11535234
155	0xbdee79de	-0.11644338
156	0xbe18ccc7	-0.14921866
157	0xbdd3a7d8	-0.10334748
158	0xbd6c60ea	-0.057709612
159	0x3cfb36dc	0.030665807
160	0xbdf6adee	-0.12044893
161	0x3c9f71bc	0.019463412
162	0x3de1ee7c	0.110318154
163	0xbbf6dde8	-0.0075337775
164	0x3c66670a	0.014062652
165	0x3dc1ae25	0.094570436
166	0x3dda06a1	0.106457956
167	0xbd451d46	-0.04812362
168	0xbc709041	-0.01468283
169	0x3dcc87a6	0.099868104
170	0x3d4b918b	0.049699347
171	0xbd1e5e2e	-0.038664035
172	0x3d525ac1	0.05135608
173	0xbe0ae6d4	-0.13564616
174	0xbdf3d4d5	-0.11905829
175	0x3b9f41db	0.0048601455
176	0xbdc25a8a	-0.09489925
177	0x3d8bc125	0.06823949
178	0x3cd9b950	0.026577622
179	0xbd25a733	-0.040442657
180	0xbdc00792	-0.09376444
181	0xbda54fd6	-0.08071868
182	0x3d8d92fa	0.06912799
183	0x3d8c490c	0.0684987
184	0xbdfbce90	-0.12295258
185	0xbdc1934e	-0.09451924
186	0xbc03f788	-0.0080546215
187	0x3d3d5641	0.046224836
188	0xbce6285f	-0.028095422
189	0xbdde03d8	-0.10840577
190	0x3cbe709e	0.02324706
191	0xba753b7a	-0.0009354871
192	0x38b6e9f9	8.722017e-05
193	0xbe10dd09	-0.14146818
194	0xbe094df2	-0.1340864
195	0x3db6348c	0.08896741
196	0xbde2b2cf	-0.11069261
197	0xbe1ac524	-0.15114266
198	0x3d30adee	0.043134622
199	0x3df0489f	0.117326014
200	0x3e10a42b	0.14125125
201	0xb67b1ebb	-3.7419802e-06
202	0xbe1290ef	-0.143131
203	0x3dbe59cd	0.09294472
204	0xbdbac806	-0.09120183
205	0xbd94c0c5	-0.0726333
206	0xbdd5e1a3	-0.104434274
207	0xbe095fd3	-0.1341546
208	0x3d8141ec	0.06311402
209	0x3bb30f2d	0.0054644556
210	0xbdd26513	-0.102731846
211	0x3d855334	0.0651001
212	0xbcf70056	-0.030151527
213	0xbd9eaf39	-0.07748265
214	0x3ce6bb98	0.028165624
215	0x3db32052	0.08746399
216	0x3b865fc1	0.00410077
217	0x3dab4b5e	0.083639845
218	0x3c0e3b35	0.008681108
219	0x3e0d8e73	0.13823871
220	0xbd0f53c8	-0.03499201
221	0xbded4dc7	-0.115871005
222	0x3d21ef12	0.039534636
223	0xbdf2a18c	-0.11847219
224	0xbc2713a9	-0.010197558
225	0xbdd2abcb	-0.10286673
226	0x3de529b7	0.11189597
227	0xbe025503	-0.12727742
228	0xbabf9270	-0.0014615785
229	0xbac62209	-0.0015116344
230	0x3d155cb7	0.036465373
231	0x3a9e56c9	0.0012080307
232	0xbc8248af	-0.015903799
233	0xbe00a87e	-0.12564275
234	0x3cb04988	0.021519437
235	0x3432505f	1.660678e-07
236	0xba82553d	-0.0009943616
237	0xbdda58b2	-0.106614485
238	0x3ced5d90	0.028975278
239	0xbd443941	-0.047906164
240	0x3d00df3d	0.031462897
241	0x3b05bbc6	0.002040611
242	0x3d9fee1b	0.07809087
243	0xbdbf6308	-0.093450606
244	0xbe17e780	-0.14834404
245	0xb80be266	-3.3351032e-05
246	0x3b5e5591	0.0033925513
247	0xbe0a0b57	-0.13480888
248	0x3df2d152	0.11856331
249	0xbda0d977	-0.07853978
250	0xbd660b35	-0.05616303
251	0x3e143a92	0.14475468
252	0xbd336e27	-0.04380622
253	0xbe1a46f2	-0.15066126
254	0x37933b5d	1.7551409e-05
255	0xbd009c94	-0.031399325

model.backbone.encoder.layers.0.self_attn.W_K.bias f4 [32]
0	0xbc60fb32	-0.013731765
1	0x3e0cb305	0.13740166
2	0x3ddc7756	0.10764949
3	0x3e110727	0.14162885
4	0xbe326dc1	-0.1742468
5	0xbe0a5155	-0.13507588
6	0xbd79c3dd	-0.060977805
7	0xbdaddffc	-0.08489987
8	0x3e289e91	0.16466738
9	0x3d1d9327	0.038470414
10	0xbd8ed3f7	-0.06974023
11	0xbddcafec	-0.10775742
12	0xbe271226	-0.16315517
13	0x3d1cf328	0.03831783
14	0xbda335b9	-0.07969231
15	0x3d1590a1	0.036514882
16	0x3d2e20cc	0.042511746
17	0xbd752962	-0.05985392
18	0xbde19d08	-0.110162795
19	0x3e09b15a	0.1344656
20	0xbd27659f	-0.040868398
21	0xbd15a302	-0.03653241
22	0x3e33f9fa	0.17575827
23	0xbd9765d3	-0.07392468
24	0x3df87cec	0.12133202
25	0x3e073600	0.13204193
26	0x3e0334e3	0.12813143
27	0xbd1362db	-0.035982948
28	0x3d2dca82	0.042429455
29	0xbdc65ae9	-0.096853085
30	0x3d796cfb	0.060894947
31	0x3c2c1167	0.010502196

model.backbone.encoder.layers.0.self_attn.W_V.weight f4 [32, 32]
0	0xbd25d09c	-0.04048215
1	0x3dc03226	0.09384565
2	0xb7867562	-1.6028705e-05
3	0x38e3378a	0.000108345484
4	0x3cf914b5	0.030405382
5	0xb87987bf	-5.949265e-05
6	0x3d590233	0.052980613
7	0xbc6d4191	-0.014480964
8	0x3e151f60	0.1456275
9	0x3e01d3ed	0.126785
10	0x3d09cd32	0.033642955
11	0x3de401c7	0.111331515
12	0x3dbbc7d8	0.091689765
13	0xbdb72a87	-0.08943658
14	0xbd32de4d	-0.043669034
15	0x3d909771	0.07060135
16	0x3d7f5697	0.062338438
17	0xbdbac8aa	-0.09120305
18	0x3de2713c	0.11056754
19	0x37671bac	1.3775116e-05
20	0x3ac5af56	0.0015082161
21	0xbdaf40ed	-0.085573055
22	0xbe06e0c7	-0.13171683
23	0x3a844958	0.0010092659
24	0xbe108de4	-0.14116627
25	0xba2e8b4c	-0.000665833
26	0x3d31dd93	0.0434242
27	0x3d96b8eb	0.07359489
28	0x3cbee574	0.023302771
29	0x3c48359d	0.012219814
30	0xbddac6d5	-0.106824555
31	0xbdc757b8	-0.09733528
32	0x3c7252ad	0.014790219
33	0x3c880e61	0.016608419
34	0x3d5b4882	0.053535946
35	0xbe11d39e	-0.14240882
36	0x3ab6fbbb	0.001396052
37	0x3daabedc	0.08337185
38	0xbbe82126	-0.0070840297
39	0xbcc2863f	-0.023745654
40	0x3ca493c3	0.02008999
41	0x3dc204cf	0.094735734
42	0xbc0cc0fd	-0.008590934
43	0xbd042206	-0.03225901
44	0xbe1b0966	-0.15140304
45	0x3c2570d6	0.010097703
46	0xbda596fd	-0.08085439
47	0x3d3f2314	0.046664312
48	0x3c923b78	0.017850623
49	0x3da5c81f	0.08094811
50	0xbdf9c9d1	-0.121966965
51	0x3d52dd65	0.05148067
52	0x3dc4b384	0.096045524
53	0x3daa1448	0.083046496
54	0xbd93faf2	-0.072255984
55	0x3ac8a057	0.0015306574
56	0xbba2fcf7	-0.0049740034
57	0x3e090989	0.13382544
58	0xbc67f338	-0.014157109
59	0x3e123033	0.14276199
60	0x3e007e85	0.12548263
61	0x3d083907	0.03325751
62	0xbdc7c376	-0.09754078
63	0xbceeabcb	-0.029134652
64	0x3dee7e21	0.11645151
65	0x3dae1464	0.08499983
66	0xbc58890d	-0.013216269
67	0xbdfc6a3a	-0.123249486
68	0xbd8a09e3	-0.06740167
69	0xbe121ef1	-0.14269616
70	0xbc7dc38a	-0.015488515
71	0x3e0267c4	0.12734896
72	0xbb33b10d	-0.0027418763
73	0x3d16b56f	0.036794122
74	0x3acb0770	0.0015489887
75	0x3e13548f	0.14387725
76	0x3dc25bb9	0.09490151
77	0x3bc666a6	0.006054717
78	0x3e046309	0.12928404
79	0xbd83c854	-0.06434694
80	0x3de71e26	0.11285047
81	0xbe0d5a1e	-0.13803908
82	0x3b97cffc	0.004632948
83	0xbe0418a3	-0.12900023
84	0x3d91e3c6	0.071235225
85	0x3b2abf55	0.0026053984
86	0xbd7ec5c1	-0.06220031
87	0xbba167f7	-0.0049257237
88	0xbd93828c	-0.07202634
89	0xbc6be6bf	-0.014398276
90	0xbd021de5	-0.03176679
91	0xbe02191b	-0.1270489
92	0x3cbb1d3f	0.022841094
93	0x3e0aec65	0.1356674
94	0x3e03b97c	0.12863725
95	0xbd76e380	-0.060275555
96	0x38142b82	3.532647e-05
97	0xbdcc9a96	-0.099904224
98	0x3d8487ae	0.06471191
99	0xbd8e9605	-0.06962208
100	0xbbad8dca	-0.0052964436
101	0xbcaddecf	-0.021224407
102	0x3dc1bb4b	0.094595514
103	0xbd021a0f	-0.031763133
104	0x3ce2c217	0.02768044
105	0xbd37babd	-0.044855822
106	0x3dbe1c63	0.09282758
107	0x3b1bf751	0.0023798535
108	0x3b226407	0.002477886
109	0x375a46f6	1.3010334e-05
110	0x3c057144	0.00814468
111	0x3e17ef92	0.14837483
112	0x39126423	0.00013960949
113	0x3e0d7cca	0.13817134
114	0x3e13e00e	0.14440939
115	0xbd0d8375	-0.034549195
116	0x38830aa0	6.248546e-05
117	0x3da690db	0.08133098
118	0x3cd94c93	0.026525771
119	0xbca77f44	-0.020446427
120	0x3d8c3cca	0.06847532
121	0xbdf4d78e	-0.11955176
122	0xbce0ff84	-0.02746559
123	0x3dcbafec	0.09945664
124	0xbd8ba999	-0.068194576
125	0x3c4e665f	0.012597649
126	0x3d5fa87f	0.05460405
127	0xb9c20c4f	-0.00037011734
128	0x3e0b35a8	0.13594687
129	0xbc85b916	-0.016323607
130	0x3d7016ca	0.058615483
131	0xbd4cf758	-0.050040573
132	0x3dc625e2	0.09675194
133	0xbda5ab87	-0.08089357
134	0x3e131e67	0.14367066
135	0xbdce71b5	-0.10080282
136	0xbcfed057	-0.031105204
137	0x3a607fd9	0.00085639727
138	0x3d54a01f	0.051910516
139	0x38fe620b	0.00012129926
140	0x3de92030	0.113830924
141	0xbda11cb8	-0.07866806
142	0x3d79e5f4	0.061010316
143	0x3e004cb6	0.12529263
144	0xbd0be49e	-0.034153573
145	0xb86e6ea9	-5.6846682e-05
146	0x3e11e9de	0.1424937
147	0xbe11e920	-0.14249086
148	0xbd30e7c9	-0.043189798
149	0xbccadebf	-0.024764417
150	0x3d89e1ec	0.06732544
151	0xbdd46c49	-0.10372216
152	0x3dca87c4	0.098891765
153	0x3c0c01d4	0.008545358
154	0xbcab50be	-0.020912524
155	0xbc445453	-0.011982995
156	0xb80f9dc2	-3.424078e-05
157	0x3d978887	0.073990874
158	0x3ab5cada	0.0013869659
159	0x3c731a42	0.014837803
160	0xbc87f7fe	-0.016597744
161	0x3e095f61	0.1341529
162	0xbddb09db	-0.10695239
163	0xbd178a24	-0.036996976
164	0x3d6a89dd	0.057260383
165	0xbca79e3b	-0.020461192
166	0x3e10e415	0.14149506
167	0xb837206d	-4.36608e-05
168	0xbe0817cf	-0.13290332
169	0xbaa9521b	-0.0012918146
170	0xbdfd8a42	-0.12379886
171	0xbe1480e5	-0.14502294
172	0xbd9b0fc8	-0.075713694
173	0xbdc3a752	-0.09553398
174	0x3d6e1bb6	0.058131896
175	0x3ad06406	0.001589895
176	0xbe11233e	-0.141736
177	0x3c2bdb76	0.010489335
178	0xbaa01266	-0.0012212514
179	0xbd776b72	-0.060405202
180	0xbdafb509	-0.085794516
181	0x3c8c9ef7	0.017165644
182	0xbda251e3	-0.07925775
183	0x3af9e861	0.0019066447
184	0x3d6cc6f0	0.05780691
185	0xbd61fe1c	-0.05517398
186	0x3d9784eb	0.07398399
187	0x3e053b78	0.13010967
188	0x3e04e578	0.1297816
189	0x3c2a3519	0.010388636
190	0xbd330d52	-0.043713875
191	0x3dae76ae	0.0851873
192	0x3df93ef8	0.121702135
193	0x3690b5e1	4.312708e-06
194	0xbd4e7e9f	-0.050413724
195	0x3c86b2c9	0.016442673
196	0x39a6e552	0.00031832844
197	0x3dfa0f6d	0.122099735
198	0xbd072c63	-0.033001315
199	0xbda0aac6	-0.078450724
200	0x3e1acdca	0.15117565
201	0x3dfb996a	0.12285121
202	0xbd54c6e5	-0.051947493
203	0xb9499649	-0.0001922484
204	0xbcf0b10d	-0.0293813
205	0x3d342dc5	0.04398896
206	0xbdef10ab	-0.11673101
207	0xbe026cf3	-0.12736873
208	0x3d746855	0.05966981
209	0xbe024b9d	-0.12724157
210	0x3d160403	0.03662492
211	0xbdf07c88	-0.117425025
212	0xbdea0787	-0.11427217
213	0xbe024e7c	-0.12725252
214	0x3e162205	0.14661415
215	0xbdc1f8b6	-0.09471266
216	0xbddde45a	-0.1083457
217	0x389a9877	7.371691e-05
218	0x3ddc4150	0.10754645
219	0x3d140fd6	0.036147915
220	0xbd2f8811	-0.042854372
221	0xba38bb43	-0.0007046947
222	0x3d19fb34	0.03759308
223	0xbd91e9f1	-0.07124699
224	0xbd6350a6	-0.055496834
225	0xbcf6a9dd	-0.030110294
226	0xbb7c6907	-0.003851475
227	0x3e017209	0.12641157
228	0x3d1e3c52	0.038631745
229	0xbd740346	-0.059573434
230	0x3db31e2a	0.08745988
231	0xbd5d97e8	-0.054099947
232	0xbe1a8886	-0.15091142
233	0x3dea06d9	0.11427087
234	0x3ddde374	0.10834399
235	0xbd078b0c	-0.03309159
236	0xbd92fb0c	-0.0717679
237	0x37b7b7cc	2.1900887e-05
238	0x38606849	5.3502885e-05
239	0xbdf1d093	-0.118073605
240	0x3d064d76	0.032788716
241	0xbd75723c	-0.059923396
242	0xbc740d7b	-0.014895792
243	0xbd2de35c	-0.042453155
244	0xbd78daca	-0.06075553
245	0x3d9583ad	0.07300506
246	0x3d612672	0.054968305
247	0x3c71884d	0.014741969
248	0xbca38555	-0.019961039
249	0xbb93ce42	-0.004510672
250	0x3d646140	0.055756807
251	0xbda9ca6b	-0.08290561
252	0xbe00a4e2	-0.12562898
253	0x3b88d2aa	0.0041755037
254	0xbddc5f0b	-0.107603155
255	0xbde2eca3	-0.11080291

model.backbone.encoder.layers.0.self_attn.W_V.bias f4 [32]
0	0xbd6632ca	-0.05620078
1	0xbdd0bd9b	-0.101924144
2	0x3e083da4	0.13304764
3	0xbdd38222	-0.10327555
4	0xbd052dd4	-0.03251441
5	0x3d59606b	0.053070467
6	0x3e03b2dc	0.12861198
7	0x3e2a558f	0.166342
8	0xbde235c2	-0.1104541
9	0xbe34a5a9	-0.1764132
10	0x3e1fda4e	0.1561062
11	0x3da03ce7	0.07824116
12	0x3b2ce95f	0.0026384217
13	0xbd389bbd	-0.0450704
14	0xbe21a5a8	-0.15785849
15	0xbd7737a6	-0.060355805
16	0xbe14e48c	-0.14540309
17	0xbd2b8519	-0.04187498
18	0xbe08adf3	-0.13347606
19	0xbde583c8	-0.11206776
20	0xbc807df9	-0.015685068
21	0xbdaefc75	-0.08544246
22	0x3ce3061d	0.027712876
23	0x3c4513ac	0.012028616
24	0xbd8f660d	-0.070018865
25	0xbbaed51f	-0.0053354646
26	0xbe05ab3a	-0.13053599
27	0x3de89b42	0.11357738
28	0x3d505f10	0.05087191
29	0x3e15628d	0.14588375
30	0x3b2b876d	0.002617325
31	0x3db6f099	0.08932609

model.backbone.encoder.layers.0.self_attn.to_out.0.weight f4 [32, 32]
0	0xbe15dc35	-0.14634784
1	0x3dc42c4d	0.09578762
2	0x3e0e94cc	0.13923949
3	0xbd0cd91b	-0.034386735
4	0x3dfe14d0	0.124063134
5	0x3b014b67	0.0019728781
6	0xbe09498b	-0.1340696
7	0xbdb67e80	-0.08910847
8	0x3cb9a904	0.0226636
9	0x3ddd93ce	0.10819207
10	0x3e0ed1c0	0.13947201
11	0x3802aac1	3.1153442e-05
12	0x3db03a53	0.086048745
13	0xbe067645	-0.13131054
14	0x3c2bc2d9	0.010483467
15	0x3df13560	0.117777586
16	0xbe01732a	-0.12641588
17	0xbd2d6fa9	-0.042342816
18	0xbc2b1603	-0.01044226
19	0xbe1831b0	-0.14862704
20	0xbcb219d3	-0.02174083
21	0xbace66c4	-0.0015747179
22	0x3baadbbf	0.005214184
23	0xbc61337e	-0.013745187
24	0xbde3df22	-0.111265436
25	0x3cadb5c3	0.021204835
26	0x3da3eb37	0.08003848
27	0xbda5a876	-0.08088772
28	0xbdc3fc89	-0.09569652
29	0x3e02719a	0.12738648
30	0x3d09706b	0.033554476
31	0x3dfe0265	0.124028005
32	0x3ba996c0	0.0051754415
33	0x3d01c9f8	0.031686753
34	0x3b27bffb	0.0025596607
35	0x3ccbdb59	0.024884867
36	0xbd744bc9	-0.059642587
37	0x3d274148	0.04083374
38	0x3d9263e3	0.07147958
39	0x3cf712e9	0.030160384
40	0xbd87568c	-0.066083044
41	0x3d1c8dd8	0.03822121
42	0xbdc774d6	-0.097390816
43	0x3a32df77	0.000682346
44	0xbe126e38	-0.14299858
45	0x3d92b2eb	0.07163032
46	0xbe09ae61	-0.13445427
47	0x39f8cd1c	0.00047455064
48	0xbad3a342	-0.0016146677
49	0xbe04b95e	-0.12961337
50	0xbd60daae	-0.05489605
51	0xbd5d5f02	-0.054045685
52	0x3ce0c33f	0.02743685
53	0xbd984b95	-0.07436291
54	0xbe0a87d3	-0.13528375
55	0xbb7743d3	-0.0037729635
56	0xbbc33aad	-0.0059579224
57	0x3db054c4	0.08609918
58	0xbdd293b5	-0.10282079
59	0xbc7e4923	-0.015520367
60	0xba9ba3bc	-0.0011874358
61	0x3dd848ea	0.10560782
62	0xbd42fe73	-0.047605943
63	0xbdf10276	-0.117680475
64	0xbdf76121	-0.12079073
65	0xbe04ffa2	-0.12988141
66	0x3db6f31b	0.089330874
67	0xbdac0588	-0.083994925
68	0x387c872d	6.0207374e-05
69	0x3e1151bf	0.1419134
70	0x3da8c644	0.08240941
71	0x3c1c4ea4	0.009540234
72	0x3ca86545	0.020556102
73	0x3c75523a	0.014973218
74	0x3dccfd43	0.10009243
75	0xbdaa2610	-0.08308041
76	0x3c182757	0.009286723
77	0x3da5378f	0.080672376
78	0xbd1fa256	-0.038973175
79	0x3d3e9b90	0.046535075
80	0xbdc25d58	-0.0949046
81	0x3df11e4d	0.117733575
82	0xbc85f426	-0.01635177
83	0xbe117b49	-0.14207186
84	0xbda18aef	-0.078878276
85	0xbbab0d16	-0.005220066
86	0xbc0d8ef5	-0.008640041
87	0xbe112eee	-0.14178059
88	0xbe162c8f	-0.14665435
89	0xbdfbfa4e	-0.12303601
90	0xbdc290f5	-0.095003046
91	0x3e1693e0	0.14704847
92	0xbbb2bf16	-0.005454908
93	0xbce0b6a1	-0.027430834
94	0xbe19ac03	-0.15007024
95	0xbe038ee4	-0.12847477
96	0xbda1698e	-0.07881461
97	0xb8c1f988	-9.249436e-05
98	0x3d0e8433	0.034794044
99	0x3da9da1b	0.082935534
100	0x3c376083	0.011192444
101	0x3dd29861	0.1028297
102	0xbe071d32	-0.13194731
103	0x3e045421	0.12922718
104	0xbd407dfa	-0.04699514
105	0x3a8ab662	0.0010582919
106	0xbe0530b2	-0.13006857
107	0x3de4901f	0.111603014
108	0xbc1a9d4b	-0.009436916
109	0x3d1d1aba	0.038355567
110	0x3d9c7e96	0.07641332
111	0xbd729d86	-0.059232257
112	0xbd748d62	-0.059705146
113	0xbdf6801e	-0.12036155
114	0x3a8aa6bd	0.0010578256
115	0xbdb81e8e	-0.08990203
116	0x3d8bc7ff	0.068252556
117	0xb90f0d01	-0.00013642387
118	0x3cbbf3eb	0.022943458
119	0xbd10d81c	-0.035362348
120	0x3dc1c01a	0.094604686
121	0x3dec0750	0.11524832
122	0xbde0b2a0	-0.1097157
123	0xbde3bb37	-0.11119693
124	0x3d4c46aa	0.049872078
125	0xbe01e6c5	-0.12685688
126	0xbdcd1511	-0.10013784
127	0xbbe0599d	-0.0068466202
128	0xbaaa1d6c	-0.0012978739
129	0xbcff4589	-0.031161087
130	0x3d96965d	0.07352898
131	0x3e040009	0.12890638
132	0x3bc2fa19	0.005950224
133	0x3e0bd25e	0.13654467
134	0x3d3d8bfd	0.04627608
135	0xbde40be7	-0.11135083
136	0x3d804219	0.06262607
137	0xbdf80bf9	-0.121116586
138	0xbe0f1068	-0.13971102
139	0x3e10610d	0.14099522
140	0x3da1e03d	0.07904098
141	0xbcf653da	-0.03006928
142	0x3e03942c	0.12849492
143	0x38d44255	0.00010121303
144	0xbd9cc869	-0.07655413
145	0x38143d47	3.534302e-05
146	0xbd2b4aa8	-0.041819245
147	0xbd6d8aeb	-0.05799381
148	0xbdb94d43	-0.0904794
149	0x3df0e7b5	0.117629446
150	0x3e0b9b58	0.13633478
151	0xbdf88fbd	-0.12136791
152	0xbe08f4b9	-0.13374604
153	0x3dfc85ee	0.123302326
154	0xbe06c082	-0.13159373
155	0xbdf2142a	-0.11820252
156	0x3e097ab0	0.13425708
157	0xbd7a3883	-0.06108905
158	0x3dc9fb95	0.098624386
159	0x3d410ef0	0.047133386
160	0x3df106b5	0.117688574
161	0x3e0ea580	0.1393032
162	0xbdf795b5	-0.12089101
163	0x3bcc249b	0.0062299496
164	0x3e1903aa	0.14942804
165	0x3de44392	0.111457005
166	0xbde7e616	-0.11323182
167	0xbcd2a2bf	-0.025712369
168	0x3e1707fa	0.14749137
169	0x3d084d3d	0.033276785
170	0xbd7d6876	-0.0618672
171	0x3da5febe	0.08105229
172	0x3e06ed46	0.1317645
173	0xbdecc84d	-0.11561642
174	0xb80a8aa4	-3.3030883e-05
175	0xbd003f97	-0.031310644
176	0xbc9b7ef5	-0.018981436
177	0x3db45ac7	0.08806377
178	0xbb603674	-0.0034212144
179	0x3dcf21b3	0.101138495
180	0x3df52e69	0.11971743
181	0x3c2a36f4	0.010389078
182	0xbd6f1803	-0.05837251
183	0xbaeb4550	-0.0017949734
184	0xbc147e2e	-0.009063287
185	0xbdba6a3b	-0.09102293
186	0xbc24b0a1	-0.010051877
187	0xb843943e	-4.6629684e-05
188	0xb8ab8076	-8.177843e-05
189	0x3dc30b68	0.0952366
190	0x3da3b6d4	0.07993856
191	0x3e166003	0.14685063
192	0xbd7bd0e5	-0.061478514
193	0xbdc36238	-0.09540218
194	0xbd75bc2d	-0.05999391
195	0x3e10bfdf	0.14135693
196	0x3666f9b4	3.4418017e-06
197	0x3b4572ae	0.003012817
198	0x3cd77849	0.026302474
199	0x3d6773fc	0.056507096
200	0xbd919a6c	-0.07109532
201	0x3cfa5470	0.030557841
202	0xbdb9b39c	-0.09067461
203	0xbe05f636	-0.13082203
204	0xbd1173e4	-0.035510913
205	0xbcc25a01	-0.023724558
206	0xbd1028c0	-0.035195112
207	0x3d7e3f98	0.062072366
208	0x3da72d9d	0.08162997
209	0xbdcd6a7c	-0.10030076
210	0xbdc4f60d	-0.09617243
211	0x3c896154	0.016770042
212	0xbdd63f03	-0.10461237
213	0xbd4331ae	-0.0476548
214	0xba7339cc	-0.0009278327
215	0x3df3a082	0.11895849
216	0xbcb0523c	-0.021523587
217	0x3e15de8c	0.14635676
218	0xbe129e62	-0.14318231
219	0x3c7ce173	0.015434611
220	0xb86c0195	-5.6268258e-05
221	0xbda27636	-0.07932703
222	0xbd168f67	-0.036757853
223	0xbc9ab76b	-0.018886289
224	0x3d8b7da7	0.06811076
225	0xbded7279	-0.115940996
226	0x3ce61e09	0.028090494
227	0xbddc0301	-0.107427604
228	0xba93c747	-0.0011274599
229	0xbdb708a5	-0.08937196
230	0xbc47fa20	-0.012205631
231	0xbdf9b05a	-0.121918395
232	0x3e0de093	0.138552
233	0x3d79ddf8	0.0610027
234	0x3de64810	0.112442136
235	0xbe1ada1c	-0.15122265
236	0x3e055a34	0.13022691
237	0xbcc5d399	-0.02414875
238	0xbd1d9243	-0.038469564
239	0x3de525d5	0.111888565
240	0x36719357	3.5997562e-06
241	0xbcdb6a08	-0.026783958
242	0x3d7c154c	0.061543748
243	0x3db512ee	0.08841501
244	0xbd89b4a4	-0.067239076
245	0x3d8b3d24	0.06798771
246	0x3d3a665c	0.045507774
247	0x3d4cd373	0.05000634
248	0x3db770d0	0.08957064
249	0xbd6a6359	-0.05722365
250	0x3d997bc8	0.074943125
251	0x3d114f98	0.035476297
252	0xbdb72144	-0.08941892
253	0xbd914b04	-0.07094386
254	0xbd3fa68b	-0.046789687
255	0xbdb31200	-0.087436676

model.backbone.encoder.layers.0.self_attn.to_out.0.bias f4 [32]
0	0xbbdb8245	-0.006698879
1	0x3d301cbe	0.04299616
2	0xbe1b5d14	-0.15172225
3	0x3c8eb173	0.017418599
4	0x3d066c23	0.03281797
5	0xbde29e0e	-0.11065303
6	0x3c26f42e	0.010190053
7	0x3b9bd2a5	0.0047553354
8	0xbd181c72	-0.037136503
9	0x3d339b62	0.043849356
10	0xbc0b13dc	-0.008488622
11	0xbe0f4de8	-0.13994563
12	0x3d5e8d6d	0.054334093
13	0xbbfe1136	-0.0077535165
14	0x3d88158a	0.06644733
15	0xbd6b30d4	-0.057419613
16	0x3cf202f9	0.029542433
17	0x3e30fc05	0.17283638
18	0x3d71a93c	0.058999285
19	0xbe01ff34	-0.12695009
20	0x3ac58436	0.0015069309
21	0xbd18ff51	-0.037352864
22	0x3de40cc5	0.11135248
23	0xbda6e588	-0.08149248
24	0xbc66a752	-0.014077978
25	0x3e03bddf	0.12865399
26	0x3e2d4c47	0.16923629
27	0x3e2b43b6	0.16725048
28	0xbcd0b28e	-0.025475767
29	0x3d98753f	0.07444238
30	0x3d3d8b9d	0.046275724
31	0x3d5e41d1	0.054261986

model.backbone.encoder.layers.0.norm_attn.1.weight f4 [32]
0	0x3f79c0fa	0.97560084
1	0x3f79c0a8	0.97559595
2	0x3f79c0d6	0.9755987
3	0x3f79c0be	0.97559726
4	0x3f79c0af	0.97559637
5	0x3f79c0dd	0.9755991
6	0x3f79c0e1	0.97559935
7	0x3f79c0f3	0.9756004
8	0x3f79c0e3	0.97559947
9	0x3f79c0c9	0.9755979
10	0x3f79c10d	0.975602
11	0x3f79c0c1	0.97559744
12	0x3f79c0bf	0.9755973
13	0x3f79c0f0	0.97560024
14	0x3f79c0ba	0.975597
15	0x3f79c15e	0.9756068
16	0x3f79c0b3	0.9755966
17	0x3f79c134	0.9756043
18	0x3f79c0d6	0.9755987
19	0x3f79c0ef	0.9756002
20	0x3f79c0ab	0.97559613
21	0x3f79c118	0.9756026
22	0x3f79c0d4	0.9755986
23	0x3f79c0e2	0.9755994
24	0x3f79c0b2	0.97559655
25	0x3f79c06b	0.9755923
26	0x3f79c0ae	0.9755963
27	0x3f79c0c4	0.9755976
28	0x3f79c0a0	0.9755955
29	0x3f79c137	0.9756045
30	0x3f79c108	0.9756017
31	0x3f79c0e0	0.9755993

model.backbone.encoder.layers.0.norm_attn.1.bias f4 [32]
0	0xbba4421f	-0.005012765
1	0xb9c4fb81	-0.00037571418
2	0x3a2b521a	0.00065353664
3	0xbb39c75e	-0.0028347592
4	0xba6238d5	-0.00086296845
5	0x3a752419	0.0009351387
6	0xbb6b18bf	-0.0035872904
7	0x3a490ba2	0.0007669275
8	0xb99a0e96	-0.00029384036
9	0x39ec1250	0.00045027072
10	0x3b456de3	0.0030125312
11	0xba8c508f	-0.0010705161
12	0x3b1772f4	0.002310929
13	0xb950f178	-0.0001992638
14	0xb92adea3	-0.00016295402
15	0x3a35a437	0.0006929072
16	0xba0e85b9	-0.00054367963
17	0xb8bbfac9	-8.963567e-05
18	0xba4bd3f7	-0.00077754207
19	0x3b89dd7f	0.0042073126
20	0x39d261c6	0.00040127168
21	0xbad05235	-0.001589364
22	0x3b70a70b	0.003672066
23	0x3b60c411	0.0034296552
24	0x3aa5be1a	0.0012645156
25	0x3a492fe2	0.00076746766
26	0x3af5879a	0.0018732429
27	0xbb1767a0	-0.0023102537
28	0xba9c4ba5	-0.0011924399
29	0xba7d703e	-0.00096679095
30	0x3b8c5421	0.00428249
31	0xb9a2efdc	-0.00031077757

model.backbone.encoder.layers.0.norm_attn.1.running_mean f4 [32]
0	0x3e016cd8	0.12639177
1	0x3eba2b94	0.36361372
2	0xbddbf0e5	-0.10739306
3	0x3e97e01c	0.2966317
4	0xbe8f7747	-0.2802069
5	0xbe96d25a	-0.2945736
6	0xbe27357c	-0.16328996
7	0xbe1224c5	-0.14271839
8	0x3e574c08	0.21025097
9	0x3e2e6e4f	0.17034267
10	0xbe69674f	-0.22793315
11	0xbc9578a5	-0.018246004
12	0x3de9ffe1	0.11425758
13	0xbe85caba	-0.2613123
14	0xbebabae8	-0.36470723
15	0xbc57cb80	-0.013171077
16	0xbe6d7f71	-0.23193146
17	0x3de92652	0.11384262
18	0x3e0628ed	0.1310155
19	0xbe055a01	-0.13022615
20	0xbeb62d4f	-0.35581443
21	0x3dca8537	0.0988869
22	0xbd707910	-0.058709204
23	0xbe375164	-0.17902142
24	0xbe02f8c4	-0.12790209
25	0x3da7b7a3	0.08189323
26	0x3e667103	0.22504048
27	0x3f01c465	0.506903
28	0xbe0ebcc5	-0.13939197
29	0xbe8740e2	-0.2641669
30	0x3dea0e48	0.11428505
31	0xbd3dee6b	-0.04636995

model.backbone.encoder.layers.0.norm_attn.1.running_var f4 [32]
0	0x3d79949b	0.060932737
1	0x3d12a8c0	0.035805464
2	0x3ebc59f6	0.36787385
3	0x3de0b65e	0.10972284
4	0x3e04ac02	0.12956241
5	0x3d9aad84	0.07552627
6	0x3f24ab72	0.64324105
7	0x3db5d797	0.08879011
8	0x3db39e3c	0.08770415
9	0x3e1ebdd2	0.15502098
10	0x3cb89091	0.022529872
11	0x3ee440b3	0.44580612
12	0x3e0365c1	0.12831785
13	0x3e6c843b	0.23097317
14	0x3db681f0	0.08911502
15	0x3d33f693	0.043936323
16	0x3e2483dd	0.16065927
17	0x3ee4253c	0.44559658
18	0x3db5e431	0.08881415
19	0x3d5c4090	0.05377251
20	0x3e1e7957	0.15475975
21	0x3dc0af56	0.09408443
22	0x3dece17b	0.115664445
23	0x3ef02420	0.4690256
24	0x3ea96eed	0.33092442
25	0x3db2e1fd	0.0873451
26	0x3f06915d	0.52565557
27	0x3f403a48	0.7508893
28	0x3e143056	0.14471564
29	0x3d99f190	0.075167775
30	0x3f37cde3	0.71798533
31	0x3e2741f8	0.16333759
