CMI-Net/checkpoint/ConvTrans/setting1/2025_04_01_09h_31m_45s/ConvTrans-best.pth (torch, 67498 bytes, 28 tensors)

embed_layer.0.weight f4 [64, 1, 1, 8]
00000000: ceed 3cbc c207 67bc 5d88 f9bd 4352 313d
00000010: 4de9 23be 42de 28bd bbd9 e43d 030d 833e
00000020: 3d57 41bc 5918 e0bd 1062 66bd ff62 0cbd
00000030: 7068 2c3d b8ac 073c 1989 aa3d f72f 3c3e
00000040: b736 953c 48e7 883d 2507 aa3d a46a 0b3d
00000050: 7621 233d 93d8 cfbd ef23 e4bd 352e efbd
00000060: 3627 37bd e6d1 34bd 13b3 37bd b466 e8bc
00000070: 7b9c 97bd 1874 a73c 1660 913c dd32 4f3d
00000080: 5d2c 6a3c ceaf f4ba 8fbd 1b3c 7d88 c6bb
00000090: 7c22 243d 41c6 d13c 2496 e73c 912d b83c
000000a0: 4460 bc3c 05ec 1f3b 4365 c63c 5905 3dbb
000000b0: 2251 563c 3555 8b3c 65e6 aa3b 25a1 3f3c
000000c0: 1a54 ffbd de34 dabc a175 f7bd 16c4 373e
000000d0: c0c3 b0bd 2e0a cd3b ef83 81bd 8f30 793d
000000e0: a859 8dbb 8543 f6bc b925 3b3e ae1b 7c3e
000000f0: 5c05 49be 38b0 8fbe df1c 8e3c 39e2 a93d
00000100: ac67 fc3c 9f80 ad3d 1e5d ea3c 0f49 82bd
00000110: 476c b5bd 833d 9e3d 3bb2 c73d d94d 2abc
00000120: 1410 45bc f031 aa3a 79a8 28bb 6298 e5bc
00000130: 457f 4ebd 7a43 a9bc 753c 79bc 1498 7cbc
00000140: 728d 3ebe 88bd f0bd 0709 023e 629f 753b
00000150: 61a5 573e 60b2 11be 38e1 ecbd 7b94 573e
00000160: c4cb 2dbe a45f a2bd 7188 e5bd 137a 413e
00000170: 347e c03d 0523 afbd 0ca6 9ebd 33c3 233d
00000180: eb79 e8bd e4d1 433d bfa2 31be a569 45be
00000190: 16e0 d0bc c629 1f3e e763 583e 5dc2 593d
000001a0: f13a 0bbe a249 c33d 4f01 393d 03be 8d3d
000001b0: dea3 9dbd 6d30 8abc 55ff 673d 1d74 223d
000001c0: fbb8 323e a738 00be 57dd 2c3e 904b d2bd
000001d0: af34 273c 2a62 c8bd f399 69bd 1064 3e3e
000001e0: 52e0 6b3e 4492 bb3d 7514 5ebe 6fce a7bd
000001f0: c6aa 463e 0e26 9abd e6b8 4bbe 5275 a43d
00000200: 9327 8fbc b2f7 a8bc 8bc7 cfbb c83e a9bc
00000210: 3cd8 d1bc 3049 65bc 470d 16bc b8f9 9abc
00000220: 696d bf3d 7eee 7b3e 15c2 56be d555 84be
00000230: 9afa 09be dc40 8e3e d0b0 843e 1695 82be
00000240: 025d 9b3d b934 883d 205d 6b3e 6789 17bd
00000250: 7199 b73d 3deb edbd eb00 80be e18f fb38
00000260: c627 b7bd 0cd3 08bc b110 d5bc d114 2fbe
00000270: a8c0 013e 05b0 083e 213f 163e feab ed3c
00000280: b57f 80bd a256 e3bb 3ecd 36bc a426 38bc
00000290: ea46 32bd b27a 163c 3ee4 eebc 8ea7 7e3c
000002a0: dfc7 7dbe d564 723d 870e 22bc 27fd 313e
000002b0: 831e bb3c 4664 59be 39cb 753e c747 72be
000002c0: c5d7 d43c 9c0b 45bd d31d a73c a7df e23c
000002d0: e402 493d b223 053c 37d0 de3c 783d 753c
000002e0: 8887 1ebc 22d1 203c 149f d03c e636 a03b
000002f0: c71f 8e3c 22d7 843c 1577 543c a7d6 da3c
00000300: b9d5 f4bc cf94 f4bc 7206 9b3c 9f10 ebbc
00000310: 704b 1abd 4274 353d 8683 b3bc fe05 77bd
00000320: 0039 9cbe 3013 113e 512e 723d 566a 3f3e
00000330: a35c f1bc 2150 b8bd 31b7 743e 790f 53be
00000340: 958b 2abe 0dfe 513e a9a5 8c3e 2fa8 0dbe
00000350: ae09 86be a59b 9e3c 0ff1 bb3a c176 a43d
00000360: f2cf 023e 0344 df3c b1e8 11be 3f7b 11bd
00000370: d741 f13d 36ed 993c 58ad 43be ab4e 33bd
00000380: 26ed e5bc 4a62 99bd 339d b13d 58ab a53d
00000390: f910 003e f328 033e ebd6 48bc 322c 30be
000003a0: 1099 773b afa1 cf3b 33d2 c63b afdb 5c3c
000003b0: d710 d83b 4529 9e3c d7dc 953b 1359 833c
000003c0: ad1f 47be 0bc8 dc3d 0a2d 243d 0aed 643d
000003d0: a6bd a3bd a698 1b3d 0fcb ef3c e891 4bbe
000003e0: 7d06 c6bd c26a ef3d 0b65 31be c550 a0bd
000003f0: 5539 1a3e d5f9 0f3e 5869 21be 75a0 c13d
-0.011531306 -0.014100971 -0.12184212 0.04329134 -0.16006966 -0.041227587 0.11174341 0.25595865
-0.011800584 -0.10942144 -0.056245863 -0.034274098 0.042091787 0.008280925 0.083269306 0.18377672
0.018214567 0.066847384 0.08302144 0.034037247 0.039826833 -0.1014873 -0.11139666 -0.11678735
-0.04471513 -0.044145487 -0.044848513 -0.028369285 -0.07402893 0.0204411 0.017746013 0.050585616
0.014292804 -0.0018668117 0.0095056435 -0.006058751 0.04007195 0.02560723 0.028269835 0.022482665
0.022995122 0.0024402153 0.024218207 -0.0028842299 0.013080867 0.017008403 0.0052154534 0.011696135
-0.12467213 -0.026636537 -0.12082983 0.17945895 -0.08631086 0.006257317 -0.063239925 0.060837325
-0.0043136664 -0.030061493 0.18276109 0.24619934 -0.1963095 -0.28064132 0.017347751 0.08295102
0.030811153 0.08471798 0.028608855 -0.06361591 -0.08858543 0.07726576 0.09750792 -0.010394537
-0.012027759 0.0012984853 -0.0025735183 -0.028026763 -0.050414342 -0.020662058 -0.015212168 -0.015417118
-0.18608645 -0.117549 0.12698756 0.0037479033 0.21059181 -0.14228201 -0.115663946 0.21052735
-0.16972262 -0.07928398 -0.11207665 0.18894224 0.09399071 -0.08551601 -0.07746515 0.03998108
-0.11351379 0.04780759 -0.17347239 -0.19278581 -0.025497478 0.15543279 0.2113186 0.053163875
-0.13596703 0.09535529 0.045167264 0.069210075 -0.07697271 -0.016868794 0.056639988 0.039661516
0.17453377 -0.12521611 0.1688131 -0.10268319 0.010205432 -0.09784348 -0.057031583 0.18592858
0.2303479 0.09158757 -0.21687491 -0.08193671 0.19401082 -0.075267896 -0.19894752 0.080301896
-0.017474925 -0.020625923 -0.006340926 -0.02065982 -0.025615804 -0.0139945 -0.009158439 -0.018917903
0.0934704 0.24602696 -0.20972474 -0.25846735 -0.13474503 0.2778386 0.25916147 -0.2550437
0.07586099 0.06650681 0.22984743 -0.03699627 0.089648135 -0.11617134 -0.250007 0.00011995412
-0.08943133 -0.008351099 -0.026008936 -0.17097785 0.12671149 0.13348396 0.1467252 0.029012676
-0.06274358 -0.0069378177 -0.011157332 -0.011239681 -0.04352466 0.009184526 -0.029161569 0.015542878
-0.24783276 0.059178192 -0.009891159 0.17381726 0.022841698 -0.21229658 0.24003305 -0.23660193
0.025981793 -0.048106775 0.020399963 0.027694536 0.049075022 0.008126186 0.027198894 0.014968269
-0.009675868 0.009815486 0.02546648 0.004889357 0.017349137 0.016215865 0.0129678445 0.026713682
-0.029887067 -0.029856114 0.018923972 -0.028694449 -0.0376696 0.044300325 -0.021913301 -0.06030845
-0.30512238 0.14167476 0.059126202 0.18692908 -0.029463118 -0.089996584 0.23898007 -0.20611371
-0.16654809 0.20507069 0.2747014 -0.13833688 -0.2617926 0.019361326 0.0014338809 0.08030463
0.12774637 0.02725411 -0.14248921 -0.035517927 0.11780136 0.018789869 -0.19109094 -0.043776195
-0.028067183 -0.0748945 0.086725615 0.08089322 0.12506475 0.1280859 -0.012258272 -0.17204359
0.0037780441 0.006336413 0.006067538 0.013480111 0.0065938043 0.019306788 0.0045734453 0.016033685
-0.19445677 0.10780343 0.040082015 0.05589012 -0.07995157 0.037987374 0.02927163 -0.19879878
-0.09669206 0.11690284 -0.17323701 -0.078279056 0.15060933 0.14060147 -0.15762842 0.09454433

embed_layer.0.bias f4 [64]
00000000: 1831 debd 90d7 fdbd 860c 863e e322 923e
00000010: 938f 2ebe 6f8f 413e b396 9cbe cca3 b43d
00000020: 7024 46bd d20a 4dbe 7e88 03be 031e 623c
00000030: e039 44bd 9004 aabe a55d 183d 5661 89be
00000040: 4969 45be 4ddc 883e fe95 9fbc 9cce b4be
00000050: 1960 a73e c58f 503e ed79 883e c724 10be
00000060: 7b25 633e a429 3dbd 05e1 a33e 25de 3a3e
00000070: 3cd0 3a3e fbdd f939 2638 f8bd 1469 5dbe
00000080: fc19 08be 7965 cfbd 3661 573d 0028 5abe
00000090: 6f0f 6ebe 2d9e 7fbe 2a58 3dbe 6d6f abbe
000000a0: cd54 3bbe d423 04be 1ee9 55be 2eb8 8ebe
000000b0: 0809 e9bd da0a 9a3d 3287 c8bd 4064 7b3e
000000c0: 680d 89be a655 79be 6d65 c8bc ddc2 123d
000000d0: b26d 8e3e 18ba 69be 2e14 683e c3d5 4abe
000000e0: 612c f3bd 7860 dabd 96e8 86bd b578 283e
000000f0: 2528 133e 1864 7b3e 61b3 9fbe a5fb 71be
-0.10849208 -0.12394631 0.2618143 0.2854224 -0.17046957 0.18902372 -0.30583724 0.08820304
-0.048374593 -0.20023659 -0.12845036 0.013801101 -0.047906756 -0.33206606 0.03719868 -0.26832074
-0.19278444 0.26730576 -0.019480702 -0.3531388 0.32690504 0.20367344 0.26655522 -0.1407653
0.22182266 -0.04618229 0.32007614 0.18248804 0.18243498 0.0004765837 -0.121200845 -0.21622115
-0.13291162 -0.10126776 0.052582942 -0.21304321 -0.23248075 -0.24962683 -0.18490663 -0.3348345
-0.18294068 -0.12904292 -0.20889708 -0.27874893 -0.11378676 0.07521601 -0.097914115 0.24549961
-0.2676804 -0.24349079 -0.024462426 0.035830367 0.27818066 -0.22824895 0.22663948 -0.19808106
-0.11873699 -0.10662931 -0.06587331 0.16452296 0.14370783 0.24549901 -0.31191543 -0.23631151

embed_layer.1.weight f4 [64]
00000000: 5f7c 293f facd 333f 84ef 363f fb26 333f
00000010: bba5 443f 4048 3f3f 7ec1 2c3f da8a 2d3f
00000020: 733d 2c3f 8567 513f edf0 423f 4f90 2f3f
00000030: 6caa 3e3f 1448 2e3f f645 383f e6d8 423f
00000040: 2072 453f baba 243f 4b6e 2c3f 2a97 2d3f
00000050: 3c77 583f bed3 493f 4c3b 423f 0239 483f
00000060: 65ae 433f 34ba 4f3f 42b5 3d3f 84c8 3a3f
00000070: b68e 1d3f aaf0 2d3f 51fd 3c3f b37c 283f
00000080: 7b57 273f 35f6 283f d1ac 2c3f 175a 443f
00000090: 1e3e 453f 2bfa 3f3f 071c 203f 7201 453f
000000a0: b797 353f 0c47 3b3f 2be3 423f c869 313f
000000b0: c730 493f 0960 323f b927 2a3f 4fdf 573f
000000c0: eb5a 3a3f d5d7 353f dd84 3f3f f123 293f
000000d0: 05b8 273f 836c 4d3f 52be 1b3f 072b 293f
000000e0: f146 3f3f 46d6 243f 6a72 2a3f cf3d 2f3f
000000f0: 6001 3e3f 38f9 553f 87b8 423f 211b 3e3f
0.662054 0.7023617 0.7145922 0.69981354 0.76815385 0.7471962 0.67482746 0.67789996
0.67281264 0.81798583 0.76148874 0.6857957 0.74478793 0.6807873 0.7198175 0.7611221
0.77127266 0.6434742 0.67355794 0.67808783 0.8455694 0.7883872 0.7587173 0.78211987
0.7643798 0.811435 0.741047 0.7296221 0.61545885 0.6794535 0.7382403 0.65815276
0.6536786 0.6600068 0.67451197 0.76699966 0.7704791 0.749911 0.62542766 0.7695533
0.70934623 0.73155284 0.7612788 0.69302034 0.78590053 0.6967779 0.6646686 0.84325117
0.7279498 0.7103246 0.7481211 0.6607047 0.65515167 0.802437 0.6083728 0.6608128
0.74717623 0.64389455 0.6658083 0.6845369 0.7422085 0.835834 0.76062816 0.74260145

embed_layer.1.bias f4 [64]
00000000: 4465 3a3b 3210 64bd 24cb 403d 893a 183d
00000010: 5855 8abb 628e 663c 6429 cc3c 08a2 00bc
00000020: f454 0e3d ee1e 803c c764 523d 7881 263d
00000030: 675f 423c 93ac 5c3d 9493 bebc ccc4 1b3b
00000040: aa39 8d3a c4df a3bb 564a be3d f19d f53c
00000050: acb3 9bbc 3445 12bc 6ff4 1c3c 4986 9a3b
00000060: d99a 3d3b aac5 fc3c e3b2 7ebd 9e91 c83c
00000070: aed0 ad3c 9d5f 8a3c bace 773c 437d a23c
00000080: 962b 503d d4e6 91bc 17dd 80bd d3de 3bbc
00000090: 7953 58bc 800d 913c e778 7ebc adc5 60bc
000000a0: ba0c 09bd aea8 673c f62f 673d 651b 8cbd
000000b0: fab8 7e3c b6a8 f93c c41c 2bbd 39ba c13d
000000c0: 880e c5bb 71da 99bc c38b bcbb 81bc 273d
000000d0: 7eef acbb 1cd1 633c 6c28 663c b2ed 723c
000000e0: 90de 463d 061f a838 b6b2 69bd 57b5 16bc
000000f0: 56c6 f7b8 a330 593c 1909 a83c 79d1 33bc
0.0028441707 -0.055679508 0.04706873 0.0371652 -0.0042215995 0.014072033 0.02492208 -0.007851131
0.034748986 0.015639748 0.05136564 0.040650815 0.011863566 0.053875517 -0.02326373 0.0023768423
0.0010774632 -0.00500104 0.09291522 0.029982539 -0.019006573 -0.008927632 0.009579762 0.004715715
0.0028931408 0.030855972 -0.06218232 0.024483498 0.02121767 0.016891295 0.015124971 0.01983512
0.050822817 -0.017810263 -0.062921695 -0.0114667 -0.013203495 0.017706633 -0.015531755 -0.013719005
-0.033459403 0.014139337 0.056442223 -0.068411626 0.015547032 0.030475955 -0.04177548 0.09459347
-0.006013695 -0.018780919 -0.0057539656 0.040951256 -0.005277573 0.013904836 0.014047723 0.014827179
0.048552096 8.016643e-05 -0.057055198 -0.009198508 -0.00011814821 0.013256225 0.02051215 -0.010975235

embed_layer.1.running_mean f4 [64]
00000000: 9316 e7bd fc31 08be f4ce 893e c596 993e
00000010: 5e63 3bbe 4a70 383e 0542 94be b1e2 af3d
00000020: e364 80bd b5f5 3ebe ee0f 03be 13cb 023d
00000030: 4210 2fbd 24d9 adbe ac7e be3c 4c24 8abe
00000040: 896a 38be a3b1 883e e774 d4bc c655 bbbe
00000050: 0c3c ae3e 8b74 633e f74e 823e 5f45 1abe
00000060: 2523 713e 26b4 42bd 3976 a33e cb98 463e
00000070: a23b 2c3e 5783 debb 573f d3bd 77de 5cbe
00000080: d568 08be 14a0 e5bd c5d4 513d 9d9c 6fbe
00000090: c773 6abe 477f 86be dfb6 41be 3c23 b1be
000000a0: ed5d 35be 1ee5 17be 1e9e 55be 0285 97be
000000b0: d118 d0bd 04fd 6e3d f601 e0bd f050 7b3e
000000c0: e3a8 8abe 3b9b 80be bbd1 26bd 52b3 e23c
000000d0: 75cf 873e 8501 64be bcb2 723e cfbc 55be
000000e0: 034d edbd d2ee bfbd 0a51 5dbd ad5c 203e
000000f0: 9cdc 203e 23fc 833e b343 97be d12a 82be
-0.112836026 -0.13300318 0.26915705 0.2999784 -0.18299624 0.18011585 -0.2895662 0.0858816
-0.062692426 -0.18648417 -0.12799045 0.031931948 -0.042740114 -0.33954728 0.023253761 -0.26980817
-0.1800939 0.26698026 -0.02593465 -0.36588877 0.34030187 0.22212426 0.2545087 -0.15065525
0.23548563 -0.047535084 0.31926134 0.19394223 0.16819623 -0.0067905593 -0.103148155 -0.21569239
-0.1332124 -0.11212173 0.051228303 -0.23399587 -0.22895728 -0.2626898 -0.18917416 -0.34597194
-0.17711611 -0.14833495 -0.20861098 -0.29593664 -0.10160983 0.058346763 -0.10937874 0.24542594
-0.27081975 -0.2511843 -0.04072736 0.027673397 0.26525465 -0.22266205 0.23700994 -0.20872806
-0.115869544 -0.09371723 -0.054032363 0.15660353 0.15709156 0.25778303 -0.29543838 -0.2542329

embed_layer.1.running_var f4 [64]
00000000: 5de7 a63c 81e3 8d3c bb0a 683c 4bf0 933c
00000010: 39ae 4a3c 9dbb c93b c910 ee3c f0b8 043d
00000020: c719 ac3c 772c 713c d960 c73c cbe8 273d
00000030: cf60 e43c a205 213c 48c5 ea3c 66bb e43c
00000040: bd6a 4a3c ef5b 653d 2a84 d43c 0f0d e63c
00000050: a022 6a3c 5d74 593d 241e 413c 4af8 fa3b
00000060: b286 7a3c db12 ec3c bfc8 073d a30c bf3c
00000070: 24a0 d63c 16a4 853b e7f7 173d dde6 833c
00000080: cb9e 9c3c 35a9 fd3c 651d a63c 0319 263d
00000090: 68db db3c aa63 b23c 3733 7e3c e581 833c
000000a0: 6923 d43c 774c 383d c3f3 153c 45b5 223d
000000b0: a929 4f3c 7a46 443d 6746 cf3c fc0c 253d
000000c0: 2ef7 f43c 9f66 ce3b 8460 193d e262 b83c
000000d0: 0c43 8c3c 21a3 4f3b 6263 b93c 660d 5f3c
000000e0: 39f3 8c3a b92d cf3c 7571 b73c fb69 e03b
000000f0: 4b70 e53c 4fac 573c 6930 c03c e66d 1b3d
0.020373994 0.017320396 0.014162715 0.018058917 0.0123706395 0.0061563984 0.029060738 0.032402933
0.021008385 0.014720074 0.024338173 0.040993493 0.027878193 0.009828003 0.028658524 0.02792139
0.01235455 0.055995878 0.025941927 0.028082399 0.014290482 0.05308949 0.011786971 0.007658993
0.015290903 0.028817585 0.03315043 0.023321455 0.026199408 0.0040783985 0.037101652 0.016101295
0.019118687 0.030964473 0.020277688 0.040551197 0.02683802 0.02177604 0.01551514 0.01605315
0.025895791 0.044994798 0.009152356 0.039723653 0.01264421 0.047918774 0.025302125 0.040295586
0.02990302 0.0062988545 0.03744556 0.022508088 0.017121814 0.0031682926 0.022630397 0.013614034
0.0010753638 0.025290357 0.022392968 0.0068485714 0.028007647 0.01316364 0.023460584 0.037946604

embed_layer2.0.weight f4 [16, 64, 3, 1]
00000000: 675d 103d 411e c5bb ac30 e03a e3d2 a33c
00000010: d0df 93bc 3134 5d3c 7508 4d3b 46de ca3c
00000020: 1dc7 963c 6e88 d7bb 10f5 9abb 37e4 9cbc
00000030: 8c01 843c 8096 273d f4cc 1f3c 0d89 a4bc
00000040: 55a2 0c3d 1556 b5bc f474 02bd 357d c83b
00000050: a958 b03b dba4 8a3c 8488 a73a e197 8c3c
00000060: a5c5 07bd 6f8d 3b3d e42f eab8 f1bf 913c
00000070: 3baa ec3b 5429 d4bc 7285 8bba 7dbe 913c
00000080: 8159 803c a3e1 a03c 9242 bd3c d7b6 b2bb
00000090: 90ef 073c e912 3f3c e316 663a 8378 d1bc
000000a0: ae5c 283a c715 123d 714e 4ebc 896b c63c
000000b0: 3c4a e63a fb97 ef3c 3585 cf3b a256 033c
000000c0: 01b4 41bd 6e33 493c 9442 2c3c 5ad4 7db9
000000d0: f67b 873c e328 813b 2a2a a63c d1ae 92bc
000000e0: ac52 d13a 5d45 40bc 7fc8 d33b 6236 a93c
000000f0: 094e d8bc 914b 9f3c eb4d adbc bbd9 05bc
00000100: a0aa c8bc a6db af3c 7fb7 e7bc 4ad1 523b
00000110: 8dd4 e53c 613b f6bc f5d3 97bc 3e6d 0b3d
00000120: 8cd0 c93b 387e 543d 51a3 dd3b dfd1 4b3c
00000130: daa7 933c 370c a6bb 38a1 043d 9425 c53c
00000140: c3f7 22bc 6402 0fbd 1b74 1cbd de2f a83c
00000150: 82b1 913c b6f9 a13c 18a4 d33c 249f 32bd
00000160: 1927 3c3d 8446 bcbc 1e2e 233b 6dad dcbc
00000170: 2d49 07bd 9ab1 fe3c e54b 9d3a 3380 8b3b
00000180: e0d2 263d 3c28 35bc b894 53bc a994 1cbd
00000190: 438c 9e3c af0c 45bc 148c 6dbb 1279 0e3c
000001a0: 7390 80bc 69bc 01bd ecf4 6bbc 565c 3e3d
000001b0: 178f 823c 9829 273c 9aaf 843c 7285 6f3c
000001c0: 77d7 ca3c cd58 ea3b 8a96 443c 0ec3 17bd
000001d0: 3d62 743c 94ac f13c 56c7 99bc e7e3 34bc
000001e0: db99 fe3c ab14 773c 89d1 25bc cde9 7dbc
000001f0: 51dc df3c 78b1 a03c 8406 a53c c44c 733b
00000200: dce3 253b a552 afbc 5eea e8bc be7b 11bc
00000210: 9787 37bc ada9 ad3c 0741 a83c e425 233c
00000220: 0f70 7a3c 11e7 513c 2490 24bc d54c d2bc
00000230: a503 acbc 4518 523c c145 6dbc 9e07 99bb
00000240: 8fb2 3bbc 7711 043c 8501 52bb 3fe7 93bc
00000250: 1cac 3eba 7584 273c 7d61 50bb 421d 5ebc
00000260: 83bc 3ebc 55e3 ab3b 3fd7 713c 36e5 823c
00000270: 2c46 cb3c 0646 f73b fd18 473c f644 05bd
00000280: c295 b73c 0053 e5bc 962c fcba 627e 773b
00000290: c3e5 0b3c 7827 21b9 223e 24bd bd81 d738
000002a0: e79c 4bbd 103e 033d 5a33 0dbb 6904 fb3c
000002b0: 085c da3c 92a4 ffb9 5d5d b2bb 89f9 13bd
000002c0: cbf7 7f3c 717d 853c f9b6 633c e878 f33b
000002d0: f78d f73b deea 0b3d 1f77 0f3c 4744 16bd
000002e0: 0d42 0ebd 1ead e13c a29e bcbb 7f12 a0bc
000002f0: 3433 b3bc b75b fbbb 1018 ac3b f05e e43c
00000300: 01c5 343b 0135 bc3c 08ca 853c dbfc fbbc
00000310: 4e9f 343c 878a 0d3d 21e2 2e3c 2e53 d63c
00000320: 3bdc c7bc 2e6e 1ebd ab56 c3bc f0d9 84bb
00000330: 6945 a2ba d6d1 473c 5888 35bc 9977 82bc
00000340: c552 3d3d b9b6 6bbc e6b7 a33c ee3c c2bc
00000350: 9782 cd3a 38f7 b2bc 0dd4 3abc 12c2 9a3c
00000360: d38d 14bc ac3d cb3b a45f e2bb 7e25 07bc
00000370: 51bd f93b eec1 32bd 0eee 813c 5011 c1bc
00000380: 44db b43c 593f 063c e0ea 473d 501e a83b
00000390: d395 d93c 505d 233d b2ee e23c 129d 563c
000003a0: 5e6f a43b 25a7 233c 0b9a 133d cd13 2c3d
000003b0: 23dc b0bb da40 2cbc fe27 2abc 9041 c43b
000003c0: 3491 fb3c f6fe d93b 2f8d a6bb 2743 c3bc
000003d0: 529e 89bc db9a 173d 7627 70bc 1c47 2d3c
000003e0: 9e6c 6b3c 934d 27bc 35f9 4f3c ec47 2b3d
000003f0: d529 c33c 6699 3b3c 19d0 78bb 33f4 dabb
0.035245325 -0.0060155694 0.0017104349 0.01999802 -0.018051058 0.013501213 0.0031285558 0.024764191
0.018405491 -0.006577543 -0.0047289208 -0.01915179 0.016114019 0.040915012 0.0097534545 -0.020084882
0.0343345 -0.022135774 -0.031849816 0.0061184415 0.005381663 0.016924312 0.0012781774 0.017162265
-0.033147473 0.04578918 -0.0001116691 0.01779172 0.0072224415 -0.025898613 -0.0010644628 0.017791027
0.015667679 0.019638842 0.023103032 -0.005453925 0.008296862 0.011662223 0.0008777214 -0.02557016
0.0006422502 0.0356653 -0.012591944 0.024221199 0.0017569731 0.029247275 0.006333018 0.00801626
-0.047290806 0.012280328 0.01051392 -0.00024207067 0.016538601 0.0039416417 0.020283777 -0.017905625
0.0015970073 -0.0117352875 0.00646311 0.020655815 -0.026404398 0.019445213 -0.021155318 -0.008169587
-0.024495423 0.021467041 -0.02828574 0.0032168203 0.028055454 -0.030057611 -0.018533686 0.03403973
0.006158894 0.051878184 0.0067638536 0.012440174 0.018024374 -0.005067374 0.032380313 0.02406577
-0.009946766 -0.03491439 -0.038196664 0.020530637 0.017784838 0.019772392 0.025835082 -0.0436088
0.045935724 -0.022982843 0.0024899314 -0.026938165 -0.03302877 0.031090546 0.0012000768 0.004257226
0.04072845 -0.011056956 -0.012913875 -0.03822771 0.019353991 -0.01202695 -0.0036246823 0.008695858
-0.015693879 -0.031673823 -0.014401656 0.046474777 0.015937371 0.010202788 0.016197015 0.014619218
0.024760945 0.007151699 0.011998782 -0.037051253 0.014916 0.029501237 -0.018771809 -0.011040664
0.031079223 0.015080611 -0.010120758 -0.015497637 0.027326735 0.019615874 0.020144708 0.0037124613
0.0025312817 -0.021401713 -0.028432067 -0.0088796 -0.011201761 0.021199072 0.02053882 0.009957764
0.015285506 0.012811438 -0.010044131 -0.025671402 -0.020997832 0.012823169 -0.014481963 -0.0046700975
-0.011456146 0.008060805 -0.0032044363 -0.018054603 -0.0007273571 0.010224451 -0.0031796389 -0.01355678
-0.011641624 0.005245606 0.014760791 0.015978437 0.024813734 0.0075461892 0.012151954 -0.03253647
0.022410277 -0.027993679 -0.0019239362 0.003776454 0.008538666 -0.0001536886 -0.040098317 0.000102761645
-0.04971018 0.03204161 -0.00215455 0.030641751 0.026655212 -0.00048760005 -0.0054432587 -0.036126647
0.015623043 0.016295167 0.013898605 0.0074301846 0.0075547653 0.034159534 0.008756428 -0.036686208
-0.03473096 0.027548369 -0.005756215 -0.01954007 -0.021875001 -0.0076708454 0.005251892 0.027877301
0.0027583244 0.022974493 0.016331688 -0.03076022 0.011024309 0.034555938 0.0106740305 0.02616271
-0.024397006 -0.038679294 -0.023845037 -0.0040543005 -0.0012380305 0.012196025 -0.01107987 -0.01592617
0.046221513 -0.014386826 0.01998515 -0.023710694 0.0015679178 -0.021846399 -0.011403096 0.018891368
-0.009067017 0.00620242 -0.006908374 -0.008248685 0.007621445 -0.043641977 0.015860584 -0.023567826
0.02207721 0.008193814 0.04880798 0.0051305667 0.0265607 0.03988391 0.02770171 0.013098972
0.005018159 0.009988581 0.03603558 0.04201107 -0.005397336 -0.010513509 -0.010385511 0.005989261
0.030708887 0.006652708 -0.0050827484 -0.023835732 -0.016799126 0.037012916 -0.014657846 0.010576036
0.014369158 -0.010211366 0.012693693 0.041816637 0.023823658 0.011450147 -0.0037965833 -0.006681943

embed_layer2.0.bias f4 [16]
00000000: b3e3 7bbd f0c7 01bd 5401 cbbc bf48 81bd
00000010: 7ac7 3fbc 7bf5 583d 4e0b 3d3d 9ea5 843d
00000020: 3d6f 963c ff8c 1f3c 146d 42bd 157a 383c
00000030: 8860 273d 6dc8 7e3d 9e7e e53c da4b 65bd
-0.061496448 -0.031684816 -0.024780907 -0.06312703 -0.011705274 0.052968483 0.04615336 0.064769015
0.01836359 0.009738206 -0.047467306 0.011259575 0.040863544 0.06220286 0.028014477 -0.05598054

embed_layer2.1.weight f4 [16]
00000000: 03ee 313f 6ebb 363f 7728 683f fc6f 5c3f
00000010: 0580 4b3f c1cb 2f3f e323 3f3f 225f 543f
00000020: ec5e 433f 3d0a 5f3f b6d4 533f d006 483f
00000030: 5f0a 3e3f 6671 763f dbb5 473f bf6f 253f
0.695038 0.71379745 0.90686744 0.86108375 0.7949222 0.6867028 0.74664134 0.8295766
0.76316714 0.87125 0.82746446 0.78135395 0.74234575 0.9626678 0.78011864 0.64623636

embed_layer2.1.bias f4 [16]
00000000: 72cb d7bc 5d85 89bd 6b23 c03b 49de 493d
00000010: 949d 70bd b874 87bd d92f bdbc 4589 873a
00000020: 1ea8 1a3c 411a cfbb ba43 c5bd 02a7 b3bc
00000030: 1adb 243d 9c70 2d3d eb91 23bd fe20 7abd
-0.026342127 -0.0671489 0.005863597 0.049284253 -0.05874403 -0.06614059 -0.023094105 0.0010340592
0.009439496 -0.0063202684 -0.096320584 -0.021930221 0.040248014 0.04234372 -0.03993408 -0.06106662

embed_layer2.1.running_mean f4 [16]
00000000: 28d1 e03c 84e7 9c3d f9e3 623d 5a64 5bbd
00000010: 4740 3c3e 39c8 513d f835 283e 4d8c d13d
00000020: b1ed 103e 8bd2 003d 8dec ea3d b29e 80bd
00000030: 794e 233d fce4 8b3d 5662 843d 0853 e1bd
0.027443483 0.076613456 0.055393193 -0.0535625 0.18383895 0.051216338 0.16426837 0.102318384
0.14153172 0.03145079 0.114709 -0.06280269 0.03986976 0.06830785 0.064640686 -0.11002165

embed_layer2.1.running_var f4 [16]
00000000: a427 ad3c 1dff 6b3c 9f0c b53c 05bf 503c
00000010: 4158 b23b 6133 893c 1913 353c d353 c63c
00000020: 81c4 a73c 385a 0f3c 6ccf f53c 029d 933c
00000030: 0568 e63b f7f3 e93b 6281 c33c 88ac 9c3b
0.021137066 0.014404085 0.022100745 0.012740855 0.0054426496 0.016748132 0.0110519165 0.024209892
0.020479443 0.008749537 0.030006133 0.018019203 0.007031443 0.0071396786 0.023865405 0.0047813095

Fix_Position.pe f4 [1, 50, 16]
00000000: 0000 0000 0000 803f 0000 0000 0000 803f
00000010: 0000 0000 0000 803f 0000 0000 0000 803f
00000020: 0000 0000 0000 803f 0000 0000 0000 803f
00000030: 0000 0000 0000 803f 0000 0000 0000 803f
00000040: de0e a13e 1801 733f b7e3 ce3d beb0 7e3f
00000050: b40c 033d 73de 7f3f a5ca 253c a5fc 7f3f
00000060: 00b7 513b aaff 7f3f afa2 843a f8ff 7f3f
00000070: abc5 a739 ffff 7f3f 8637 d438 0000 803f
00000080: cde1 183f 2656 4d3f c6d4 4d3e 66c6 7a3f
00000090: 87fb 823d d479 7f3f 78c8 a53c 94f2 7f3f
000000a0: b9b6 d13b a8fe 7f3f aaa2 043b deff 7f3f
000000b0: aac5 273a fdff 7f3f 8637 5439 0000 803f
000000c0: 8ab6 513f 35d2 123f 490e 993e 394b 743f
000000d0: 5f4e c43d 3ed2 7e3f 47a7 f83c cee1 7f3f
000000e0: b348 1d3c fbfc 7f3f f3f3 463b b3ff 7f3f
000000f0: 7ea8 7b3a f8ff 7f3f a529 9f39 ffff 7f3f
00000100: 8740 753f 57cc 923e 4ea1 c93e 3150 6b3f
00000110: e1b6 023e dde7 7d3f c7bf 253d 52ca 7f3f
00000120: a0b5 513c a2fa 7f3f 98a2 843b 77ff 7f3f
00000130: a8c5 a73a f2ff 7f3f 8637 d439 ffff 7f3f
00000140: 0ee4 7f3f a333 efbc 3524 f83e d4ec 5f3f
00000150: 4f24 233e edba 7c3f 9327 4f3d 22ac 7f3f
00000160: 0011 833c 9df7 7f3f 2ecb a53b 29ff 7f3f
00000170: 11b7 d13a ebff 7f3f b4a2 043a feff 7f3f
00000180: 9b8c 703f 3c2e afbe 970e 123f f63e 523f
00000190: fa66 433e bf4b 7b3f f289 783d 3e87 7f3f
000001a0: d846 9d3c ecf3 7f3f b7f3 c63b cbfe 7f3f
000001b0: 77a8 fb3a e1ff 7f3f a429 1f3a fdff 7f3f
000001c0: eec8 483f 05d0 1ebf 868c 263f 6a6a 423f
000001d0: 6c76 633e b29a 793f e6f2 903d a75b 7f3f
000001e0: 467c b73c 8fef 7f3f 351c e83b 5bfe 7f3f
000001f0: eecc 123b d6ff 7f3f 94b0 393a fcff 7f3f
00000200: 90a2 0c3f 25e9 55bf 3b56 393f a798 303f
00000210: 20a5 813e 38a8 773f 069d a53d 5e29 7f3f
00000220: 3ab1 d13c 87ea 7f3f 51a2 043c dafd 7f3f
00000230: 9fc5 273b c9ff 7f3f 8437 543a fbff 7f3f
00000240: c569 843e 6b4a 77bf 813a 4a3f 5bf8 1c3f
00000250: 0e6d 913e d374 753f cf42 ba3d 66f0 7e3f
00000260: a0e5 eb3c d3e4 7f3f 7f36 153c 48fd 7f3f
00000270: 50be 3c3b bbff 7f3f 75be 6e3a f9ff 7f3f
00000280: 8719 6fbd 3f90 7fbf 190d 593f eabc 073f
00000290: dd0e a13e 1801 733f b5e3 ce3d beb0 7e3f
000002a0: b40c 033d 73de 7f3f a3ca 253c a5fc 7f3f
000002b0: 00b7 513b aaff 7f3f b3a2 843a f8ff 7f3f
000002c0: 5d27 bdbe 9be3 6dbf 32a7 653f e53b e23e
000002d0: 7586 b03e aa4d 703f 317f e33d 696a 7e3f
000002e0: 4126 103d 67d7 7f3f bb5e 363c f1fb 7f3f
000002f0: acaf 663b 98ff 7f3f 2ae6 913a f6ff 7f3f
00000300: 909b 24bf e10f 44bf c8e7 6f3f 6cad b23e
00000310: c8cf bf3e 3f5b 6d3f b514 f83d 691d 7e3f
00000320: 6c3f 1d3d b0cf 7f3f c7f2 463c 2bfb 7f3f
00000330: 58a8 7b3b 84ff 7f3f a229 9f3a f4ff 7f3f
00000340: 0ced 59bf 3754 06bf 01b4 773f f04a 813e
00000350: d4e6 ce3e 9c2a 6a3f dc51 063e bfc9 7d3f
00000360: 2d58 2a3d 4dc7 7f3f c686 573c 54fa 7f3f
00000370: 8150 883b 6fff 7f3f 1a6d ac3a f2ff 7f3f
00000380: 541e 79bf 88d4 6bbe 72f7 7c3f a72b 1d3e
00000390: a3c7 dd3e 99bc 663f d895 103e 6f6f 7d3f
000003a0: 7e70 373d 3ebe 7f3f b71a 683c 6cf9 7f3f
000003b0: d6cc 923b 58ff 7f3f 91b0 b93a efff 7f3f
000003c0: a504 7fbf 8532 b33d 50a4 7f3f 1597 583d
000003d0: 516e ec3e 1a12 633f 0ad6 1a3e 790e 7d3f
000003e0: 5288 443d 84b4 7f3f 98ae 783c 73f8 7f3f
000003f0: 2849 9d3b 3fff 7f3f 09f4 c63a edff 7f3f
0.0 1.0 0.0 1.0 0.0 1.0 0.0 1.0
0.0 1.0 0.0 1.0 0.0 1.0 0.0 1.0
0.31456655 0.94923544 0.10102027 0.9948844 0.031994537 0.99948806 0.010119115 0.9999488
0.0031999946 0.9999949 0.0010119284 0.9999995 0.00031999996 0.99999994 0.0001011929 1.0
0.59719545 0.8020958 0.20100698 0.9795898 0.06395631 0.9979527 0.020237193 0.9997952
0.006399956 0.9999795 0.0020238557 0.999998 0.00063999987 0.9999998 0.0002023858 1.0
0.8191916 0.57352 0.2989371 0.9542728 0.095852606 0.99539554 0.030353202 0.99953926
0.009599852 0.9999539 0.0030357807 0.9999954 0.00095999974 0.9999995 0.0003035787 0.99999994
0.95801586 0.28671524 0.39380878 0.9191924 0.12765075 0.9918192 0.040466096 0.9991809
0.01279965 0.9999181 0.004047703 0.99999183 0.0012799995 0.99999917 0.0004047716 0.99999994
0.9995736 -0.029199427 0.48465124 0.87470746 0.1593182 0.98722726 0.05057485 0.9987203
0.015999317 0.999872 0.0050596213 0.9999872 0.0015999993 0.99999875 0.0005059645 0.9999999
0.93964547 -0.34214962 0.5705351 0.8212732 0.19082251 0.98162454 0.06067843 0.9981574
0.01919882 0.9998157 0.0060715335 0.9999816 0.0019199987 0.99999815 0.00060715736 0.9999998
0.78431594 -0.6203616 0.6505817 0.75943625 0.22213143 0.9750167 0.07077579 0.99749225
0.022398125 0.9997491 0.0070834407 0.9999749 0.002239998 0.9999975 0.0007083502 0.99999976
0.5493555 -0.83558875 0.723972 0.6898293 0.25321293 0.96741056 0.080865905 0.99672496
0.025597204 0.99967235 0.00809534 0.9999672 0.002559997 0.9999967 0.00080954307 0.9999997
0.25861946 -0.9659793 0.7899552 0.6131646 0.28403515 0.95881385 0.09094774 0.9958557
0.028796017 0.99958533 0.009107231 0.9999585 0.0028799959 0.9999959 0.000910736 0.9999996
-0.058373954 -0.9982948 0.8478561 0.53022635 0.31456652 0.94923544 0.101020254 0.9948844
0.031994537 0.99948806 0.010119113 0.9999488 0.0031999946 0.9999949 0.0010119289 0.9999995
-0.36944094 -0.92925423 0.89708245 0.4418632 0.34477583 0.93868506 0.11108244 0.9938112
0.03519273 0.9993805 0.011130984 0.9999381 0.0035199923 0.9999938 0.0011131216 0.9999994
-0.6429987 -0.7658673 0.93713045 0.34897935 0.37463212 0.92717355 0.121133246 0.99263626
0.038390562 0.9992628 0.012142844 0.99992627 0.0038399901 0.9999926 0.0012143145 0.9999993
-0.8512733 -0.5247225 0.9675904 0.25252485 0.40410483 0.91471267 0.13117164 0.99135965
0.041587997 0.99913484 0.013154691 0.99991345 0.0041599874 0.99999136 0.0013155073 0.99999917
-0.973119 -0.23030293 0.9881507 0.15348683 0.43316373 0.9013153 0.14119661 0.9899816
0.044785015 0.9989966 0.014166526 0.9998996 0.0044799848 0.99999 0.0014167001 0.999999
-0.9961646 0.0874987 0.99860096 0.052878458 0.46177915 0.88699496 0.15120712 0.9885021
0.047981568 0.9988482 0.015178345 0.9998848 0.0047999807 0.9999885 0.0015178929 0.99999887

attention_layer.key.weight f4 [16, 16]
00000000: 2397 c8ae 493b 842f 89e9 68af 19df 82b2
00000010: dfb7 74a9 6439 fd28 c844 20b1 4786 0927
00000020: 9247 fbb0 08a2 f5b0 320b 8ca7 9195 3ab2
00000030: 6631 b12e 606a 252a 88b0 5aad 3459 4dab
00000040: 2193 57b1 ac65 f52d 5829 deaf 4414 422d
00000050: 07f9 3fab 7df3 acb3 ab9e 21af 932b 1baa
00000060: 5b60 4e2f eee1 5332 52b9 9933 235f 7ab2
00000070: c2cc 8f2c c121 cdad a23f 9530 0011 a7a8
00000080: d828 9334 39eb 37af feb4 072a 74a7 3aae
00000090: 411a caaa 1b2e 0ab4 259a a831 9532 8ab2
000000a0: 416b 3eb1 72d1 c330 c4ab fa32 9aeb 402e
000000b0: 03d5 a328 2e4c 73aa 2871 822e fa91 da29
000000c0: 8aac 8632 0ada dcae 8cfb 072b aa57 84b0
000000d0: b721 2229 803c b9ae ce98 10a8 f743 d82f
000000e0: 0089 10aa 7d0c d6ac ff82 01ae 8150 2fad
000000f0: 87a0 3eb1 80fa 0c29 5828 27b1 664e 9dab
00000100: 348b 0e26 c578 b9a7 6957 89b4 25aa 2833
00000110: 90ad c52a 0dc7 baa9 b2e2 7eac eeb3 2bb1
00000120: b9f5 60ab 2621 8529 df8f 072b 31f1 7827
00000130: 7d97 a6b2 a43b 41aa deab 2a2c 2c18 0ab3
00000140: 2a80 db32 9ac4 d0af 574d 3eb2 cf94 10af
00000150: 8439 a231 a03f d933 de64 c8a8 016e 8aae
00000160: 42fe 9029 0d18 922f 76af 2bae b6d0 9632
00000170: e599 5c2b 60dd 2429 254a 7429 93eb d3ac
00000180: c216 fea8 f791 be2e 52c3 872f a08c b42b
00000190: ba37 b527 1983 9331 6279 c0a9 8ca5 6cb2
000001a0: 0e9a 1534 92b5 6828 686d 21a7 33f3 3a31
000001b0: 9cf4 dfb1 7431 3eac abd2 b4b2 a03f 39b3
000001c0: 5410 2a2b 9d60 cf2a a2f0 362d b22f 2232
000001d0: 34bd e1a8 e814 13b3 1091 58b0 626f 1aa9
000001e0: 1ed7 d0ac 59c0 06a6 9e6d 2033 33ae 4b31
000001f0: 8dcb c22e 247a 3e2d dea4 3f33 cc1f 1d33
00000200: 073f bda9 6f42 5e30 c493 d9aa 46ec 17b3
00000210: ebba 042a c3e9 5332 2327 eeae c059 98b0
00000220: b201 7c2d fda8 a727 22bd 93a8 2f67 6833
00000230: bbd7 3a2c 9b16 3932 74fa 3caf 733c 43b3
00000240: 5623 da29 3f87 0631 44ff ef31 7c6f 6829
00000250: 2ffc a2b1 ca69 1b2d 1c62 9aa8 0625 f62a
00000260: 7413 23b2 4ce5 26ad 6980 e0b3 1daf 9130
00000270: 5da1 6fa8 5cbb 46b1 3d7c b42b 4e62 6b29
00000280: c88c 8628 3af0 232e c39c bd2a b247 122b
00000290: 5f53 83b2 778c d528 892c 6aae 7e2d 002b
000002a0: 6e02 e731 5f4e a82b dbb6 db29 962f 4f2b
000002b0: 9e02 8eb2 fd79 6230 04bd 39ae d8a6 4c28
000002c0: 4e1a f0a8 8783 c434 a65b cdb3 738c 7231
000002d0: 823e fcaa 4f56 44af 8e82 66b2 5008 7a2f
000002e0: dc86 92af 46c3 6631 abe4 83ae 389e 0aae
000002f0: 1a34 4934 96c9 9433 8f40 faa9 4a69 e8aa
00000300: e3df 7032 51ab 11b2 141c 572f 717f b22e
00000310: 3d16 9ba9 9e3b 2fac 44fb 36af 37d1 b6a9
00000320: b22a 6cb3 e0b9 9529 826e dc32 8d24 92b2
00000330: 9481 a82e c531 b8ad 0fad e533 857a d533
00000340: 0d2a f830 b58d ed32 5a49 1f32 820e d5a9
00000350: b6bf 44af f5f8 612e 6ec0 45b0 433a 8f2a
00000360: 5f00 eeac d649 e932 8033 e92e b1cf 18b3
00000370: 098c b829 5a80 01b2 838b df31 9302 6028
00000380: 1c11 122d c9ec 3831 fab4 d128 837b d32f
00000390: 63d5 11b3 5dd6 ef30 3109 032f 3c00 09ab
000003a0: 9806 ada8 eb25 c1ad e20a dc2e 3469 a833
000003b0: 153f a0a7 9291 0b2a 2143 cd29 7c83 ad2a
000003c0: 2166 e929 bc00 f932 4af5 fd31 bd47 23af
000003d0: 7513 752d e01f a4b3 aec6 2c30 04de 722a
000003e0: 7135 f6a8 5abc 8bb1 d261 68b4 9320 d3b3
000003f0: 1a50 fcb2 0ed1 1429 a510 4cae 47a9 af2b
-9.121794e-11 2.4052785e-10 -2.1183245e-10 -1.5235445e-08 -5.4338366e-14 2.8113532e-14 -2.3322162e-09 1.9085361e-15
-1.8282995e-09 -1.7872148e-09 -3.8869944e-15 -1.0860632e-08 8.057803e-11 1.469185e-13 -1.2431063e-11 -7.2954425e-13
-3.137025e-09 2.7898427e-11 -4.041094e-10 1.1032123e-11 -6.8202426e-13 -8.0536644e-08 -1.4699235e-10 -1.3781883e-13
1.8769823e-10 1.2333187e-08 7.158327e-08 -1.4573547e-08 4.087037e-12 -2.3320791e-11 1.0859262e-09 -1.8548097e-14
2.7410601e-07 -1.6727321e-10 1.2053203e-13 -4.2440232e-11 -3.5900625e-13 -1.2869025e-07 4.9069677e-09 -1.6088316e-08
-2.7709606e-09 1.4247645e-09 2.918194e-08 4.3865002e-11 1.8189014e-14 -2.1609166e-13 5.931816e-11 9.706468e-14
1.5678115e-08 -1.0043173e-10 4.8310726e-13 -9.62918e-10 3.600047e-14 -8.423573e-11 -8.02674e-15 3.9338463e-10
-1.28373e-13 -6.0836323e-12 -2.9447552e-11 -9.965474e-12 -2.7739888e-09 3.130352e-14 -2.4324631e-09 -1.1177281e-12
4.94548e-16 -5.1478753e-15 -2.5581838e-07 3.9270294e-08 3.5114663e-13 -8.294589e-14 -3.6221412e-12 -2.4986053e-09
-7.9921795e-13 5.912137e-14 4.8161296e-13 3.4547664e-15 -1.9393832e-08 -1.7162535e-13 2.4253858e-12 -3.2152613e-08
2.5553238e-08 -3.7974673e-10 -1.1077041e-08 -1.3149591e-10 4.7213593e-09 1.0116423e-07 -2.2248205e-14 -6.295054e-11
6.438991e-14 2.6574334e-10 -3.903674e-11 1.7557209e-08 7.837327e-13 3.6607327e-14 5.4243194e-14 -6.0231347e-12
-2.8209534e-14 8.666128e-11 2.469514e-10 1.28288e-12 5.029801e-15 4.293167e-09 -8.5475694e-14 -1.3774649e-08
1.3932751e-07 1.2917959e-14 -2.2402548e-15 2.7204805e-09 -6.517963e-09 -2.7028076e-12 -2.1050559e-08 -4.3131536e-08
6.041879e-13 3.6837626e-13 1.03989335e-11 9.440486e-09 -2.5062072e-14 -3.424512e-08 -7.878649e-10 -3.429148e-14
-5.9355984e-12 -4.675127e-16 3.73526e-08 2.9639409e-09 8.8582565e-11 1.082737e-11 4.46206e-08 3.658333e-08
-8.4042196e-14 8.085754e-10 -3.8649476e-13 -3.5372317e-08 1.1788805e-13 1.2334968e-08 -1.0829939e-10 -1.1084964e-09
1.4324918e-11 4.653503e-15 -1.6402302e-14 5.4110554e-08 2.6551944e-12 1.0773557e-08 -1.7187479e-10 -4.5456954e-08
9.6872746e-14 1.9576445e-09 6.984836e-09 5.1611046e-14 -4.7434905e-09 8.83422e-12 -1.7139983e-14 4.3724068e-13
-9.492272e-09 -9.486922e-12 -1.04541705e-07 1.0599909e-09 -1.3302155e-14 -2.8919294e-09 1.2824252e-12 5.2265748e-14
1.4938043e-14 3.7275273e-11 3.368192e-13 5.1969117e-13 -1.528832e-08 2.3708667e-14 -5.3244995e-11 4.553787e-13
6.723261e-09 1.195887e-12 9.757274e-14 7.360721e-13 -1.6532166e-08 8.2391677e-10 -4.223201e-11 1.1360453e-14
-2.665676e-14 3.6603544e-07 -9.562727e-08 3.529547e-09 -4.4807566e-13 -1.7856759e-10 -1.3417447e-08 2.2740321e-10
-2.665307e-10 3.3580405e-09 -5.99781e-11 -3.1518094e-11 1.8738538e-07 6.928455e-08 -1.11134294e-13 -4.1284538e-13
1.4020745e-08 -8.479064e-09 1.9564111e-10 8.117141e-11 -6.8872405e-14 -2.490209e-12 -1.6642071e-10 -8.1187166e-14
-5.4986863e-08 6.6491734e-14 2.5661624e-08 -1.7013258e-08 7.662773e-11 -2.094048e-11 1.0695123e-07 9.9408716e-08
1.8056326e-09 2.7654872e-08 9.271696e-09 -9.461617e-14 -1.7894206e-10 5.1380195e-11 -7.194164e-10 2.544233e-13
-6.764408e-12 2.7158347e-08 1.06047615e-10 -3.5579152e-08 8.195534e-14 -7.537972e-09 6.506015e-09 1.2435056e-14
8.302938e-12 2.691012e-09 2.3282147e-14 3.8468437e-10 -3.3954517e-08 1.7450464e-09 1.1917646e-10 -4.86725e-13
-1.9209718e-14 -2.1958399e-11 1.0006375e-10 7.842246e-08 -4.4477315e-15 1.2396185e-13 9.115474e-14 3.082221e-13
1.0364995e-13 2.8987749e-08 7.3911552e-09 -1.485025e-10 1.3930958e-11 -7.642643e-08 6.2855576e-10 2.1570945e-13
-2.7334663e-14 -4.0668455e-09 -2.164227e-07 -9.8313784e-08 -2.9373087e-08 3.3043928e-14 -4.6399013e-11 1.2481482e-12

attention_layer.value.weight f4 [16, 16]
00000000: fb9f 5f3d 5ccb d2bd 716b 5b3e 75b8 b23d
00000010: ceef 163d 0a6e f7bc f279 3d3d dc9a 32be
00000020: c156 7fbd 41bd 2ebe aa65 a83d 511a 33bd
00000030: 2b08 433e b8d5 eb3c 6f99 6abe 19ed 073e
00000040: 37cf f0bc 52a2 71bd 2cce 5b3c 809e e13c
00000050: 83f9 793d 4ab5 7fba 920f c13a 0f6f 5f3c
00000060: ab29 30bd a1bb d4bd df75 063d ba7f 7e3d
00000070: d6b2 a6bc 7bdc 06bc 985c dd3d 3fe4 533d
00000080: 50cd f63d 5943 17bd 4cf1 4f3d f88b 153e
00000090: 0233 423e b851 54be 8486 aabc e6f1 773d
000000a0: 6435 e0bc 9ea0 debd 290d a2bc 51c3 01be
000000b0: c51f 143e 63e3 e7bd 42a8 19be 0e0e 193e
000000c0: 6d23 6dbc 4bfb 1ebd 3646 083e 5920 b13d
000000d0: 3664 30bd 8865 513d 1b54 983c 86fa 11bd
000000e0: 04ed 373d 7028 f7bc 4621 cc3d 532d 58bd
000000f0: 300f bd3d 7426 5a3d 2846 09bd 509a 3bbd
00000100: 245f 07bd 4196 fcbc cf09 c7bd da9f 13bd
00000110: 1b8a 013b c5fc 923d 5c3e 93bc a54c 87bd
00000120: 1465 fabd 75d7 02be 19e1 e63c 81a7 303d
00000130: d36c 92bc d9ee f03d e76c 793d 13f3 763d
00000140: f8d5 b33d c1bf 313d 5546 23be 59c7 a83d
00000150: cfae 4d3e e6ef a8bd 2d72 3fbd b51c 333e
00000160: e10f babd 3606 b1bd 4de1 8abd 3aa1 1a3e
00000170: c569 113e 2d2b 75be 45dc 00bd 671e 46bc
00000180: 46e0 113d 15d6 86bd aace 85bd f9ea 73bb
00000190: b7c3 4fbe 4982 a23d dd76 78bc 3df1 febd
000001a0: a2c6 4ebe a021 d23d 55d5 72bd 3340 563d
000001b0: 3da5 54bd e1bc ac3d 7aa6 60bc 4dfb 83bd
000001c0: 93de 46bd fe48 013e 480f 94bd 9b8a 8abd
000001d0: 9ff7 683c f761 933d 5e51 033e af5f e83d
000001e0: d35a 2f3e c135 2a3b 68bb 523d e414 ddbd
000001f0: 961d 7e3c d517 b4bd 8fdd ddbb 320c abbd
00000200: 5074 313c ff0a af3d 206c fd3d e79b 3cbc
00000210: 465b 13be fa42 db3d bb34 0e3e 4cf0 213e
00000220: 4314 04be 386e 6bbe 4251 a33d 0156 aabd
00000230: 5133 ec3c 0030 94bd 488b 623d 7bb8 ce3d
00000240: d85b ad3d 51ed 323b b333 f8bb b290 913d
00000250: 4b57 d03d b7d4 13be 0927 8ebd c585 05be
00000260: 72da 59bd 6cb9 053e fc05 8ebd 5d6e e63d
00000270: a3fa 3d3d c07c c5bd f6c8 5f3d b8ac e5bc
00000280: 9a65 943c a7b2 983b 750f 193d 08e2 0a3d
00000290: ace5 903c e7df 1a3d 0343 91bc 1d3e edbd
000002a0: 749b 16bd fa12 753c f195 033d 7b67 7cbd
000002b0: eea3 90bd efd4 743d ff38 093c 583b 85bd
000002c0: 7c40 963d 0dbf 14bd d0e0 47bd 00af 2ebe
000002d0: aad5 2a3e c8e2 ce39 1fbf 623c d351 86bd
000002e0: ca62 b23d 3a58 44be 9c4d 93bd 0094 0b3e
000002f0: 4050 f6ba e790 83bd 8cfc 183e 046e b83d
00000300: 127e cebd 703b 68bd d183 973c e376 053e
00000310: 0d18 33bd 3f80 153e a9a4 03bd eb33 243d
00000320: 181f 2c3d 0fa4 30be 1972 10be a714 2f3e
00000330: a73a 36bd 3515 06be 241a 6bbd 14f2 ab3d
00000340: 74c2 05be 8cef 283e 0dcf 48be c5ff 2abe
00000350: d3c8 27be fd33 a3bd 0066 123d 20a7 30be
00000360: e426 01be c22c e83c c16d 773e 3e95 273e
00000370: 2bcf 933d 770a 0e3d ece4 b83d e5d0 543d
00000380: 807e b2bd f57e c93d c3d3 3b3d 4bb5 ee3d
00000390: da0c 86bb 347d cc3d 786c 95bd cc45 263e
000003a0: 7a7c 913d 29c7 13be 2e91 13be 7fc8 fdbd
000003b0: 712c 4ebd b748 bfbd 1aed f33d 997f 383e
000003c0: 2bf1 a43c 3013 0b3e eeae 9b3d 10ec 883c
000003d0: fb6f bb3c 38f4 52b9 1014 25be 9775 12be
000003e0: ecad a9bd 0011 e23d 13a4 f13d 9f44 5a3d
000003f0: 37d3 283d 8d5d e73c 3cb6 9fbc 5267 d3bd
0.05459593 -0.10292694 0.21427704 0.08726589 0.03684979 -0.030203838 0.046258874 -0.17441887
-0.062338594 -0.17064382 0.08222516 -0.04372627 0.19046085 0.028788432 -0.22910093 0.1327404
-0.029395683 -0.05899269 0.013415854 0.027541399 0.06102897 -0.0009754492 0.0014729372 0.013637318
-0.043008488 -0.1038735 0.032827254 0.06213353 -0.020348947 -0.008231278 0.108086765 0.051731344
0.12050879 -0.036929462 0.050767228 0.14604175 0.1896477 -0.20734298 -0.020816095 0.060533427
-0.027369209 -0.10870479 -0.019781666 -0.12672164 0.14465244 -0.113226674 -0.15005592 0.14946768
-0.014473778 -0.03881387 0.13308033 0.08648748 -0.04306432 0.05112222 0.018594792 -0.03563931
0.04490377 -0.03017065 0.09967284 -0.0527776 0.092314124 0.053259328 -0.03351417 -0.04580146
-0.033049718 -0.030833365 -0.09718668 -0.03604112 0.0019766155 0.07177118 -0.017974071 -0.06606416
-0.1222631 -0.12777503 0.028183507 0.043128494 -0.017874157 0.117643066 0.060894873 0.060290407
0.08781046 0.04339576 -0.15944798 0.082411475 0.20086215 -0.08248882 -0.046739746 0.1749142
-0.0908506 -0.08643763 -0.06781254 0.15100566 0.14200504 -0.23942252 -0.031460065 -0.012092209
0.035614274 -0.06583802 -0.06533559 -0.0037218912 -0.20289503 0.07935006 -0.015165058 -0.12448356
-0.2019296 0.1026032 -0.05928548 0.05230732 -0.051915396 0.08434463 -0.013711566 -0.06444416
-0.048552107 0.126255 -0.07229477 -0.06764718 0.014219194 0.0719642 0.12824008 0.11346375
0.1712449 0.0025971981 0.051448256 -0.10795 0.0155099835 -0.08793608 -0.0067707966 -0.083519354
0.010830954 0.08547019 0.12374139 -0.011511779 -0.14390287 0.10706134 0.13887303 0.15814322
-0.12898354 -0.22991264 0.07974483 -0.08317185 0.028833063 -0.07235718 0.05530861 0.100937806
0.084647834 0.0027302096 -0.0075745224 0.071076766 0.101729 -0.14436613 -0.06941039 -0.1303931
-0.05318684 0.13059014 -0.06934735 0.11251519 0.046381604 -0.09642935 0.05463501 -0.02803646
0.018114854 0.004659969 0.037368257 0.033906966 0.017687641 0.037811186 -0.017732149 -0.11584113
-0.036769345 0.014958138 0.032125417 -0.061622124 -0.07062517 0.05977338 0.008375405 -0.065054595
0.07336518 -0.036315013 -0.048798382 -0.17058945 0.16683069 0.00039460347 0.013839512 -0.065585755
0.08710249 -0.19174281 -0.07192537 0.13630676 -0.0018792227 -0.06424122 0.14940089 0.09005359
-0.1008264 -0.05669731 0.018495472 0.13033633 -0.04372411 0.14599703 -0.032139454 0.040088575
0.04202184 -0.17250083 -0.14106025 0.17097722 -0.04448953 -0.13094027 -0.057397977 0.08395782
-0.13062459 0.1649763 -0.19610234 -0.16699131 -0.16385202 -0.079689 0.035741806 -0.17251253
-0.12612492 0.028341655 0.24162962 0.16365525 0.072172485 0.03467795 0.090280384 0.05195703
-0.08715534 0.09838668 0.04585625 0.11655673 -0.0040908875 0.09984818 -0.072960794 0.16237563
0.0710382 -0.14431442 -0.1441085 -0.12391757 -0.05033535 -0.09340041 0.11910458 0.18017425
0.02013453 0.13581538 0.076017246 0.016714126 0.022880545 -0.00020118139 -0.16120934 -0.1430267
-0.08285126 0.11038399 0.11798873 0.0532881 0.041217055 0.02824285 -0.019496076 -0.10322441

attention_layer.query.weight f4 [16, 16]
00000000: ebee 7aab 902a b32b 8f87 a62a 6ca0 fca6
00000010: bf67 cfb0 aff7 7930 05d4 1031 7d6b d4ac
00000020: 7650 d4ae b837 3eac 521e 4f2e b2ed 602b
00000030: ebc1 e7ae 425e 3828 c90c f6ae 430c 3a2b
00000040: e647 16ad 71b6 8234 6e08 77b3 bf48 2da9
00000050: 1184 db30 5808 3229 d69a 9534 3ef7 1a31
00000060: e0bd c7ae 4299 6c2c d28e 4930 64e3 4532
00000070: e874 56b1 ca99 56af 5bac cda7 0fa9 4130
00000080: af96 0a31 7213 d0b3 0e26 3131 147f dfaa
00000090: b64a 892f e203 93ac 0784 63b4 8805 ec2b
000000a0: 2e70 57ad 283f 76ac abc0 b631 1e6e 332d
000000b0: 5bb0 9532 9db0 d3b3 0244 94a7 a5d0 7a33
000000c0: ade7 0dab e68f 21b1 6c0f 9132 b613 072e
000000d0: 9edb 31aa f4d6 96af d3ba 8db0 be02 a0ae
000000e0: a5ee 802c 5295 12b2 15d3 e82f 2237 cf29
000000f0: 0532 8bb0 e05e 8e30 1d3d 5eb4 d793 0eae
00000100: f852 d92e b5e4 8f31 0b1f f2a6 7b41 b528
00000110: a5bd e6b2 08db af29 f4ed d4a9 5479 452a
00000120: 533f fab0 ad86 c8aa 7264 822c 0f34 93a7
00000130: 5bd8 8aaf d7c6 23a9 0bf1 1fb1 ea3c 1dab
00000140: 5bac 88b2 4412 ac31 5ae2 ef30 8314 4c28
00000150: b9bd a4a8 5bf4 26ac 84e8 c533 84c5 1e2a
00000160: c72b b130 4a5c a22a 1119 14b2 a2be ac2e
00000170: e99d a8b0 2404 10ab ea7d f62b dbab acac
00000180: 2213 812a 041d b8af 4c40 c7b3 bc62 772f
00000190: 0019 8732 d5ae 9731 8238 2729 6df2 182b
000001a0: 778f 552f 2a59 d5b2 e1fb 162c c348 9e32
000001b0: 2fe2 b9ae c114 ea2b 8e35 bf34 601b 802f
000001c0: d475 de2b 7de9 dcb3 b9d0 fab0 0e59 1eb1
000001d0: eb04 5830 a616 30ac 271e 9a2c 221a bd2e
000001e0: 4319 9532 1c7c 162c a88c e4a9 8a2f 6eaa
000001f0: 0f78 622d 1497 a626 b04e 1b32 ff58 95a9
00000200: 4a84 08b3 2481 552f e9a8 b4af fbdc 3730
00000210: 1687 fb2b 15ff 82b4 b1f1 6aae 9882 f32e
00000220: 09e1 6c31 9032 0b2a 0cb8 e5ab b909 262c
00000230: 53bd 5fb3 4388 9632 8968 0cac 71c7 1234
00000240: da31 b0a9 5903 b42b c34f 8ab3 9bbf 6b31
00000250: 9e76 082d a38e ecaf 672f 0bb1 3ff5 e9b3
00000260: 8eb7 822e f960 d1b3 fbfe 9da9 ab7f 8a32
00000270: f9a3 4cad 8b8f b0b3 6e97 21b3 b1d5 c229
00000280: ceda 3930 10b8 20b3 c82d 97b2 4abc a42b
00000290: 31a5 51a9 c985 8631 c42d bb32 4de7 2b2e
000002a0: ceb1 22ac 3acd 762c 0b2f 6831 29ae ca33
000002b0: 187c c428 0151 3eb4 6f08 3da9 30ef 882f
000002c0: 22f6 6031 7796 b031 a476 a8b4 7ea0 49af
000002d0: 9b99 9cb0 17b6 cd2b 28dd a6a9 5f85 3634
000002e0: 6754 7bae 690a 13aa 9c2b d332 6a55 25aa
000002f0: e388 bf30 188a f931 53c0 7eae 5bfa 42aa
00000300: c3bd 9cb0 43ac b6aa abd9 6831 a4be eda7
00000310: 27da 15af 328e 18a9 5972 adb0 cd42 8730
00000320: c5e3 b3b3 7641 3b2b c589 ec2c 8f60 f333
00000330: 6072 e9ac 7bec 6eae 18d0 16a7 a876 e030
00000340: 08e3 362d c8db 962e 362d 972f dd50 122c
00000350: 2e99 b634 f7f1 e1af 3a5b 98b4 6ba3 68b4
00000360: 4028 b030 c02b cc2d 54bb 7db0 45a1 1632
00000370: 782c ce32 91e7 a033 03f6 ccac 8e67 7baa
00000380: 2fe5 c031 5565 23a9 d410 272e 7891 fd29
00000390: 605b 5faf 5479 00ab 509f a02f 3632 c430
000003a0: 92fb 7828 a929 8f34 d59f a033 100d e02f
000003b0: 531d 5830 0270 4030 ad26 dab0 200f c92a
000003c0: 4c28 2e2c e99b e2b2 d3d8 ce32 cb30 6c2b
000003d0: 57a1 442e 1a83 33ab 20a3 8cb2 aa95 7734
000003e0: a9b2 dbae e974 56b1 c0f0 0234 6ff0 e02e
000003f0: f4ed 0d28 d417 702e 1bbe ed2f b22b 7f2f
-8.9149407e-13 1.2730528e-12 2.9581586e-13 -1.7529495e-15 -1.5090719e-09 9.093765e-10 2.1075277e-09 -6.037336e-12
-9.6549366e-11 -2.7031554e-12 4.709328e-11 7.9910655e-13 -1.05391106e-10 1.0234491e-14 -1.1189056e-10 6.609749e-13
-8.5424775e-12 2.434713e-07 -5.7516836e-08 -3.8476814e-14 1.5971883e-09 3.9531177e-14 2.786607e-07 2.255049e-09
-9.083201e-11 3.3622692e-12 7.3326334e-10 1.1518612e-08 -3.1207552e-09 -1.9517823e-10 -5.70858e-15 7.045324e-10
2.0167297e-09 -9.689292e-08 2.5778522e-09 -3.9700936e-13 2.497324e-10 -4.1784224e-12 -2.1189054e-07 1.6770344e-12
-1.2246244e-11 -3.4993761e-12 5.318801e-09 1.0199423e-11 1.742608e-08 -9.857579e-08 -4.1151986e-15 5.8397422e-08
-5.041478e-13 -2.351038e-09 1.6887235e-08 3.0712953e-11 -1.5796953e-13 -2.7437574e-10 -1.0312199e-09 -7.276445e-11
3.6644737e-12 -8.53227e-09 4.2350537e-10 9.202211e-14 -1.0127797e-09 1.0358825e-09 -2.0697594e-07 -3.241837e-11
9.882756e-11 4.1878487e-09 -1.6800537e-15 2.0123434e-14 -2.6861764e-08 7.809557e-14 -9.4559695e-14 1.7539209e-13
-1.8207892e-09 -3.5620587e-13 3.705974e-12 -4.085714e-15 -2.5255784e-10 -3.6365737e-14 -2.3274562e-09 -5.586214e-13
-1.5910862e-08 5.0079354e-09 1.7453872e-09 1.1328723e-14 -1.8289937e-14 -2.3725663e-12 9.215822e-08 1.4101746e-13
1.2890887e-09 2.884102e-13 -8.620433e-09 7.8555176e-11 -1.226849e-09 -5.1164823e-13 1.75143e-12 -4.907614e-12
2.292828e-13 -3.3490022e-10 -9.278355e-08 2.2499597e-10 1.5727437e-08 4.4145545e-09 3.7130462e-14 5.433768e-13
1.9423206e-10 -2.483701e-08 2.1456103e-12 1.8426709e-08 -8.453004e-11 1.663246e-12 3.5615489e-07 2.3302515e-10
1.5806753e-12 -1.02870196e-07 -1.8249217e-09 -2.3042648e-09 7.858733e-10 -2.5023677e-12 4.380291e-12 8.599367e-11
1.735737e-08 2.1385177e-12 -1.0149634e-13 -2.115514e-13 1.2873271e-11 1.1559514e-15 9.040079e-09 -6.6323676e-14
-3.1785284e-08 1.9418117e-10 -3.2861827e-10 6.6889044e-10 1.7872117e-12 -2.4399984e-07 -5.3420105e-11 1.1073559e-10
3.4470438e-09 1.2363222e-13 -1.6322512e-12 2.3595416e-12 -5.2093423e-08 1.7524263e-08 -1.9953225e-12 1.3669866e-07
-7.824618e-14 1.2790698e-12 -6.440634e-08 3.4305916e-09 7.757043e-12 -4.30295e-10 -2.0254107e-09 -1.0894518e-07
5.9443214e-11 -9.74996e-08 -7.0164327e-14 1.6123371e-08 -1.1632467e-11 -8.221749e-08 -3.7623458e-08 8.6524e-14
6.761355e-10 -3.7420307e-08 -1.7599532e-08 1.1705162e-12 -4.6550603e-14 3.915123e-09 2.1790477e-08 3.9086335e-11
-2.3120286e-12 3.5072626e-12 3.3787184e-09 9.4380376e-08 2.1814188e-14 -1.7724598e-07 -4.1973745e-14 2.490821e-10
3.27362e-09 5.13938e-09 -3.137876e-07 -1.8337862e-10 -1.1394151e-09 1.4616666e-12 -7.4102454e-14 1.6998591e-07
-5.7145757e-11 -1.3059835e-13 2.4583464e-08 -1.4684578e-13 1.3935985e-09 7.2625532e-09 -5.7923732e-11 -1.7317521e-13
-1.1404427e-09 -3.2449225e-13 3.3884173e-09 -6.5987407e-15 -1.3628974e-10 -3.3874115e-14 -1.2619906e-09 9.841529e-10
-8.376768e-08 6.652659e-13 6.722819e-12 1.1333133e-07 -6.6349565e-12 -5.432497e-11 -2.092949e-15 1.6331869e-09
1.0395913e-11 6.860251e-11 2.7498864e-10 2.0792736e-12 3.4011595e-07 -4.1099188e-10 -2.8378582e-07 -2.1666135e-07
1.2817125e-09 2.3211544e-11 -9.2307073e-10 8.767818e-09 2.4001778e-08 7.492702e-08 -5.8253415e-12 -2.2329206e-13
5.6139906e-09 -3.6281162e-14 3.798635e-11 1.1260692e-13 -2.0314195e-10 -4.564311e-13 2.921703e-10 1.4275148e-09
1.3821316e-14 2.6666137e-07 7.479654e-08 4.0754644e-10 7.8622014e-10 7.0008366e-10 -1.587258e-09 3.5715268e-13
2.4749256e-12 -2.6380762e-08 2.4080157e-08 8.3911757e-13 4.470854e-11 -6.3775515e-13 -1.6372326e-08 2.3058115e-07
-9.9907034e-11 -3.1207554e-09 1.2194778e-07 1.022905e-10 7.87867e-15 5.4590846e-11 4.3245127e-10 2.3207639e-10

attention_layer.to_out.weight f4 [16]
00000000: ae97 403f 959e 1c3f 015a 4f3f 46d9 103f
00000010: 5c16 1a3f aa55 103f 90b6 423f 012f 0d3f
00000020: 7c67 283f d242 063f f13a 0e3f 74bb 1d3f
00000030: 2ef0 083f ecd6 4a3f d9b0 1f3f 6795 2a3f
0.75231445 0.61179477 0.8099671 0.5658153 0.6019037 0.56380713 0.7605982 0.5514985
0.65782905 0.5244571 0.5555869 0.61614156 0.53491485 0.79234195 0.62379223 0.6663422

attention_layer.to_out.bias f4 [16]
00000000: 1c96 c03c 1903 8bbc f410 e53b 72cb 773d
00000010: 0a09 26bd 18d8 e2bc 8e49 063d 536b 253d
00000020: 3796 3abd 6be9 773c 67de 95bd b2ca 0bbc
00000030: 98ec 1d38 086f 193d c61f 19bc d7e8 d2bc
0.023509078 -0.01696925 0.0069905464 0.060496755 -0.040535964 -0.027690932 0.03278499 0.040385555
-0.045553412 0.015131335 -0.073178105 -0.008532213 3.7652062e-05 0.037459403 -0.009345954 -0.025745792

LayerNorm.weight f4 [16]
00000000: 1ce7 3f3f 4947 1a3f 978d 423f 4ca0 073f
00000010: e6a0 153f 373d 113f b7f3 3e3f b56e 053f
00000020: b9cf 2a3f 6cdc 143f bcca 063f b66f 1b3f
00000030: ccf0 173f 7a2a 533f 05cd 1c3f a056 2f3f
0.7496202 0.6026502 0.759973 0.5297897 0.58448637 0.5673403 0.7459063 0.5212205
0.6672321 0.5814884 0.526531 0.6071733 0.593518 0.8248669 0.61250335 0.68491554

LayerNorm.bias f4 [16]
00000000: f514 3dbb 8f4d 1b3d 4881 31bc 7d8c 113e
00000010: dbdb b73c c357 81bd 214f 353d 58c2 133d
00000020: a86f 1cbd a896 24bc 95b3 9dbd 154e c7bc
00000030: 367a 79bc 3c8d e63c 1893 15bb 6947 80bd
-0.0028851603 0.037915763 -0.010834046 0.14213748 0.022443702 -0.06315567 0.044264916 0.036074013
-0.03819242 -0.010045685 -0.07700268 -0.024329225 -0.015226891 0.028143518 -0.002282327 -0.062636204

LayerNorm2.weight f4 [16]
00000000: ef1b 903f da91 883f 98ff 9c3f d0f8 863f
00000010: bfea 793f d06f 8f3f 5518 9f3f a6db 4b3f
00000020: 9661 953f d67c 313f c2ca 753f 2f59 8b3f
00000030: b3cc 703f 9e9a 9c3f 1352 8c3f 1585 883f
1.1258525 1.066951 1.2265501 1.0544682 0.9762382 1.1205997 1.24293 0.7963203
1.1670406 0.6933111 0.9601251 1.0886592 0.94062346 1.2234685 1.0962547 1.0665613
