run/0.99-4.0-64-0.0001/PatchTST-best.pth (torch, 667762 bytes, 123 tensors)

class_weights f4 [5]
000000 00 00 80 3f 00 00 80 3f 00 00 80 3f 00 00 80 3f
       1.0 1.0 1.0 1.0
000010 00 00 80 3f
       1.0

model_trend.revin_layer.affine_weight f4 [3]
000000 42 e7 67 3f df f7 95 3f 89 04 7d 3f
       0.90587246 1.1716269 0.98835045

model_trend.revin_layer.affine_bias f4 [3]
000000 f4 b3 6d bb b2 63 7d bc ed 5c e3 3b
       -0.003627059 -0.015465664 0.006938568

model_trend.backbone.W_pos f4 [10, 48]
000000 a1 69 a3 3c fd 21 1d bd 6b b7 b7 bc 05 73 49 3c
       0.019947829 -0.038362492 -0.022426328 0.012295489
000010 06 33 98 bc 23 2b 95 3d 94 6a 9a 3d 65 d3 a5 3c
       -0.018579017 0.07283618 0.075398594 0.020242402
000020 59 ad cf 3b 3b bd f1 3c ab 38 0b 3d 54 52 e7 bc
       0.0063378033 0.029509177 0.03398959 -0.0282375
000030 66 3e 64 3c 58 da 8a 3c 07 9f 57 3c a0 a4 2b b8
       0.013930893 0.016949818 0.013160474 -4.0922896e-05
000040 59 b1 26 bb 0d 38 5c bc 69 69 80 3c 3e 81 4e bd
       -0.0025435297 -0.013441098 0.015675263 -0.050416224
000050 58 77 af bc 7b b6 a3 3c 3d 99 4d bd c4 0b be 3c
       -0.021419212 0.019984474 -0.050194968 0.02319897
000060 87 24 b6 bc 9a 95 ab ba 43 19 39 3b 53 14 0a 3d
       -0.022234214 -0.0013090849 0.0028243817 0.03371079
000070 0e 5d 5e ba 6a 49 81 3c f3 30 05 3c 84 01 98 bc
       -0.0008482494 0.015782077 0.008129346 -0.01855541
000080 91 71 8e bc 82 28 d1 bb 39 1f 38 bc d8 bc f3 bc
       -0.017388137 -0.0063830027 -0.011237913 -0.029753134
000090 99 b7 19 bc 65 2d 1c 3d 5e 3b fa 3c 7b e1 d9 bc
       -0.009382152 0.03812923 0.030545887 -0.026596775
0000a0 05 22 95 bc 5c 30 10 3d 6d b9 0f 3c c0 0a bb bb
       -0.018204698 0.03520237 0.008772236 -0.0057080686
0000b0 41 6c 1c bc 9d da 27 3c d9 d4 84 3d 8e d0 8f 3d
       -0.009547294 0.010244993 0.0648591 0.070222005
0000c0 0f 4b ae 3c bc da 07 bc d9 7e 8c bb 15 68 80 bc
       0.021276025 -0.008291896 -0.0042875824 -0.01567463
0000d0 c0 1c 18 3d f5 50 f6 3a 41 2d ad bc 19 95 1e bd
       0.037136793 0.0018792438 -0.021139743 -0.03871641
0000e0 55 f7 e5 bb 50 88 d9 ba d6 56 b8 bc 63 08 6c 3c
       -0.0070180097 -0.001659641 -0.022502344 0.014406296
0000f0 0f e3 63 3d 7e 4e 0b bd eb 64 00 bd db fc 68 3c
       0.05563646 -0.034010403 -0.031346243 0.014220442
000100 25 9d eb bb cd d8 d3 bc 15 36 84 bc b9 c3 f4 3c
       -0.007190364 -0.025860215 -0.01613907 0.029878484
000110 a3 9c f8 bc 09 9c 43 bc 44 0a 3a 3d a3 c7 08 3c
       -0.030348128 -0.011939057 0.045419946 0.008348378
000120 13 9f ca 3c bd e2 10 bc 8b 7b 7b ba 6d c9 1a 3c
       0.024734056 -0.008843121 -0.00095932995 0.009447438
000130 e9 8e 3d 3c f3 1f fe 3c 46 8e 66 bc bd 73 7d 3b
       0.011569717 0.031021094 -0.014072007 0.0038673722
000140 da 67 a8 38 d9 ca df 3c 53 ee 71 bc 91 94 67 3b
       8.030208e-05 0.027318405 -0.014766294 0.0035336355
000150 72 aa 29 3a 25 47 eb bb 99 53 4a bd 5d 7e 6a 3c
       0.0006472237 -0.007180112 -0.04939613 0.014312354
000160 76 e2 92 bd e9 b0 e4 3c 24 93 30 bd 54 63 d8 3c
       -0.071721 0.027916389 -0.043109074 0.02641455
000170 2a ea a5 3d 21 a9 f3 bb 20 ca 09 bc bb b4 cc bc
       0.08101304 -0.007435933 -0.008410007 -0.024988523
000180 39 d2 18 bd 3d 92 f1 bc 20 3d fe 3c 62 4c 8e bc
       -0.03730986 -0.029488677 0.031035006 -0.017370407
000190 ed 90 94 3b 8a c5 18 bd 23 d6 21 bc e2 bd 74 3b
       0.004533878 -0.037297763 -0.009877714 0.0037344624
0001a0 97 9d 29 bd c8 63 6c 3c ab c9 ef 3b 9e de 2f 3c
       -0.041410055 0.014428087 0.007317742 0.010734228
0001b0 ac 1b 04 3c de ac 86 bb 83 00 7e 3b 62 91 84 3c
       0.008063238 -0.004109963 0.003875763 0.016182605
0001c0 b4 fb a9 3a 88 fc bc bc 75 02 be 3a 61 35 d5 bc
       0.001296869 -0.023069635 0.0014496582 -0.02602643
0001d0 f4 eb 43 bd ac 6d 66 bc 6a 2e 02 bb 52 ac c5 bc
       -0.047832444 -0.014064234 -0.001986409 -0.02413002
0001e0 15 a6 0e 3d 30 93 27 3c c7 c1 1d bd 94 3e 4b bc
       0.034826357 0.010227963 -0.03851488 -0.0124050565
0001f0 6e 8a de 3c ef 61 1c 3b 7a bc 44 bc 62 f0 7a 3b
       0.027165618 0.0023862084 -0.012007827 0.0038290252
000200 b0 ac f0 bc 11 b0 60 3c 11 dc 67 3a 41 81 39 3d
       -0.029379219 0.0137138525 0.0008844743 0.04528928
000210 19 e7 80 bc 0f b8 05 3d ca 75 a1 bc 43 a1 83 bb
       -0.015735196 0.032646235 -0.019709487 -0.0040170266
000220 2e c7 80 3c fd a5 b4 bc a8 d7 b1 bc cf 83 76 bc
       0.015719976 -0.022051806 -0.021709278 -0.015046074
000230 2e db ea bc 2d 5e 15 3c 16 63 16 3c 96 33 a5 3c
       -0.028668966 0.009116692 0.009178897 0.0201662
000240 75 6f 22 bc 2e f9 80 3d c6 60 0a bb b5 e9 18 bb
       -0.009914269 0.06297527 -0.002111481 -0.002333266
000250 84 68 03 bc 20 78 0e bb 54 cb 2f bb 95 63 4d bc
       -0.008020524 -0.002173908 -0.0026824074 -0.012535949
000260 2a 96 36 3d 07 d7 c0 bc 65 42 2e 3a e6 68 ad 3c
       0.0445768 -0.023540033 0.0006647467 0.021168184
000270 22 28 05 bc 56 5d dc bc c2 4f c5 3c 00 dd 58 3c
       -0.008127244 -0.026899975 0.024085883 0.013236284
000280 df 98 d7 3c f0 d3 48 3d c2 d8 94 3c 71 fe f1 3c
       0.026318012 0.049030244 0.018169764 0.029540272
000290 d0 26 e3 bc 83 5b 0e 3c 7e 7c ac bc e9 ed c2 3c
       -0.027728468 0.00868881 -0.021055456 0.023795085
0002a0 55 1e 23 3d d0 09 cc bb 7a b1 92 bd 35 85 1c bd
       0.03982385 -0.0062267557 -0.07162757 -0.038212974
0002b0 c9 ad d7 bb 0a c8 92 bc 0c 10 a2 bc 4c 46 16 3d
       -0.006581996 -0.017917652 -0.019783042 0.036688134
0002c0 66 a8 65 3d 9d 29 fd 3a dc 2f 33 bd 24 17 1d 3d
       0.0560688 0.001931477 -0.043746814 0.038352147
0002d0 9d 76 89 3c 18 f6 a9 ba 95 c7 50 bd fe 9c 74 3d
       0.016780192 -0.0012967018 -0.050971586 0.059720032
0002e0 17 45 25 3d 47 67 41 bc 98 ab 7d 3d 86 a3 20 b7
       0.040349092 -0.011804408 0.061931223 -9.574816e-06
0002f0 78 ef 2e 3a 02 85 07 3d e1 a2 82 bc b1 42 9d 3c
       0.0006673257 0.03308583 -0.015946807 0.01919684
000300 f0 65 d7 3b 28 57 83 3d da 60 d5 3c e5 72 0e 3c
       0.006573431 0.06413108 0.026047159 0.008694385
000310 5f 63 97 bc a1 91 c3 bb 6d 61 0b 3b 50 de df bc
       -0.018480001 -0.005968288 0.0021267787 -0.027327687
000320 42 d1 80 3c 0b 95 69 bd 97 29 eb 3b c6 63 9b bc
       0.015724782 -0.057026904 0.0071765888 -0.018968474
000330 53 e5 1e bd f3 07 2e 3c 4a d7 08 3d 83 e1 0d bd
       -0.03879292 0.010622012 0.03340844 -0.034638893
000340 60 6e f0 3a 95 43 e5 3b e9 54 86 bc 96 a4 1e 3c
       0.0018343441 0.006996582 -0.01639791 0.009682795
000350 c6 9e 72 3c f5 6d 26 bc aa f8 dd 3b 49 0f ec 3c
       0.014808362 -0.010158052 0.006774028 0.028815882
000360 37 64 a5 3c e1 76 2b bd fd 2f bb 3b c3 31 d7 bc
       0.020189388 -0.04186142 0.0057125078 -0.026268845
000370 cc 34 5c 3b 8a 14 48 bd 8c 89 f0 3c 23 a5 62 3c
       0.0033600805 -0.048847713 0.029362462 0.013833317
000380 37 ce 29 bd f3 66 99 3c ac 1a 92 3c 93 ce dc bb
       -0.041456427 0.018725848 0.017834984 -0.0067384928
000390 94 4c c0 bc 37 f4 1e 3c 3f 89 df 3c 9f cb a3 3a
       -0.023474015 0.00970178 0.027287124 0.0012496597
0003a0 46 57 e5 ba 17 35 75 bd 81 98 f8 3c 45 07 8c bc
       -0.0017497323 -0.059865084 0.030346157 -0.01709331
0003b0 27 6a 15 3d e5 a5 c7 3c a2 96 b8 3b 1a 05 ab 3c
       0.036478188 0.024371097 0.005633191 0.020876456
0003c0 ba 40 2f 3c 7f 18 82 bc 35 ec b4 3b dd 49 39 bc
       0.010696584 -0.015880821 0.005521322 -0.011309114
0003d0 58 23 8c 3c 96 72 be 3c d0 f0 36 bc dd d1 c3 3c
       0.017106697 0.023247998 -0.011165813 0.023903782
0003e0 05 85 5a 3b 1b 55 27 3d 44 cd 91 3b fe c8 eb 3c
       0.0033343446 0.040852647 0.0044495184 0.028782364
0003f0 18 d3 f9 3c 32 44 12 bd 8a 1d ac bc 44 be 4b bc
       0.030496165 -0.035709567 -0.02101018 -0.0124355

model_trend.backbone.W_P.weight f4 [48, 10]
000000 22 18 9f bd 61 0e 97 bd bf 89 26 bb 15 dd 03 3c
       -0.07768275 -0.073757894 -0.0025411693 0.0080483155
000010 d4 dc 86 bd f4 d9 cd bc 56 ab 24 3d 29 d8 d5 3a
       -0.06585088 -0.025128342 0.04020246 0.0016315031
000020 ef de 93 bc 5e 7f 04 3d 3d cf 89 3d ff 33 0f bd
       -0.018050639 0.03234803 0.06728981 -0.034961697
000030 f0 14 8b bd 5d e3 19 bc a3 05 27 3e 3f d5 4e 3d
       -0.06791103 -0.009392587 0.16310744 0.050496336
000040 ae ca 57 bd 5c 75 43 3d 22 29 43 3d 21 6b 02 bd
       -0.052683525 0.047719344 0.04764665 -0.031840447
000050 1a 0e 9b 3b b2 30 5f 3d 87 a6 56 3d 88 63 36 3d
       0.0047319056 0.0544898 0.052404907 0.044528514
000060 7d 77 1e be a8 e5 c3 bd 10 9b e4 3c 93 00 c9 bc
       -0.15475269 -0.09565288 0.02790597 -0.024536407
000070 63 01 d2 bc 37 d5 98 3d b1 69 33 3c f9 0b d9 bd
       -0.025635427 0.074625425 0.010950492 -0.10597987
000080 2e ee 84 bd 42 cf 32 bd 45 94 49 3e 19 cb 13 3e
       -0.06490742 -0.043654688 0.19685467 0.14432944
000090 6b e8 cc 3b 3b 01 da 3b 8a ff 08 bc b0 c5 c5 bd
       0.0062532923 0.0066529787 -0.0083617065 -0.096568465
0000a0 4f 8b 37 bd 7f d5 01 be d5 15 d9 bd 85 ed 8c bd
       -0.04481059 -0.12679099 -0.10599867 -0.06881241
0000b0 0a 37 45 3d be 51 1b 3d c0 e2 57 3b 8e 70 91 b9
       0.048148192 0.037919752 0.003294155 -0.00027740415
0000c0 b4 30 a9 3b e0 46 3f bd 19 c7 07 3e 32 73 23 3d
       0.0051632766 -0.04669845 0.13259543 0.03990478
0000d0 f1 6d c7 bd 55 38 0e be 6a 96 f0 bc b1 4f 6b 3d
       -0.097377665 -0.13888676 -0.029368598 0.057449047
0000e0 98 57 8c 3d 06 34 99 3c 1c 5f 37 3c f0 12 c6 bc
       0.06852645 0.018701565 0.011192109 -0.024178952
0000f0 10 c2 29 bb c4 24 cf 3d c4 83 0b 3e 6b 82 ab 3d
       -0.0025903024 0.10114434 0.13624483 0.08374485
000100 ba 52 0d bd 2e 05 a6 bb da f8 3f 3c cf 8f 57 bd
       -0.034502722 -0.0050665354 0.011717046 -0.05262738
000110 73 ad 7f bd 43 12 81 3b a2 e1 17 be 13 61 96 bd
       -0.062421273 0.0039389445 -0.14832166 -0.07342734
000120 b9 08 2e b9 40 cd 1a 3d 60 a3 0b 3e ed d2 8f 3d
       -0.00016597183 0.037793398 0.13636541 0.07022653
000130 15 07 52 bd f5 a9 b6 bc 0d 5b 31 bd ff fc 58 bd
       -0.051276285 -0.022297839 -0.043299723 -0.05297565
000140 57 76 21 3e 4b 01 2a 3d 0e 3e d6 bc 35 25 15 bd
       0.157678 0.04150514 -0.026152637 -0.036412437
000150 f7 9a 10 bd 83 b7 0f bd 7c 9f 30 bc a0 ab 4c 3d
       -0.035304036 -0.03508712 -0.010780212 0.04996836
000160 df ca 13 3d 3e 44 44 3d e0 33 f1 3c f2 24 29 3e
       0.036082145 0.047916643 0.029443681 0.16518
000170 db e1 eb 3d aa c2 71 3d 06 3c 3b bd 65 41 86 3c
       0.11517688 0.059023537 -0.04571154 0.016388604
000180 ad ac c2 3c 9c f0 9a bd ae 4d 9d bd 57 a1 eb 3c
       0.023763979 -0.07565424 -0.07680832 0.028763456
000190 6c ed 04 3e 3b 83 b5 3d b4 d2 3a bc bf fb 32 bd
       0.12981194 0.08862921 -0.011402775 -0.043697115
0001a0 fc db f8 bd 46 67 84 bd 41 94 f8 3c b1 aa 86 3c
       -0.12151334 -0.0646501 0.03034413 0.016438814
0001b0 b0 50 38 3d ea 5a 3d 3d c8 2e a5 bd e7 35 c4 bd
       0.044998825 0.04622928 -0.080655634 -0.095805936
0001c0 fa d0 ed bc 1c 17 ea bc 59 f2 6a 3d e7 07 5d 3d
       -0.029030312 -0.028575473 0.057360027 0.053962614
0001d0 19 df f5 3b 84 ad 7a ba be 47 0f bd e6 15 2b bd
       0.007503402 -0.0009562599 -0.034980528 -0.04176893
0001e0 d5 a4 1e 3d d9 4f bc bc 12 c1 96 bd 3c b2 0e bd
       0.038731415 -0.022987293 -0.07361044 -0.034837946
0001f0 68 5b cd bd 3f 63 a2 bd 58 d0 35 3c ea 6d 15 3d
       -0.100272 -0.07929086 0.011097036 0.036481775
000200 4f 48 74 3c 77 91 26 3d 92 11 19 3c 53 3e af 3d
       0.014909818 0.04066607 0.009342568 0.08556809
000210 8d 5f 7e 3d ac df 51 3d 7f d5 4d 3c 62 17 41 bc
       0.062102843 0.0512387 0.0125631085 -0.01178536
000220 d3 49 27 bd 6f 0d 73 bd 73 71 c9 bc 16 51 23 3c
       -0.04084189 -0.059338983 -0.02459023 0.009968063
000230 dc c3 b8 39 0c 2b 0b 3e d3 55 cb 3d 1f d7 2c 3d
       0.0003524114 0.1359064 0.09928479 0.042197343
000240 66 fc 6a bd 5d 5c a9 bc d7 49 2c bc 57 76 18 bd
       -0.057369612 -0.020673925 -0.010515652 -0.037222233
000250 d8 06 af 3c e4 35 be 3c 80 82 9f 3b 54 53 c4 3d
       0.021365568 0.023219056 0.0048678517 0.09586206
000260 5b 27 c4 3d 36 f9 e5 3d 59 ff 75 3d 47 cc 2d 3d
       0.09577819 0.11229174 0.06005797 0.042431142
000270 b2 23 03 bd 84 dc 1a bd cc e0 18 3b 72 88 5c 3b
       -0.032016464 -0.037807956 0.0023327349 0.0033650664
000280 2f 7f 09 3d cb e2 04 3d ae f4 49 bc 72 7e cb bd
       0.033568557 0.03244285 -0.012326403 -0.09936227
000290 df fb 24 be 42 c1 92 bd 0d 7c 36 3d 47 52 c8 3c
       -0.16111706 -0.07165767 0.044551898 0.024453295
0002a0 38 90 70 3c 75 7b 15 3d aa 33 0b 3a ec 42 d9 3d
       0.014682822 0.03649469 0.0005310128 0.106084675
0002b0 60 26 83 3d 31 39 f3 3c 74 d5 5a 3c 49 b8 17 3d
       0.06403804 0.029690357 0.013356555 0.037040982
0002c0 21 b8 60 3c 33 49 01 bd a2 9a d2 bc 2f c9 98 bc
       0.013715775 -0.03156395 -0.0257085 -0.01865062
0002d0 a1 59 89 bd f2 11 96 bd 1e ec 9f bd a1 a3 bf bd
       -0.067065485 -0.073276415 -0.07808708 -0.093573816
0002e0 87 79 b1 3d 21 a0 a6 3d df 47 fb 3c 27 05 d6 bb
       0.086657576 0.08136011 0.03067392 -0.006531376
0002f0 bd 9c 19 3c 5e 9e 9b bd 37 8c 9a 3d b9 43 a5 3d
       0.009375748 -0.075985655 0.07546275 0.08069558
000300 10 33 32 3c ad 27 7a bd 6d df 65 be e3 9a c2 bd
       0.010876432 -0.061072994 -0.22448511 -0.095021985
000310 78 b5 57 3c 0c c2 35 3d ae b9 83 3c 41 1e 9a 3c
       0.013165824 0.04437451 0.01607975 0.018813254
000320 81 9a ee bc 47 5a 85 bd c9 ca 84 bc a6 3a c2 3d
       -0.029126408 -0.0651136 -0.016209977 0.094838426
000330 c3 1b 38 3e 0e 20 80 3d 38 87 fa bc b3 e6 10 bd
       0.1797934 0.06256114 -0.030582055 -0.035376262
000340 6c a5 90 3c f4 d8 96 bc de fd 9f 3b a0 98 0a be
       0.017657004 -0.018413998 0.0048825582 -0.13534784
000350 c2 6a 00 be 86 93 b1 bd e3 66 ab 3d 71 91 10 3d
       -0.12540725 -0.08670716 0.083692335 0.035294954
000360 47 59 c0 bc 1a d0 e9 3c e8 16 9e 3c eb 7a eb bc
       -0.02348007 0.028541613 0.019298032 -0.028745135
000370 17 4a 81 bd f3 33 10 3b 91 81 ba 3d 76 1a f3 3d
       -0.0631296 0.002200362 0.09106744 0.118702814
000380 1d 2d 60 3d 7c ca 07 bd 9f 70 50 bd 2e 79 bb bc
       0.054730523 -0.03315209 -0.050888654 -0.022884931
000390 2c 3a b2 3c e6 58 4e 3d 95 68 9b 3d 43 7b e7 3d
       0.021756254 0.05037775 0.07588307 0.11302807
0003a0 05 59 82 3d d0 a5 15 3d eb a6 6a 3d 84 1a 96 3c
       0.063646354 0.036535084 0.05728809 0.01832319
0003b0 53 58 bc 3c 19 87 7c bc 1a 61 73 bc d8 2a 91 bc
       0.022991335 -0.015413069 -0.014854694 -0.017720625
0003c0 8c 0e 75 bc 7d 65 10 3a aa fc 9a 3b 2b c2 bb bd
       -0.0149570815 0.0005508287 0.004729827 -0.09167894
0003d0 0d 2a 1f be 13 01 9f bc 49 11 89 3d 4d e7 98 3c
       -0.15543385 -0.019409692 0.0669275 0.01866498
0003e0 17 c1 91 bb 15 ec 2d 3c b8 be e0 3c 47 5c a2 3d
       -0.004448067 0.010615368 0.027434692 0.07927757
0003f0 9c 79 ad 3d 25 51 95 3d cb 8e 39 3d da 8b df bb
       0.08470461 0.07290868 0.045302194 -0.0068220915

model_trend.backbone.W_P.bias f4 [48]
000000 74 6e c6 3b 1f 4b bc 3a 62 19 d2 bc b5 ac 2e 3d
       0.0060556475 0.001436565 -0.02564687 0.042645175
000010 f5 27 20 bb 51 1e a2 bb 8e 16 a9 3c 6f 64 91 ba
       -0.0024437879 -0.0049474617 0.020640638 -0.0011092554
000020 82 64 a6 bc 8e 2c 15 bc 72 a4 b8 ba fc 70 50 bc
       -0.020311598 -0.009104861 -0.0014087094 -0.01272225
000030 c2 87 fc 3b c5 db 26 bd 22 24 2a bd f9 bf 3e bd
       0.0077066133 -0.040736932 -0.041538365 -0.0465698
000040 a5 84 4d bc 9a 48 39 bc ed 92 0a bd 3d 7d e2 bc
       -0.012543832 -0.0113088135 -0.033831526 -0.027647609
000050 ba 77 35 bd 06 8d fa 3b 88 d9 09 bd 56 67 07 3c
       -0.044303633 0.007646206 -0.03365472 0.008264383
000060 99 3b 68 3c 99 c4 97 bd ce 13 6d bc 3b 82 16 bc
       0.014174365 -0.07410545 -0.014470054 -0.009186323
000070 1c 60 96 3d 32 4a fe 3c ee b8 94 bb 23 e5 25 bd
       0.0734255 0.031041238 -0.004538647 -0.040501725
000080 2c 59 08 bd 2a 71 45 3d a7 bb 95 3b 5c 18 32 3c
       -0.033288166 0.048203625 0.004569489 0.010870066
000090 52 df 84 bc d6 f5 51 bc a4 c6 7b bc 48 04 ca 3b
       -0.016219769 -0.0128149595 -0.015367184 0.006165061
0000a0 3d ae d6 bc 6e aa 9e 3c 5a bb 85 bc 79 e7 9c bd
       -0.02620613 0.019368377 -0.016324688 -0.076613374
0000b0 f6 5b 5f 3d d1 60 17 bd 90 67 f5 3b d9 71 09 3d
       0.05453106 -0.036957566 0.0074891523 0.03355584

model_trend.backbone.encoder.layers.0.self_attn.W_Q.weight f4 [48, 48]
000000 15 eb 93 bc bb 81 b8 3c 64 a2 04 bd da c1 e9 bb
       -0.018056432 0.022522798 -0.03238143 -0.0071337046
000010 99 71 3b 3d 1f 4c f8 3c 1a 5e c5 3a 50 3e 11 bd
       0.045762632 0.030309735 0.0015057952 -0.035459816
000020 8f 52 bf 3d a8 07 cd bd 46 17 9c bd f8 5a ed 3c
       0.09341919 -0.10011226 -0.076216266 0.028974041
000030 09 f5 e3 bd a1 67 32 bc 72 6b e7 bc a0 0b 46 bd
       -0.11130721 -0.010888965 -0.028249476 -0.04835093
000040 7e 99 7f bc 83 57 50 bd 73 5c a2 3c 0d 5b df 3c
       -0.01560056 -0.050864708 0.019819474 0.027265096
000050 8c 68 d5 3c 46 fc 67 bb cc 65 d2 3c a3 7c ad bc
       0.026050828 -0.003539817 0.025683306 -0.021177595
000060 e8 22 15 3d 0e ee 34 bd f1 7a 8e bb 5e 7a 62 3d
       0.036410242 -0.04417234 -0.004348152 0.05529248
000070 c6 fa ba 3d 9e 0e 6a 3c f3 ab 73 bd 18 a1 a5 3d
       0.091298625 0.014285712 -0.059490155 0.08087367
000080 19 d9 a8 3d a2 1f 6e bd d9 38 36 bd 8c cb 7b bc
       0.08244533 -0.058135636 -0.044487808 -0.015368354
000090 86 49 02 bc e2 4a 94 3d e8 3a 68 3d 23 1e 52 3c
       -0.0079521 0.07240845 0.056696802 0.012824568
0000a0 f2 5f 5d bc 8d cf b9 bc 6d e1 18 bc b9 6e f5 bc
       -0.013511645 -0.022681976 -0.009331089 -0.029960023
0000b0 41 7b 63 3c 13 20 07 3d 4c 3c af bc 0d 85 cc 3a
       0.0138843665 0.032989573 -0.021391056 0.0015603617
0000c0 de c5 9c bb e1 e7 73 bb ef 06 ba bd 6e b9 8f 3c
       -0.00478433 -0.0037217068 -0.09083354 0.017544474
0000d0 c1 98 ee bc d1 66 88 3d 2d 07 95 ba 2d 44 90 3d
       -0.029125573 0.06660236 -0.0011369936 0.070442535
0000e0 4b 2d 9a 3b 2c 3e c3 3d e6 a8 64 3a 27 81 66 3c
       0.0047051064 0.09533343 0.00087226776 0.014068878
0000f0 20 12 23 bd 40 93 55 3c 3c 1a 0d bc cd 85 66 bc
       -0.039812207 0.013035595 -0.008612212 -0.0140699865
000100 a0 84 00 bc df 8b 2e 3d 09 b0 37 3d ef bb 3a bd
       -0.00784412 0.04261386 0.044845615 -0.045589384
000110 99 87 38 3d e9 5c 84 bd fb ff d9 bc 2b b2 6f 3d
       0.04505119 -0.06463034 -0.026611319 0.058519524
000120 51 72 9c 3d d9 a4 e5 3c 45 16 26 bd 22 03 62 bc
       0.076389916 0.028032707 -0.04054858 -0.013794692
000130 98 96 8c bc 34 a3 6b bd 55 fe 14 3d 1c 96 7f 3d
       -0.017161652 -0.05752869 0.036375362 0.062399015
000140 e4 2a 24 bd f9 ab 25 3b a8 9e c6 bb c0 ae 16 3c
       -0.040079966 0.0025279506 -0.006061394 0.009196937
000150 14 56 81 3c 96 7d 89 bd 18 32 29 bc 40 0e 77 3d
       0.015788116 -0.06713407 -0.010326885 0.060316324
000160 c4 e0 92 bd 39 08 0c 3d 36 4f 07 3d ba 0b 61 bd
       -0.07171777 0.03418753 0.033034526 -0.054942824
000170 44 fe f6 bb f2 a2 58 3d 47 03 01 3d 75 bc 92 bd
       -0.007537635 0.05288977 0.031497266 -0.071648516
000180 8a 44 06 3d 70 9f ac bd f9 39 4a 3d 6a 45 c8 3c
       0.032780208 -0.08428848 0.049371693 0.024447162
000190 4e 2e 24 3d 92 f1 e3 bd ae 55 d8 3b c8 ea 4b 3d
       0.040083222 -0.1113006 0.0066020107 0.04978445
0001a0 a4 dd 52 bd e5 74 ca 3b db 6d c4 b9 3c 72 39 bc
       -0.051480904 0.0061784857 -0.00037465882 -0.0113187395
0001b0 5c 2f ee 3c 02 58 62 bd 31 e7 0f bd f6 28 cd bc
       0.029075317 -0.055259712 -0.03513259 -0.025043946
0001c0 76 05 09 3d fa 9b 1e 3d 3f 25 90 bc 99 ec 26 bd
       0.033452474 0.03872297 -0.017595885 -0.04075298
0001d0 a3 46 3c bd ce 20 8c 3d f7 24 b9 bd 06 ed 14 bc
       -0.045965802 0.068421945 -0.090402536 -0.009089714
0001e0 ed 27 25 3d ff 10 19 bd ff 61 ba 3c b7 8e c8 bc
       0.04032128 -0.037369724 0.022751806 -0.024482114
0001f0 bd 04 3f bd 21 b6 d9 bc ad 62 dd bc 12 28 c7 bd
       -0.04663538 -0.026576104 -0.027024591 -0.0972444
000200 75 02 8b bd 66 b2 32 3b 85 e0 9b bc da 83 24 3c
       -0.06787578 0.0027266978 -0.019027958 0.0100412015
000210 c9 51 87 bc 37 6d 31 bc 3b 83 47 3d b4 15 c6 3b
       -0.01651849 -0.0108292615 0.048709136 0.0060450677
000220 6f 8a cf 3b 5e a8 85 bd d7 24 80 bd fe b7 f3 3c
       0.0063336412 -0.06526254 -0.06257027 0.02975082
000230 49 59 a4 bc 6e 7b 31 bc 9d 94 ea bc 6c 42 5e 3c
       -0.020062106 -0.010832651 -0.028635317 0.013565641
000240 da 38 69 bd 1a 3b b4 3d 33 03 ea bd c5 9b a1 3d
       -0.056938984 0.08800335 -0.114263915 0.07891039
000250 ec 98 8b bd 35 bd 06 bd eb c4 ab 3b 46 5d 87 3a
       -0.06816277 -0.032895286 0.0052419803 0.001032748
000260 1a 2a 3d 3d b3 26 d2 3d dc da d3 3d f6 3f 70 bd
       0.04618273 0.102612875 0.103444785 -0.058654748
000270 3e 6d d4 bc 72 06 c9 3d 37 a5 50 bb ab 47 e8 3d
       -0.025930997 0.098156825 -0.0031836757 0.113417946
000280 10 a4 55 bd 15 06 5c 3d 87 0a bd 3a eb c1 b7 bd
       -0.052158415 0.053716738 0.0014422693 -0.08972534
000290 35 54 9f 3d a9 88 a6 bb bb d0 d0 3d 2e 86 5d 3d
       0.07779733 -0.005082209 0.10196062 0.05408304
0002a0 36 cf 17 be 1f 74 a1 3d 4f 34 4a 3d 6e 80 21 3d
       -0.14825138 0.078834765 0.04936629 0.03942912
0002b0 ea 55 57 bc c0 41 e7 3d 05 ac 96 3d fa 48 72 3c
       -0.013143042 0.11291838 0.07357029 0.014787907
0002c0 c3 ea b5 3d 0e f6 d7 bd e6 4c df 3d 86 83 bd bd
       0.08882668 -0.10544978 0.10903339 -0.09253602
0002d0 3c af 09 3e b0 8a 55 bc 7b e4 4d bc 19 ad e5 3c
       0.13445753 -0.013033554 -0.012566681 0.028036641
0002e0 ef 7e 72 3d 35 05 20 bd 06 43 3a 3d 3d e9 f7 3c
       0.059203085 -0.039067466 0.045474075 0.030262584
0002f0 3a ca 81 bd 92 f2 8b bd cd 63 f0 bc 83 11 78 3d
       -0.063374 -0.06833376 -0.029344464 0.060563575
000300 7e 58 d6 bc cf ae 36 3d 16 ef d4 3c 35 dd c2 3c
       -0.026165243 0.044600304 0.025992911 0.02378712
000310 7d 19 ec bc 89 0c 00 be f5 4a 16 3d db d6 86 bc
       -0.028820748 -0.12504782 0.03669258 -0.016459873
000320 27 07 35 3d fc 56 83 bd 13 e4 40 bd 2d 55 f3 bc
       0.044196274 -0.06413075 -0.04709251 -0.0297037
000330 41 9b 0b bd 2d 93 73 bb c8 74 f2 bc 33 3b e2 3b
       -0.03408361 -0.003716658 -0.029596701 0.0069040298
000340 a8 7e 85 bc 71 8a e3 bc ef 29 dc bb a5 3a f1 bc
       -0.016295746 -0.027775975 -0.006718866 -0.02944691
000350 b6 b9 b0 3c bb 60 91 3b ef 20 3b 3d 41 5f b8 bc
       0.021572929 0.00443658 0.045685705 -0.022506358
000360 21 8e 11 bd 01 55 ac bc 66 0b b4 bd 1a 11 21 3c
       -0.035535935 -0.021036627 -0.087912366 0.0098307375
000370 99 62 cf 3c d3 76 0e bd 24 8c d0 bb b4 07 8c bc
       0.02531557 -0.03478129 -0.0063643623 -0.017093517
000380 9b 82 14 3d 7a c8 b6 bd ca 24 3a 3d 23 44 59 3b
       0.036257368 -0.089249566 0.04544524 0.0033152185
000390 ce 69 0c 3c d3 a6 ff bc 05 a1 90 bd 27 e0 1a bc
       0.008570148 -0.031207478 -0.07061962 -0.009452856
0003a0 be 8d 2f 3d b2 78 7b 3d 61 c1 33 3d 07 82 42 bd
       0.042859785 0.0613944 0.043885592 -0.047487285
0003b0 6c b2 97 3d 8a 39 b5 bd 6a 68 c1 bd 49 27 0a 3d
       0.07407078 -0.08848865 -0.094437435 0.03372887
0003c0 e2 f5 30 3d d6 07 9e 3c 0c 95 05 3e b6 ae cc bc
       0.043203242 0.019290846 0.13045138 -0.024985652
0003d0 c3 cd 1f 3c a6 78 98 bd db 91 0a 3c 37 62 34 bc
       0.009753647 -0.07444887 0.008457626 -0.011009744
0003e0 fd 33 0d 3c 6e 05 01 bd 49 3b 2a bd f5 7a 15 bd
       0.008618352 -0.03149932 -0.041560445 -0.036494214
0003f0 e9 4f 7d bc 9a 52 80 bb e6 2d a1 3c 1f 59 3d bd
       -0.015460947 -0.003916097 0.019675206 -0.04622757

model_trend.backbone.encoder.layers.0.self_attn.W_Q.bias f4 [48]
000000 45 35 28 ba 07 34 37 3c 0b 21 84 bb ae d3 09 bd
       -0.0006416629 0.011181838 -0.0040322593 -0.03364914
000010 45 97 a4 bc c2 68 4c bb cd 62 51 bc ac 2f dc bc
       -0.020091662 -0.003119037 -0.012779904 -0.0268782
000020 73 70 74 3c a0 ae 2d bb 6c c5 ed bc 67 bd 34 bd
       0.014919388 -0.002650179 -0.029024802 -0.04412594
000030 af 67 65 3b 44 7b 4c 3c c1 93 ec bc 12 5e a9 bd
       0.0035004427 0.012480561 -0.028879048 -0.082698956
000040 f8 9d b7 bd 9c e5 dd bc 9e 28 2b bd c0 8e be 3c
       -0.08965677 -0.027087025 -0.041786782 0.023261428
000050 4f 34 94 3b 3d 6e 95 bc 2c b1 ce bc 0d 93 be 3b
       0.004522837 -0.018241042 -0.025230967 0.0058158697
000060 62 8d 28 3d 09 e9 3b 3b 96 b6 1b bd 54 f5 f3 bc
       0.04115046 0.0028672835 -0.038015924 -0.029780068
000070 53 65 2a bc 62 a3 8d bc 8a 0c 2e bc 74 19 03 bd
       -0.010400134 -0.017289821 -0.010623107 -0.032006696
000080 55 50 9d 3c 22 4c 99 3c 1b 5a a0 3b 88 23 8f bd
       0.019203344 0.01871306 0.004893554 -0.06989199
000090 2d bd 0f 3d d5 f0 05 3d 0b 6d b4 bc 92 91 4c 3d
       0.03509252 0.03270038 -0.022024652 0.049943514
0000a0 97 d5 c1 bc 50 ae e9 3c c4 6d 72 3d 22 06 19 bc
       -0.023661418 0.028525501 0.059186712 -0.009339841
0000b0 c0 c2 3f 3d 38 17 bc 3b 39 b0 84 3d de d9 9a bd
       0.046816587 0.0057400726 0.06478924 -0.07561086

model_trend.backbone.encoder.layers.0.self_attn.W_K.weight f4 [48, 48]
000000 a4 b4 d5 bc b3 0b 06 3b ad d0 f6 bb 83 de 68 bb
       -0.026087113 0.002045375 -0.0075322003 -0.0035533018
000010 69 f8 ff bc 2a de 35 3e f7 ff f1 bb 93 15 9d 3d
       -0.03124638 0.1776053 -0.0073852497 0.076701306
000020 66 49 cb 3c e8 63 3e bb 33 57 1d 3d de 98 d1 bc
       0.024815273 -0.0029051248 0.038413238 -0.025585588
000030 04 0d 76 bc 6c 4c df bb 42 9d 5d bb 9d 0e 55 3c
       -0.015017752 -0.00681453 -0.0033815657 0.013003972
000040 1f 70 3a 3d f1 d9 16 3d 4e 0e 33 bc c2 7e 9a 3a
       0.045517083 0.03682894 -0.0109287035 0.0011787044
000050 e6 c0 3e 3d cc f1 81 3d e0 cb 14 bd 64 de cc 3c
       0.04657068 0.06344947 -0.036327243 0.025008388
000060 13 aa 41 bc 28 f7 ec 3b 5a 29 47 bd dd 52 99 bb
       -0.011820334 0.0072316118 -0.04862342 -0.0046790675
000070 e5 7b e1 3c f3 f0 98 bd b9 ec 21 3d 41 a5 2c bd
       0.027524898 -0.074678324 0.039532397 -0.042149786
000080 04 5f 8e 3d 03 0f 18 bd 44 0e 33 3d f3 59 b2 bd
       0.069517165 -0.03712369 0.043714777 -0.08708563
000090 bf 2b cc bc 1e 11 d5 bc ec 5a 2d bd 79 0d 74 bd
       -0.024923204 -0.026009139 -0.042323038 -0.05958316
0000a0 31 e3 7e 3c 79 fd 80 3c 0d b0 fa 3b c7 6c e0 bc
       0.015557096 0.015745865 0.0076503814 -0.02739562
0000b0 d2 dd 71 3d 9f 07 8b bb ed 2c 08 3d 25 8d e6 3b
       0.059049435 -0.004242852 0.03324597 0.0070358687
0000c0 ff d1 30 3d a8 04 76 bd 3a 40 89 3c c9 a2 29 bc
       0.043169018 -0.060063034 0.016754258 -0.010353752
0000d0 94 a4 57 bc e0 55 05 be 9e 2c dc bc 87 a5 63 3c
       -0.013161797 -0.1302104 -0.026876744 0.013894445
0000e0 d2 a0 fe 3c 4e fb 03 bd 83 e9 4b 3c 11 03 fe bc
       0.031082544 -0.032222085 0.01244581 -0.031007322
0000f0 ec d6 6e 3c 06 78 91 bd 54 44 fa bc fc d1 87 3d
       0.014577609 -0.07102971 -0.03055016 0.06631848
000100 af 42 31 bd 81 6a 8c bd d7 ac 0a be 50 0d 81 3d
       -0.043276485 -0.068562515 -0.13542496 0.06301367
000110 a6 3a 98 3c 33 4e 9d 3d 91 5c 98 3d 87 fa 8d 3c
       0.018582653 0.07680931 0.07439531 0.017331375
000120 29 ee c3 3c bf 80 40 bd f6 30 a9 3c 67 44 c0 bc
       0.023917275 -0.04699778 0.02065323 -0.023470117
000130 af dd c2 3c dc 45 56 3a 7f e3 db bc 33 ad 84 bd
       0.023787348 0.0008173862 -0.026841877 -0.06478348
000140 95 77 50 3d c9 4e a9 3c a5 6c f7 3c f5 c5 16 bc
       0.050895292 0.02066745 0.030203173 -0.00920247
000150 81 26 92 bc fa 8a 94 3d 40 63 e2 bc b3 91 a9 3d
       -0.017840626 0.0725307 -0.027635217 0.08279743
000160 f0 04 25 bc 9c 29 34 3b 77 d2 df bc c4 10 ca 3c
       -0.010071978 0.0027490621 -0.027322037 0.024666198
000170 85 7b d5 bd bd 8d a7 bc 6e 45 21 bb 43 ad 8f 3b
       -0.1042395 -0.020453328 -0.0024608034 0.004384668
000180 e9 56 1e bd d1 3a 48 3d 38 2d 33 3c eb cf 57 bd
       -0.038657103 0.048884217 0.010936074 -0.05268852
000190 9d 15 00 3d 6f 48 5f bd 77 64 bb bb 0f f9 b6 bc
       0.031270612 -0.054512437 -0.0057187635 -0.022335557
0001a0 77 9a 10 3d 47 43 96 3d 88 07 83 bd c5 22 87 bd
       0.03530356 0.07337051 -0.06397921 -0.06598429
0001b0 4e f7 04 be 25 c6 c1 3d 52 f6 dd 3c e6 72 d5 3b
       -0.12984964 0.09461621 0.027094994 0.006513941
0001c0 e0 37 39 bc 4a ce 8e bc bb d5 cf bc 29 e1 15 be
       -0.011304826 -0.01743235 -0.02537047 -0.14636673
0001d0 ea 9c b6 bc 47 95 24 bb 6f b1 79 bc 3d c8 28 bb
       -0.02229162 -0.002511339 -0.015240057 -0.0025754117
0001e0 77 27 22 3c 2d 72 07 3d 54 5f a0 3b 6e a9 af 3b
       0.009897104 0.03306787 0.0048941765 0.0053607738
0001f0 41 5d f1 3c e8 63 f4 bc 27 aa a5 3d a8 97 62 3d
       0.029463412 -0.029832795 0.080890946 0.055320412
000200 39 4f 59 bd 07 6a 08 be c1 82 13 3d 56 fe 9b 3d
       -0.05305407 -0.13321696 0.03601337 0.0761687
000210 48 4d 88 3c 66 a0 98 3c 7f 8f 79 bd a2 c2 5f 3a
       0.016638413 0.018631171 -0.060927864 0.00085357775
000220 ad 6b 88 3d 48 de ea 3c f4 7a e4 bc 95 d8 83 bd
       0.066611625 0.028670445 -0.02789066 -0.06437794
000230 c9 75 23 3d 76 d5 ca 3a af 29 64 bd 52 db 57 3d
       0.03990725 0.0015474993 -0.055703815 0.052699395
000240 1a 9d 4b 3d 4b 02 0d be f0 87 d9 3d 2b 79 cb bd
       0.04971037 -0.13770406 0.10621631 -0.0993522
000250 78 fb a8 3c a0 50 74 3d f6 93 33 bd 96 2b 1b 3d
       0.020627722 0.059647202 -0.04384228 0.037883364
000260 b3 22 af bd 32 7b df bb c9 f2 d0 bc d9 59 48 bb
       -0.0855154 -0.006820106 -0.025506394 -0.0030571132
000270 28 19 7d bc 8c d6 a9 bd 57 7b 11 bd e5 47 e4 bc
       -0.015447892 -0.08292875 -0.035518017 -0.027866313
000280 42 4d 72 3d 3e f4 64 bd 03 73 45 3d 18 e6 91 3d
       0.05915571 -0.05589699 0.048205387 0.07123965
000290 da 08 e2 bd 9b 23 d1 3c e6 ac 28 bd 1d ec b8 bc
       -0.110368446 0.025529673 -0.041180514 -0.022573525
0002a0 50 23 9f ba ed 87 ab bd 77 c1 d4 bc 70 d0 97 3c
       -0.0012141261 -0.08375535 -0.025971157 0.018532008
0002b0 b3 bd 64 3d 65 35 dd bd e0 b1 56 bd 23 8b 1a bd
       0.055844974 -0.108012 -0.05241573 -0.037730347
0002c0 2e 53 d4 bd 2e 56 ca 3c 9c 75 de bd f7 cb 8a 3d
       -0.10367428 0.024699297 -0.10862276 0.067771845
0002d0 62 c3 62 bc 08 2c be bd 3c 8a 13 be fb 38 8c bd
       -0.013840528 -0.09285742 -0.14408201 -0.06846806
0002e0 d5 3e b8 bd d4 55 60 3d 8a 22 7a bd 26 cd 1a be
       -0.08996359 0.054769352 -0.061068095 -0.1511732
0002f0 7f 2b 7a 3d bd 90 8f bd 45 72 fb 3b 07 24 be bd
       0.061076637 -0.070100285 0.007673534 -0.092842154
000300 ba 93 12 bd b6 d8 8a bd 18 f2 18 3c 09 f8 da bc
       -0.035785414 -0.067796156 0.009335063 -0.0267296
000310 9a ac 6e bd d6 d1 ec 3d 90 be 0f 3d 0e ce 54 3d
       -0.058270074 0.115634605 0.035093844 0.05195432
000320 49 f8 92 ba 92 64 e5 3c 90 71 81 bb 8b 98 d9 3c
       -0.0011212911 0.028002057 -0.0039503053 0.026561996
000330 dc 32 4f bd dd 75 07 bd f0 f9 cb bc b8 d8 bf 3c
       -0.050585613 -0.033071388 -0.024899453 0.02341877
000340 78 56 f7 bc 7a 3b 4e 3d 80 97 b0 bc 9c a9 29 3d
       -0.030192599 0.05034969 -0.021556616 0.041421518
000350 16 2b 5f bd 02 33 91 3d 8d 03 1b 3c 0a 93 8d 3d
       -0.05448445 0.07089807 0.009461296 0.06912811
000360 96 bf 4e bd ba 2d 87 bd 1e 0d 80 3d 43 77 9e 3d
       -0.05047568 -0.066005185 0.06252502 0.07737591
000370 b9 90 29 3d 26 97 38 3a 99 04 d9 bc 55 c4 0b bd
       0.041397784 0.0007041566 -0.02649145 -0.034122784
000380 1f 3a 73 3d a5 41 d8 bc de 54 63 bd 22 10 03 3c
       0.0593816 -0.02639849 -0.055500858 0.007999452
000390 58 2f 57 bb f2 57 e5 3c 27 2f af ba d5 21 03 3d
       -0.0032834616 0.027996037 -0.0013365493 0.032014687
0003a0 93 2d b6 bd d4 fa 06 3c 87 19 43 bd ea 9c 31 bd
       -0.08895411 0.008238513 -0.047631767 -0.043362536
0003b0 ad 4c 80 3c 28 8b 07 bd 5b 6a e9 3d 19 22 f1 bc
       0.015661562 -0.033091694 0.11397239 -0.029435204
0003c0 0c 0c bc bc 2c da f5 3c 76 4e 44 bc 49 b1 8f 3c
       -0.022954963 0.030011259 -0.011981597 0.01754059
0003d0 d1 2a c1 3c ca c6 1b 3e d6 cf bb 3c ca 18 54 bb
       0.023579987 0.15212551 0.022926252 -0.0032363408
0003e0 76 1a ae 3b 3a 0a 5a 3d 11 45 09 bc 40 8d bc bc
       0.005313213 0.05323241 -0.008378283 -0.023016572
0003f0 d0 97 24 bd 90 c4 b7 3d 77 61 e9 bc 34 79 6d 3c
       -0.040183842 0.08973038 -0.028488858 0.014494229

model_trend.backbone.encoder.layers.0.self_attn.W_K.bias f4 [48]
000000 2b f7 ed bc 29 a2 95 bb f4 f4 94 bb a2 80 f7 bd
       -0.029048523 -0.00456645 -0.0045458023 -0.12085082
000010 76 24 10 3e e7 8a 30 3e dd 20 92 bd 54 ba a1 bc
       0.14076409 0.17240487 -0.071351744 -0.019742168
000020 30 06 1a 3e 07 d4 bd 3d 13 52 0a 3d 3d 57 03 3e
       0.15041423 0.09268957 0.03376968 0.12826248
000030 80 d3 c6 3a 76 64 b8 3b c3 6c 0b 3d d3 3c f5 bc
       0.0015169233 0.0056272103 0.03403927 -0.02993623
000040 18 a5 c5 bb 2a 90 3c 3e 67 c7 bd 3d 2f be c3 3d
       -0.0060316436 0.18414369 0.092665486 0.09557759
000050 76 0c 47 3d 9c c5 ff bc a3 d5 f7 3d f4 50 a2 3d
       0.048595868 -0.031222157 0.12101295 0.07925597
000060 14 c0 02 3e bc 03 28 3d 1f 0b ae 3d 7d 0b 11 3d
       0.12768584 0.041019186 0.08498215 0.035411347
000070 60 30 c2 ba 44 d4 c2 bd 11 af 53 3d 18 c3 cc 3d
       -0.0014815442 -0.09513143 0.05168063 0.09998149
000080 05 3e 02 3d 7e 4e 8c 3d a5 21 c2 bd 74 29 b7 bd
       0.031797428 0.06850909 -0.094790734 -0.089434534
000090 6b 0a 2b 3e 14 d0 ca 3d 25 bd 90 bd d5 c4 eb 3d
       0.16703193 0.09902969 -0.070673265 0.11512152
0000a0 8b 3d b1 3d c8 9c 12 3e 65 4b b6 3d 01 53 a0 3d
       0.086543165 0.1431762 0.08901099 0.07828332
0000b0 f1 72 00 3e c2 9d bc bd 16 66 c8 3d ff 88 bf bd
       0.12543847 -0.092097774 0.09785096 -0.09352302

model_trend.backbone.encoder.layers.0.self_attn.W_V.weight f4 [48, 48]
000000 c5 03 4a 3d ee 7b a6 bc e3 35 82 bd ce d1 b3 bc
       0.04932 -0.020322766 -0.06357934 -0.021950629
000010 f0 81 b8 3d b1 f8 01 be ec cf c9 bb 61 37 e3 3c
       0.090091586 -0.12692524 -0.0061588194 0.027736368
000020 a9 72 a4 bd 66 87 07 bd e4 71 36 bd 93 06 be 3d
       -0.08029682 -0.03308811 -0.04454221 0.09278598
000030 5d c5 87 3d e2 46 1e bd 1d e7 d7 bc 33 98 c4 bd
       0.06629441 -0.038641818 -0.02635532 -0.09599342
000040 49 96 83 3d 55 43 10 be 20 55 7f 3d 2a cf 00 3d
       0.06425149 -0.14088185 0.06233704 0.031447567
000050 bb 57 91 bc 55 fe 97 3d 77 26 14 bd b5 2b 0d bd
       -0.017742028 0.07421557 -0.036169495 -0.03446551
000060 6a 88 80 3d de 74 b5 bd 5e a6 a0 bd eb 09 8d bd
       0.06276019 -0.08860181 -0.07844232 -0.06886657
000070 ac ed 8f 3d c6 50 18 bd 77 78 b6 bd f7 91 b8 bd
       0.07027754 -0.037186407 -0.089096956 -0.090122156
000080 c5 1b b6 bd e5 26 98 3d d1 a5 0b bd f8 a3 ba 3d
       -0.08892015 0.074292935 -0.03409368 0.09113306
000090 b3 2c 28 bc d4 1e b6 bd 07 64 9a bc e9 b8 b5 3c
       -0.010264563 -0.08892599 -0.018846525 0.022182899
0000a0 a8 df 38 bd 83 21 e8 3c 4a cc ef bc 08 50 80 bd
       -0.04513517 0.028336292 -0.029272217 -0.06265265
0000b0 bd cd 68 3d fa 65 68 bc 16 c2 d5 3c 42 cf c8 bd
       0.056836832 -0.014184469 0.026093524 -0.09805156
0000c0 cd 7b c9 bc 07 8a 3d 3d a4 6f e2 3d a0 98 5b 3d
       -0.024595166 0.04627421 0.1105645 0.05361235
0000d0 4e 20 ab bd 8b d7 d4 3d 9a ac 85 bc ef c7 71 bc
       -0.08355771 0.10392674 -0.016317654 -0.014757141
0000e0 bc c9 d9 3d ef e7 c1 3c 7d 0f a4 3d 4d 81 fa bd
       0.10634181 0.023670165 0.08010767 -0.122316934
0000f0 d1 95 8a bd 44 3a 43 3d ce bc a7 3c 66 56 6a 3d
       -0.067668565 0.04766299 0.020475771 0.057211302
000100 7a 05 6a bd 6d 45 7d 3d 5b ca c0 bd 11 a3 c0 bc
       -0.05713413 0.061833788 -0.09413596 -0.023515256
000110 3a 6c 2c bc 35 5e 5a bd a7 4a 9b 3d 41 40 e4 3c
       -0.01052385 -0.0533125 0.07582598 0.02786267
000120 8d 61 81 3c 9f 6d f4 3c 64 70 97 3d e8 23 f8 3d
       0.015793586 0.029837428 0.07394484 0.121162236
000130 41 78 02 bd ba 3b 67 3d 7c f6 22 3d fe 25 94 3d
       -0.031852964 0.056453444 0.039785847 0.07233809
000140 d0 af f1 3d ce e5 7a bd b9 dc 6e 3d b8 8a 9a bd
       0.11801112 -0.061254315 0.058315966 -0.0754599
000150 60 aa 0b 3c 22 af f6 3d 65 18 14 3d e3 4a 45 bc
       0.008524507 0.12045123 0.036156077 -0.01204178
000160 f0 4e 8c 3d f6 ee d9 bc d6 d7 79 bc a7 08 fc 3c
       0.06850994 -0.026603203 -0.015249213 0.030765845
000170 6a 8f 02 bd f6 a5 e7 3c ad bc 66 bc d0 4f bf 3d
       -0.03187505 0.028277379 -0.01408307 0.09341395
000180 44 ad 3b bd b5 77 22 bd 2e 34 d2 bd ef bf ce 3c
       -0.045819536 -0.039664943 -0.10263859 0.025238005
000190 0f c2 5e bd 63 5a 8b bd bb d8 ab bc 7b 10 a6 bc
       -0.054384287 -0.06804349 -0.020977369 -0.02027153
0001a0 9a 9f 3b 3d b6 33 8c 3d 2e f0 b8 3c fa e3 30 bc
       0.045806505 0.068458006 0.022575464 -0.010796541
0001b0 57 0a 47 3c 0f ef 0a bb d2 04 21 3c a4 44 92 3d
       0.012148461 -0.002119962 0.009827809 0.071419984
0001c0 fb 83 47 bc 25 4d 10 bc 59 89 44 bd 11 9e a4 bc
       -0.012177463 -0.008807455 -0.047982547 -0.020094903
0001d0 08 29 d9 3d 9d 92 2f bd 09 4e e5 3a 1e 62 d3 3c
       0.10603529 -0.04286443 0.001749457 0.025803622
0001e0 7a 63 b7 bd b2 28 88 3d 39 78 08 3d ff bf a2 bc
       -0.089545205 0.06648387 0.03331778 -0.019866941
0001f0 70 1a 53 bd 63 00 e6 bc 29 4e 56 bb a1 d4 88 3b
       -0.051538885 -0.028076356 -0.0032700396 0.004175738
000200 54 b8 1b bd 38 e3 45 3d 75 75 3f bc de bc 1c 3c
       -0.038017586 0.048312396 -0.011685719 0.009566514
000210 2f 04 d9 3c f9 22 30 3d 21 49 d2 bd 5d 1a ea bc
       0.026491253 0.043002103 -0.102678545 -0.028577024
000220 bb 4f 3a bd 90 3f 48 bd 5f 65 08 3d a5 09 9a 3d
       -0.045486193 -0.048888743 0.0332998 0.07521371
000230 ba 19 d1 bc da 8e 9d 3c f6 00 bd 3b bd cd f0 3c
       -0.025524963 0.019233156 0.005767937 0.029394979
000240 01 57 c4 bd eb 33 24 3d 05 5a 1a bd cb 7e c3 bb
       -0.09586907 0.040088575 -0.037683506 -0.0059660426
000250 73 27 5f bd 93 33 a4 3d ea e2 0d bd 85 9c c3 bd
       -0.05448098 0.080176495 -0.03464023 -0.09551338
000260 97 47 8a 3d 89 b2 5b 3d 59 25 81 3d b9 34 de 3c
       0.06751936 0.05363706 0.063059516 0.02712475
000270 49 42 d9 3b a2 51 3f 3d c4 ac ae 3d 30 5c d6 3c
       0.0066302163 0.04670871 0.08529046 0.026167005
000280 60 4e 18 3d 59 cd df bd c8 20 5f bc 99 d5 7d bd
       0.03718412 -0.10927839 -0.0136186555 -0.06197128
000290 d4 d2 05 3d a0 2b 29 bd 06 e7 07 3d 65 a3 8d 3c
       0.032671764 -0.04130137 0.033179305 0.017289827
0002a0 a1 87 71 bd 29 8e af 3c 05 24 d0 3c 6b aa 9a 3b
       -0.058967236 0.021430092 0.0254078 0.0047200224
0002b0 c4 0e 5a bd 11 dc e0 bc 66 9f eb 3b 96 b4 1d 3d
       -0.053236738 -0.027448686 0.0071906326 0.0385023
0002c0 9f 98 3d 3d 3c 8e 39 bd 21 3a 54 bd 86 6e 1a bc
       0.04628813 -0.04530166 -0.05181325 -0.009425765
0002d0 67 0a 53 3c 51 02 f6 3d 04 8b da bc 0d b2 64 bd
       0.012880898 0.120121606 -0.026677616 -0.055833865
0002e0 0b 99 00 3d e9 cc 31 bd 4d bc a1 3d dd 40 89 3d
       0.031395953 -0.04340831 0.07897244 0.06701825
0002f0 47 db b5 bd be 9e 35 bc fa 44 8e 3c 37 73 10 bd
       -0.088797145 -0.01108521 0.017366875 -0.035266127
000300 02 c0 25 bc bb 9e e1 3c ea cb 87 3d fe f3 5e 3d
       -0.010116579 0.027541509 0.066306904 0.054431908
000310 f4 19 d8 bd c4 fe 06 3e c2 d9 b6 3c 0e 35 f1 bc
       -0.10551825 0.13183123 0.022320632 -0.029444244
000320 4d e6 e6 3d 4e 17 9b 3d 91 f8 fb 3b e5 fd b1 bd
       0.11274395 0.075728044 0.0076895435 -0.08691005
000330 f4 97 55 bd 9c 82 82 3b 08 97 f5 bb b7 26 fd 3d
       -0.052146867 0.003982855 -0.007494811 0.123609
000340 25 1b 53 bd 07 71 2f 3d 43 72 a5 bd f6 35 57 bd
       -0.05153956 0.0428324 -0.08078434 -0.052541696
000350 35 e5 a1 3c 74 cd ea bc 0b 1e 3d 3d 2f 70 7e 3d
       0.019762615 -0.02866242 0.04617123 0.062118705
000360 d8 69 5b bd be 97 a9 3d d5 aa 84 3d 3b a6 b5 3d
       -0.053567737 0.08280896 0.06477896 0.088695966
000370 c2 84 d8 bd a2 20 fe bc 5e 1a 65 3d bf b2 80 3d
       -0.105721965 -0.03102142 0.05593335 0.06284093
000380 59 0c f1 3d bb ee 31 bd 78 36 55 3d 9d cc 82 bd
       0.11769933 -0.04344056 0.0520539 -0.06386683
000390 8d 1a 0a bd 82 f4 df 3d c2 df bb bc 84 01 ea bc
       -0.033716727 0.10935308 -0.022933844 -0.028565176
0003a0 a2 ec 20 3d f8 dc 64 bd aa 5e df 3c bf 08 50 3d
       0.03928817 -0.055874795 0.027266819 0.05078959
0003b0 b9 8b e6 bd e0 6f 27 3d d3 dc 7d ba 4a 04 01 3e
       -0.11257119 0.040878177 -0.00096840895 0.12599292
0003c0 9a e9 d1 3c 41 8f a9 bd 80 15 68 bd 38 da 86 bd
       0.025624085 -0.08279277 -0.05666113 -0.06584591
0003d0 98 9d 19 3e 84 9b e8 bd df 85 df bb cc 4e 46 3d
       0.15001523 -0.11357787 -0.0068213786 0.04841499
0003e0 6d 65 49 be a0 13 0c bd 7c 29 b4 bd cf ef a1 3d
       -0.19667597 -0.034198403 -0.08796975 0.07907068
0003f0 b5 96 cb 3d 22 89 96 bd 27 09 76 bc 12 d5 03 be
       0.099408545 -0.07350375 -0.0150168305 -0.12874249

model_trend.backbone.encoder.layers.0.self_attn.W_V.bias f4 [48]
000000 45 d1 22 3c f6 83 bf 3c d0 4b 3f bd 12 f5 45 bd
       0.009937589 0.023378354 -0.04670316 -0.04832942
000010 d6 d4 38 bc 3c 62 c5 3b a4 51 96 bb 6a b3 a4 bb
       -0.011281213 0.0060236733 -0.004587369 -0.0050262706
000020 84 0d 27 3b 36 0c 85 bc 45 e7 8b bc e9 4f 36 3c
       0.0025490234 -0.016241174 -0.017078051 0.0111274505
000030 7c f7 b4 bc 6b 83 95 bb 83 8f 19 bd 9c 7b 6b 3d
       -0.022090666 -0.0045627854 -0.03749038 0.05749093
000040 0d a1 dc 3c 3e 56 52 bd d3 33 1c bd 22 34 69 bc
       0.026932264 -0.05135178 -0.03813536 -0.014233621
000050 19 72 26 bd 10 ab 2b bd d3 86 fe 3c b5 3f 81 3c
       -0.040636156 -0.041911185 0.031070149 0.015777448
000060 3b 1a ca 3b 82 02 da bc 39 18 1d bc 4a a2 e1 3b
       0.0061676777 -0.026612524 -0.009588295 0.0068858014
000070 5f 2f 93 3c 86 3d 32 bc b5 70 13 bc e2 91 d7 3c
       0.017966924 -0.010878926 -0.008999039 0.02631468
000080 d4 1e 07 3d bc d3 39 bc 4f ca 62 3b a7 8e 6a bb
       0.032988384 -0.011341985 0.0034605449 -0.0035790594
000090 41 23 9c 3b 0d 5d ba b9 71 75 2f ba 66 24 f2 3b
       0.004764945 -0.00035546013 -0.00066932203 0.007389593
0000a0 59 20 31 bb 5a e6 6d ba 77 62 00 bb 83 23 27 37
       -0.0027027337 -0.00090751576 -0.001958994 9.962244e-06
0000b0 50 7c 69 3b 42 34 42 bb 00 62 e2 3a 0f e5 36 bc
       0.0035627075 -0.00296332 0.0017271638 -0.01116301

model_trend.backbone.encoder.layers.0.self_attn.to_out.0.weight f4 [48, 48]
000000 36 18 87 bd 69 7d 88 3d 88 5c 30 3d 52 50 f5 3d
       -0.06596415 0.06664545 0.043056995 0.119782105
000010 eb 37 73 3d fb f4 c7 bd 2f 75 c4 bd f2 cd f5 bb
       0.0593795 -0.09763523 -0.095926635 -0.0075013572
000020 e0 1e 22 bd 69 3a 0f bd ba fb bc 3d 8a 77 c5 bc
       -0.039580226 -0.034967814 0.092277005 -0.024104852
000030 5b 78 56 3d 58 e0 b3 3d 03 b5 05 3e 0f ce e6 bd
       0.052360874 0.087830245 0.13057332 -0.11269771
000040 7d 98 31 bd d4 4c 03 3e 52 7f 08 3d bb 30 29 3d
       -0.043358315 0.12822276 0.033324547 0.04130624
000050 a9 41 05 3e 78 51 1f 3e 98 9c dd bd 02 25 cd bd
       0.13013329 0.15558422 -0.108208835 -0.10016824
000060 fa 5e 8e bd 12 ed d8 3b ba e0 1c 3d 05 70 d4 bd
       -0.06951709 0.006620058 0.038300253 -0.103729285
000070 39 32 70 3b 24 97 13 bd aa a8 e9 3c 76 a4 69 3d
       0.0036651029 -0.03603281 0.028522808 0.057041608
000080 1a 98 01 be 5a 4a d5 3d 73 4b f4 3c 7b 8e 90 3d
       -0.12655678 0.10414572 0.029821133 0.07058426
000090 1d dd 14 be 4e f5 de bd cc f5 81 3d 65 45 fa 3d
       -0.14537473 -0.10886632 0.0634571 0.12220267
0000a0 9a 6f 04 be 27 54 f0 ba 06 7c 18 be 3d c7 17 be
       -0.12933198 -0.0018335626 -0.14891061 -0.14822097
0000b0 2d 45 11 3e 34 af f6 bd 71 fc 03 be d0 6e 0d be
       0.14186545 -0.12045136 -0.12889268 -0.13811803
0000c0 c9 c4 ce 3b 35 cc 15 bd b1 37 ba 3d 46 78 a6 3d
       0.0063100797 -0.0365717 0.090926535 0.08128409
0000d0 a3 49 ae 3c db ce 60 3d 13 d3 ee 3b 4f 62 4a bd
       0.021275347 0.054884773 0.0072883456 -0.04941016
0000e0 d1 66 1d 3c fc 70 0e 3d 6a 8f 18 bd a5 15 2b bd
       0.009607033 0.03477572 -0.037246145 -0.04176869
0000f0 b0 77 ca 3c 72 29 fb 3c db a7 ce 3d c0 b2 02 be
       0.024715275 0.030659411 0.1009061 -0.127635
000100 e2 c0 18 be b0 4d c4 3d 9a 12 c3 ba c8 c2 01 bc
       -0.14917329 0.0958513 -0.0014882863 -0.007919975
000110 ab eb da 3d 63 f0 9e 3d 12 e8 d9 bd 64 69 ce 3c
       0.10689481 0.07760694 -0.10639967 0.025196739
000120 d6 ff 9f 3d 73 9c 1e 3e 29 fb ff 3d 8f de 93 3d
       0.07812469 0.15489368 0.12499077 0.07220184
000130 7e 59 d4 bd 2e 68 39 3e 65 76 04 3e 32 4f 34 be
       -0.10368632 0.18106148 0.12935789 -0.17608336
000140 04 c0 f6 bd 4c 77 b1 bd af 9b 0c be ca 71 fd 3c
       -0.12048343 -0.08665332 -0.13731264 0.030938048
000150 3b 78 ec 3c ad 6b 98 3c 43 76 9f 3c 59 43 1c bd
       0.028865924 0.018606031 0.019465571 -0.038150165
000160 b0 cc b1 3c cb 99 f2 3c 62 27 3b 3d c4 9e ec 3c
       0.021704048 0.02961435 0.045691855 0.0288843
000170 ff 95 53 bd 82 88 b2 3b e0 96 17 3d 7b 52 2c 3d
       -0.05165672 0.005448402 0.03700912 0.042070847
000180 62 ab e9 bc dc 9a 17 bc 42 6c 4b 3d f8 bd 92 3d
       -0.028524105 -0.00925323 0.04966379 0.0716514
000190 2b 19 03 3d f0 2d 1d bd 44 29 0b bd 50 34 b5 bc
       0.032006424 -0.038373888 -0.0339749 -0.022119671
0001a0 ac f9 51 bc 67 12 0e 3b f0 1e 27 3d 42 7e 90 bc
       -0.012815874 0.002167845 0.04080099 -0.01763833
0001b0 19 a0 98 3c 1d 75 30 3d 3e 0c 2e 3d b8 55 73 bd
       0.018631028 0.043080438 0.042492144 -0.05940792
0001c0 91 b9 c1 bc b0 a3 80 3d 87 56 49 3d 93 4f 83 3d
       -0.023648055 0.06281221 0.049154785 0.06411662
0001d0 ea 1e 5a 3d 5b 1a 88 3d 08 cc 68 bd d3 18 1f bd
       0.05325214 0.06645652 -0.056835204 -0.038842034
0001e0 4d 47 8a bd 99 eb 81 bd bf b8 8a bd 94 37 a6 bd
       -0.06751881 -0.06343765 -0.06773519 -0.081160694
0001f0 15 39 84 3d 61 08 81 bd 58 77 32 bd ea f1 90 3d
       0.064562 -0.06300426 -0.043570846 0.070773914
000200 ef e3 ef bc a4 10 a1 3d 0a 73 81 3d df 95 e7 bb
       -0.029283492 0.07864502 0.0632077 -0.0070674266
000210 c4 61 2e bd fd ee 03 3d 3c 1c 97 bd c7 6c 25 3a
       -0.042573705 0.03221034 -0.07378432 0.00063104596
000220 00 1a 1a bc 20 11 83 bd 4f 7f af 3b 1d 03 1c bd
       -0.009405613 -0.06399751 0.0053557525 -0.038088907
000230 89 a9 8e 3b 59 67 f3 3c ee d0 68 bb 5d 81 8d 39
       0.0043537063 0.029712366 -0.0035524922 0.0002699
000240 da 3f 54 3d e5 e4 32 bd 8e 91 89 3c d2 2a d0 3b
       0.051818706 -0.043675322 0.016793039 0.006352761
000250 44 e0 50 bd af 67 e6 3d 92 ee 6a 3d 71 d4 2b 3d
       -0.050995126 0.11250245 0.057356425 0.041950647
000260 2a f6 dc 3b dd 46 8b 3d bc 6b 62 3c e4 d2 0e 3c
       0.006743212 0.068006255 0.013819631 0.008717272
000270 e8 8f 63 bd 8c 16 93 bd ac c3 af bd 25 44 a2 3d
       -0.05555716 -0.07182035 -0.08582243 0.07923154
000280 dd 95 bc 3d cf a8 d2 bd 1e 62 56 3c e1 73 92 3c
       0.09208272 -0.10286104 0.013084916 0.017877521
000290 92 56 0d be 72 5a 03 be 5d 88 b2 3d 3d 3e b0 3d
       -0.13802555 -0.12827471 0.087174155 0.08605621
0002a0 9e e0 c3 3d 69 ec be 3d 6d d5 d7 3d a7 4b b2 3d
       0.09564327 0.093224354 0.105387546 0.08705836
0002b0 03 d3 d6 bd 3f a6 ad 3d 6e e6 82 3c da 64 3d bd
       -0.10489466 0.084789746 0.015979018 -0.046238758
0002c0 e4 a6 af bc 28 4a 20 bd ff fb 19 bd 00 0e 07 3d
       -0.021441884 -0.03913322 -0.037593838 0.032972336
0002d0 8a e1 4d 3d dc d2 f7 bb d8 ce 46 3d b8 39 56 bd
       0.05026392 -0.007562978 0.048537105 -0.05230114
0002e0 55 5c 3d 3d 3f ae a5 3d dd c1 34 3c 43 11 90 3d
       0.046230633 0.080898754 0.011032549 0.070345424
0002f0 93 25 68 bd 3a 20 66 bc f0 da 12 3d b7 50 1b 3d
       -0.05667646 -0.014045769 0.035853326 0.037918773
000300 36 20 f9 bc e2 7c 75 bc 80 69 c6 3d e4 b8 c3 3d
       -0.030410867 -0.014983388 0.09688091 0.095567495
000310 e1 8f 44 3d d0 d2 16 bc fc 04 5a bc 37 3e 1e bd
       0.047988776 -0.009205535 -0.013306852 -0.03863355
000320 da b1 2d bd 92 72 81 3c 03 34 86 3d 83 2f 23 3d
       -0.04240594 0.015801702 0.06552889 0.039840233
000330 3b d1 bc 3b 7b 01 91 bc 0c 2f 8b 3d 2b a8 a6 bd
       0.005762247 -0.017700901 0.06796083 -0.08137544
000340 e4 7a fe bd 64 ef 5e 3d 64 c2 13 3c 28 f5 d5 3c
       -0.12425783 0.05442752 0.009018514 0.026117876
000350 37 fd 42 3d be b2 b3 3d 32 bd 82 bd 76 26 89 bd
       0.047604766 0.08774327 -0.063837424 -0.06696789
000360 48 79 b9 3d cb ad 48 3e 48 85 f5 3d 83 b0 6c 3c
       0.09056336 0.19597547 0.11988312 0.014446381
000370 de d6 d1 bd 7c e3 ea 3d c7 c8 3f 3d 62 9c 10 be
       -0.10246061 0.114691705 0.046822336 -0.14122155
000380 cf 87 77 bd b8 9e 69 bd af 50 cc bd c7 a0 cc 3d
       -0.06043225 -0.05703613 -0.09976327 0.09991603
000390 e0 d2 6f bd 1e a6 87 bd 78 2a 5c 3d 46 08 4a 3d
       -0.058550715 -0.06623481 0.05375144 0.049324296
0003a0 a1 7a 6a bd aa be 0c 3d fa 8a 87 bd 53 cd 82 bd
       -0.057245854 0.03436152 -0.066183046 -0.06386819
0003b0 a3 fa 8c 3d 57 08 25 bd b2 e3 2c bd 70 15 1f bd
       0.06883743 -0.040291157 -0.042209335 -0.038838804
0003c0 dd 29 2d 3c 05 63 d3 bc d8 63 75 bc d4 92 47 bc
       0.010569063 -0.025804052 -0.014977418 -0.012181003
0003d0 73 e3 a0 bc 2b 51 fe 3c 6a 86 97 3c a3 4e 02 3c
       -0.019639706 0.031044563 0.01849671 0.007953319
0003e0 98 88 c3 3c 2f e2 5c 3c 4e db 1e bc d3 97 14 3c
       0.023868844 0.013481661 -0.009695841 0.009069401
0003f0 b8 59 2d 3d 78 8d 0d 3c f3 f7 97 3b 1e c2 cf ba
       0.04232189 0.008639686 0.004637712 -0.0015850698

model_trend.backbone.encoder.layers.0.self_attn.to_out.0.bias f4 [48]
000000 a0 66 8f bb 7e d0 3f bd 04 b2 c0 bc 15 b1 dc bc
       -0.0043762475 -0.046829693 -0.023522384 -0.026939908
000010 24 69 c0 bc cf d5 bf 3b e7 84 dd bc 51 2e 69 3c
       -0.023487635 0.0058543454 -0.027040912 0.014232234
000020 01 5d a4 3b 86 83 c2 3c 8c c7 37 bc 5d 1b 8a bc
       0.0050159697 0.023744356 -0.011217009 -0.016858751
000030 30 e5 cd bc 50 7f 21 bd 92 e2 b1 bc 6f 27 87 3b
       -0.0251337 -0.039428055 -0.021714482 0.004124574
000040 8f 9a a3 3d 71 68 39 3d 4c 18 81 bc 09 9b a1 bb
       0.07988464 0.04526562 -0.015758656 -0.0049318117
000050 80 dc 71 3d 1c f0 84 3b 5c da 26 3d b8 a0 11 3d
       0.059048176 0.0040569436 0.040735587 0.035553664
000060 0c 7c 27 bd af e5 e5 bb 4f 06 8c 3c e0 0e 42 3c
       -0.040889785 -0.007015906 0.017092852 0.011844367
000070 7a 36 8d bc 78 c7 59 3d c6 af 4f 3a eb db 19 bb
       -0.01723789 0.053168744 0.00079226156 -0.0023477029
000080 46 44 0f bc 3e 61 34 3d cd d2 16 bb c8 3f e4 ba
       -0.008744305 0.04403805 -0.002301383 -0.0017414028
000090 61 20 1b 3c bf 31 5e bd 67 93 e7 3b ea 33 bb 3b
       0.009468169 -0.05424666 0.0070671323 0.0057129757
0000a0 d3 92 2e bd 48 ae be 3b 28 9f a5 bb 50 77 a8 ba
       -0.04262049 0.005819116 -0.0050543733 -0.0012852941
0000b0 75 1a 85 bb 5a 5c b4 3c 2d 51 44 3d c4 d4 86 3b
       -0.004061992 0.022016693 0.047928978 0.004114719
