CMI-Net/checkpoint/ConvTrans/setting0/2025_03_29_20h_06m_04s/ConvTrans-best.pth (torch, 66379 bytes, 28 tensors)

embed_layer.0.weight f4 [64, 1, 1, 8]
000000 f7 43 17 bd 32 0f a4 bc 7f 36 10 be 0d f0 93 3d
       -0.03693005 -0.020026777 -0.14083289 0.072235204
000010 ee 5e 57 be 09 c1 90 bd dd 66 04 3e b5 ff a4 3e
       -0.21032307 -0.070680685 0.12929864 0.3222634
000020 57 a6 96 3d 24 bc ec bd 11 eb 93 3c 17 b0 2a bd
       0.073559456 -0.115593225 0.018056424 -0.04167184
000030 c1 73 0a 3e b0 4b d3 3c 72 43 03 3e 44 ce a7 3e
       0.13520719 0.025792927 0.12818697 0.32774556
000040 bd 87 07 be dc 19 35 bb ef b6 96 3d c0 4a a2 bb
       -0.13235374 -0.0027633822 0.073591106 -0.0049527586
000050 14 da b8 bc ab 00 97 be 67 6b 92 be 4a 6d 9a be
       -0.022564925 -0.29492697 -0.28597566 -0.30161506
000060 6a 4a a7 be 78 3a 9e be 56 3c 81 be 6f e6 9a be
       -0.3267396 -0.30903983 -0.25241345 -0.30253932
000070 90 2a a0 be c1 23 11 3e 28 00 4f 3e 8c ff 67 3e
       -0.31282473 0.14173795 0.20214903 0.22656077
000080 f3 b8 31 3e 71 00 d9 3d 53 d2 10 3e 8b dd 37 be
       0.17355709 0.10595787 0.14142732 -0.17955606
000090 bf 19 99 3e 91 ac 44 bc 2f 91 93 3e ca 00 da 3d
       0.29902455 -0.012004034 0.28821704 0.10644682
0000a0 21 bf 85 3e 31 5d 87 3e 10 fe 77 bd 08 92 b7 bd
       0.26122382 0.26438287 -0.060545027 -0.089634
0000b0 19 ce 73 3d 2c cc 6f ba bd 7a 7f 3d c6 f6 32 3e
       0.059522722 -0.00091475504 0.06237291 0.17476949
0000c0 38 69 8b be 43 8d 77 bc 43 a8 8c be 64 58 aa 3e
       -0.27228713 -0.015109363 -0.27472124 0.33270562
0000d0 a4 69 75 be 35 e1 85 3d 5d 17 c8 bd c9 9c 46 3e
       -0.2396608 0.065370955 -0.09770081 0.19395746
0000e0 9e 6b fe 3b 6a af fd bc d0 af 85 3e fc db a7 3e
       0.007764294 -0.030967433 0.26110697 0.32785022
0000f0 dc f5 7b be 89 de a8 be db 06 24 3d 20 b3 f9 3d
       -0.24605507 -0.3298228 0.0400456 0.121923685
000100 c4 57 9b 3d 54 ce 9f 3e 71 44 1a 3e 48 5f 1b be
       0.07585099 0.31212103 0.15065171 -0.15173066
000110 3e 27 69 be 18 32 86 3e 13 3d a5 3e 8d e2 21 be
       -0.22768876 0.26210093 0.32273158 -0.15809079
000120 bb fb 57 be bb 8a da 3d 80 b4 6e be ea d8 99 bd
       -0.21092121 0.10670992 -0.23311043 -0.07512076
000130 05 67 aa be 04 27 ae 3d 0a b9 d5 bd 34 d6 36 be
       -0.33281723 0.085035354 -0.10435684 -0.1785515
000140 f0 d0 70 be 49 e3 0a be ef 28 20 3e b1 46 fb 3b
       -0.23517203 -0.13563265 0.15640615 0.007668339
000150 9f 50 95 3e 06 92 0d be f4 30 ec bd de 5e aa 3e
       0.29163072 -0.13825235 -0.115327746 0.33275503
000160 ae 4a a7 be 20 1c 03 be 95 ff 53 be ad e6 af 3e
       -0.32674164 -0.12803698 -0.20702966 0.3435568
000170 a4 a1 47 3e 90 a6 e4 bd 77 a8 0f be d7 d5 e0 3d
       0.19495255 -0.11164582 -0.14029108 0.10978287
000180 3e 3c 00 be 57 49 d4 3d 13 b8 3f be 17 10 67 be
       -0.1252298 0.10365551 -0.18722562 -0.22564732
000190 fe a2 8e bc b1 a1 4b 3e c2 53 95 3e 13 12 8e 3d
       -0.017411705 0.19885899 0.29165465 0.06937041
0001a0 c5 4f 4c be 5e 6e 45 3e 8e ab 14 3e 2a ad 1c 3e
       -0.19952305 0.19280383 0.14518568 0.15300432
0001b0 64 63 df bd 4b 65 27 bd 7f 8a 1f 3e 0b a1 06 3e
       -0.10907629 -0.040868085 0.15580176 0.1314737
0001c0 e5 5b 75 3e 30 08 4f be 73 9c 69 3e 58 f1 04 be
       0.23960836 -0.20217967 0.22813587 -0.1298269
0001d0 f0 63 d9 ba 47 1e 1f be 51 0f bf bd 09 68 7d 3e
       -0.001658557 -0.15538894 -0.09329093 0.24746718
0001e0 05 3b a0 3e b8 a2 09 3e d3 c0 80 be 38 6a f0 bd
       0.31295028 0.13440979 -0.25147113 -0.117390096
0001f0 4b 7c 84 3e 10 5b a4 bd 8d 51 8b be d5 c7 c6 3d
       0.25876078 -0.08025181 -0.27210656 0.09706084
000200 12 db 96 be 65 d1 96 bc 84 e6 6b bd b6 33 f1 bb
       -0.29464012 -0.018410394 -0.057592884 -0.0073609008
000210 54 5c 94 bd 67 c5 38 bd 2f b6 49 be e1 f5 5d be
       -0.07244173 -0.045110133 -0.19698404 -0.21675827
000220 55 b6 fa 3d 2f 1e a6 3e 92 8f 89 be cc 16 a5 be
       0.12241808 0.32444903 -0.26867348 -0.32243955
000230 cb a9 37 be 0a 1f b0 3e d4 e1 a4 3e 3d 32 aa be
       -0.17935865 0.3439868 0.32203543 -0.33241454
000240 5d 04 c8 3d 2c 20 79 3d 58 4b a6 3e e0 bd bb bd
       0.09766457 0.060821697 0.32479358 -0.09167075
000250 ae 13 04 3e 9e 02 25 be e8 e7 a1 be 32 b5 5b 3d
       0.12898132 -0.1611428 -0.31622243 0.0536396
000260 75 de 24 be 49 29 53 bc ae cb 8b bd 3c cc 8c be
       -0.16100486 -0.012888261 -0.06825958 -0.27499568
000270 5b eb 5c 3e 22 de 81 3e d8 97 8d 3e 71 51 62 3d
       0.21574156 0.25364786 0.2765491 0.05525345
000280 ca 63 a2 be 40 f3 86 be 03 c4 06 bd c9 ec d0 bc
       -0.31716758 -0.2635746 -0.032901775 -0.025503533
000290 7c d3 9a be 6d 30 52 3e a7 11 7c be 12 95 5e bb
       -0.30239475 0.20526285 -0.24616109 -0.0033963365
0002a0 3b 23 ab be e2 48 c9 3d 6b a2 10 3b 48 63 79 3e
       -0.33425316 0.098283544 0.0022069465 0.24354279
0002b0 a1 7d 7a 3d ec a0 8b be dd e1 a9 3e 9e 2e 9a be
       0.061154965 -0.2727121 0.33180133 -0.3011369
0002c0 8f a4 1b 3e 76 83 6c be 48 40 37 3e 82 f3 d1 3d
       0.15199493 -0.23097023 0.17895615 0.102515236
0002d0 27 c0 d5 3d 04 98 91 bd 9d 3f 9b 3e d7 53 a7 3e
       0.10437041 -0.07109073 0.3032197 0.32681152
0002e0 3c 22 de bc f7 aa c7 bd 78 14 3e 3d 74 b9 58 3e
       -0.027115934 -0.09749406 0.04640624 0.21164495
0002f0 20 58 a0 3e 86 cc 9a 3e 03 68 25 3e 52 c2 63 3d
       0.31317234 0.30234164 0.16152959 0.05560524
000300 b1 69 7c be c5 6a 82 be c9 79 76 3e db 02 9a be
       -0.24649693 -0.25472084 0.24069895 -0.30080304
000310 e1 ef 8c bb f7 59 95 3e 16 98 93 be 39 b4 6a be
       -0.0043010567 0.291702 -0.2882697 -0.22920312
000320 3f 00 b8 be e6 e8 39 3e e4 d0 86 3d 76 cb 50 3e
       -0.35937688 0.1815525 0.065828115 0.20390114
000330 b1 46 67 bd a5 8e fb bd 97 56 93 3e 67 47 75 be
       -0.0564639 -0.12283067 0.28777 -0.23953019
000340 69 88 60 be af 8d 7d 3e cf 95 a9 3e 23 b9 33 be
       -0.21927036 0.24761079 0.33122107 -0.17551093
000350 5e 65 a9 be a2 3f be 3c 4f b0 5e 3b 56 a2 db 3d
       -0.3308515 0.023223702 0.00339796 0.107243225
000360 47 22 35 3e e6 8f e6 3c fe ed 74 be 06 d2 16 bd
       0.17688857 0.028144788 -0.23918912 -0.036821388
000370 03 36 1a 3e 11 79 39 3d fb c9 81 be 0a 0b 02 bd
       0.15059666 0.045281474 -0.2534941 -0.03174881
000380 a6 38 5f bd 90 38 0f be 49 aa 38 3e 83 86 14 3e
       -0.054497384 -0.1398642 0.18033709 0.14504437
000390 13 1b 96 3e 6b 03 8f 3e 4b 68 bd bb 76 ca 8a be
       0.2931753 0.27932295 -0.005780255 -0.2710759
0003a0 ee 16 d4 3d 31 1b 2e 3e 09 70 49 3e c1 dd 49 3e
       0.10355936 0.1700256 0.19671644 0.19713499
0003b0 b1 6e 32 3e cc 09 99 3d 90 c2 96 3c ae 02 20 3e
       0.17425038 0.07472572 0.018403322 0.15626022
0003c0 73 9f b2 be ab 9c 2a 3e f7 ac b8 3d 98 a5 b3 3d
       -0.34887275 0.16661327 0.090173654 0.08771819
0003d0 13 69 d6 bd 04 a4 bc 3d 43 be 98 3d 5e 2d af be
       -0.1046926 0.09210971 0.074581645 -0.342143
0003e0 8e 06 35 be 92 bb 27 3e 14 d4 82 be 76 10 0c be
       -0.17678282 0.16380146 -0.25552428 -0.13678154
0003f0 82 c4 45 3e 2c 94 2d 3e bc 53 8d be da 17 16 3e
       0.19313243 0.16951054 -0.27602947 0.14657536

embed_layer.0.bias f4 [64]
000000 b6 dd dc bd ad bd f9 bd dd b1 85 3e 41 86 92 3e
       -0.107844755 -0.12194381 0.2611226 0.28618053
000010 bc 0f 2e be a7 e6 40 3e 00 82 9c be 77 3f b3 3d
       -0.1699819 0.18837987 -0.30567932 0.08752339
000020 fc 45 47 bd 3b a5 4c be da b5 03 be f3 32 66 3c
       -0.048650727 -0.19984905 -0.1286234 0.014050233
000030 e9 3e 40 bd cf 8d ab be 9c 9e 16 3d 74 6e 87 be
       -0.046934996 -0.3350663 0.036772355 -0.26451457
000040 c7 ab 45 be 86 42 88 3e 1c dd 9c bc 58 36 b4 be
       -0.19303809 0.26613253 -0.019148402 -0.3519771
000050 70 72 a8 3e b6 77 50 3e 32 6e 88 3e 83 b4 10 be
       0.3289981 0.20358166 0.26646572 -0.1413136
000060 59 78 63 3e 95 ce 39 bd 19 8f a0 3e 68 2e 3a 3e
       0.22213878 -0.045363028 0.31359175 0.18181765
000070 2f 34 3b 3e 3e ad a8 3a 72 91 f9 bd 2b 17 5c be
       0.18281625 0.0012869013 -0.121859446 -0.21493213
000080 fd 5c 06 be 90 95 cf bd d7 cc 52 3d 5b 42 5a be
       -0.1312141 -0.10135949 0.05146488 -0.21314375
000090 f8 39 6c be c1 2a 7f be 8d 8f 3c be 96 2d ab be
       -0.23068988 -0.24918653 -0.18414135 -0.33433217
0000a0 a4 99 3c be ae 50 04 be 2b 8b 50 be 09 3c 8f be
       -0.18417984 -0.12921402 -0.20365588 -0.2797549
0000b0 a4 1d ec bd a6 f8 9a 3d d4 e7 c9 bd 8e 84 77 3e
       -0.11529091 0.07566957 -0.09858671 0.2417166
0000c0 3a eb 86 be bc 25 7b be f7 59 c9 bc 85 07 14 3d
       -0.2635134 -0.24526113 -0.024579031 0.036139984
0000d0 8c b5 8e 3e 84 7d 6c be 24 81 68 3e 06 f7 4a be
       0.27872884 -0.23094755 0.22705513 -0.19820794
0000e0 ff ad ee bd 92 a3 da bd e9 32 88 bd 43 7a 28 3e
       -0.11654281 -0.1067573 -0.06650335 0.16452889
0000f0 06 85 13 3e 4e b8 7a 3e f3 d3 9f be fe 2b 72 be
       0.14406213 0.24484369 -0.31216392 -0.23649594

embed_layer.1.weight f4 [64]
000000 d3 81 7e 3f 9f 70 80 3f a2 75 7b 3f c0 6c 7d 3f
       0.99416846 1.0034369 0.9822637 0.98994064
000010 c4 f6 7e 3f 6a 77 7e 3f 02 a4 7f 3f 99 4a 7b 3f
       0.99595284 0.9940096 0.9985963 0.981607
000020 82 49 7c 3f 81 43 7d 3f d1 56 7c 3f 67 d6 7b 3f
       0.98549664 0.9893113 0.9856997 0.98374027
000030 e0 27 7b 3f 1e 38 7b 3f 4b 63 7c 3f 2d e6 7b 3f
       0.9810772 0.98132503 0.9858901 0.98398095
000040 d9 f1 80 3f c0 3a 7b 3f c7 35 7c 3f 93 04 7d 3f
       1.0073806 0.9813652 0.9851956 0.98835105
000050 a3 86 7c 3f 0d 30 7c 3f a0 85 7c 3f cd 6f 7d 3f
       0.9864294 0.9851082 0.98641396 0.9899872
000060 1f 3a 7d 3f 48 88 80 3f 63 59 81 3f a9 b5 7c 3f
       0.9891681 1.004159 1.0105404 0.9871469
000070 11 8c 7b 3f 5c 9a 7c 3f dd 6e 7f 3f 92 98 7c 3f
       0.982606 0.98673034 0.9977854 0.98670304
000080 25 44 7c 3f 22 4f 7b 3f bf 1a 7b 3f 39 28 7c 3f
       0.9854148 0.9816762 0.98087686 0.98498875
000090 16 35 7d 3f df ca 80 3f 9c fd 7c 3f 24 b5 7b 3f
       0.9890913 1.0061911 0.9882448 0.98323274
0000a0 da b8 7b 3f db e2 7b 3f 23 b1 7e 3f cd f2 7c 3f
       0.98328936 0.9839303 0.9948904 0.98807985
0000b0 90 c9 7f 3f 81 82 7b 3f 3a 21 7c 3f 98 31 7c 3f
       0.99916935 0.9824601 0.984882 0.98513174
0000c0 50 79 7b 3f 82 e6 7d 3f 4c 57 7b 3f af 6b 7d 3f
       0.98231983 0.9917985 0.9818008 0.9899244
0000d0 70 5c 7f 3f 3d 4b 7d 3f ac 19 7d 3f 5d d4 7d 3f
       0.99750423 0.9894293 0.988673 0.99152166
0000e0 25 4c 7d 3f 0d a0 7b 3f 13 ae 7d 3f 62 9b 7b 3f
       0.9894431 0.98291093 0.9909374 0.9828397
0000f0 72 ee 7c 3f 27 f4 80 3f 4e f1 7c 3f b6 b9 7f 3f
       0.9880134 1.0074509 0.988057 0.9989275

embed_layer.1.bias f4 [64]
000000 cb fc 49 bc 43 2f 1e 3c 8e a6 8f bc e9 6f ee bb
       -0.012328337 0.009654823 -0.017535474 -0.0072765243
000010 71 da 33 bb 30 d6 2d bb ab a0 87 3c b9 f6 2a bc
       -0.0027443434 -0.002652537 0.016556105 -0.0104348
000020 e5 d5 87 3a 70 f4 9d bb 4f 60 4d bc 3f f2 c4 3b
       0.0010363428 -0.004820399 -0.012535169 0.0060103233
000030 f9 a4 76 bc 24 81 62 3c f5 e4 c0 3b d2 83 8b bc
       -0.015053981 0.013824735 0.005886669 -0.01703063
000040 72 33 2a 3c c4 90 69 ba d5 be a7 3b ca 11 2f 3c
       0.010388242 -0.00089098164 0.0051191845 0.010685394
000050 5b fc 44 bc 9d 72 4b bc 89 89 69 3b 2c 8d 25 3c
       -0.012023057 -0.012417463 0.0035634956 0.010104459
000060 a5 8e 18 bc 31 85 4d b7 8c 9c 3d bc 67 cf 01 ba
       -0.009311353 -1.2249963e-05 -0.011572968 -0.0004951865
000070 91 48 6c 3b 1d c9 0d bc 53 c9 09 3c 69 8f 23 3b
       0.0036053995 -0.008653906 0.008409816 0.0024957305
000080 0f 85 01 3c 46 c3 29 3c e7 7d 19 3c c7 e1 27 3c
       0.007905259 0.010361498 0.009368396 0.010246701
000090 9c 6f 7a bb 21 17 73 3c a5 68 07 bc 44 96 5a 3c
       -0.0038213497 0.014837057 -0.008264695 0.01334149
0000a0 34 72 2a bc 33 5a 0c 3c 86 b8 2c ba 24 89 3f bc
       -0.010403205 0.008566427 -0.00065887754 -0.011690412
0000b0 b2 22 38 3c ad d2 10 bc 98 15 a3 bb bb 92 5a bc
       0.011238741 -0.0088392915 -0.0049769394 -0.013340647
0000c0 87 2e 0c bc 9d d9 0c 3c fd ce 71 39 e0 a2 36 3c
       -0.008556015 0.008596805 0.0002306066 0.011147231
0000d0 8f c3 47 3c d0 80 ec bb 30 73 27 3c 72 e1 3b bc
       0.012192621 -0.007217504 0.010220334 -0.011467325
0000e0 66 9c 5a bb 41 27 e1 bb f0 4d c4 3b 64 8a a5 3a
       -0.003335738 -0.0068711345 0.005990736 0.0012629745
0000f0 33 d8 09 bc 9a 83 46 3c ea b5 2a 3c ec 55 57 bc
       -0.008413362 0.012116337 0.010419348 -0.013143044

embed_layer.1.running_mean f4 [64]
000000 4c 81 e1 bd 6d be 2e be 7b b5 b1 3e 26 26 bf 3e
       -0.110109895 -0.17064829 0.3470877 0.37333792
000010 45 2a 81 be e6 8c 04 3e 6f bb 8e be 1d 95 95 3d
       -0.25227562 0.12944373 -0.27877375 0.07303832
000020 59 5e cd bd cf 89 ea bd c5 5f 13 be 4f b8 13 3d
       -0.10027761 -0.11452066 -0.14392002 0.036064442
000030 91 7c 60 bd 45 7b bf be be 61 d4 3c a0 b5 8a be
       -0.054806296 -0.37398735 0.025925513 -0.27091694
000040 60 30 e6 bd 97 f1 88 3e bc 8c e8 bc 70 ae c0 be
       -0.112396955 0.26746818 -0.02838742 -0.37633085
000050 0f e0 d5 3e ea c0 5d 3e df 18 42 3e 45 e5 6a be
       0.41772506 0.21655622 0.189548 -0.22939022
000060 7c c3 95 3e a3 51 33 bd 21 6f a1 3e f7 c0 48 3e
       0.29250705 -0.043779027 0.31530097 0.1960486
000070 67 29 11 3e a9 02 c9 bd de 32 c9 bd 3e f0 4b be
       0.1417595 -0.098149605 -0.09824155 -0.19915864
000080 32 2f fe bd 65 8e 01 be 34 14 7e 3d 30 cb 81 be
       -0.124113455 -0.12651975 0.062030986 -0.25350332
000090 b0 86 6d be c6 5b 92 be a9 4e 4c be b6 b0 d1 be
       -0.2319591 -0.28585643 -0.19951881 -0.40955132
0000a0 9e 37 18 be 2b 58 38 be de c7 4c be ce 17 9a be
       -0.14864966 -0.18002383 -0.19998118 -0.30096287
0000b0 f8 7e 21 bd 42 3d 85 3d ab 79 00 be 00 81 7d 3e
       -0.039427727 0.065058246 -0.12546413 0.24756241
0000c0 ed d0 8b be 1e c5 a6 be dc 7a 39 bd 17 cc 55 3c
       -0.27307835 -0.32572263 -0.045283183 0.013049147
0000d0 a9 08 73 3e f3 2f fc bd 7d 38 80 3e c5 f2 71 be
       0.23733772 -0.12313833 0.25043097 -0.23627765
0000e0 1d 56 12 bd 09 ee b9 bd 3d 23 60 bd f2 17 81 3d
       -0.035726655 -0.09078605 -0.054721106 0.06303395
0000f0 b3 78 36 3e a3 ac 9e 3e 7f 8c 6f be 8f 12 80 be
       0.1781948 0.30991086 -0.23393439 -0.2501416

embed_layer.1.running_var f4 [64]
000000 69 dd fa 3c e0 df 6c 3e 74 ff 2f 3f 74 35 3d 3f
       0.030623155 0.23132277 0.68749166 0.7390969
000010 be a3 1d 3f d1 b2 a7 3e 47 ff d4 3d f0 32 8f 3d
       0.61577976 0.32753614 0.10400253 0.069921374
000020 4c 6b 92 3e 89 e7 26 3f 90 d6 81 3d 7a 61 c7 3d
       0.28597486 0.65197045 0.06339753 0.09735389
000030 36 6f 40 3d 57 40 1c 3e 40 73 1c 3d aa f2 54 3d
       0.04698106 0.15258919 0.03819585 0.051989235
000040 71 a0 15 3f 21 2a b9 3d 44 62 3c 3d 0c 14 d4 3d
       0.5844794 0.090412386 0.04599215 0.10355386
000050 dc bf 37 3f b7 11 84 3d 19 fa 0d 3f 71 6f 34 3f
       0.7177713 0.06448691 0.55459744 0.70482546
000060 08 9e f7 3e b0 23 28 3d f0 3d 52 3d 9e 3f 2f 3d
       0.48362756 0.04104966 0.0513286 0.04278528
000070 25 2f 3e 3e 65 62 5d 3f 84 49 b1 3d 74 92 66 3d
       0.18572672 0.86478263 0.086566 0.056292012
000080 58 08 21 3d 35 8b dd 3d b4 32 1c 3d b7 9a 37 3e
       0.039314598 0.10817567 0.03813429 0.17930113
000090 6a be 2b 3d 44 e4 16 3e 0c c5 6f 3d 77 0d 07 3f
       0.04192964 0.14735514 0.058537528 0.5275492
0000a0 26 01 22 3e bf 00 94 3e c4 bb 55 3c c5 07 c2 3d
       0.1582075 0.2890682 0.013045255 0.09474138
0000b0 45 1d 04 3f 07 1d 8d 3d 2e a0 da 3d 90 e1 97 3d
       0.5160716 0.06890302 0.10675083 0.074160695
0000c0 85 32 6a 3d 4a 2e 18 3f 5d bf 8c 3d 23 46 99 3d
       0.057177085 0.5944563 0.06872437 0.07484081
0000d0 37 f4 41 3e 72 ec 82 3f 3c fa ab 3d 00 47 28 3e
       0.18940817 1.0228407 0.08397338 0.16433334
0000e0 90 5d 13 3f e1 50 8e 3d 60 29 10 3d a8 b1 6b 3f
       0.5756464 0.0694902 0.03519571 0.92067957
0000f0 e7 20 11 3e 62 b0 c6 3e 7f 28 11 3f 4a d2 45 3d
       0.14172707 0.38806444 0.5670242 0.04829625

embed_layer2.0.weight f4 [16, 64, 3, 1]
000000 ef e0 56 3d 75 83 e4 bc b0 40 a9 bc f2 8c a2 3d
       0.052460607 -0.027894715 -0.020660728 0.079370394
000010 6a 67 c5 bc 26 03 c6 3c 6e dc 8f 3c f1 4a 04 3d
       -0.024097163 0.024171423 0.017561164 0.032298032
000020 85 ea 5f 3d 97 6b b8 3a 94 06 c0 bb 85 3e 19 bd
       0.054667015 0.001407015 -0.005860159 -0.03741314
000030 6b e8 83 3d b0 e7 82 3d 49 84 31 bb d3 01 a8 bc
       0.064408146 0.06391847 -0.0027086905 -0.020508682
000040 a2 e7 70 3d 6f d3 62 bd f0 4f 5e bd 65 a7 f1 bb
       0.058814652 -0.05537742 -0.054275453 -0.0073746913
000050 cd 10 b9 bb 0a 8c 50 3d 7c 4e 13 bd 45 95 e0 3c
       -0.0056477548 0.0509148 -0.03596352 0.027414927
000060 d0 a6 43 bd ab 0f 98 3d f4 4c 6a bc 18 07 6a 3d
       -0.047766507 0.074248634 -0.014300574 0.05713567
000070 4f b8 3d 3b d3 50 83 bd 9d 15 4e 3d c1 5b 0b bb
       0.0028948968 -0.064119 0.05031358 -0.0021264406
000080 bc c4 4e 3d a1 48 7b 3d 23 69 b1 3a 33 61 19 bd
       0.05048059 0.06134856 0.0013535362 -0.037446212
000090 27 8f 14 bd e0 4f 46 3d 44 01 54 bb 3b 58 f2 bc
       -0.036269333 0.04841602 -0.0032349387 -0.029583087
0000a0 34 dd c0 bb fc e1 1e 3d 54 0d c6 bc 58 03 70 3d
       -0.0058857445 0.038789734 -0.024176277 0.05859694
0000b0 40 ad 6d bc 9f e3 8b 3d 34 4b 7d 3d a0 53 66 3d
       -0.014506638 0.06830525 0.061839297 0.056232095
0000c0 f1 4b 91 bd ed 1e 9a 3b a2 e7 70 3c ad a4 10 bd
       -0.07094563 0.0047033937 0.014703663 -0.035313297
0000d0 d2 09 ae 3c 98 0a 56 3b 4c eb 1a 3d 37 17 23 bd
       0.021244917 0.0032660123 0.037822053 -0.03981706
0000e0 43 da 5b 3d 20 cb cb bb 03 25 c6 3c 9d 84 28 3d
       0.053674947 -0.0062192827 0.02418757 0.041142095
0000f0 88 1f e3 bc f6 11 88 3c 40 ed 48 bd e5 6c e0 bc
       -0.027724996 0.016610127 -0.049054384 -0.027395675
000100 9a 26 83 bd 3a 7b 08 3d 00 94 f3 bc c5 f7 99 3a
       -0.06403847 0.033320643 -0.029733658 0.0011746815
000110 f2 38 c2 3c 32 9d d3 bc 0c 52 16 bd c0 0f 16 3d
       0.023708794 -0.025831793 -0.03669934 0.036636114
000120 8d da 1b 3d ac 6c 7f 3d eb fb 8a 3c 6b 09 ef bc
       0.038050223 0.062359497 0.016965827 -0.029179296
000130 c2 96 12 3d 29 67 9a 3d ec 37 66 3d 28 a0 8c 3d
       0.035788305 0.075392075 0.056205675 0.06866485
000140 af 1d 07 3c e0 2e 48 bd 27 4f 8b bd 8f ed 3d 3d
       0.008246823 -0.04887283 -0.068022065 0.04636913
000150 67 0f 9c 3d ed dd c5 3c fe a1 62 3d 69 1a 66 bd
       0.07620125 0.024153674 0.05533027 -0.05617753
000160 19 42 8f 3d 9a f0 59 bd ba 83 97 3b d0 95 33 bd
       0.06995029 -0.05320797 0.0046238573 -0.043844044
000170 e3 97 91 bd ad a7 8a 3d 77 81 9d 3c d5 e0 ee 3c
       -0.07109048 0.06770263 0.019226773 0.029159943
000180 9b a5 ca 3c 12 c8 0b bd 33 c2 f2 bc 5a 02 60 bd
       0.02473717 -0.03412635 -0.029633617 -0.054689743
000190 6c da aa 3c 1a 99 6d bd 9c ab 6d bd 45 1e 73 3d
       0.020856105 -0.058007337 -0.058024988 0.05935504
0001a0 9d 03 c6 bc 2a 58 9c bc 78 6c a7 bc e2 4f 88 3d
       -0.024171645 -0.019085009 -0.020437464 0.066558614
0001b0 6f 00 58 bc f8 5a cf 3c 76 ef 80 3d 84 0b 0f 3d
       -0.013183697 0.025311932 0.062956735 0.03492309
0001c0 90 ca 5f 3d ef b9 0d bc 78 42 41 bd 3c 44 68 bd
       0.054636538 -0.008650287 -0.04718253 -0.0567057
0001d0 33 06 ef 3c af de a2 3d d4 cb 18 bd ee 45 2b bd
       0.02917776 0.0795263 -0.03730376 -0.041814737
0001e0 49 4d da 3c 26 51 c5 3c f3 41 d3 3a aa 37 38 bc
       0.02664818 0.024086546 0.0016117677 -0.01124374
0001f0 8f 09 7e 3d c6 53 74 ba aa 6b 0b 3d de 2a 2e 3d
       0.062020835 -0.00093203445 0.034038223 0.04252135
000200 6b e1 22 3d 18 42 38 bd bb 24 f1 bc 81 9d 74 bc
       0.039765757 -0.044984907 -0.02943646 -0.01493013
000210 c1 8f 19 bc 5e 1d a8 3c 4f 93 04 3d 15 74 40 bc
       -0.0093726525 0.020521816 0.032367047 -0.011746426
000220 95 2a 4f 3d 48 ca f5 bc 86 90 5d bc 03 57 74 bd
       0.05057772 -0.030003682 -0.013523227 -0.059653293
000230 56 6f 83 bd 5c d8 0f bd a7 e6 0a 3d af ce 04 3d
       -0.0641772 -0.035118446 0.033911373 0.03242367
000240 2a 50 8c bb ff d0 34 3d 90 0c 40 3d 62 87 10 bc
       -0.0042820172 0.044144627 0.04688698 -0.00882134
000250 45 f4 ad bb 88 c2 ba bb fe d8 c0 3c 57 03 18 bd
       -0.00530866 -0.0056994595 0.02354097 -0.03711256
000260 f8 44 0d bd 49 a8 f8 3c ae 52 57 3c 57 10 d9 3b
       -0.0344896 0.030353682 0.013142271 0.0066242623
000270 24 4e 95 3d 09 57 33 3c e0 f7 ae 3c 3a 18 57 bd
       0.07290295 0.010946044 0.02135843 -0.05251334
000280 52 12 9f 3c 85 67 9a bd f8 45 16 bd 78 47 aa 3c
       0.019417915 -0.07539276 -0.03668782 0.020786032
000290 83 98 2b 3d 10 ed 02 3c f0 cf 6b bd 8a c3 89 bc
       0.041893493 0.00799109 -0.05757135 -0.016816873
0002a0 73 16 9e bd 23 81 09 3d 52 49 4c bc a8 05 6b 3d
       -0.077191256 0.03357042 -0.012468653 0.05737844
0002b0 62 0b 30 3d 41 82 29 3d cd 10 3f 3c bb ab 5a bd
       0.042979605 0.041383985 0.01166172 -0.05338643
0002c0 3c c7 45 3d 43 28 96 3d 0e 94 f0 3c 1d 8e e7 bb
       0.048285708 0.07331898 0.029367473 -0.007066502
0002d0 1b 8b e3 3a 2d 36 81 3d 98 5e df 3c 03 3a 64 bd
       0.0017360182 0.06309161 0.027266786 -0.055719387
0002e0 b5 f0 61 bd 56 4b 60 3d 39 2b 23 3c b5 b1 fe bc
       -0.055161197 0.054759346 0.009959036 -0.031090597
0002f0 47 b7 46 bd 7a e1 57 bd cb b9 34 3c 41 0a 4b 3d
       -0.04851463 -0.052705266 0.011030625 0.049570326
000300 d7 93 70 3d ce 22 58 3d f6 88 6a bc 95 b8 75 bd
       0.05873474 0.052767567 -0.014314881 -0.059990484
000310 2f b5 cd bc e5 7e 54 3d b6 9a af 3c d0 a0 1f 3d
       -0.02511081 0.05187883 0.021436077 0.038971722
000320 19 76 2e bd 7c 04 74 bd 8b 07 2b bd 9e 41 f6 3c
       -0.042593095 -0.05957459 -0.04175524 0.030060586
000330 0e f1 e2 3a f8 2b 00 3c ed 74 8b bc fa 75 ec bc
       0.0017314272 0.007822983 -0.017023528 -0.02886485
000340 c6 0d 6f 3d d8 fc d3 bc 20 63 64 3d b6 ef 21 bd
       0.058362745 -0.025877401 0.055758595 -0.039535247
000350 b5 3c 14 3d d6 5c f7 bc 26 28 28 bc f9 79 21 3c
       0.036190707 -0.030195635 -0.010263478 0.009855741
000360 ac b0 e1 bc 01 fb a1 bc ce 84 9a bc 46 72 be 3b
       -0.027550064 -0.019773008 -0.018862154 0.0058119623
000370 56 5a 0c 3c 87 71 22 bd 05 bd 3e 3d d7 16 43 bc
       0.00856646 -0.03965905 0.04656698 -0.011907301
000380 93 fd bf 3c 09 b9 27 3d f1 ae 88 3d e5 74 f5 bb
       0.023436343 0.040947948 0.066739924 -0.0074907416
000390 3d 34 7c 3d 4e 10 61 3d 76 e0 5b 3d 1e 11 e5 3c
       0.061573256 0.05494719 0.05368086 0.027962264
0003a0 69 31 9d bc a3 ac 4a 3b 52 5d e7 3c 0b 44 de 3c
       -0.0191886 0.0030925653 0.02824274 0.027132055
0003b0 96 5c 1f bc 50 9d c2 39 5c 4a 3b 3d fc 80 e3 bc
       -0.009726664 0.0003711977 0.04572521 -0.027771465
0003c0 28 ea 92 3d ee 9e dc 3b c5 29 7c 3d b8 eb 50 bd
       0.07173568 0.006732813 0.061563272 -0.05100605
0003d0 89 7d 37 3a 0b dc 8f 3d 3e 17 28 bd 48 0a b2 bb
       0.0006999602 0.07024392 -0.04103779 -0.0054333545
0003e0 78 4b 2f 3d be 18 dd bc 3f e9 1e bd 91 4a 87 3d
       0.042796582 -0.026989337 -0.03879666 0.06606019
0003f0 c2 8b 83 3d b0 81 83 3c ad 6c 84 3d 65 ab f1 bc
       0.06423141 0.01605305 0.06466041 -0.029500673

embed_layer2.0.bias f4 [16]
000000 fd 8b 82 bd 80 0e eb bc b2 15 ad bc 27 25 8a bd
       -0.06374357 -0.028693438 -0.02112851 -0.067453675
000010 12 c3 17 3c 4b 7a 65 3d 21 6f 46 3d 71 05 93 3d
       0.009262817 0.05602483 0.048445825 0.07178772
000020 11 c5 95 3c 21 e4 78 3c 5d ad 58 bd 3c d3 49 3c
       0.018282445 0.015191109 -0.052899707 0.012318429
000030 c8 37 2b 3d c7 91 81 3d 36 48 fd 3c 43 ed 6b bd
       0.041801244 0.06326633 0.030918222 -0.057599317

embed_layer2.1.weight f4 [16]
000000 97 24 7e 3f 36 4b 80 3f 87 5a 81 3f f9 5d 81 3f
       0.9927458 1.0022953 1.0105752 1.0106803
000010 db 7b 7c 3f cd 94 7b 3f 90 3b 7c 3f e3 c8 81 3f
       0.9862649 0.98273927 0.98528385 1.0139431
000020 17 8d 81 3f 0a ce 7d 3f 17 3c 7d 3f da 95 7f 3f
       1.0121182 0.99142516 0.98919815 0.9983803
000030 b3 e4 7c 3f 96 71 7d 3f f0 0e 7b 3f 02 a2 7a 3f
       0.9878647 0.99001443 0.9806967 0.97903454

embed_layer2.1.bias f4 [16]
000000 af e3 b3 bb 24 8e 0e bc e1 81 7b 3c 0b a6 80 3c
       -0.0054897885 -0.008700881 0.01535079 0.015704175
000010 94 70 57 bc ad 88 f4 bb 1d 71 62 bc 51 a4 87 3c
       -0.013149399 -0.007462582 -0.013820914 0.016557844
000020 d8 2e 4b 3b de 35 30 3a 2e fc 2d bc 43 7c 28 3c
       0.0031003263 0.0006721894 -0.010619206 0.010283533
000030 e8 6a a3 3b 41 ec 84 3c 9a 78 42 bc 9d 02 57 bc
       0.0049871095 0.016225936 -0.011869574 -0.013123182

embed_layer2.1.running_mean f4 [16]
000000 29 96 08 3e db ff a1 3c fc c6 ca 3e d7 f8 2e bc
       0.13338532 0.019775322 0.39604938 -0.010679445
000010 d2 71 34 3e f5 57 ca 3c 0f d8 26 bd ae 56 5d 3e
       0.17621544 0.024700144 -0.040733393 0.21615097
000020 b0 8a e1 3d 16 ab 78 3d e2 b1 6a 3e 19 e9 5e 3d
       0.11012781 0.060710035 0.2291942 0.054421518
000030 3c a8 95 bc 4c f0 7e be 26 80 fe bd 5d c9 8e 3d
       -0.018268697 -0.24896353 -0.12426786 0.06972001

embed_layer2.1.running_var f4 [16]
000000 33 01 f8 3d 23 6e 9e 3d 34 d8 e7 3d 61 e3 e9 3d
       0.12109604 0.07735851 0.11320534 0.11420322
000010 b0 a0 8e 3d e4 28 91 3d f7 99 67 3e 4c 0d ca 3d
       0.069642425 0.070878774 0.22617327 0.098658174
000020 27 19 b8 3d b8 16 2a 3e 76 4e 97 3d 46 80 26 3e
       0.089891724 0.16610229 0.07388012 0.1625987
000030 6c 9c dc 3d 5f 4d 70 3e 4d e2 c5 3d 08 ad 7a 3e
       0.107720226 0.23467015 0.09662304 0.24480069

Fix_Position.pe f4 [1, 50, 16]
000000 00 00 00 00 00 00 80 3f 00 00 00 00 00 00 80 3f
       0.0 1.0 0.0 1.0
000010 00 00 00 00 00 00 80 3f 00 00 00 00 00 00 80 3f
       0.0 1.0 0.0 1.0
000020 00 00 00 00 00 00 80 3f 00 00 00 00 00 00 80 3f
       0.0 1.0 0.0 1.0
000030 00 00 00 00 00 00 80 3f 00 00 00 00 00 00 80 3f
       0.0 1.0 0.0 1.0
000040 de 0e a1 3e 18 01 73 3f b7 e3 ce 3d be b0 7e 3f
       0.31456655 0.94923544 0.10102027 0.9948844
000050 b4 0c 03 3d 73 de 7f 3f a5 ca 25 3c a5 fc 7f 3f
       0.031994537 0.99948806 0.010119115 0.9999488
000060 00 b7 51 3b aa ff 7f 3f af a2 84 3a f8 ff 7f 3f
       0.0031999946 0.9999949 0.0010119284 0.9999995
000070 ab c5 a7 39 ff ff 7f 3f 86 37 d4 38 00 00 80 3f
       0.00031999996 0.99999994 0.0001011929 1.0
000080 cd e1 18 3f 26 56 4d 3f c6 d4 4d 3e 66 c6 7a 3f
       0.59719545 0.8020958 0.20100698 0.9795898
000090 87 fb 82 3d d4 79 7f 3f 78 c8 a5 3c 94 f2 7f 3f
       0.06395631 0.9979527 0.020237193 0.9997952
0000a0 b9 b6 d1 3b a8 fe 7f 3f aa a2 04 3b de ff 7f 3f
       0.006399956 0.9999795 0.0020238557 0.999998
0000b0 aa c5 27 3a fd ff 7f 3f 86 37 54 39 00 00 80 3f
       0.00063999987 0.9999998 0.0002023858 1.0
0000c0 8a b6 51 3f 35 d2 12 3f 49 0e 99 3e 39 4b 74 3f
       0.8191916 0.57352 0.2989371 0.9542728
0000d0 5f 4e c4 3d 3e d2 7e 3f 47 a7 f8 3c ce e1 7f 3f
       0.095852606 0.99539554 0.030353202 0.99953926
0000e0 b3 48 1d 3c fb fc 7f 3f f3 f3 46 3b b3 ff 7f 3f
       0.009599852 0.9999539 0.0030357807 0.9999954
0000f0 7e a8 7b 3a f8 ff 7f 3f a5 29 9f 39 ff ff 7f 3f
       0.00095999974 0.9999995 0.0003035787 0.99999994
000100 87 40 75 3f 57 cc 92 3e 4e a1 c9 3e 31 50 6b 3f
       0.95801586 0.28671524 0.39380878 0.9191924
000110 e1 b6 02 3e dd e7 7d 3f c7 bf 25 3d 52 ca 7f 3f
       0.12765075 0.9918192 0.040466096 0.9991809
000120 a0 b5 51 3c a2 fa 7f 3f 98 a2 84 3b 77 ff 7f 3f
       0.01279965 0.9999181 0.004047703 0.99999183
000130 a8 c5 a7 3a f2 ff 7f 3f 86 37 d4 39 ff ff 7f 3f
       0.0012799995 0.99999917 0.0004047716 0.99999994
000140 0e e4 7f 3f a3 33 ef bc 35 24 f8 3e d4 ec 5f 3f
       0.9995736 -0.029199427 0.48465124 0.87470746
000150 4f 24 23 3e ed ba 7c 3f 93 27 4f 3d 22 ac 7f 3f
       0.1593182 0.98722726 0.05057485 0.9987203
000160 00 11 83 3c 9d f7 7f 3f 2e cb a5 3b 29 ff 7f 3f
       0.015999317 0.999872 0.0050596213 0.9999872
000170 11 b7 d1 3a eb ff 7f 3f b4 a2 04 3a fe ff 7f 3f
       0.0015999993 0.99999875 0.0005059645 0.9999999
000180 9b 8c 70 3f 3c 2e af be 97 0e 12 3f f6 3e 52 3f
       0.93964547 -0.34214962 0.5705351 0.8212732
000190 fa 66 43 3e bf 4b 7b 3f f2 89 78 3d 3e 87 7f 3f
       0.19082251 0.98162454 0.06067843 0.9981574
0001a0 d8 46 9d 3c ec f3 7f 3f b7 f3 c6 3b cb fe 7f 3f
       0.01919882 0.9998157 0.0060715335 0.9999816
0001b0 77 a8 fb 3a e1 ff 7f 3f a4 29 1f 3a fd ff 7f 3f
       0.0019199987 0.99999815 0.00060715736 0.9999998
0001c0 ee c8 48 3f 05 d0 1e bf 86 8c 26 3f 6a 6a 42 3f
       0.78431594 -0.6203616 0.6505817 0.75943625
0001d0 6c 76 63 3e b2 9a 79 3f e6 f2 90 3d a7 5b 7f 3f
       0.22213143 0.9750167 0.07077579 0.99749225
0001e0 46 7c b7 3c 8f ef 7f 3f 35 1c e8 3b 5b fe 7f 3f
       0.022398125 0.9997491 0.0070834407 0.9999749
0001f0 ee cc 12 3b d6 ff 7f 3f 94 b0 39 3a fc ff 7f 3f
       0.002239998 0.9999975 0.0007083502 0.99999976
000200 90 a2 0c 3f 25 e9 55 bf 3b 56 39 3f a7 98 30 3f
       0.5493555 -0.83558875 0.723972 0.6898293
000210 20 a5 81 3e 38 a8 77 3f 06 9d a5 3d 5e 29 7f 3f
       0.25321293 0.96741056 0.080865905 0.99672496
000220 3a b1 d1 3c 87 ea 7f 3f 51 a2 04 3c da fd 7f 3f
       0.025597204 0.99967235 0.00809534 0.9999672
000230 9f c5 27 3b c9 ff 7f 3f 84 37 54 3a fb ff 7f 3f
       0.002559997 0.9999967 0.00080954307 0.9999997
000240 c5 69 84 3e 6b 4a 77 bf 81 3a 4a 3f 5b f8 1c 3f
       0.25861946 -0.9659793 0.7899552 0.6131646
000250 0e 6d 91 3e d3 74 75 3f cf 42 ba 3d 66 f0 7e 3f
       0.28403515 0.95881385 0.09094774 0.9958557
000260 a0 e5 eb 3c d3 e4 7f 3f 7f 36 15 3c 48 fd 7f 3f
       0.028796017 0.99958533 0.009107231 0.9999585
000270 50 be 3c 3b bb ff 7f 3f 75 be 6e 3a f9 ff 7f 3f
       0.0028799959 0.9999959 0.000910736 0.9999996
000280 87 19 6f bd 3f 90 7f bf 19 0d 59 3f ea bc 07 3f
       -0.058373954 -0.9982948 0.8478561 0.53022635
000290 dd 0e a1 3e 18 01 73 3f b5 e3 ce 3d be b0 7e 3f
       0.31456652 0.94923544 0.101020254 0.9948844
0002a0 b4 0c 03 3d 73 de 7f 3f a3 ca 25 3c a5 fc 7f 3f
       0.031994537 0.99948806 0.010119113 0.9999488
0002b0 00 b7 51 3b aa ff 7f 3f b3 a2 84 3a f8 ff 7f 3f
       0.0031999946 0.9999949 0.0010119289 0.9999995
0002c0 5d 27 bd be 9b e3 6d bf 32 a7 65 3f e5 3b e2 3e
       -0.36944094 -0.92925423 0.89708245 0.4418632
0002d0 75 86 b0 3e aa 4d 70 3f 31 7f e3 3d 69 6a 7e 3f
       0.34477583 0.93868506 0.11108244 0.9938112
0002e0 41 26 10 3d 67 d7 7f 3f bb 5e 36 3c f1 fb 7f 3f
       0.03519273 0.9993805 0.011130984 0.9999381
0002f0 ac af 66 3b 98 ff 7f 3f 2a e6 91 3a f6 ff 7f 3f
       0.0035199923 0.9999938 0.0011131216 0.9999994
000300 90 9b 24 bf e1 0f 44 bf c8 e7 6f 3f 6c ad b2 3e
       -0.6429987 -0.7658673 0.93713045 0.34897935
000310 c8 cf bf 3e 3f 5b 6d 3f b5 14 f8 3d 69 1d 7e 3f
       0.37463212 0.92717355 0.121133246 0.99263626
000320 6c 3f 1d 3d b0 cf 7f 3f c7 f2 46 3c 2b fb 7f 3f
       0.038390562 0.9992628 0.012142844 0.99992627
000330 58 a8 7b 3b 84 ff 7f 3f a2 29 9f 3a f4 ff 7f 3f
       0.0038399901 0.9999926 0.0012143145 0.9999993
000340 0c ed 59 bf 37 54 06 bf 01 b4 77 3f f0 4a 81 3e
       -0.8512733 -0.5247225 0.9675904 0.25252485
000350 d4 e6 ce 3e 9c 2a 6a 3f dc 51 06 3e bf c9 7d 3f
       0.40410483 0.91471267 0.13117164 0.99135965
000360 2d 58 2a 3d 4d c7 7f 3f c6 86 57 3c 54 fa 7f 3f
       0.041587997 0.99913484 0.013154691 0.99991345
000370 81 50 88 3b 6f ff 7f 3f 1a 6d ac 3a f2 ff 7f 3f
       0.0041599874 0.99999136 0.0013155073 0.99999917
000380 54 1e 79 bf 88 d4 6b be 72 f7 7c 3f a7 2b 1d 3e
       -0.973119 -0.23030293 0.9881507 0.15348683
000390 a3 c7 dd 3e 99 bc 66 3f d8 95 10 3e 6f 6f 7d 3f
       0.43316373 0.9013153 0.14119661 0.9899816
0003a0 7e 70 37 3d 3e be 7f 3f b7 1a 68 3c 6c f9 7f 3f
       0.044785015 0.9989966 0.014166526 0.9998996
0003b0 d6 cc 92 3b 58 ff 7f 3f 91 b0 b9 3a ef ff 7f 3f
       0.0044799848 0.99999 0.0014167001 0.999999
0003c0 a5 04 7f bf 85 32 b3 3d 50 a4 7f 3f 15 97 58 3d
       -0.9961646 0.0874987 0.99860096 0.052878458
0003d0 51 6e ec 3e 1a 12 63 3f 0a d6 1a 3e 79 0e 7d 3f
       0.46177915 0.88699496 0.15120712 0.9885021
0003e0 52 88 44 3d 84 b4 7f 3f 98 ae 78 3c 73 f8 7f 3f
       0.047981568 0.9988482 0.015178345 0.9998848
0003f0 28 49 9d 3b 3f ff 7f 3f 09 f4 c6 3a ed ff 7f 3f
       0.0047999807 0.9999885 0.0015178929 0.99999887

attention_layer.key.weight f4 [16, 16]
000000 34 36 3d 3d 32 42 cc 3d 60 ea 2d be d4 9d 4f 3e
       0.04619427 0.09973563 -0.16983938 0.2027505
000010 dd 80 15 bd 78 b4 42 3e e4 74 5f 3e d9 fe 6f be
       -0.036499847 0.19014156 0.21821934 -0.2343706
000020 e9 3e d2 3b bd 94 02 be 03 a6 66 be bf 87 d5 bd
       0.006416191 -0.12752052 -0.22524266 -0.10426282
000030 bb 5e 4f be c6 56 ca bb 31 3c 97 3d 42 61 23 be
       -0.2025098 -0.006174895 0.073845275 -0.1595507
000040 94 bc e8 bc 4f 3e 14 bd 70 c4 31 be 46 1f 04 3e
       -0.028410234 -0.036192235 -0.17360091 0.12902555
000050 23 3a 5f 3e 89 83 21 3d a8 a1 5c be 57 33 64 3c
       0.21799521 0.039432082 -0.21546042 0.013928256
000060 ea 02 55 3e 0d 11 fd 3d d4 f2 1d bd 2c ac e0 bc
       0.20801893 0.12356768 -0.038561657 -0.027425848
000070 c6 60 b7 3d aa 6f 58 be e9 be a4 bd c9 91 e4 bd
       0.08954005 -0.21136346 -0.08044226 -0.11160619
000080 92 a0 25 be 94 89 6c bd 7d 39 66 3e ca 12 57 be
       -0.16174534 -0.057748392 0.22482868 -0.21003261
000090 df 4a 6b 3e 2f 19 63 3e f3 0a e7 bd 21 81 43 3d
       0.2297778 0.22177576 -0.11281385 0.04773057
0000a0 4d b5 31 3e 24 32 de bd 35 69 09 3b 84 62 8e 3b
       0.17354317 -0.10849407 0.002096725 0.00434524
0000b0 f9 1d 31 be 6e 96 6a bd 1f 58 9b 3d a8 fe 10 3e
       -0.1729659 -0.057272367 0.07585167 0.14159644
0000c0 d0 4c 24 be 7c d1 4a be be 51 cf 3a 24 34 02 bd
       -0.16044927 -0.19806474 0.0015817208 -0.031788006
0000d0 87 6d 24 be a6 8a da 3d c9 00 07 be 14 9c a4 bd
       -0.16057406 0.10670976 -0.13183893 -0.08037582
0000e0 24 a0 24 be cf 3f 64 3e d9 76 57 3c 34 70 58 3e
       -0.16076714 0.22289966 0.013150894 0.21136552
0000f0 00 e6 1a be 3a 91 cf bd 0a 80 77 bd e2 7c 3e be
       -0.151268 -0.10135122 -0.060424842 -0.18602327
000100 49 14 df 3d d1 8d 4f be f3 c0 2d be c9 5f 12 3e
       0.10892541 -0.20268942 -0.16968136 0.14294352
000110 34 54 62 be d8 7a 48 3e 0a 65 19 3d 5e 78 ee 3d
       -0.22102433 0.19578111 0.037449874 0.11644052
000120 56 27 3e 3e 2d ce 56 3e 5b 60 ac 3d 85 81 6a 3e
       0.18569693 0.20977087 0.08416816 0.2290097
000130 64 17 1b 3d 45 f7 a1 3c bd 6a 2b be 74 26 a3 3c
       0.037864104 0.019771228 -0.16739936 0.019915797
000140 fb 42 10 bd 16 ad 65 be f8 25 9c 3d 56 0d 38 bd
       -0.035220128 -0.22429308 0.076244295 -0.044934593
000150 67 82 20 3e 44 4f 57 3e ec c7 62 3e cd 14 b2 bd
       0.15674745 0.21026331 0.22146577 -0.08695374
000160 38 b9 34 3e f0 d2 e6 bb ad 32 4d 3e 36 8d 4a 3e
       0.1764878 -0.0070441887 0.20038863 0.1978043
000170 4e 96 93 3d 5c 9d 06 3a 31 11 d8 bd f5 af e0 bb
       0.07206403 0.0005135143 -0.10550154 -0.006856913
000180 fe 3a a7 bc 59 46 3a be e8 5b 12 3e fc 4c f3 3d
       -0.020413872 -0.18190898 0.14292872 0.11879918
000190 d9 01 00 bd f0 c8 e3 3b 3d 90 21 3d 06 91 5b bc
       -0.031251762 0.006951444 0.039444197 -0.0134012755
0001a0 b5 b1 25 3e 57 b6 30 bd fd b2 d3 bd e5 2f 3a 3e
       0.16181071 -0.043142643 -0.10336874 0.18182333
0001b0 b6 b4 08 be 43 8b 52 3e 5d 6a 5a be 12 44 da 3d
       -0.13350186 0.20560937 -0.21329637 0.10657515
0001c0 51 af 21 bd 40 51 3a be 54 6e 44 be 3c 7d 3d be
       -0.039473835 -0.18195057 -0.19182712 -0.18504804
0001d0 8f a0 31 be 8f d9 30 3e df ea a2 39 c5 9d aa bd
       -0.17346404 0.17270492 0.0003107404 -0.083308734
0001e0 75 13 6f be 5a df 3f be be 01 40 3e a6 f9 43 be
       -0.23347266 -0.18737546 0.18750665 -0.19138202
0001f0 9f a4 66 3e 47 40 54 be ed c7 88 3d 1f 20 1c 3e
       0.22523735 -0.20727645 0.06678758 0.15246628
000200 a8 f0 77 bb e2 21 56 3d a0 cc 29 bd 60 76 2a 3e
       -0.0037832651 0.052278407 -0.04145491 0.16646719
000210 90 bf 71 bb 51 28 44 be 1a 80 45 3e 85 24 c1 bb
       -0.0036887862 -0.19156004 0.19287148 -0.005894246
000220 89 c3 0c 3e b2 4b e1 bd f4 da 6e 3d 1b a0 ab bd
       0.13746466 -0.11000766 0.05831428 -0.08380147
000230 e8 f5 db 3d 7f 68 0b 3e 5d 4d f2 3c 88 79 ea bd
       0.10740262 0.13614081 0.029577905 -0.114489615
000240 7d e0 4a 3c 54 bb c5 bc d8 34 27 3e d1 90 1b be
       0.012382624 -0.024137177 0.16328752 -0.15191962
000250 03 61 ef 3d 16 18 59 be 10 d3 3b 3e 32 65 0b be
       0.116884254 -0.21200594 0.18342233 -0.13612822
000260 5f 89 40 be 96 1a cc 3d a5 a9 4d 3e 77 3a 98 bc
       -0.18802403 0.09966008 0.20084246 -0.018582566
000270 78 35 1c bd f9 36 f3 bd 95 6f 1d bc 80 12 29 be
       -0.03813693 -0.118757196 -0.009609123 -0.16510963
000280 89 4b 17 be 72 09 52 bd 3e 14 56 3e 5d 73 6a 3e
       -0.14774908 -0.05127854 0.2090616 0.2289557
000290 f3 4f 32 3e e9 8f 81 3d 31 cf ab 3d 3e ba f7 bd
       0.1741331 0.06326277 0.08389128 -0.1209607
0002a0 b6 a1 8a 3d 23 e3 ef 3d 87 47 9e bd e0 a6 63 3e
       0.06769125 0.11713245 -0.077284865 0.22231627
0002b0 01 22 ff bc 39 0d 14 3e 56 e8 2d be 19 67 a4 3c
       -0.031144144 0.14458169 -0.1698316 0.020068692
0002c0 69 d6 28 be 7a 2d 54 be f4 60 ed 3d 3b e2 f7 3d
       -0.16488041 -0.20720473 0.11590758 0.12103697
0002d0 8f 23 88 bd b2 8b f4 3d d2 88 18 be c2 40 81 3c
       -0.06647407 0.11940707 -0.14895943 0.01577795
0002e0 86 22 1e be 4f 2f 45 3c b7 d5 80 bd 10 7b 3b be
       -0.15442857 0.012035205 -0.06290763 -0.18308663
0002f0 af c9 d1 bd ef 00 5d be 97 e2 2f 3e 49 71 1e 3e
       -0.10243546 -0.21582387 0.17176281 0.15472902
000300 bf c8 04 3e 50 23 3b 3e 1c 10 ca 3d ff 42 55 be
       0.12967204 0.1827519 0.09866354 -0.20826338
000310 2c fe d5 bd c7 16 61 3e f1 ab 48 3e 8b 9c 20 bd
       -0.1044887 0.21981345 0.1959684 -0.03921179
000320 77 60 5d be 45 23 4b be 80 28 ad bd f4 3e 2a 3e
       -0.2161883 -0.19837673 -0.084549904 0.16625577
000330 e0 bf d5 3c 50 f4 3c be e4 6d 69 be d2 d8 f6 3d
       0.02609247 -0.18452573 -0.22795826 0.12053074
000340 37 27 4b 3d dd 13 b8 bd 5b 49 c0 3d dd c0 65 3d
       0.049597945 -0.089881636 0.093889914 0.056092132
000350 55 f3 48 3e 9b 61 58 bc c5 07 b5 3d 35 5a fc b9
       0.19624074 -0.013206865 0.088393725 -0.00048132395
000360 bb c0 83 3d e9 a6 f4 3c b1 c8 2c be 35 ff 0c 3e
       0.06433245 0.029864745 -0.16873433 0.13769229
000370 ba fb af 3d e3 81 1d be 91 30 61 be 07 8e 8a bc
       0.08592935 -0.15381579 -0.21991183 -0.016913427
000380 67 be 41 3e eb 0b 3d bd 24 25 98 bd 1f 5e 52 bc
       0.18920289 -0.046153944 -0.07428959 -0.012839823
000390 fb de 28 be ea fe 3c be c1 8f 14 3e 81 ef 12 be
       -0.1649131 -0.18456617 0.14507963 -0.14349176
0003a0 66 0b 69 3d 88 20 e4 3c 3a 70 fd bd b6 0a 9b 3d
       0.056895636 0.027847543 -0.12374921 0.07570402
0003b0 9a 02 35 be a9 f2 56 be 74 1a d6 3d 50 c0 9f bd
       -0.17676774 -0.20991005 0.10454264 -0.078003526
0003c0 57 67 02 be e4 87 bb 3d 35 11 56 3e e1 71 5e be
       -0.12734734 0.091567785 0.20905001 -0.21723129
0003d0 66 39 80 bc 5d d9 c3 bc ec c2 f6 3d fb 3a 69 bd
       -0.01565237 -0.023907358 0.12048897 -0.056941014
0003e0 87 ac 12 be 9c 93 0c be 92 05 83 3c 75 b7 65 be
       -0.14323626 -0.13728184 0.015993867 -0.22433265
0003f0 e8 5f fa 3d d8 c1 a1 bd 86 39 ea 3d e3 46 f1 bd
       0.12225324 -0.07898301 0.11436753 -0.11781099

attention_layer.value.weight f4 [16, 16]
000000 1f a9 6f 3d 72 d8 44 be 96 95 49 3e 8b f6 fd 3d
       0.058510896 -0.19223192 0.19685969 0.1240054
000010 59 93 e3 3b d3 4a cb bc 55 aa 62 3d 8c 35 6b be
       0.0069450554 -0.024815952 0.055338223 -0.22969645
000020 7d 0b bb bd 39 8a 6d be cd 1f 49 3e 85 bc 9b bd
       -0.091330506 -0.23197259 0.19641037 -0.076043166
000030 1d 0c 3c 3e da c1 6d bb f7 1f 55 be 54 d5 c7 3d
       0.18363996 -0.0036278875 -0.20812975 0.09757486
000040 f8 55 ab 3d 04 b3 a6 bc 93 11 39 3e dd c9 05 3e
       0.083660066 -0.020349033 0.1807311 0.13065286
000050 40 6b fe 3d c2 49 a7 3c 19 78 46 bd c3 50 bc 3d
       0.124228 0.020420913 -0.048454378 0.091950916
000060 5b fd 7d bd 6e dd 76 bd 6c 5e 1d 3e ad 24 2b 3e
       -0.062009197 -0.060269766 0.1536805 0.1671321
000070 b0 b9 5b bd fa a2 6f 3d e7 13 d4 bb 6e cc 28 3e
       -0.053643882 0.058505036 -0.006472099 0.16484234
000080 5b e4 1f 3e fb c7 08 3d 37 24 b8 3a 26 cd f0 3d
       0.15614454 0.03339384 0.0014048879 0.11757879
000090 f7 52 39 3e 02 20 6b be 46 4b 0e b9 78 46 5b 3d
       0.18098055 -0.22961429 -0.00013570217 0.053534
0000a0 c5 56 09 bc a4 e0 07 be 07 27 dc 3d f4 cc 11 be
       -0.008382504 -0.13269287 0.107496314 -0.1423834
0000b0 e3 ba ed 3d 8c 71 f4 bd 85 e1 36 bb d2 f2 03 3e
       0.116079114 -0.1193572 -0.0027905416 0.12885597
0000c0 85 99 53 be 21 b3 5f be 6e a2 79 3e 4c bf 7c bc
       -0.20664032 -0.21845676 0.24378368 -0.015426468
0000d0 aa b0 0e be 96 70 8e 3d 21 fb 94 bd b0 ce b5 bd
       -0.1393458 0.06955068 -0.072744615 -0.08877313
0000e0 3a 23 df bd d4 1a 7f bd 26 f3 0a 3e d9 14 be bd
       -0.10895391 -0.062281445 0.13569316 -0.0928132
0000f0 cb f9 dc 3d f5 17 84 3d 26 8f 18 be d2 c6 f3 bd
       0.10789832 0.06449882 -0.14898357 -0.11903156
000100 07 f4 de 3d 9b 71 86 3d 58 65 0f be db 6c e5 3d
       0.10886388 0.06564637 -0.14003503 0.11202403
000110 06 c0 8c 3d 2c 5b 43 3e ad e0 ee 3b b3 82 01 bb
       0.06872563 0.19077748 0.007289967 -0.001976174
000120 0b 72 1f be 51 76 d4 bd 04 c5 16 3e fb 16 29 3e
       -0.15570848 -0.103741296 0.14723593 0.16512673
000130 8b d8 55 bd ac 6b 52 3e de 26 d6 3d 7e 77 55 3e
       -0.052208465 0.20548886 0.10456632 0.20846364
000140 92 77 75 3e 39 83 28 3e cc 34 82 be bf 63 13 3e
       0.23971394 0.16456307 -0.25430906 0.14393519
000150 6d d6 68 3e d1 bf e3 bd 68 5e 4c bd 8b 49 66 3e
       0.22738047 -0.111205705 -0.04989472 0.22488992
000160 a9 96 4b be d8 37 99 bd 11 a2 a1 3d 99 45 43 3e
       -0.19881691 -0.074813545 0.0789224 0.19069518
000170 7a 75 6b 3e 67 9c 78 be 44 9e 47 bd 75 60 08 bb
       0.22994033 -0.24278413 -0.04873492 -0.0020809446
000180 63 8c e4 3d db 7f cc bd 78 60 22 be 9e e7 12 3e
       0.11159589 -0.09985324 -0.15857112 0.14346167
000190 75 1f 76 be 9d 36 8f 3d 2f 9f 27 bd 1e 2e 41 be
       -0.24035437 0.069928385 -0.040923294 -0.18865249
0001a0 53 7c 81 be cc f8 7b 3d fc 77 58 be ee 9b be 3c
       -0.25290164 0.061516568 -0.2113952 0.023267712
0001b0 4d 37 da bd 20 4d ea 3c 91 2a 37 bd 58 44 c5 bd
       -0.10655079 0.02860123 -0.04471833 -0.09632176
0001c0 7e 3b 3d be db 5c fc 3d db 6a 99 bd f2 1e 44 be
       -0.18479726 0.12322398 -0.07491084 -0.1915243
0001d0 4d b4 e0 bc 2b c2 6d 3d d8 d1 52 3e 43 50 04 3e
       -0.027429724 0.0580465 0.20587862 0.12921242
0001e0 f9 ce 36 3e a5 4a 3d bb 8c 02 49 bd 8a c1 3a be
       0.17852391 -0.0028883603 -0.049074695 -0.18237892
0001f0 cd 66 d3 3d c9 6f 07 be 29 d0 01 be 8e 5d 1c be
       0.10322342 -0.13226236 -0.12677063 -0.15270063
000200 ac 86 dd 3d 41 96 34 3e 43 ae 53 3e ee 21 b3 3c
       0.10816702 0.17635442 0.20671944 0.021866765
000210 3a 13 68 be 4f 09 b6 3d b6 a7 46 3e 97 c3 36 3e
       -0.22663584 0.08888494 0.19399914 0.17848049
000220 6c af 48 be 3f 4a 83 be c1 05 3d 3e 14 c5 ef bd
       -0.19598168 -0.25642583 0.18459226 -0.117075115
000230 dd 78 ac 3d dd 81 af bd 4b 65 ea 3b dd 39 fb 3d
       0.0842149 -0.08569691 0.0071531883 0.12266896
000240 01 76 0c 3e 10 95 4b bc 89 31 a5 bd f8 30 aa 3d
       0.1371689 -0.012425676 -0.08066089 0.08310121
000250 18 2d 3f 3e 2f 24 4c be 98 ac 62 be ac 46 21 be
       0.18669546 -0.19935678 -0.22136152 -0.15749615
000260 2a 0b 28 bc 4a b3 6f 3e db f5 51 be 92 91 23 3e
       -0.010256568 0.23408237 -0.20503943 0.159735
000270 aa ca 1e 3d 36 e4 e6 bc bf 97 10 be 70 c4 71 ba
       0.038767494 -0.028184991 -0.14120387 -0.0009222692
000280 38 bd b0 bc 82 f3 5a be de 51 09 3e 23 8f f4 3c
       -0.021574602 -0.21381953 0.13410136 0.02985341
000290 6c 11 8c 3d 0c 76 46 3d 4f 84 17 be f4 fd 48 be
       0.068392605 0.048452422 -0.14796565 -0.19628125
0002a0 9c 9d 26 bd 8e 08 4d 3d 84 06 76 3d 3e 04 ed bd
       -0.04067765 0.050056987 0.060064808 -0.11573075
0002b0 15 54 2a be c2 dc db 3d 09 74 42 bd 6a 57 dc bd
       -0.16633637 0.107354656 -0.04747394 -0.107588604
0002c0 e8 80 32 3e bd ff 39 be d5 44 33 bc 16 63 3c be
       0.17431986 -0.18163963 -0.010941704 -0.18397173
0002d0 8e a4 73 3e 50 36 08 bd aa 23 a0 3c fc f7 6d bd
       0.23793241 -0.03325492 0.019548256 -0.058097824
0002e0 58 d7 28 3e 25 09 4c be d3 57 5e be 9d 9f 2e 3e
       0.16488397 -0.19925363 -0.2171319 0.17053075
0002f0 b1 b2 89 3d a8 c1 84 bd 20 75 27 3e 11 f3 1a 3e
       0.06723536 -0.064822495 0.16353273 0.15131785
000300 3d af 45 be f7 0b 2d bd 42 6f 56 3d c5 68 94 3d
       -0.1930513 -0.04224774 0.052352197 0.07246546
000310 d3 2e bd bd 56 af 4b 3e 2e 6d 25 3c a0 99 2f 3d
       -0.09237447 0.19891104 0.010096831 0.042871118
000320 c7 2c bf 3c 9e 75 6e be 25 a0 1f be 07 c5 58 3e
       0.023336781 -0.23287055 -0.15588434 0.2116891
000330 69 9e 0a bd a0 dd 33 be 0a 52 43 be 34 cf 86 3d
       -0.033842478 -0.17565012 -0.19074264 0.065824896
000340 35 e2 52 be c4 1f 10 3e 90 f6 79 be a3 93 fd bd
       -0.20594104 0.14074618 -0.24410462 -0.12381675
000350 e1 1f 33 be 66 26 22 be b4 6e 1e 3d b9 46 74 be
       -0.1749263 -0.1583496 0.038679793 -0.23855104
000360 c6 66 40 be a6 d1 73 bc a8 d6 7d 3e 01 62 12 3e
       -0.18789205 -0.014881527 0.24788916 0.14295198
000370 ab f1 3f 3e a5 e7 07 bd 00 52 0f 3e 0c 8d 07 3d
       0.18744533 -0.033179898 0.13996124 0.033093497
000380 0a 1a 0f be b6 9c 67 3e fa bd a6 3d ba 15 47 bd
       -0.13974777 0.22618374 0.08141704 -0.048604704
000390 0e cf 3d bd b8 1a f6 3d fa a9 41 be fd 76 5e 3e
       -0.04634004 0.12016815 -0.18912497 0.21725078
0003a0 0d bc 96 3d 08 ba e5 bd be ac 6b be b3 63 0c be
       0.073600866 -0.11217123 -0.23015115 -0.13709907
0003b0 f4 9c b6 bd 78 5a 26 bd 88 14 b4 bb 18 49 6e 3e
       -0.08916655 -0.04061362 -0.0054956116 0.2327007
0003c0 0b c5 a5 bc 79 d2 6f 3e 80 82 4d 3e 93 23 a6 3d
       -0.020235559 0.23420133 0.20069313 0.08112254
0003d0 64 2e 19 3e c6 16 04 3e 27 da 08 be 5d c6 ca bd
       0.14959103 0.12899312 -0.13364469 -0.09901116
0003e0 bf e9 0b be 9e f1 1c 3e 67 65 e1 3d 56 a8 09 3e
       -0.13663386 0.15326545 0.11005669 0.13443121
0003f0 db 7f da 3d c8 67 57 3d 0d 0a 66 3e bc 05 a4 bd
       0.10668918 0.052589208 0.22464772 -0.08008906
