run/0.99-3.5-64-0.0001/PatchTST-best.pth (torch, 667762 bytes, 123 tensors)

class_weights f4 [5]
0	0x3f800000	1.0
1	0x3f800000	1.0
2	0x3f800000	1.0
3	0x3f800000	1.0
4	0x3f800000	1.0

model_trend.revin_layer.affine_weight f4 [3]
0	0x3f5d164f	0.86362165
1	0x3f954f1e	1.166477
2	0x3f892655	1.0714823

model_trend.revin_layer.affine_bias f4 [3]
0	0xbd912556	-0.070871994
1	0x3cb744e0	0.02237171
2	0x3c0f2e82	0.008739116

model_trend.backbone.W_pos f4 [10, 48]
0	0xbc7e4f58	-0.015521847
1	0x3c04935a	0.008091772
2	0xbb299dd7	-0.0025881433
3	0xbaa9d6b5	-0.0012957664
4	0x3d1a3b6f	0.037654337
5	0x3cd05c94	0.02543477
6	0xbc884d4a	-0.016638417
7	0xbcd1c6ac	-0.02560743
8	0x3cda75b2	0.02666745
9	0x3d16ffe1	0.03686512
10	0xbd057c26	-0.0325891
11	0x3c15ef55	0.0091512995
12	0x3bbb5f50	0.0057181492
13	0xbc7e9c14	-0.015540142
14	0xbcda310f	-0.026634721
15	0x3d350677	0.04419562
16	0x3a831cdb	0.0010003106
17	0x3b4cbd85	0.0031240892
18	0x3bcffd1c	0.0063473117
19	0xbbe9b368	-0.0071319826
20	0xba5ad59e	-0.00083478715
21	0x3c04df47	0.008109874
22	0xbd22db7c	-0.039760098
23	0x3bff6dad	0.007795057
24	0x3d3abdf7	0.04559132
25	0x3ca506fe	0.020144936
26	0x3c56945b	0.013096894
27	0x3cb78e21	0.02240664
28	0x3d209f6e	0.039214544
29	0x3b44c7ea	0.0030026385
30	0x3c9cb1d0	0.019127756
31	0x3cba9f95	0.022781173
32	0xbc430517	-0.011903069
33	0xbb2f4f2a	-0.0026750066
34	0x3cdb00a4	0.026733704
35	0x3d301a17	0.04299363
36	0xbd7b395f	-0.06133401
37	0xbb1d8628	-0.0024036262
38	0xbd6e3094	-0.058151796
39	0xbba2c69b	-0.0049675233
40	0xbc28db32	-0.0103061665
41	0x3b2ce11d	0.0026379295
42	0x3b9536ad	0.004553637
43	0x3c64e883	0.013971451
44	0xbc36cc60	-0.011157125
45	0xbbf1c270	-0.007377915
46	0xbc8e0074	-0.0173342
47	0x3caf0de1	0.021368923
48	0xbc85afb2	-0.01631913
49	0xbca60374	-0.020265318
50	0x3c6d10c6	0.014469331
51	0xbb791eba	-0.00380127
52	0x3d704eea	0.05866901
53	0xbc5e894c	-0.013582539
54	0xbc0c40e9	-0.008560398
55	0x3bbd7780	0.005782068
56	0xbbb5e06e	-0.0055504357
57	0x3cb88f6e	0.02252933
58	0xbd143513	-0.036183428
59	0xbd74db02	-0.059779175
60	0xbd19c45d	-0.037540782
61	0x3cf0731b	0.029351762
62	0x3d1f444a	0.038883485
63	0xbc921cb9	-0.017835962
64	0xbae20382	-0.0017243477
65	0xbd22b110	-0.03971964
66	0x3d23d54f	0.03999835
67	0x3d119226	0.03553977
68	0x3b7d2af9	0.003863035
69	0xbcf4aefc	-0.029868595
70	0x3d1bcbf3	0.038036298
71	0xbd111316	-0.035418592
72	0x3cc23f92	0.023711953
73	0xbbbcab4f	-0.0057577263
74	0xbc9f108d	-0.019417072
75	0xbbb7b0c5	-0.0056057894
76	0xbb0db7d8	-0.0021624472
77	0xbd088678	-0.033331364
78	0x3d83736b	0.064184986
79	0xbd02d5e3	-0.03194226
80	0x3c4b6d28	0.012416162
81	0xbcd7b5ff	-0.0263319
82	0xbcec8694	-0.028872766
83	0xbb72a6ff	-0.0037025807
84	0x3c9d968e	0.01923683
85	0x3d107311	0.035265986
86	0xbaa3f0cd	-0.0012507677
87	0x3b507e3f	0.003181353
88	0xbd32bd78	-0.043637723
89	0xbb5b82d9	-0.003349474
90	0x3c3deb36	0.011591723
91	0x3c9efb2d	0.01940688
92	0x3d1581dc	0.036500797
93	0x3d83ecf0	0.064416766
94	0xbb32dba0	-0.0027291551
95	0xbd019c4d	-0.0316432
96	0xbbcf1801	-0.00632
97	0x3d97a848	0.07405144
98	0x3cd52d8e	0.026022699
99	0xbd302e43	-0.04301287
100	0xbd3118e2	-0.04323662
101	0xbd1b0698	-0.037848085
102	0xbc020cb6	-0.007937601
103	0xbd6685aa	-0.056279816
104	0xbd25166a	-0.04030458
105	0x3cef65e5	0.029223392
106	0xbbfeb284	-0.0077727456
107	0x3cc9b292	0.024621282
108	0xbc97001c	-0.01843267
109	0x3d03a928	0.03214374
110	0x3d1aafd2	0.03776533
111	0x3cbd62b9	0.023118364
112	0x3d11428b	0.03546385
113	0x3c90b287	0.017663253
114	0xbc45c4e6	-0.01207087
115	0xbce41d3c	-0.027845971
116	0x3c9c9cf4	0.01911781
117	0xbd0bd630	-0.034139812
118	0xbd198405	-0.03747942
119	0x3c9d7221	0.01921946
120	0x3c26847d	0.010163424
121	0x3d0843e5	0.033267874
122	0xbb065f62	-0.002050363
123	0xbc5df957	-0.013548217
124	0xbcf43e2e	-0.029814806
125	0xbcc8ac07	-0.024496092
126	0xbbd971a8	-0.0066358633
127	0xbb53c2f6	-0.003231225
128	0xbc993fa3	-0.018707102
129	0x3c0a7446	0.008450573
130	0xbcc20529	-0.023684101
131	0xbb36ce39	-0.0027893914
132	0x3d85da5b	0.065357886
133	0x3d260929	0.04053608
134	0x3d0941df	0.033510085
135	0xbbed97b0	-0.0072507486
136	0x3d16c205	0.036806125
137	0xbc869e76	-0.016432982
138	0x3c6dae2a	0.014506856
139	0x3d203bdc	0.039119586
140	0x3cfeb253	0.031090891
141	0x3d7670f6	0.06016632
142	0xbc0910bb	-0.008365805
143	0x3c895125	0.016762326
144	0xbd46919d	-0.04847871
145	0xbd7ae59b	-0.061254125
146	0xbc3d43c3	-0.0115518
147	0xbce78a94	-0.028264321
148	0xbda96de1	-0.08272911
149	0xbd0a8da3	-0.03382648
150	0xbd271d05	-0.04079916
151	0x3c4b4e1d	0.01240876
152	0xbca975ac	-0.020685993
153	0x3c49912c	0.012302678
154	0xbd20141e	-0.039081685
155	0xbd5e7915	-0.05431469
156	0xbd677a45	-0.05651309
157	0x3d33b47a	0.043873288
158	0x3c1f7075	0.009731402
159	0x3a17fab2	0.00057975494
160	0xbd46c520	-0.048527837
161	0x3d61e1ab	0.055146854
162	0xbc88f2f7	-0.016717417
163	0xbd51d665	-0.051229853
164	0x3ce325b9	0.027727949
165	0x3cf9800d	0.030456567
166	0x3d4c7183	0.04991294
167	0xbc832807	-0.016010297
168	0x3ccf1b19	0.025281476
169	0x3af17f0b	0.0018424703
170	0x3aa89c66	0.0012863993
171	0xbd27279a	-0.04080925
172	0x3cf87822	0.030330721
173	0x3cf52a6d	0.029927457
174	0x3bbf690d	0.0058413805
175	0xbc4ee68e	-0.012628211
176	0x3cb32d92	0.021872316
177	0x3b3b3a69	0.002856875
178	0x3c0d1a53	0.008612233
179	0xbd2af3e4	-0.0417365
180	0x3c998362	0.018739406
181	0xbcd4aa4d	-0.025960112
182	0x3d186afd	0.037211407
183	0x3d65f0c6	0.056137823
184	0xbc96b749	-0.018397944
185	0x3d744715	0.0596381
186	0x3c543db5	0.012954165
187	0xbc998c2f	-0.018743603
188	0x3dc77183	0.097384475
189	0x3d282ece	0.04106026
190	0xbcd05380	-0.02543044
191	0x3c5b6da9	0.013392844
192	0x3db78029	0.089599915
193	0xbd4084fb	-0.04700182
194	0x3d2a739c	0.04161416
195	0x3d2295b4	0.03969355
196	0x3ce5776c	0.028011046
197	0x3cbe66ec	0.023242436
198	0xbbac3235	-0.0052550086
199	0xbd4cb38a	-0.04997591
200	0xbb15730b	-0.0022804167
201	0xbd2f9fde	-0.04287707
202	0x3cdf3f0f	0.027251748
203	0x3d836168	0.06415063
204	0xbbea438e	-0.0071491664
205	0xbb82e84a	-0.003994976
206	0x3c92f7d3	0.017940437
207	0xbd4588ba	-0.048226096
208	0x3d52b46a	0.051441588
209	0x3c87d2ca	0.016580004
210	0x3be0eca3	0.006864147
211	0x3c35d54e	0.011098219
212	0xbbf7b2bf	-0.00755915
213	0x3c81b47c	0.015833132
214	0xbb9d83ee	-0.004806987
215	0x3c73ffc5	0.014892523
216	0xbd67a207	-0.056551006
217	0xbc11860e	-0.008882059
218	0x3c5f7fac	0.013641279
219	0xbb208288	-0.0024491865
220	0xbd33f7f4	-0.04393764
221	0x3d276ba5	0.040874142
222	0xbca01baa	-0.019544441
223	0x3d805055	0.06265322
224	0x3cb5602b	0.022140583
225	0xbd2c3f79	-0.04205272
226	0xbb1103de	-0.002212755
227	0xbb0e5904	-0.0021720538
228	0xbb2f2641	-0.0026725682
229	0xbcf03838	-0.029323682
230	0x3bb0a7b2	0.0053910846
231	0x3d7a2d1f	0.061078187
232	0xbd157d56	-0.036496483
233	0xbcd5caa5	-0.026097605
234	0x3c930d4b	0.017950675
235	0xbc2e2ad9	-0.010630333
236	0xbd1cbbab	-0.03826491
237	0xbbd2096a	-0.0064098136
238	0xbc73ee64	-0.01488838
239	0xbd672c2f	-0.05643862
240	0xbd35ecee	-0.044415407
241	0xbcae8c44	-0.021307118
242	0xbd1de5aa	-0.038549103
243	0xbbe8efe0	-0.0071086735
244	0xbc69995e	-0.014257757
245	0x3c0f1406	0.008732801
246	0xbd0a04c4	-0.03369595
247	0xbc4354f6	-0.011922112
248	0xbce13b3a	-0.027494062
249	0xbd3714dd	-0.04469763
250	0x3c1fe16c	0.009758335
251	0xbd03237c	-0.032016262
252	0x3d0a5280	0.033770084
253	0xbc1b30a1	-0.009472043
254	0xbcaf0ab6	-0.021367412
255	0x3cb250e5	0.02176709

model_trend.backbone.W_P.weight f4 [48, 10]
0	0x3cec3bb4	0.028837062
1	0x3de6f129	0.112764664
2	0x3e0b4125	0.1359907
3	0x3d2a7fc7	0.041625764
4	0xbce16d81	-0.027518036
5	0x3c8a84b0	0.016908973
6	0xbad90041	-0.0016555862
7	0xbc625504	-0.013814215
8	0x3c418645	0.0118117975
9	0x3cdb8f7e	0.02680182
10	0x3e512244	0.20423228
11	0x3d89246f	0.06696402
12	0xbb8e6a24	-0.004346149
13	0xbd3336f7	-0.04375359
14	0xbd10bb0d	-0.035334636
15	0xbc30ff93	-0.010803121
16	0x3d92230b	0.0713559
17	0x3ca8c963	0.020603841
18	0xbb8deda9	-0.00433131
19	0x3d074dc1	0.033033136
20	0x3d49bb26	0.049250744
21	0x3dc1da34	0.09465447
22	0x3d8e8aed	0.06960092
23	0x3d0ac063	0.03387488
24	0xbcd26355	-0.02568213
25	0xbb5f820f	-0.003410462
26	0xbd01fd7e	-0.03173589
27	0xbb6db71c	-0.0036272472
28	0xbc915181	-0.01773906
29	0x3ca68889	0.020328777
30	0xbd583546	-0.05278518
31	0x3d931660	0.07182002
32	0x3de48304	0.11157802
33	0x3de868de	0.11348127
34	0x3b9b70c9	0.0047436696
35	0xbc910ed3	-0.017707264
36	0xbc9ceae5	-0.019154975
37	0xbd20ae3b	-0.03922866
38	0xbd19431c	-0.037417516
39	0xbb5612c9	-0.0032665005
40	0xbcbcc7bf	-0.023044465
41	0xbe195b0e	-0.14976141
42	0xbde7e108	-0.11322218
43	0xbd059645	-0.03261401
44	0xbb8b5846	-0.0042524664
45	0x3c425039	0.011859947
46	0x3d5a6386	0.05331757
47	0x3bf0c33a	0.0073474916
48	0x3bd51c31	0.006503605
49	0xbd0ae1f3	-0.03390689
50	0x3d2d5b84	0.042323604
51	0xbdc9606c	-0.09832844
52	0xbd892e46	-0.06698279
53	0x3cbb0c11	0.022832902
54	0x3d8e75e8	0.069560826
55	0xbd0451b2	-0.032304473
56	0x3d404714	0.046942785
57	0x3d7fea0d	0.062479068
58	0x3d669b89	0.056300674
59	0x3d6e6206	0.05819895
60	0xbc7800c7	-0.015136904
61	0xbdfa393a	-0.12217946
62	0xbd6f04ef	-0.058354314
63	0x3bc30896	0.0059519513
64	0x3cda1a04	0.026623733
65	0x3c192599	0.009347343
66	0xbcac8487	-0.021059288
67	0xbaea9d10	-0.0017899591
68	0x3c0d918f	0.008640661
69	0xbcbf17e6	-0.023326825
70	0x3dfa24f5	0.1221408
71	0x3cce9015	0.025215188
72	0x3c2f30c3	0.010692778
73	0x3d3cc3b5	0.04608508
74	0x3d9225cb	0.07136115
75	0x3c169448	0.009190626
76	0x3cf098c9	0.029369729
77	0x3cf03c2c	0.029325567
78	0xbc9a3ec8	-0.018828765
79	0xbc6412f1	-0.013920532
80	0xbdd0c0e2	-0.101930395
81	0xbdadd5be	-0.08488034
82	0xbd485bf8	-0.048915833
83	0x3c4a7540	0.012357056
84	0x3cb45907	0.022015108
85	0x3d86c497	0.06580465
86	0x3b25dcad	0.0025308535
87	0xbd2d2240	-0.04226899
88	0xbd1baa03	-0.038003933
89	0xbbbae663	-0.005703734
90	0xbc56195b	-0.013067569
91	0xbda0f9e0	-0.0786016
92	0xbddd568b	-0.108075224
93	0xbe050503	-0.12990193
94	0xbd1c2fda	-0.038131572
95	0x3bbcdccd	0.005763626
96	0x3d441671	0.047872964
97	0x3d4159ae	0.047204666
98	0x3af0552a	0.0018335928
99	0x3c2b82a5	0.01046816
100	0x3dbf498f	0.09340202
101	0x3dfd9ac9	0.123830386
102	0x3d3cda8a	0.046106853
103	0x3d90b8db	0.070665084
104	0xbc92422f	-0.017853824
105	0xbcb81e86	-0.022475492
106	0xbd009e57	-0.031401005
107	0xbad805ae	-0.0016481185
108	0xbb041426	-0.002015361
109	0x3cf82d55	0.030295053
110	0xbd81e94f	-0.06343328
111	0xbdaf35bc	-0.08555171
112	0xbd104dbb	-0.03523038
113	0xbd88822a	-0.06665452
114	0xbd217bf0	-0.039424837
115	0x3d8ac47c	0.06775758
116	0x3a59ef01	0.00083135074
117	0xbd301ccc	-0.042996213
118	0xbb8aa4c4	-0.0042310674
119	0xbb045c71	-0.00201967
120	0xbdd7c90b	-0.10536393
121	0xbdb345f1	-0.08753575
122	0x3c71f2e1	0.0147673795
123	0xbd0620b8	-0.032746047
124	0xbcbd80f4	-0.023132779
125	0x3cc5806c	0.024109088
126	0x3ca83501	0.020533087
127	0x3b2043d2	0.0024454487
128	0xbcd5662d	-0.026049698
129	0xbcaa2bef	-0.020772902
130	0x3d11f227	0.035631325
131	0x3dc1f6f6	0.09470932
132	0x3d253311	0.040331904
133	0x3d1765d5	0.03696235
134	0xbc87418a	-0.016510744
135	0x3d6e0324	0.058108464
136	0xbacf1f3a	-0.0015802153
137	0xbca6abbe	-0.020345565
138	0xbcfdd03b	-0.030983081
139	0xbd053d7d	-0.032529343
140	0xbb5e7cc9	-0.003394889
141	0x3c59c7f8	0.013292305
142	0xbcac3808	-0.021022812
143	0xbd936a86	-0.07198052
144	0xbe0ddc5a	-0.13853589
145	0xbb9a6b09	-0.0047124666
146	0x3bcd775f	0.0062703337
147	0xbd525cde	-0.051358096
148	0xbcb0994b	-0.02155747
149	0xbb84e0a2	-0.0040550986
150	0xbc97ac67	-0.018514825
151	0x3d290297	0.041262235
152	0x3d9ad8f7	0.07560914
153	0x3c4a23fb	0.01233768
154	0xbdd9f934	-0.10643235
155	0xbc03ab06	-0.008036381
156	0xbd04ed23	-0.032452714
157	0xbddcd54b	-0.1078287
158	0xbd2c6b06	-0.042094253
159	0xbcc09f8f	-0.023513583
160	0x3d9beb2c	0.07613215
161	0x3d3e596f	0.04647201
162	0x3b866431	0.004101299
163	0x3d9372b1	0.0719961
164	0x3d140815	0.03614052
165	0xb9f04e0b	-0.00045834514
166	0xbcbce6f4	-0.023059346
167	0xba64f402	-0.000873387
168	0x3d27694b	0.0408719
169	0x3cfc73e2	0.030816976
170	0xbda26559	-0.07929487
171	0xbde09fe8	-0.10968
172	0xbd6a52b5	-0.05720778
173	0xbd6a30a9	-0.057175312
174	0x3d09bf72	0.033629842
175	0xbcdef376	-0.0272157
176	0xbc83b9bf	-0.016079782
177	0x3c824f7f	0.015907047
178	0x3cf21499	0.029550837
179	0x3c424e95	0.011859556
180	0x3e334ed0	0.17510533
181	0x3bdde8bf	0.0067721303
182	0xbdc4ca9d	-0.09608958
183	0xbdcc671c	-0.09980604
184	0xbc53ea09	-0.012934216
185	0x3da74eae	0.08169304
186	0x3d26bab0	0.040705383
187	0xbd11f5a8	-0.035634667
188	0x3be9c442	0.0071339915
189	0xba75b4d0	-0.00093729515
190	0x3d6a8a9c	0.057261094
191	0x3cec8212	0.028870616
192	0x3cb8bf7c	0.022552244
193	0x3b3f0ce0	0.0029151961
194	0xbc672e72	-0.0141101945
195	0xbd78c3b2	-0.060733505
196	0x3bcccc86	0.006249967
197	0x3d0d589b	0.03450833
198	0x3c99f88f	0.01879528
199	0x3d0e9556	0.034810387
200	0xbd6027ab	-0.05472533
201	0x3d3d0809	0.04615024
202	0x3d28a924	0.04117693
203	0x3c04718b	0.008083711
204	0xbcaa1348	-0.020761147
205	0x3d06143f	0.032734152
206	0xbd8c744d	-0.0685812
207	0xbd92eb03	-0.07173731
208	0xbc0e6373	-0.008690703
209	0xbd96b9ce	-0.07359658
210	0xbe32481a	-0.17410317
211	0xbde2d408	-0.11075598
212	0xbd37109e	-0.04469358
213	0xbd0c9108	-0.034318
214	0x3cbf8137	0.023377044
215	0xbc365973	-0.011129725
216	0xbd0ffbe0	-0.035152316
217	0x3c1fda31	0.009756611
218	0xbb68dd96	-0.0035532466
219	0xbd5799b2	-0.05263681
220	0xbe0d4454	-0.13795596
221	0xbdd52439	-0.104072995
222	0xbd426abe	-0.04746508
223	0x3cf97db2	0.030455444
224	0x3d89fa3e	0.06737183
225	0xbd20996b	-0.03920881
226	0xbcb39d11	-0.021925481
227	0x395d3952	0.00021097556
228	0x3d21856d	0.039433885
229	0xbc4f838d	-0.0126656415
230	0xbdf960aa	-0.1217664
231	0xbd66f359	-0.05638442
232	0xbd018d66	-0.03162899
233	0x3c242d2c	0.010020535
234	0xbbc22217	-0.005924474
235	0xbb8bcf7c	-0.0042666774
236	0xbd1b8c35	-0.03797551
237	0xbd1bb241	-0.038011793
238	0xbbc1d31b	-0.0059150583
239	0x3add9d89	0.0016907911
240	0x3dcf8434	0.101326376
241	0xbc44c827	-0.012010611
242	0xbd8d7e37	-0.06908839
243	0x3c761102	0.015018703
244	0x3e006757	0.12539421
245	0xbdb608c7	-0.08888393
246	0xbdc0e47b	-0.09418579
247	0x3d8efde0	0.069820166
248	0x3d886e08	0.06661612
249	0x3d21d10e	0.03950601
250	0x3ce7166c	0.028208934
251	0xbdace424	-0.08441952
252	0xbdbfa758	-0.0935809
253	0x3d7ba6cb	0.061438363
254	0x3e65443c	0.2238931
255	0x3d854e6d	0.06509099

model_trend.backbone.W_P.bias f4 [48]
0	0xbbb52225	-0.005527752
1	0x3b40f2ad	0.002944152
2	0x3cb6f7d5	0.022334972
3	0x3bbfee01	0.0058572297
4	0x3cadfcd6	0.021238726
5	0xbac900f7	-0.001533537
6	0x3a82a94e	0.000996867
7	0xbd4dc746	-0.05023887
8	0xb9d74db6	-0.00041065895
9	0xbb56e5d1	-0.003279079
10	0xbd95bcb2	-0.073113814
11	0xbc0feb41	-0.008784116
12	0xbd091f49	-0.0334771
13	0x3d2afc72	0.041744657
14	0xbc0a619e	-0.008446125
15	0x3cd762b6	0.026292186
16	0xbcb8c51d	-0.022554928
17	0x3c4dd798	0.012563609
18	0xbc4f748e	-0.012662066
19	0xbce693ae	-0.028146591
20	0x3d459cfe	0.048245423
21	0xbb994a39	-0.0046780375
22	0x3cd67125	0.026176998
23	0x3c0aa4ae	0.008462114
24	0xbcdceb20	-0.026967585
25	0xbca2a528	-0.019854143
26	0xbcccc2c6	-0.024995219
27	0x3c0db271	0.008648501
28	0xba8f5129	-0.0010934222
29	0xbbbb0173	-0.00570696
30	0xbc12616d	-0.008934361
31	0x3d1175a0	0.035512567
32	0x3d2c0523	0.041997086
33	0xbd449436	-0.047992907
34	0xbd05c50e	-0.03265863
35	0x3cf97f6f	0.030456273
36	0xbd38e665	-0.045141596
37	0xbca0df97	-0.019637866
38	0xbcdcd638	-0.026957616
39	0x3cfde2af	0.03099188
40	0xbd36bc51	-0.044613186
41	0x3c00002a	0.007812539
42	0xbd0b7163	-0.03404368
43	0xbacd0738	-0.001564241
44	0x3d9d40b5	0.076783575
45	0x3d78bb65	0.06072559
46	0xbc8f9fdc	-0.017532282
47	0x3cf3ea43	0.02977479

model_trend.backbone.encoder.layers.0.self_attn.W_Q.weight f4 [48, 48]
0	0xbc349f9b	-0.011024381
1	0x3b19b32b	0.002345274
2	0xbd0aac11	-0.0338555
3	0xbcbc33c9	-0.022973912
4	0xbb9419a2	-0.004519657
5	0x3d35f1eb	0.044420164
6	0x3c9e90ee	0.019356217
7	0x3c688d25	0.014193808
8	0x3c22caf2	0.009936081
9	0x3cc5b4f2	0.024134133
10	0x3cb499ba	0.022045959
11	0x3a90a13d	0.0011034381
12	0x3b1d2e9b	0.0023984078
13	0x3c4e684e	0.01259811
14	0xbcde6d3d	-0.027151698
15	0xbdaefbe3	-0.08544137
16	0x3b31dd76	0.0027140058
17	0x3d474c1e	0.048656575
18	0xbd2edebf	-0.042692896
19	0x3c963303	0.018334871
20	0xbd9f07f8	-0.07765192
21	0x3cbb4e77	0.022864563
22	0xbc9d2c84	-0.019186266
23	0xbc0286a7	-0.007966674
24	0x3d6f4ce7	0.05842295
25	0xbcfcb279	-0.030846821
26	0xbd8b6815	-0.068069614
27	0xbcaff410	-0.021478683
28	0x3d81f914	0.06346336
29	0x3d06487a	0.032783963
30	0xbcad99db	-0.021191528
31	0x3cce49f4	0.025181748
32	0xbd3d6878	-0.046242207
33	0xbba5d5e1	-0.0050608967
34	0x3993e5bf	0.000282092
35	0xbd2eacba	-0.042645194
36	0x3d2b7105	0.04185583
37	0xbd8e1ffc	-0.06939694
38	0x3d677290	0.05650574
39	0x3b757f32	0.0037459848
40	0x3aa27bd9	0.0012396529
41	0x3d074a68	0.033029944
42	0x3c87de29	0.016585426
43	0xbd379660	-0.044821143
44	0x3a536dd9	0.000806538
45	0xbd0e5474	-0.03474851
46	0xbc08d41b	-0.008351351
47	0xbd2feb93	-0.04294927
48	0x3d336c9f	0.04380476
49	0xbbcb1277	-0.0061972695
50	0x3d6078eb	0.054802816
51	0x3d4c88b0	0.049935043
52	0xbd0fae6b	-0.035078447
53	0xbdb2cbaf	-0.08730256
54	0xbcebcebe	-0.028785106
55	0xbc07a306	-0.008278614
56	0x3c7a049c	0.015259888
57	0xbd61f5ff	-0.05516624
58	0x3c1b1476	0.0094653275
59	0x3cd077ac	0.025447689
60	0xbbaf8a04	-0.005357029
61	0x3d09f73f	0.033683058
62	0x3d0f8413	0.035038065
63	0x3e039a0a	0.1285173
64	0x3c9e2032	0.019302461
65	0xbd9717b7	-0.0737757
66	0x3d1049d0	0.035226643
67	0xbd097622	-0.033559926
68	0x3e0b6d35	0.13615878
69	0xbbc5458b	-0.006020253
70	0x3c85f205	0.016350755
71	0xbc639a50	-0.013891771
72	0xbdc66001	-0.0968628
73	0x3cd42fce	0.025901701
74	0x3e25207b	0.16125672
75	0x3a255448	0.00063068094
76	0xbdc637f1	-0.09678639
77	0xb9df1ad2	-0.00042553857
78	0x3d4ddcb0	0.050259292
79	0xbc324e68	-0.010882951
80	0x3e015225	0.12628992
81	0x3cf26a59	0.029591726
82	0x3d041faa	0.03225676
83	0x3daadb67	0.08342629
84	0xbc1a09cc	-0.00940175
85	0x3dd96fb5	0.106170096
86	0xbd40ced0	-0.04707223
87	0xbd80789c	-0.062730044
88	0x3d099f4b	0.03359918
89	0xbcc1e2f9	-0.0236678
90	0xbdc18f97	-0.09451216
91	0x3dc1618b	0.09442433
92	0xbc066580	-0.00820291
93	0xbc4846ed	-0.012223941
94	0xbd5016e5	-0.050803084
95	0x3d8f9420	0.070106745
96	0xbcf43f6f	-0.029815404
97	0x3b1fe620	0.002439864
98	0xbbcdab72	-0.0062765414
99	0xbbefb74a	-0.007315551
100	0x3ae21541	0.0017248766
101	0x3d81e04d	0.0634161
102	0x3bd2a8e0	0.006428823
103	0x3c92a894	0.01790265
104	0xbcffd47a	-0.031229246
105	0x3c5f56c2	0.0136315245
106	0x3c9dd515	0.019266644
107	0xbd37b9de	-0.04485499
108	0xbc85d9ae	-0.01633915
109	0xbb3309a0	-0.002731897
110	0xbd7009cd	-0.058603097
111	0xbe0cf38b	-0.1376478
112	0xbc89e850	-0.016834408
113	0x3d0f0e55	0.034925777
114	0xbd5bd592	-0.053670473
115	0x3cb93415	0.022607842
116	0xbdced346	-0.10098891
117	0x3c84afdd	0.01619714
118	0xbd72c1a2	-0.059266694
119	0xbbda946e	-0.006670526
120	0x3dab5006	0.08364873
121	0x3b85f55a	0.004088086
122	0xbdab5226	-0.08365278
123	0xbc227431	-0.0099153975
124	0x3da45f3a	0.080259755
125	0x3d40b90b	0.04705147
126	0xbc9777b3	-0.018489694
127	0x3d48eb48	0.049052507
128	0xbda2ae15	-0.0794336
129	0xba3cdd19	-0.0007204577
130	0x3bc2dc26	0.005946654
131	0xbc0ae1cb	-0.008476685
132	0x3d201733	0.039084624
133	0xbd28f6f5	-0.04125114
134	0x3d75cc86	0.060009502
135	0x3c41ee3d	0.011836586
136	0x3b050d90	0.0020302273
137	0x3ce67f60	0.028136909
138	0x3d177d5e	0.036984794
139	0xbce714bb	-0.028208127
140	0x3cf431a8	0.029808834
141	0xbc8cd914	-0.017193355
142	0x3cb769e2	0.022389356
143	0xbd87d0d9	-0.066316314
144	0x3d55c955	0.05219396
145	0x3bba6b25	0.005689042
146	0x3d5d2e68	0.053999335
147	0x3d6b4a4b	0.0574439
148	0xbbe0cd2b	-0.0068603954
149	0xbde36d8c	-0.11104879
150	0xbc39a1a2	-0.01133004
151	0xbb68f924	-0.003554889
152	0x37cee605	2.4664225e-05
153	0xbd57857e	-0.052617542
154	0xbbc20f94	-0.005922267
155	0x3ca8bcb1	0.020597788
156	0xbcb53449	-0.022119658
157	0x3d1ef39a	0.038806535
158	0x3d4f3b7f	0.05059385
159	0x3dfd6e1b	0.123745166
160	0x3cc856d9	0.024455475
161	0xbda318a8	-0.07963687
162	0x3d61b916	0.055108152
163	0xbc3190dd	-0.010837761
164	0x3dff0db4	0.124537855
165	0xbc94d78e	-0.01816919
166	0x3c0a28c3	0.00843257
167	0x3a0cded9	0.0005373783
168	0xbdc3ffc3	-0.09570267
169	0x3d118235	0.035524566
170	0x3e1447a0	0.14480448
171	0x3cf8a6e4	0.030353017
172	0xbdf253f6	-0.118324205
173	0xbcaa7313	-0.020806825
174	0x3ca6539e	0.020303544
175	0xbbe09997	-0.006854247
176	0x3de425fb	0.11140057
177	0x3d062979	0.032754395
178	0x3d787572	0.06065888
179	0x3db2a53e	0.08722924
180	0xbd62ff58	-0.055419296
181	0x3dea6b15	0.114462055
182	0xbd686180	-0.05673361
183	0xbd0e8045	-0.034790296
184	0x3d50269b	0.050818067
185	0xbc02b486	-0.00797761
186	0xbdb1a1e4	-0.08673456
187	0x3d4a8b64	0.04944934
188	0xbc4ffa17	-0.012693903
189	0x3cca2b03	0.024678713
190	0xbd126503	-0.035740864
191	0x3d8747ac	0.06605467
192	0x3ce5e109	0.028061407
193	0xbc8e2f73	-0.01735661
194	0x3c0186f1	0.007905708
195	0x3d354124	0.044251576
196	0xbc6c5749	-0.014425107
197	0xbd3fa84d	-0.046791364
198	0xbd082201	-0.033235554
199	0x3c894e0a	0.016760845
200	0xbbb3ff62	-0.0054930905
201	0xbc96f673	-0.018428063
202	0xbba544fd	-0.0050436244
203	0x3c8da935	0.017292598
204	0x3bb1c260	0.0054247826
205	0x3c32dd9d	0.010917095
206	0x3add7cfd	0.0016898211
207	0x3da6f383	0.08151915
208	0x3cf731f5	0.030175189
209	0xbd27f1f3	-0.041002225
210	0x3d8265ba	0.06367059
211	0xbd266095	-0.04061945
212	0x3d84ca72	0.06483926
213	0xbc3ee0ca	-0.011650274
214	0x3bc64652	0.0060508633
215	0xbc9c99c7	-0.019116296
216	0xbdb323d0	-0.08747065
217	0x3c7f5751	0.015584783
218	0x3dad6608	0.084667265
219	0x3d23e640	0.040014505
220	0xbd3499f4	-0.044092134
221	0xbaafa508	-0.0013400624
222	0x3c9588c7	0.018253697
223	0xbc345712	-0.011007087
224	0x3d88cdaa	0.06679852
225	0x3cfdac2d	0.030965889
226	0xbba90c23	-0.0051589175
227	0x3d08e315	0.033419687
228	0xbd74cbdd	-0.05976473
229	0x3d356a45	0.0442908
230	0xbd78f58c	-0.060781047
231	0xbca34ecb	-0.019935032
232	0x3d04c7a4	0.032416955
233	0xbd0ecdaa	-0.034864105
234	0xbca71ea2	-0.020400349
235	0x3d448861	0.047981624
236	0xbbabbd8e	-0.0052411025
237	0x3bd75804	0.0065717716
238	0xbc179937	-0.009252838
239	0x3d10e8f7	0.035378423
240	0xbd165902	-0.03670598
241	0xbcc8c375	-0.024507264
242	0xbd36dcc3	-0.04464413
243	0xbc95cfbb	-0.01828753
244	0xbc376d4a	-0.01119549
245	0x3e1862a9	0.14881386
246	0x39b7a121	0.0003502453
247	0x3d18c6c9	0.03729895
248	0xbcab5d19	-0.020918416
249	0x3c8126e8	0.015765622
250	0x3c8f29ce	0.017475989
251	0xbd66b336	-0.056323253
252	0x3c1cb252	0.009563999
253	0xbcd09d31	-0.02546558
254	0xbd8f3333	-0.06992187
255	0xbe36499e	-0.1780152

model_trend.backbone.encoder.layers.0.self_attn.W_Q.bias f4 [48]
0	0x3cc50f29	0.02405508
1	0xbbe785ae	-0.0070654964
2	0x3cc2d892	0.02378491
3	0xbc1daa2b	-0.009623091
4	0xbc4d218d	-0.012520206
5	0x3cd77b34	0.026303865
6	0x3cafc517	0.021456284
7	0xbc5a874a	-0.0133379195
8	0x3c90f58a	0.017695207
9	0x3d03fda8	0.032224327
10	0x3b7e20a1	0.0038776773
11	0x3c9351e6	0.017983388
12	0x3bc5d397	0.0060371864
13	0x3d93e400	0.07221222
14	0x3d72e30a	0.059298553
15	0x3d8ec89f	0.06971859
16	0x3d0d80fa	0.03454683
17	0xbd0aa2ee	-0.033846788
18	0xbb4674ac	-0.0030281944
19	0xbd85e165	-0.06537131
20	0xbb8dcacd	-0.0043271543
21	0x3d410681	0.047125343
22	0x3d9551cc	0.07290992
23	0xbc09d387	-0.008412248
24	0xbcdc92a1	-0.026925387
25	0x3bde296b	0.0067798398
26	0xbcdc121a	-0.0268641
27	0xbbfb05b5	-0.0076605924
28	0xbb59ab84	-0.0033213804
29	0xb99534a5	-0.00028458718
30	0xbb1c3ab5	-0.0023838703
31	0xbc2e3043	-0.010631624
32	0x3cb98512	0.02264646
33	0x3c787de1	0.015166731
34	0x3cce0bde	0.025152143
35	0x3b41f8d0	0.0029597767
36	0xbcb5f034	-0.022209264
37	0x3c3675c8	0.01113648
38	0x3d1c2042	0.0381167
39	0xbc2c9676	-0.01053392
40	0xbb889fbd	-0.004169433
41	0x38090cf8	3.2675423e-05
42	0x3c026273	0.007958042
43	0x3b6bfb9f	0.0036008132
44	0x3b5d107c	0.003373175
45	0xb8b50767	-8.632131e-05
46	0x3c88528b	0.016640922
47	0x3c874030	0.0165101

model_trend.backbone.encoder.layers.0.self_attn.W_K.weight f4 [48, 48]
0	0x3be4a6cb	0.006977891
1	0x3cde08a0	0.027103722
2	0x3cbf46c0	0.023349166
3	0x3ba75c57	0.0051074433
4	0xbb95924b	-0.0045645586
5	0x3bcc390a	0.0062323855
6	0x3cd24e59	0.025672125
7	0x3b95d450	0.0045724288
8	0x3d084300	0.03326702
9	0x3c46c119	0.012130999
10	0x3d2697c7	0.04067209
11	0x3cd94a00	0.026524544
12	0x3cff7f9c	0.031188779
13	0x3d533b24	0.051570073
14	0x3b99b7a5	0.0046910816
15	0x3caedc65	0.021345327
16	0x3cab0ad9	0.020879196
17	0xbd24fa80	-0.040277958
18	0x3d29ff83	0.04150344
19	0x3b8ea379	0.0043529836
20	0x3d13a4b4	0.036045745
21	0xbb875f06	-0.0041312007
22	0xbccea173	-0.02522347
23	0x3c90ba82	0.017667059
24	0xbc05ecff	-0.00817418
25	0x3c290f4e	0.01031859
26	0x3ca5e48a	0.020250577
27	0x3ce33f01	0.027740004
28	0x3ba0747a	0.0048966976
29	0xbc19b22a	-0.0093808565
30	0x3d7103ff	0.0588417
31	0xbb35efd0	-0.0027761348
32	0x3c66d999	0.014089965
33	0x3c986a6a	0.01860543
34	0xbd5053e9	-0.050861273
35	0x3cd23608	0.02566053
36	0x3cabb4b0	0.020960182
37	0x3d34ea18	0.04416856
38	0xb9f4502c	-0.0004659904
39	0xbd880738	-0.06642002
40	0x3d9b84b8	0.075936735
41	0xbd55764f	-0.05211478
42	0xbd01c735	-0.03168412
43	0xbc8f76fa	-0.017512787
44	0xbcff3692	-0.03115395
45	0xbcfb44cf	-0.030672459
46	0xbc0ca190	-0.008583441
47	0xbc2481bf	-0.0100406995
48	0xbc47dc7a	-0.012198562
49	0xbd782f94	-0.06059225
50	0xbb95fe91	-0.004577466
51	0xbcbc1bd4	-0.022962488
52	0x3d0a9969	0.03383771
53	0xbd2106f0	-0.039313257
54	0xbc0eab9f	-0.00870791
55	0xbd29b788	-0.041434795
56	0x3ca8973c	0.020579927
57	0x3c365ada	0.011130059
58	0xbcc1f415	-0.023675958
59	0xbc98e2f4	-0.018662907
60	0xbbf4443c	-0.0074544232
61	0xbc87e511	-0.01658872
62	0xbcb40229	-0.021973686
63	0x3d5fc103	0.05462743
64	0xbce09ee8	-0.027419522
65	0x3c8901fa	0.016724575
66	0xbd0414a6	-0.032246254
67	0xbcc447ef	-0.023960082
68	0xbb468a08	-0.0030294675
69	0x3cfb80d5	0.03070108
70	0x3d0f95f5	0.03505512
71	0x3cf2b955	0.029629389
72	0xbd2e7e0d	-0.04260068
73	0x3c245092	0.010028975
74	0x3d37661d	0.044775117
75	0xbd40df64	-0.047088042
76	0xbceffd2f	-0.029295532
77	0x3caa7c9c	0.020811372
78	0xbc98e37a	-0.018663157
79	0xbca19d14	-0.019728221
80	0x3c22fde4	0.009948228
81	0x3d042214	0.032259062
82	0x3d25efa8	0.040511757
83	0xbca55484	-0.020181902
84	0xbccf58b8	-0.02531086
85	0xbbb13914	-0.0054084156
86	0xbcedac70	-0.029012889
87	0x3d236cfd	0.03989886
88	0xbd608901	-0.054818157
89	0x3d73e5cf	0.059545334
90	0xbcd6e8f4	-0.026234128
91	0x3ba9a55a	0.005177182
92	0x3cbbb1e5	0.022911975
93	0x3d3b2b1c	0.04569541
94	0x3c99c1f6	0.018769246
95	0x3cb6de2b	0.022322735
96	0xbc94d809	-0.01816942
97	0x3c58340d	0.013196004
98	0x3d3671dd	0.044542182
99	0x3cd8bba3	0.02645666
100	0xbb9cd9f7	-0.0047867256
101	0xbce7aa88	-0.028279558
102	0x3c1e43a9	0.009659686
103	0x3ccbee20	0.02489382
104	0x3c3647c1	0.011125506
105	0x3ac4631d	0.0014983151
106	0x3cec31e7	0.028832389
107	0x3d006caf	0.03135365
108	0xbb3b47fc	-0.0028576842
109	0x3d90c7da	0.07069369
110	0x3b1aff7d	0.0023650818
111	0x3d3d517b	0.046220284
112	0x3cfbb8ca	0.030727763
113	0xbd93fe0d	-0.07226191
114	0x3d6c2460	0.057651877
115	0xba5e0d12	-0.00084705756
116	0x3d8ba26d	0.0681809
117	0xbd391449	-0.04518536
118	0xbc3ec2f8	-0.011643164
119	0x3ccafefe	0.024779793
120	0x3c1dc8c6	0.009630388
121	0x3cbbef84	0.022941358
122	0x3ba4a673	0.005024725
123	0x3d8a870e	0.06764041
124	0xbcd29275	-0.025704602
125	0xbcb33b2b	-0.0218788
126	0x3db60208	0.08887106
127	0xbc097f59	-0.008392178
128	0x3cb62be4	0.022237726
129	0x3cba7494	0.022760667
130	0xbd8ff7f5	-0.07029716
131	0x3c3de014	0.011589069
132	0x3d21040b	0.039310496
133	0x3d900d94	0.0703384
134	0x3c668e35	0.014071991
135	0xbd8d213c	-0.068911046
136	0x3da9e1ab	0.08294996
137	0xbd8a4069	-0.067505665
138	0xbd279f56	-0.04092344
139	0xbc8cfff6	-0.017211895
140	0xbc972463	-0.018449968
141	0xbd3f0462	-0.04663504
142	0xbac0b664	-0.0014702794
143	0x3cada542	0.021196965
144	0xbd11d347	-0.03560188
145	0xbd63b813	-0.05559547
146	0xbc976f11	-0.018485578
147	0xbb7eacef	-0.00388604
148	0x3d786181	0.060639862
149	0xbca6d54c	-0.02036538
150	0x3c944c22	0.01810271
151	0xbd09c622	-0.03363622
152	0x3d142eb3	0.03617735
153	0x3b70db42	0.0036751782
154	0xbcd382e6	-0.025819253
155	0xbc9f7e1a	-0.01946931
156	0xb8e6d214	-0.00011006385
157	0xbcf83e93	-0.030303275
158	0x3a0ac01b	0.0005292908
159	0x3c8c0f50	0.017097145
160	0xbce668c2	-0.028126124
161	0x3d4f4771	0.05060524
162	0xbd5bddb0	-0.053678215
163	0xbd122eb4	-0.03568907
164	0xbcbf7642	-0.02337182
165	0x3d3ffc15	0.046871264
166	0x3ce27067	0.027641488
167	0x3ca4224f	0.02003589
168	0xbbf80fc0	-0.007570237
169	0x3a850fee	0.0010151842
170	0x3d029a47	0.03188541
171	0xbd486ec8	-0.048933774
172	0xbc77aa2b	-0.015116255
173	0x3d1aa937	0.037759032
174	0xbd3b235f	-0.04568803
175	0xbb3b3f32	-0.0028571603
176	0x3c2d06f7	0.010560743
177	0x3cd5bf56	0.026092213
178	0x3d78dcc1	0.060757402
179	0xbc00b2e7	-0.007855154
180	0xbcd80c7b	-0.026373139
181	0xbc5d6fba	-0.013515407
182	0xbc1909b4	-0.009340692
183	0x3d1f4c1d	0.038890947
184	0xbcd066d6	-0.025439661
185	0x3d4b0040	0.049560785
186	0xbc0ce760	-0.008600086
187	0xbbb9717d	-0.005659281
188	0x3d109dfd	0.03530692
189	0x3c8783a8	0.01654227
190	0x3d1907f2	0.037361093
191	0x3d10dd7f	0.035367485
192	0xbc2eea19	-0.01067593
193	0xbccb892e	-0.024845686
194	0xbcaf87dc	-0.021427087
195	0xbc4e870f	-0.012605443
196	0x3cb36505	0.021898756
197	0x38f15b65	0.00011508799
198	0xbc36fc48	-0.011168547
199	0xbc35c298	-0.011093758
200	0xbcc21523	-0.02369172
201	0xbc43b3ee	-0.011944754
202	0xbc7e4762	-0.015519949
203	0xbd1d920d	-0.038469363
204	0x3be98fe5	0.0071277493
205	0xbc8a9c7a	-0.016920317
206	0xbd38b04f	-0.045090016
207	0x3cd4d131	0.025978656
208	0x3baf4602	0.0053489218
209	0x3cd8145b	0.026376894
210	0xbd1274c7	-0.0357559
211	0xbb082ec0	-0.0020779818
212	0xbd53b0ce	-0.051682286
213	0x3c878071	0.016540738
214	0x3cb961ce	0.022629645
215	0xbc30da93	-0.0107943
216	0x3bfef69f	0.0077808644
217	0xbc83002e	-0.015991297
218	0x3c9bb9cd	0.019009495
219	0xbd06fe15	-0.032957155
220	0xbbc6ea45	-0.0060704076
221	0x3c692b76	0.014231553
222	0xbd00cdfe	-0.03144645
223	0xbc2319b6	-0.00995486
224	0x3cf578c9	0.029964821
225	0xbbff0a40	-0.0077832043
226	0x3cef9482	0.029245619
227	0xbc413a55	-0.011793693
228	0xbcbf0fcb	-0.02332296
229	0xbc9e39ef	-0.019314734
230	0xbd05b978	-0.03264758
231	0x3cb8b59b	0.022547534
232	0x3a5bab13	0.0008379679
233	0xbaf07155	-0.0018344322
234	0x3be7b670	0.007071309
235	0xbc7065b3	-0.0146726845
236	0x3c6e058a	0.014527688
237	0xbb96f36d	-0.0046066553
238	0x3ca525aa	0.020159561
239	0x3cddfcb1	0.027098032
240	0x3ca8cfae	0.020606842
241	0x3d90a46f	0.07062613
242	0x3d2aef21	0.041731957
243	0x3d8e96e5	0.069623746
244	0xbd861ecf	-0.06548845
245	0x3a2f8145	0.0006694983
246	0xbcc53018	-0.024070784
247	0x3d4dab6f	0.05021232
248	0xbcf8af91	-0.030357154
249	0xbd27c32c	-0.040957615
250	0x3da987ce	0.08277856
251	0xbca9cc3d	-0.020727271
252	0xbd30956f	-0.04311126
253	0x3d9f045e	0.07764505
254	0x3bb47095	0.005506585
255	0x3cefc9ec	0.029271089

model_trend.backbone.encoder.layers.0.self_attn.W_K.bias f4 [48]
0	0xbcbbefc0	-0.02294147
1	0x3c4b2e7d	0.01240122
2	0xbe0f9888	-0.1402303
3	0x3d921948	0.07133728
4	0x3dcf9541	0.1013589
5	0xbe1de93c	-0.15421003
6	0xbd4b6cbd	-0.049664248
7	0xbdf0b410	-0.11753094
8	0x3d44eb97	0.04807624
9	0xbd2dc0d4	-0.042420223
10	0xbde00f5d	-0.1094043
11	0xbcc66d30	-0.024221987
12	0x3d22a1fe	0.03970527
13	0x3d7552fc	0.059893593
14	0xbcc20111	-0.02368215
15	0x3d6b2485	0.057407875
16	0xb70b85a8	-8.316165e-06
17	0xbdb8a221	-0.09015299
18	0x3c5ff2b1	0.013668702
19	0x3cebd066	0.028785896
20	0x3caea3e9	0.021318393
21	0xbc97967a	-0.01850437
22	0xbd84ea9a	-0.06490059
23	0xbe147002	-0.14495853
24	0x3db81688	0.089886725
25	0xbcb7d9bd	-0.022442693
26	0xbd3f7d12	-0.046750136
27	0x3bdeff68	0.006805349
28	0xbc8181a8	-0.015808895
29	0x3e238f1a	0.15972558
30	0x3d2dfc98	0.04247722
31	0xbd718045	-0.058960218
32	0xbc0a313c	-0.00843459
33	0xbe0df745	-0.13863857
34	0xbdab5271	-0.08365334
35	0x3c95d510	0.018290073
36	0x3d2915e2	0.041280635
37	0xbce6de46	-0.02818216
38	0xbbf87ec7	-0.0075834724
39	0x3c3e3591	0.011609451
40	0x3dbb825c	0.091557235
41	0xbd1b8af3	-0.03797431
42	0x3c03c7ef	0.008043273
43	0xbcb7bcf7	-0.022428973
44	0xbd086299	-0.033297155
45	0x3caf6573	0.02141068
46	0x3b8bddc7	0.0042683813
47	0xbe1d85ef	-0.15383123

model_trend.backbone.encoder.layers.0.self_attn.W_V.weight f4 [48, 48]
0	0x3dab834d	0.08374653
1	0x3da45d32	0.08025588
2	0x3da9bf9c	0.082885
3	0x3d91c8af	0.071183555
4	0xbc81118e	-0.015755441
5	0x3d0a76d3	0.033804726
6	0xbcb63208	-0.022240654
7	0x3d289761	0.04115999
8	0xbd8e2712	-0.06941046
9	0xbe054dc1	-0.13017942
10	0x3d341f8f	0.04397541
11	0xbd0de032	-0.034637637
12	0xbdc2adbd	-0.09505794
13	0x3db05ddc	0.08611652
14	0xbcff17ed	-0.031139338
15	0xbd0195b1	-0.031636897
16	0x3d91e0fb	0.0712299
17	0xbdb2f61f	-0.0873835
18	0x3e060bc6	0.13090429
19	0x3c90acd4	0.017660536
20	0x3c948d98	0.018133923
21	0xbdc73346	-0.097265765
22	0xbe0ac0ec	-0.13550156
23	0xbdae28c2	-0.08503868
24	0x3df34f2d	0.11880336
25	0x3da167b5	0.07881109
26	0xbd0850d5	-0.033280212
27	0x3da0cd2b	0.07851633
28	0x3d29481a	0.041328527
29	0x3e020109	0.12695707
30	0x3d54fe6f	0.05200046
31	0x3cef9735	0.029246906
32	0xbd948b7c	-0.07253167
33	0xbdd283b5	-0.102790274
34	0x3d723777	0.059134927
35	0x3cdd61c3	0.027024155
36	0x3e0241c6	0.12720403
37	0x3cc5e3a2	0.024156395
38	0x3d5f5211	0.054521624
39	0xbdb95ab0	-0.090505004
40	0x3d913499	0.0709011
41	0xbda69f85	-0.08135895
42	0x3c3d328a	0.011547694
43	0x3ceb7c1e	0.028745707
44	0xbd998f83	-0.07498076
45	0xbdc79dc3	-0.097468875
46	0x3d098f97	0.033584204
47	0x3c20fe9f	0.009826331
48	0x3d811bc6	0.063041255
49	0x3c8adddc	0.016951494
50	0xbd5ce8e0	-0.053933024
51	0xbc229105	-0.009922271
52	0xbca377b1	-0.019954534
53	0x3ca7f0b3	0.020500517
54	0x3dd0666d	0.10175786
55	0xbd49fe4e	-0.04931479
56	0x3c2ef56e	0.010678632
57	0xbc98ad8d	-0.018637443
58	0x3a8b7d39	0.0010642178
59	0x3be78a06	0.007066014
60	0xbc9170ae	-0.017753925
61	0x3cabfe1d	0.020995194
62	0x3dc2be49	0.0950895
63	0xbbc9be0e	-0.0061566895
64	0x3c671f43	0.0141065745
65	0xbd0ab2b0	-0.033861816
66	0x3d4f1079	0.05055282
67	0x3d780f47	0.060561445
68	0x3c219835	0.009862949
69	0xbd540e91	-0.051771704
70	0xbd9f9207	-0.077915244
71	0xbbaa2b10	-0.0051931217
72	0x3d57f4cb	0.052723687
73	0xbc1f0ec3	-0.009708109
74	0xbcd90f9d	-0.026496703
75	0xbc605811	-0.013692872
76	0x3d80877f	0.06275844
77	0xbb83e067	-0.0040245536
78	0x3dc2329b	0.094823085
79	0xbcafaedb	-0.021445682
80	0xbd99933e	-0.07498787
81	0xbd808f91	-0.06277383
82	0xbd9fb6aa	-0.07798512
83	0xbd4a4701	-0.04938412
84	0x3d327837	0.043571677
85	0xbc294ce3	-0.010333273
86	0x3d9d3870	0.0767678
87	0xbcd91240	-0.02649796
88	0x3aabb3bd	0.0013099831
89	0x3cbcec8c	0.023062013
90	0x3cecadb0	0.028891414
91	0x3c2a8577	0.010407797
92	0xbd39e0b0	-0.045380294
93	0xbd18f351	-0.03734142
94	0xbc95c4a0	-0.018282235
95	0x3d0a1083	0.033707153
96	0x3e28ab7e	0.16471669
97	0x3e1ddc5a	0.15416089
98	0x3da423c4	0.08014634
99	0x3daded18	0.08492488
100	0xbe044c35	-0.12919696
101	0x3db2f57e	0.0873823
102	0xbbbe8c72	-0.005815082
103	0x3dad17d0	0.084518075
104	0xbdfbe14f	-0.122988336
105	0xbe2ce8a9	-0.16885628
106	0x3de1cfa0	0.110259295
107	0xbd058ab9	-0.032603
108	0xbe12f56e	-0.14351436
109	0x3d687359	0.05675063
110	0xbd5f8ded	-0.05457871
111	0xbc9e9245	-0.019356856
112	0x3e083925	0.13303049
113	0xbdf20bd3	-0.118186615
114	0x3e0f72ae	0.1400859
115	0x3ddb3397	0.10703199
116	0xbc90fb04	-0.017697819
117	0xbe270241	-0.16309454
118	0xbdfe561e	-0.12418769
119	0xbde0bb7a	-0.10973258
120	0x3e1075bc	0.14107412
121	0x3dce789c	0.10081598
122	0xbc08a518	-0.008340143
123	0x3debac53	0.115074776
124	0x3d8a920c	0.067661375
125	0x3dfcd9ac	0.12346205
126	0x3daf3836	0.08555643
127	0x3e09ae2c	0.13445348
128	0xbe04f6aa	-0.1298472
129	0xbe19a725	-0.15005167
130	0x3d6db2f7	0.058032002
131	0xbae54d7c	-0.0017494406
132	0x3e1a3167	0.15057908
133	0xbd41f1f9	-0.047349904
134	0x3df6f3b6	0.12058203
135	0xbe1d0db8	-0.15337265
136	0x3dcadb7a	0.09905143
137	0xbdf06e5f	-0.117398016
138	0x3d9b9cc6	0.075982615
139	0x3de55510	0.11197865
140	0xbe0c3591	-0.13692309
141	0xbe0c2be9	-0.13688625
142	0xbd182230	-0.03714198
143	0xbd59316a	-0.05302564
144	0x3e1bca51	0.15213896
145	0x3df15404	0.11783603
146	0x3d438085	0.047729988
147	0x3d9b86bc	0.07594058
148	0xbdceee5f	-0.101040594
149	0x3d8d99c0	0.06914091
150	0x3c4eb222	0.012615712
151	0x3d455d67	0.04818478
152	0xbdcef6b0	-0.10105646
153	0xbe08eb49	-0.13371004
154	0x3d739b4b	0.05947427
155	0xbd30efd8	-0.043197483
156	0xbdafa728	-0.085768044
157	0x3d625315	0.055255014
158	0xbd4f02dd	-0.05053984
159	0xbcbb12d0	-0.022836119
160	0x3dac1c65	0.08403853
161	0xbdc5d193	-0.09659114
162	0x3e1f53d7	0.15559326
163	0x3ddf8a90	0.109151006
164	0xbc61c93a	-0.013780886
165	0xbe0bef61	-0.13665535
166	0xbddcbcc7	-0.10778194
167	0xbdd4a708	-0.10383421
168	0x3de4deb1	0.111752875
169	0x3dd72854	0.10505739
170	0xbc4c4adc	-0.01246902
171	0x3dd697cf	0.10478174
172	0x3d81854e	0.06324254
173	0x3db3fde3	0.087886594
174	0x3da00541	0.07813502
175	0x3dca1872	0.09867944
176	0xbe07c866	-0.1326004
177	0xbe07e132	-0.13269499
178	0x3cc5fcaf	0.02416834
179	0x3c3e3640	0.011609614
180	0x3e247223	0.16059165
181	0x3adef1d2	0.0017009324
182	0x3d99b37b	0.07504936
183	0xbe309060	-0.17242575
184	0x3dcd4c64	0.10024336
185	0xbd9b1df6	-0.07574074
186	0x3dbe65c8	0.09296757
187	0x3da3f89e	0.08006404
188	0xbdfa750e	-0.12229358
189	0xbdb3e427	-0.08783751
190	0xbd14e1f1	-0.036348287
191	0xbd2564e3	-0.040379416
192	0x3de26c66	0.110558316
193	0x3d9db723	0.07700946
194	0x3cf593f6	0.02997778
195	0x3d324639	0.043524
196	0xbcddae27	-0.027060581
197	0x3d5db2c4	0.054125562
198	0x3d16e3a5	0.036838192
199	0x3be4aa5a	0.0069783153
200	0xbd127deb	-0.035764616
201	0xbd9ced3d	-0.07662437
202	0x3d480d11	0.048840586
203	0x3cf7a879	0.030231701
204	0xbd8343ff	-0.064094536
205	0x3d7c35c1	0.0615747
206	0x3cd671cc	0.02617731
207	0xbc028b4a	-0.007967779
208	0x3d626e3c	0.05528091
209	0xbdc42217	-0.095768146
210	0x3dfcf3a2	0.12351157
211	0x3d4263fa	0.047458626
212	0xbbabd730	-0.005244158
213	0xbdd1bf87	-0.10241609
214	0xbda4e99d	-0.08052371
215	0xbd8d1e95	-0.06890599
216	0x3dc56878	0.096390665
217	0x3dcbb439	0.09946484
218	0xbca95167	-0.020668698
219	0x3d0d5b39	0.034510825
220	0x3d497062	0.049179442
221	0x3d6c51ad	0.05769508
222	0x3d8fefb3	0.07028141
223	0x3d1b1146	0.03785827
224	0xbdbea270	-0.09308326
225	0xbdbdc4e6	-0.09266071
226	0xbd445932	-0.047936626
227	0x3c8ade1d	0.016951615
228	0x3d8f5a6f	0.06999671
229	0xbc738f28	-0.014865674
230	0x3d86113b	0.06546255
231	0xbde18c77	-0.1101312
232	0x3d41868c	0.047247455
233	0xbc5f6cf9	-0.013636821
234	0x3d153f65	0.03643741
235	0xbc46902e	-0.012119336
236	0xbd8326b1	-0.06403864
237	0xbde83658	-0.1133849
238	0xbc5229ca	-0.012827346
239	0x3ac24e94	0.0014824443
240	0xbdbe4d1b	-0.092920505
241	0xbdbf21c4	-0.09332612
242	0xbd757d66	-0.059934042
243	0xbd43e9a5	-0.047830243
244	0x3d181ae4	0.03713502
245	0xbd7bd52c	-0.061482593
246	0x3c86c4b1	0.016451212
247	0xbc765d7d	-0.015036938
248	0x3d8e18e6	0.06938343
249	0x3dd4e099	0.10394401
250	0xbd02c5f1	-0.031927053
251	0x3c42ce1a	0.011889959
252	0x3da4eca8	0.08052951
253	0xbd9f8983	-0.077899
254	0x3c590c70	0.013247594
255	0x3c7a5e5e	0.015281288

model_trend.backbone.encoder.layers.0.self_attn.W_V.bias f4 [48]
0	0x3c4df2ee	0.012570126
1	0xbbbcc6b5	-0.0057609924
2	0x3c3f93c5	0.011692946
3	0x3c8a5854	0.016887821
4	0x3be97da1	0.007125572
5	0xbbe56863	-0.0070009693
6	0x3bf45450	0.00745634
7	0x3b96f6c4	0.0046070535
8	0x3c446954	0.011988003
9	0xbbdbe4fb	-0.006710646
10	0xbc319a35	-0.0108399885
11	0x3b81837a	0.003952441
12	0x3c1c9558	0.009557091
13	0xbc4edf3a	-0.012626464
14	0x3b1d41a5	0.0023995426
15	0x3ccda828	0.025104597
16	0xbcdfb699	-0.027308749
17	0x3c8adadb	0.016950062
18	0xbcacff2d	-0.021117771
19	0x3c5d7034	0.013515521
20	0x3cb6102d	0.02222451
21	0x3c9978d9	0.018734382
22	0xba917cf7	-0.0011099864
23	0xbcc78da2	-0.024359528
24	0xbba1d298	-0.004938435
25	0x3c5a02c1	0.013306321
26	0xbcbfa38d	-0.023393417
27	0xbc816567	-0.015795423
28	0xbc05a328	-0.008156575
29	0x3c9b4e93	0.018958366
30	0x3bb67419	0.005568039
31	0xbd08e89d	-0.033424962
32	0xbcafa366	-0.02144022
33	0xbaa7c9b6	-0.0012801203
34	0xbd26b021	-0.040695313
35	0xbd9b66e5	-0.07587985
36	0xbd121078	-0.035660237
37	0x3caa4652	0.020785484
38	0x3c1363ec	0.008995991
39	0x3d5094f0	0.050923288
40	0x3d8dfd59	0.06933088
41	0xbc5b2627	-0.013375795
42	0x3cdfa091	0.027298244
43	0x3c95bdf2	0.01827905
44	0xbad775c2	-0.0016438293
45	0x3b1b6d37	0.002371622
46	0xbba92e9c	-0.005163027
47	0x3c025e98	0.007957123

model_trend.backbone.encoder.layers.0.self_attn.to_out.0.weight f4 [48, 48]
0	0xbd954027	-0.07287627
1	0xbd22f489	-0.03978399
2	0xbd7661d8	-0.060151905
3	0xbd9ff258	-0.07809895
4	0xbdd2f72b	-0.1030105
5	0x3d6cc62b	0.057806175
6	0xbd614c8e	-0.05500465
7	0xbd558521	-0.052128915
8	0xbd7e4068	-0.06207314
9	0x3d6b9714	0.057517126
10	0x3d86451f	0.065561526
11	0xbd5f4d48	-0.05451706
12	0x3cb20736	0.021731954
13	0xbc83f180	-0.016106367
14	0x3c2026c9	0.009774872
15	0xb96ae3f3	-0.00022400897
16	0xbcca3f0e	-0.02468827
17	0x3cb23de2	0.021758024
18	0xbd2b7f53	-0.041869473
19	0x3a530338	0.0008049491
20	0x3714f32a	8.8781035e-06
21	0x3c6c732e	0.014431758
22	0x3ced13d3	0.028940117
23	0xbd282b1c	-0.041056737
24	0x3d8eed7f	0.069788925
25	0xbe2dfb86	-0.1699048
26	0xbde6598e	-0.1124755
27	0xbde0228c	-0.10944089
28	0xbe668040	-0.22509861
29	0xbba88267	-0.0051424983
30	0x3c9afc09	0.018919008
31	0x3e52ea92	0.20597294
32	0x3ca06e06	0.019583713
33	0xbdd7d236	-0.105381414
34	0xbcce5b98	-0.02519016
35	0xbdd4a6bd	-0.10383365
36	0x3cdc4ead	0.026892984
37	0xbd9ce9f0	-0.076618075
38	0x3d6fe42c	0.05856721
39	0xbd504779	-0.05084941
40	0xbcb3862d	-0.021914566
41	0xbb00fee1	-0.001968317
42	0xbdaf6ad0	-0.08565295
43	0x3cfb8f15	0.030707875
44	0xbd9f1eaf	-0.07769524
45	0xbc94c82c	-0.018161856
46	0x3df2e44d	0.11859951
47	0x3d9367ee	0.071975574
48	0xbd004c1b	-0.03132258
49	0xbce244fe	-0.027620789
50	0x3b9b5192	0.0047399485
51	0x3a6e7bf1	0.0009097448
52	0xbc080513	-0.008301991
53	0x3cdce8e4	0.02696652
54	0xbccebd87	-0.025236858
55	0xbc717d6f	-0.014739378
56	0xbc35ed54	-0.011103947
57	0x3d079bab	0.03310744
58	0x3c9624a1	0.018328013
59	0xbc42e3ed	-0.011895162
60	0xbd0ccaef	-0.03437322
61	0x3c300ef3	0.010745752
62	0xbcb0cecb	-0.021582982
63	0x3d7be2d2	0.06149561
64	0xbd641a0b	-0.0556889
65	0x3d24aa77	0.04020163
66	0xbd368327	-0.04455867
67	0x3ca3903c	0.019966237
68	0x3d0c2d8f	0.034223136
69	0x3cf7840e	0.030214336
70	0x3c384a45	0.011248176
71	0xbd3a1fc6	-0.045440458
72	0xbca0d0c4	-0.019630797
73	0x3d19222c	0.037386104
74	0x3d1ee804	0.038795486
75	0x3c935748	0.017985955
76	0x3d8da4e2	0.069162145
77	0x3d38e980	0.045144558
78	0x3d507804	0.050895706
79	0x3c6463ec	0.013939839
80	0xbd5d78cf	-0.05407029
81	0xba5256ce	-0.0008023799
82	0x3cfdd8fd	0.030987257
83	0x3cb86dff	0.022513388
84	0x3d944af6	0.0724086
85	0x3ba6ecca	0.0050941454
86	0x3d14cf3c	0.036330447
87	0xbca1e881	-0.019764187
88	0xbc9314e3	-0.017954296
89	0xbcb6a971	-0.022297593
90	0x3d0d9e35	0.034574706
91	0x3baa2d35	0.0051933774
92	0xbc344aaf	-0.011004134
93	0xbc5cacf1	-0.013468967
94	0xbbda12c9	-0.0066550714
95	0x3cd24100	0.02566576
96	0xbd849718	-0.06474131
97	0x3b7a52a4	0.003819623
98	0x3c1da6f8	0.009622328
99	0x3a9069b2	0.0011017828
100	0xbcb6eb01	-0.022328855
101	0xbc0a73a3	-0.0084504215
102	0xbd4c3734	-0.049857333
103	0xbd26720e	-0.040636115
104	0xbd4b289c	-0.049599275
105	0x3d80849d	0.06275294
106	0x3d6de263	0.058077227
107	0xbc2b7dfe	-0.010467051
108	0x3d318470	0.043339193
109	0xbdaf6f4f	-0.08566152
110	0x3e33dedf	0.17565487
111	0x3e3d76a4	0.18502289
112	0xbe716b91	-0.2357619
113	0x3df35aa8	0.11882526
114	0xbe6ddda6	-0.23229083
115	0x3e4a4263	0.19751887
116	0x3e2cecab	0.16887157
117	0x3e2e9aff	0.17051314
118	0x3d96180e	0.07328807
119	0xbe58b5f9	-0.21163167
120	0x3d8e8f9f	0.06960987
121	0xbdabed2a	-0.08394845
122	0x3b565d3f	0.0032709388
123	0xbc9d21a6	-0.019181084
124	0xbd89368e	-0.066998586
125	0x3d999d8c	0.07500753
126	0xbb96386f	-0.004584364
127	0x3dcca4f6	0.09992401
128	0x3b5a6bc5	0.0033328396
129	0xbbf22b2e	-0.0073904013
130	0x3c3b6209	0.011436948
131	0x3d8c07af	0.06837403
132	0x3dc9dea4	0.098569185
133	0xbe0b75bd	-0.13619132
134	0x3d96fcfd	0.073724724
135	0xbe2b3b06	-0.16721734
136	0xbe0969f2	-0.13419321
137	0x3d85f84a	0.06541498
138	0xbd81a614	-0.06330505
139	0x3d1490c9	0.03627089
140	0xbd5497fe	-0.051902764
141	0xbcdb7348	-0.026788369
142	0x3c3cbde7	0.011519886
143	0x3d59ce85	0.053175468
144	0xbcff97a1	-0.031200232
145	0x3d367c53	0.04455216
146	0x3d33dd77	0.043912377
147	0xba886c3d	-0.0010408234
148	0xbc2a504e	-0.010395123
149	0xbc7c3446	-0.015393322
150	0xbc3de135	-0.011589338
151	0x3d1b12c8	0.037859708
152	0xbc905590	-0.017618924
153	0x3ced46d6	0.028964441
154	0x3b6aeca5	0.0035846618
155	0xbcf9b950	-0.030483872
156	0x3d4af7a0	0.04955256
157	0xbdd1e29b	-0.102483
158	0x3db36cbc	0.08760974
159	0x3d96b54b	0.07358798
160	0xbe0009f3	-0.12503795
161	0x3dee4c51	0.1163565
162	0xbdd5dc3f	-0.10442399
163	0x3df3d485	0.11905769
164	0x3d88f872	0.06688012
165	0x3da7c8e6	0.08192615
166	0xbd2260fb	-0.03964327
167	0xbdc18c90	-0.09450638
168	0x3ded6992	0.115924016
169	0xbe432750	-0.19057965
170	0xbe32cccd	-0.17460938
171	0xbdb383c3	-0.08765366
172	0xbe8900d5	-0.26758447
173	0xbda50c7c	-0.08059022
174	0xbd864765	-0.06556586
175	0x3e176227	0.14783536
176	0x3c228439	0.00991922
177	0xbd68d240	-0.056841135
178	0xbd1dac9b	-0.038494688
179	0xbdd283f0	-0.10279071
180	0x3ba022c6	0.004886958
181	0xbdfda29b	-0.1238453
182	0x3d7715b6	0.06032344
183	0xbcd49df9	-0.025954233
184	0x3c1af36f	0.009457453
185	0x3b386cc5	0.0028141004
186	0xbe1996e7	-0.14998971
187	0xbd146e08	-0.036237746
188	0xbcee8efd	-0.029120917
189	0xbd9542c3	-0.072881244
190	0x3e1ce2cd	0.15320893
191	0x3d784298	0.060610384
192	0xbc86b7c6	-0.016445052
193	0xbd117e9a	-0.035521127
194	0xbd9615fd	-0.07328413
195	0xbd761785	-0.060081024
196	0xbd1a6161	-0.037690524
197	0x3cb5471f	0.02212864
198	0xbd465dcb	-0.04842929
199	0xbd5815f4	-0.05275531
200	0xbd3e636e	-0.046481542
201	0x3d453acc	0.048151776
202	0x3d16294c	0.036660478
203	0xbd3d3aad	-0.046198536
204	0xbd83ad9c	-0.06429598
205	0x39ed386d	0.00045246203
206	0xbbf10771	-0.0073556234
207	0xbe1ce433	-0.15321426
208	0x3df1432f	0.117803924
209	0xbe138717	-0.14407001
210	0x3de791b6	0.11307089
211	0xbdf9939d	-0.12186358
212	0xbe0dfb8b	-0.13865487
213	0xbe10064d	-0.14064904
214	0xbb6c7e88	-0.003608616
215	0x3e1b3591	0.15157153
216	0xbcd153d7	-0.025552673
217	0xbb4ed94c	-0.0031562624
218	0x3dcace3a	0.09902616
219	0x3d503479	0.05083129
220	0x3da18b9c	0.078879565
221	0x3c75448a	0.014969954
222	0x3bf157ea	0.0073652165
223	0xbd6794ae	-0.056538276
224	0xbc33672a	-0.010949889
225	0x3d2bbee8	0.04193011
226	0x3e108c39	0.1411599
227	0x3e1760db	0.14783041
228	0x3e2a5d84	0.16637236
229	0x3d24973e	0.0401833
230	0xbab0b15c	-0.0013480592
231	0xbd8f277a	-0.069899514
232	0xbe0e0259	-0.13868083
233	0x3d50b468	0.0509533
234	0x3ccdbe2c	0.025115095
235	0x3bfa086c	0.0076303985
236	0x3c6fb753	0.01463111
237	0x3cbe3ac8	0.023221388
238	0xbcd263fb	-0.02568244
239	0xbd02db25	-0.031947274
240	0x3d9fea3b	0.07808348
241	0x3cfdcbce	0.03098097
242	0x3d12c003	0.035827648
243	0x3d1bddb8	0.038053244
244	0x3d647bd8	0.05578217
245	0xbd4592d1	-0.04823572
246	0x3d79e05b	0.061004978
247	0x3d4b19d2	0.04958517
248	0x3d83efba	0.064422086
249	0xbd6ab88e	-0.05730491
250	0xbd509e7e	-0.0509324
251	0x3d1ba546	0.037999414
252	0xbccd7539	-0.02508031
253	0x3d096df9	0.033552144
254	0xbd92f111	-0.07174886
255	0xbdee6907	-0.11641126

model_trend.backbone.encoder.layers.0.self_attn.to_out.0.bias f4 [48]
0	0x3cf47a62	0.029843513
1	0x3b512533	0.0031913042
2	0xbbed9241	-0.007250101
3	0x3a7bcbf6	0.00096052827
4	0x3d17829b	0.03698979
5	0xbd30f170	-0.043199003
6	0x3d65e40f	0.056125697
7	0x3c26a1fd	0.010170457
8	0xbd1e10c9	-0.038590226
9	0xb89bea5a	-7.434627e-05
10	0xbc763239	-0.015026622
11	0xbd99f194	-0.075167805
12	0x3c962603	0.018328672
13	0xbca42af2	-0.02004001
14	0xbd0401f6	-0.032228433
15	0xbcb1ecbb	-0.021719327
16	0x3d410c3a	0.0471308
17	0xbd23aa70	-0.039957464
18	0x3cd38938	0.025822267
19	0xbb7eab07	-0.0038859264
20	0xbd36d28e	-0.044634394
21	0xbb3c367e	-0.0028719003
22	0xbcd3564c	-0.025797985
23	0x3ceb5a08	0.028729454
24	0x3c9806c4	0.018557914
25	0xb5f855be	-1.8502394e-06
26	0x3c0b1604	0.008489136
27	0xbbfaeabc	-0.007657377
28	0xbb98b44c	-0.004660165
29	0x3d21614f	0.03939944
30	0x3d02c8d3	0.031929802
31	0x3c217875	0.009855379
32	0xbbcddd36	-0.006282474
33	0x3c9cb51f	0.019129334
34	0xbc797c7b	-0.015227432
35	0xbb129c7a	-0.00223711
36	0xbd71b9f4	-0.05901523
37	0x3cf0e8a2	0.029407803
38	0xbcb7f4dc	-0.022455625
39	0x3a6b0970	0.0008965945
40	0x3aa23d61	0.0012377911
41	0x3ae31d1a	0.0017327399
42	0xbba7b954	-0.0051185284
43	0x3c733fda	0.014846766
44	0x3c176fb3	0.00924294
45	0xbda9a9c9	-0.08284337
46	0xbb04c548	-0.002025919
47	0xb98755ee	-0.0002581323

model_trend.backbone.encoder.layers.0.norm_attn.1.weight f4 [48]
0	0x3f7151e1	0.9426556
1	0x3f8c1491	1.0943776
2	0x3f5e6969	0.86879593
3	0x3f62e7ac	0.88634753
4	0x3f5fa669	0.87363297
5	0x3f63c7c5	0.889767
6	0x3f688e79	0.90842396
7	0x3f769e4d	0.963353
8	0x3f667257	0.9001822
9	0x3f7cde23	0.98776454
10	0x3f6907ab	0.91027325
11	0x3f60d57b	0.87825745
12	0x3f686fca	0.90795577
13	0x3f4ce414	0.8003552
14	0x3f8219fc	1.016418
15	0x3f5e62d9	0.8686958
16	0x3f7c1b35	0.98479015
17	0x3f4f99b3	0.810939
18	0x3f8953da	1.0728714
19	0x3f745bfa	0.95452845
20	0x3f66c022	0.9013692
21	0x3f711924	0.94178987
22	0x3f69ec11	0.91375834
23	0x3f6a5a51	0.9154406
24	0x3f796d31	0.9743224
25	0x3f972521	1.1808206
26	0x3f86b282	1.0523226
27	0x3f4fae39	0.8112522
28	0x3f5795f6	0.842132
29	0x3f7e7abd	0.99406034
30	0x3f693737	0.91099876
31	0x3f7dfdbb	0.99215287
32	0x3f6cc11a	0.9248215
33	0x3f7603fe	0.9609984
34	0x3f8cd751	1.1003209
35	0x3f815df5	1.0106798
36	0x3f5fcc86	0.87421453
37	0x3f73ac90	0.95185184
38	0x3f63e2cf	0.8901796
39	0x3f6b207e	0.91846454
40	0x3f6bce4a	0.9211165
41	0x3f6da796	0.9283384
42	0x3f7123ea	0.94195426
43	0x3f808fad	1.0043846
44	0x3f5e4f71	0.8683997
45	0x3f7474d2	0.95490754
46	0x3f59ccc0	0.8507805
47	0x3f7c9e08	0.98678637
